test/test_results/triplets/results/model/model_epoch0345.tar (torch, 73684 bytes, 3 tensors)

fc.weight f4 [100, 41]
0.0033345527 2.4364004 2.2733142 2.6182826 2.5670915 2.5837567 2.480811 2.3474767
2.2670183 2.2105384 2.0379894 1.8887055 1.7780598 1.6821495 1.5793618 1.4630318
1.4308455 1.3156794 1.2489818 1.3073165 1.2366314 1.2147663 1.2279913 1.2540567
1.1932296 1.2575603 1.2087257 1.2135116 1.1472421 1.0312506 1.1331803 0.91033167
0.85004145 0.72501874 0.66089606 0.4812578 0.5288919 0.1621718 0.08549612 0.100771844
9.9480785e-05 0.0036564856 0.0014717841 -2.927125e-05 0.0032155283 0.0033267087 0.0015353074 0.0035198447
0.0010629031 0.0032228332 0.0020122237 0.0035941615 0.001307515 0.0004542541 0.0029822676 1.9523271e-05
-6.176866e-06 0.0030976918 8.4224026e-05 0.0008061978 0.0024234294 0.0016200065 0.0033040796 0.0025285175
0.0028251817 0.0006600378 0.0031727576 0.0026985412 0.0010754326 0.0025277839 0.0036423132 0.0019369253
0.0036618372 0.0004635027 0.0036238236 0.0036760066 0.0025794036 0.0027439424 0.0023348758 0.0012992228
0.0035828312 0.0021496292 0.00067235995 0.0017250087 0.0035654162 0.0031365224 0.0034476854 0.0036540614
0.0025549857 0.003668034 0.0017116421 0.0018357441 0.00069584546 0.0018112122 0.0033519082 0.0015270585
0.0024143604 0.0030887558 0.0019562487 0.00368156 0.0015450154 0.0016328094 0.0023043635 0.00054423127
0.003648624 0.0028051778 0.00029083635 0.0035622865 0.0032328514 0.0027324453 0.002562117 0.0030325833
0.0027074383 0.00065844954 0.0031849102 0.0032611294 0.0015074171 0.003189881 0.0035041126 -2.8444425e-05
0.0036184504 0.0025166057 0.0018584377 0.0035618797 0.0035040046 0.0020205749 0.0036516746 0.0003759029
0.0014719262 0.0036437705 0.0035514703 0.0021926276 0.0022138853 0.002442653 0.0025002635 0.003270492
0.002530427 0.0007187057 0.003472042 0.00048483023 0.0036608712 0.0031977452 0.0018298709 0.0015067633
0.0037168895 7.035474e-05 0.0033182804 0.0036018528 0.0010238097 0.0023941072 0.0014797279 0.0030626259
0.0022360983 0.0019397985 0.003410417 0.0036251696 0.0014936156 0.0033372275 0.003481425 0.003555631
0.0035326944 0.0035560327 0.0034757268 0.0013641593 0.0026689887 0.0028339075 0.0023087582 0.0032339033
0.003229628 0.0006312175 0.0030038776 0.0034804665 0.0036038612 0.0036333532 0.003251686 0.0024460645
0.00050824555 0.0023745287 0.0009868244 0.0033441053 0.0031624192 0.0019587402 0.002360465 0.0032266974
0.0015398855 0.0020724244 0.00364769 0.0031251882 0.0035260876 0.0030288813 0.0011072485 0.001524504
0.0009256527 0.0026341954 0.00075599656 0.0021996319 0.0015214663 1.8015198e-05 -3.6074256e-05 0.0015436801
-9.6109e-05 0.0026414308 0.003578851 0.0027022026 0.0013061594 0.0032437113 3.743173 3.4563148
3.022898 2.8809369 2.8056118 2.635702 2.4591048 2.2787955 2.2685943 2.105157
1.9902399 1.8754246 1.770218 1.7033467 1.592641 1.5817327 1.4699211 1.4465818
1.4341484 1.3899977 1.292936 1.3568645 1.2945067 1.1656933 1.1452321 1.0267
1.1218319 1.0334232 0.98616135 0.9829716 0.8417294 0.8576162 0.73659855 0.5884855
0.46376872 0.43907595 0.20478009 0.11171204 0.16328785 0.000267809 0.003612172 0.0032274292
0.0015606405 0.0026677384 0.0010789048 0.0013080084 0.0031943258 0.0033988329 0.002769634 0.0035747837
00000000: 8388 5a3b fced 1b40 fb7d 1140 f191 2740
00000010: 3a4b 2440 455c 2540 9cc5 1e40 0f3d 1640
00000020: d416 1140 7679 0d40 6b6e 0240 1ac1 f13f
00000030: 7797 e33f ad50 d73f 8728 ca3f a044 bb3f
00000040: f225 b73f 2f68 a83f a3de 9f3f 2656 a73f
00000050: f049 9e3f 767d 9b3f d22e 9d3f ee84 a03f
00000060: bfbb 983f bcf7 a03f 86b7 9a3f 5954 9b3f
00000070: d4d8 923f 0500 843f 0d0c 913f 7f0b 693f
00000080: 519c 593f d49a 393f 7c30 293f 6c67 f63e
00000090: 7665 073f 5d10 263e 9718 af3d 7861 ce3d
000000a0: 57a0 d038 a6a1 6f3b e1e8 c03a 888b f5b7
000000b0: 9dbb 523b e904 5a3b 5e3c c93a 32ad 663b
000000c0: 1c51 8b3a 2b36 533b 83df 033b 068c 6b3b
000000d0: ec60 ab3a f428 ee39 2672 433b e8c5 a337
000000e0: e042 cfb6 a502 4b3b 6ea1 b038 0557 533a
000000f0: 66d2 1e3b 6656 d43a 4289 583b 7cb5 253b
00000100: af26 393b 6306 2d3a 0aee 4f3b 02da 303b
00000110: 88f5 8c3a 2da9 253b e0b3 6e3b 6ee0 fd3a
00000120: 6ffb 6f3b 4802 f339 ac7d 6d3b 28e9 703b
00000130: 360b 293b b7d3 333b b704 193b af4a aa3a
00000140: efcd 6a3b cbe0 0c3b 5041 303a b019 e23a
00000150: c2a9 693b 1d8e 4d3b 90f2 613b fa78 6f3b
00000160: 8c71 273b 6663 703b 2e59 e03a 5a9d f03a
00000170: 6669 363a 3266 ed3a b0ab 5b3b 9527 c83a
00000180: 3f3a 1e3b b96c 4a3b 6834 003b 5446 713b
00000190: 1d82 ca3a fe03 d63a ce04 173b beaa 0e3a
000001a0: c11d 6f3b 13d7 373b 657b 9839 4075 693b
000001b0: 3fde 533b d312 333b 31e9 273b 4ebe 463b
000001c0: 476f 313b cd9b 2c3a edb9 503b acb8 553b
000001d0: 8694 c53a 530d 513b 41a5 653b f09b eeb7
000001e0: 8623 6d3b a3ed 243b d296 f33a 6d6e 693b
000001f0: 71a3 653b 9f6b 043b ef50 6f3b d514 c539
00000200: a6ed c03a 53cc 6e3b c9bf 683b 30b2 0f3b
00000210: d516 113b eb14 203b 76db 233b c055 563b
00000220: 85d5 253b 8667 3c3a 338b 633b d030 fe39
00000230: 3aeb 6f3b 4391 513b 47d8 ef3a 967e c53a
00000240: 0f97 733b 6a8b 9338 8277 593b 100d 6c3b
00000250: 5a31 863a 74e6 1c3b 6ef3 c13a 56b6 483b
00000260: 818b 123b d640 fe3a 4d81 5f3b 4194 6d3b
00000270: 6cc5 c33a 63b5 5a3b 9f28 643b 9705 693b
00000280: c784 673b 540c 693b 05c9 633b 97cd b23a
00000290: 33ea 2e3b 14b9 393b 894e 173b e5ef 533b
000002a0: 2ba8 533b 4a78 253a b4dc 443b 8a18 643b
000002b0: c22e 6c3b 8d1d 6e3b 3d1a 553b 274e 203b
000002c0: c83b 053a fb9d 1b3b 5558 813a c728 5b3b
000002d0: 9740 4f3b 355e 003b 08b2 1a3b 0077 533b
000002e0: fcd5 c93a 83d1 073b 150e 6f3b f5cf 4c3b
000002f0: ef15 673b 3280 463b 1821 913a ded1 c73a
00000300: 80a7 723a 77a2 2c3b 122e 463a b327 103b
00000310: f06b c73a 581f 9737 704e 17b8 4f55 ca3a
00000320: 208e c9b8 db1b 2d3b 288b 6a3b 7017 313b
00000330: 7033 ab3a 7294 543b 2590 6f40 4334 5d40
00000340: 2977 4140 4561 3840 258f 3340 57af 2840
00000350: f961 1d40 c9d7 1140 a630 1140 e4ba 0640
00000360: 2ec0 fe3f ea0d f03f 8196 e23f 4407 da3f
00000370: a9db cb3f 3876 ca3f 6026 bc3f 9829 b93f
00000380: 2d92 b73f 72eb b13f ed7e a53f bcad ad3f
00000390: 65b2 a53f 7035 953f f796 923f e86a 833f
000003a0: 3098 8f3f 3647 843f 1275 7c3f 07a4 7b3f
000003b0: 947b 573f bc8c 5b3f b991 3c3f fca6 163f
000003c0: 1873 ed3e 90ce e03e dfb1 513e 48c9 e43d
000003d0: ee34 273e b768 8c39 31ba 6c3b 4783 533b
000003e0: 688e cc3a 39d5 2e3b 0a6a 8d3a 7b71 ab3a
000003f0: e557 513b f4be 5e3b bf82 353b eb46 6a3b

exp_avg f4 [100, 41]
0.00011189538 3.0441408e-05 -7.2932206e-05 -0.00018170661 0.00015489974 0.00014574314 -0.0002912206 6.152721e-05
-0.0003018848 0.00044384622 -0.0007767122 -0.00031387107 0.00075434573 -0.00043950137 -0.00023127977 5.7860852e-05
-9.950345e-07 0.00013596148 -9.3159135e-05 -0.00063422334 -0.00036963375 0.00040557425 -0.00041282142 0.00058363186
-7.0198257e-06 6.080502e-05 -0.00087389105 -0.0001402629 0.00018887346 0.00038863093 -0.00086769415 0.00049411604
-7.809052e-05 0.0009636055 -0.0007036982 0.00083685515 -0.0011515117 0.0008665624 -0.0005405262 0.00018040411
0.00013340972 -1.9610738e-05 -0.0006498816 0.00019058662 -0.00025398415 0.000111538764 0.0001791501 8.014158e-05
0.00018398365 -0.00025337507 0.00017157846 5.3499167e-05 0.00018208817 0.00018923995 0.00013380915 0.00019008199
0.00019029257 0.00012765346 0.00018923325 0.00018578123 0.00016227947 0.00017787892 0.00011193855 -0.00042048717
0.00014630608 0.00018686551 -0.00025413904 0.00015018568 0.00018276335 -0.00042165606 2.2518589e-05 -0.0005680509
3.907351e-05 0.0001882103 4.0172905e-05 -7.097466e-05 -0.00041990227 -0.00035967317 0.00016334276 0.00018392071
2.3384699e-05 -0.00048460843 0.00018692945 0.00017588385 -0.00013146698 0.00012735254 8.1132464e-05 2.100674e-05
0.00015589438 2.1139065e-05 0.0001776083 0.00017388539 0.00018479403 0.0001753814 0.0001036431 -0.0006503776
0.0001615876 0.00012743688 0.00017111977 2.6437774e-06 0.00017814981 0.00017699701 -0.0004904532 -0.00084815914
1.5919522e-06 0.00014689466 0.00018903035 7.945556e-05 0.000119348646 0.00014961118 0.00015541774 -0.00030313732
0.0001478516 0.00018799944 0.00011996604 -0.00020889018 0.00017916955 0.00012152289 -0.00017029932 0.000192266
-4.3266897e-05 -0.0004167677 0.00017402634 6.832444e-05 -0.00013152478 0.00017007069 3.827649e-05 0.00018923753
-0.0006500299 2.0993997e-05 6.801421e-05 0.0001679329 -0.0004895279 0.000161349 0.00015850038 0.000120845616
0.00015857117 0.00018689582 -0.00013176298 -0.000848379 5.498741e-05 -0.00025442435 0.00017389371 -0.000650679
2.2863114e-06 0.00019066726 -0.00020882525 5.382784e-05 0.00018459655 0.00016208315 0.00017867978 0.00013459258
-0.00049112906 0.00017205917 0.000103132836 5.4887532e-05 0.00017992037 0.00011123114 8.196524e-05 8.047995e-05
5.5863908e-05 4.112535e-05 -9.436543e-05 0.00018424916 0.00015091039 -0.00035906886 0.00016642525 -0.00025485348
0.000111906396 0.0001875572 -0.00030412019 -0.00016847247 5.3960342e-05 5.4044147e-05 0.00011942908 0.0001581083
0.0001891735 0.00016244328 -0.0007442517 0.000102534366 0.00012805617 -0.0005660318 0.00016243798 0.0001191893
-0.0006499525 0.00017138371 -4.3386284e-05 0.00012722067 -9.882089e-05 0.00013382864 0.0001829584 0.00017774398
0.00018622036 0.00015606864 0.00018443425 0.00016921754 -0.0006501622 0.00019202082 0.00018925898 -0.0006486908
0.00018984907 0.00015236675 -4.158207e-05 0.000149392 0.00018579153 0.000120218036 -1.7992688e-05 -0.00012906501
-0.00034900982 0.00020165129 0.00018323463 -0.00034809654 2.108304e-05 -0.0005060191 0.00067004724 -0.0007971735
-0.0005149631 0.0009350864 -0.00045330028 -0.00037514465 7.9614445e-05 8.506058e-05 2.3145025e-05 -0.00014090145
-0.0006715102 -0.00058744854 0.0004605436 -0.00031962254 0.0006132108 -7.751718e-05 0.00030556155 -0.00092011906
-0.00016598309 0.00022978529 0.0004298858 -0.0007366745 0.0005963158 -0.00010505384 0.0008541995 -0.0006892665
0.00093097636 -0.001140565 0.0008894406 -0.0005243232 7.480537e-05 -0.00028351753 5.4235832e-05 0.000120631164
-0.00065028464 0.00015135927 -0.0007441157 0.00018209212 0.00012034533 -0.0001681733 -0.00036006718 -0.00013175794
00000000: 60a9 ea38 6d5c ff37 2ef3 98b8 7f88 3eb9
00000010: 956c 2239 a0d2 1839 f8ae 98b9 2b08 8138
00000020: 4b46 9eb9 08b4 e839 469c 4bba 108f a4b9
00000030: 49bf 453a e06c e6b9 b183 72b9 9eaf 7238
00000040: 208d 85b5 e290 0e39 6e5e c3b8 0242 26ba
00000050: 67cb c1b9 41a3 d439 f46f d8b9 dffe 183a
00000060: d88b ebb6 e508 7f38 d615 65ba 8913 13b9
00000070: 550c 4639 29c1 cb39 f875 63ba 9187 013a
00000080: 87c4 a3b8 789a 7c3a 6378 38ba 6660 5b3a
00000090: 52ee 96ba 052a 633a 19b2 0dba dc2a 3d39
000000a0: e6e3 0b39 bd81 a4b7 d15c 2aba 35d8 4739
000000b0: 2d29 85b9 ebe9 e938 3dda 3b39 af11 a838
000000c0: bceb 4039 6dd7 84b9 bee9 3339 4b64 6038
000000d0: ecee 3e39 b66e 4639 1f4f 0c39 bf50 4739
000000e0: 4689 4739 b7da 0539 ea6c 4639 45ce 4239
000000f0: 9029 2a39 0285 3a39 8dc0 ea38 d574 dcb9
00000100: bd69 1939 54f1 4339 f73d 85b9 297b 1d39
00000110: 2aa4 3f39 b811 ddb9 4de6 bc37 40e9 14ba
00000120: dde2 2338 515a 4539 547f 2838 3bd8 94b8
00000130: 5426 dcb9 8492 bcb9 fd46 2b39 d7da 4039
00000140: 422a c437 0b13 feb9 7e02 4439 766d 3839
00000150: 66da 09b9 f089 0539 a925 aa38 a137 b037
00000160: 9477 2339 cc53 b137 5d3c 3a39 0155 3639
00000170: 45c5 4139 96e6 3739 f75a d938 1a7e 2aba
00000180: d76f 2939 94a0 0539 9d6e 3339 c06b 3136
00000190: bacd 3a39 4698 3939 c291 00ba ff56 5eba
000001a0: 10ab d535 bc07 1a39 7336 4639 61a1 a638
000001b0: d14a fa38 f2e0 1c39 a2f7 2239 67ee 9eb9
000001c0: 9d08 1b39 b721 4539 4796 fb38 8809 5bb9
000001d0: 76df 3b39 1bda fe38 6092 32b9 039b 4939
000001e0: 7a79 35b8 9d81 dab9 d77a 3639 6849 8f38
000001f0: eae9 09b9 0155 3239 118b 2038 106e 4639
00000200: c566 2aba 441c b037 daa2 8e38 2517 3039
00000210: a953 00ba cb2f 2939 1f33 2639 7f6e fd38
00000220: 2046 2639 77f9 4339 db29 0ab9 c065 5eba
00000230: 48a2 6638 4264 85b9 3d57 3639 5492 2aba
00000240: 886e 1936 daed 4739 1af8 5ab9 34c5 6138
00000250: 4290 4139 ddf4 2939 fd5b 3b39 6c21 0d39
00000260: 1dbf 00ba c86a 3439 0549 d838 0a37 6638
00000270: 02a9 3c39 c344 e938 c1e4 ab38 58c7 a838
00000280: 6a4f 6a38 027e 2c38 0ee6 c5b8 0233 4139
00000290: b33d 1e39 6841 bcb9 7082 2e39 db9d 85b9
000002a0: 4aaf ea38 01ab 4439 5272 9fb9 fca7 30b9
000002b0: 7a53 6238 76ad 6238 0076 fa38 e0c9 2539
000002c0: e05c 4639 8955 2a39 e319 43ba b807 d738
000002d0: d146 0639 c061 14ba 1d54 2a39 45f5 f938
000002e0: 9361 2aba 77b5 3339 abf9 35b8 8a66 0539
000002f0: 103e cfb8 5a54 0c39 86d8 3f39 c960 3a39
00000300: 2644 4339 5ba6 2339 b164 4139 fd6f 3139
00000310: a66f 2aba 3259 4939 d273 4639 e70c 2aba
00000320: 3912 4739 a3c4 1f39 6868 2eb8 1ca6 1c39
00000330: 09d1 4239 911d fc38 01ef 96b7 a055 07b9
00000340: 4efb b6b9 5b72 5339 ac22 4039 ba80 b6b9
00000350: 7cdb b037 5ea6 04ba 1ca6 2f3a 68f9 50ba
00000360: 97fe 06ba 9620 753a efa8 edb9 10af c4b9
00000370: aef6 a638 8d62 b238 9027 c237 f2be 13b9
00000380: 4908 30ba 01ff 19ba 1e75 f139 0393 a7b9
00000390: e1bf 203a b890 a2b8 c733 a039 2534 71ba
000003a0: bf0b 2eb9 85f2 7039 4c62 e139 641d 41ba
000003b0: 1352 1c3a 5a50 dcb8 5cec 5f3a e4af 34ba
000003c0: c40c 743a 037f 95ba 5929 693a bc72 09ba
000003d0: d4e0 9c38 14a5 94b9 487b 6338 5dfb fc38
000003e0: dd77 2aba 32b6 1e39 c210 43ba fbef 3e39
000003f0: e861 fc38 ad57 30b9 66c7 bcb9 8128 0ab9

exp_avg_sq f4 [100, 41]
2.009953e-06 7.257538e-08 7.405925e-08 2.8953636e-07 4.9013175e-07 8.2919166e-07 1.4097876e-06 2.1417281e-06
2.9567077e-06 3.6137892e-06 4.0798495e-06 4.537777e-06 5.423201e-06 5.5931555e-06 6.199349e-06 7.190969e-06
7.483782e-06 7.3133165e-06 7.4249488e-06 7.969994e-06 8.771993e-06 8.941185e-06 8.975961e-06 9.499621e-06
9.2444925e-06 9.654223e-06 1.0457019e-05 1.05317e-05 1.053994e-05 9.560188e-06 1.02761005e-05 1.0830569e-05
1.0883984e-05 1.1534641e-05 1.0793073e-05 1.1145715e-05 1.0791481e-05 1.137982e-05 1.1544627e-05 1.4016472e-05
2.2617533e-05 2.0266243e-06 2.0490093e-06 1.9529987e-06 2.037998e-06 2.0060293e-06 1.9723834e-06 2.0070092e-06
1.9609276e-06 2.0305847e-06 1.972128e-06 2.0032253e-06 1.957669e-06 1.9433303e-06 1.985256e-06 1.941832e-06
1.9404472e-06 1.9955971e-06 1.9501203e-06 1.9614906e-06 1.9875342e-06 1.9757165e-06 2.005259e-06 2.0444443e-06
1.9952863e-06 1.962449e-06 2.0363868e-06 1.995355e-06 1.967324e-06 2.0444536e-06 2.0177374e-06 2.0506645e-06
2.0171187e-06 1.9582826e-06 2.0173713e-06 2.0295918e-06 2.047105e-06 2.0459736e-06 1.9994907e-06 1.9909326e-06
2.051296e-06 2.1318724e-06 1.9656802e-06 1.9794138e-06 2.0325708e-06 2.0029327e-06 2.012598e-06 2.01925e-06
1.9906354e-06 2.0175023e-06 1.97353e-06 1.9730194e-06 1.954765e-06 1.968408e-06 1.9944773e-06 2.0376585e-06
1.976611e-06 1.9893077e-06 1.9707177e-06 2.011361e-06 1.9663185e-06 1.9667066e-06 2.0387174e-06 2.0493069e-06
2.0178006e-06 1.9925094e-06 1.9532238e-06 2.0115904e-06 2.0026735e-06 1.9951924e-06 1.99074e-06 2.0380928e-06
1.994597e-06 1.9619363e-06 2.0023097e-06 2.0342598e-06 1.9730728e-06 2.0062657e-06 2.0406226e-06 1.9625163e-06
2.0460109e-06 2.0753612e-06 2.0672248e-06 2.0171665e-06 2.0330351e-06 1.9849917e-06 2.0194936e-06 1.9593201e-06
2.0510893e-06 2.0196267e-06 2.01503e-06 1.9859895e-06 2.0460595e-06 1.9893382e-06 1.990344e-06 2.0038449e-06
1.9901165e-06 1.9622225e-06 2.030969e-06 2.0518971e-06 2.015704e-06 2.0374378e-06 1.9789966e-06 2.0500154e-06
2.0196535e-06 1.9539702e-06 2.0345642e-06 2.015373e-06 1.9666068e-06 1.9857514e-06 1.9735535e-06 1.9987071e-06
2.043869e-06 1.9806698e-06 2.0072428e-06 2.013275e-06 1.974656e-06 2.0069554e-06 2.0123832e-06 2.0175348e-06
2.02629e-06 2.035466e-06 2.060828e-06 2.0498096e-06 1.996888e-06 2.045189e-06 1.9890049e-06 2.041002e-06
2.0068069e-06 1.9632303e-06 2.0407274e-06 2.0350385e-06 2.016261e-06 2.0162793e-06 2.0046436e-06 1.9903239e-06
1.9592817e-06 1.987325e-06 2.0504463e-06 2.0067646e-06 2.002295e-06 2.0495522e-06 1.987386e-06 2.0048253e-06
2.04963e-06 1.9823392e-06 2.0240768e-06 2.0002794e-06 2.0278615e-06 1.998529e-06 1.9670636e-06 1.972321e-06
1.9654392e-06 1.99173e-06 1.962231e-06 1.983443e-06 2.0482855e-06 1.95179e-06 1.9512156e-06 2.0515083e-06
1.9561407e-06 2.0037796e-06 2.0439793e-06 2.0270434e-06 2.0505825e-06 2.0078369e-06 1.4120418e-07 1.3978479e-07
5.969885e-07 8.594525e-07 1.3301546e-06 2.1236701e-06 3.1179218e-06 4.078111e-06 4.8906695e-06 5.283544e-06
5.88962e-06 6.9742264e-06 7.171603e-06 7.952952e-06 9.309974e-06 9.775889e-06 9.656682e-06 9.800373e-06
1.0296126e-05 1.1281559e-05 1.1617129e-05 1.1507273e-05 1.2430064e-05 1.198644e-05 1.24716535e-05 1.2531689e-05
1.23339205e-05 1.2460934e-05 1.1349107e-05 1.19138895e-05 1.23412265e-05 1.2157945e-05 1.310303e-05 1.2462153e-05
1.2748741e-05 1.2159799e-05 1.26730265e-05 1.27879675e-05 1.5853437e-05 2.3870665e-05 2.0191671e-06 2.0051166e-06
2.0511009e-06 1.993704e-06 2.051376e-06 1.9694419e-06 2.0030907e-06 2.0295674e-06 2.0377493e-06 2.0262082e-06
00000000: bbe2 0636 bdda 9b33 810a 9f33 9371 9b34
00000010: 9991 0335 9e95 5e35 ef37 bd35 9cba 0f36
00000020: da6b 4636 6d84 7236 a4e5 8836 3543 9836
00000030: f1f8 b536 d7ac bb36 0104 d036 f449 f136
00000040: 331d fb36 e964 f536 d323 f936 ddb6 0537
00000050: 6c2b 1337 1902 1637 7597 1637 9060 1f37
00000060: cb18 1b37 92f8 2137 8e70 2f37 4fb1 3037
00000070: b3d4 3037 b264 2037 8467 2c37 f1b4 3537
00000080: 5b9a 3637 e884 4137 e513 3537 7bfe 3a37
00000090: 0f0d 3537 f4eb 3e37 ccaf 4137 4a28 6b37
000000a0: c8ba bd37 2401 0836 b681 0936 4310 0336
000000b0: 8ac4 0836 529f 0636 4a5d 0436 28b0 0636
000000c0: 7b98 0336 2e45 0836 e758 0436 266f 0636
000000d0: 7f60 0336 296a 0236 703a 0536 6b50 0236
000000e0: a138 0236 19ec 0536 d0de 0236 27a2 0336
000000f0: 9461 0536 8d96 0436 1692 0636 4933 0936
00000100: c2e6 0536 9eb2 0336 dca8 0836 f0e7 0536
00000110: 5e06 0436 7233 0936 7768 0736 269e 0936
00000120: d65d 0736 0a6b 0336 2d62 0736 1f34 0836
00000130: ff60 0936 8f4d 0936 fd2e 0636 f69b 0536
00000140: ffa8 0936 4a11 0f36 21ea 0336 12d6 0436
00000150: 4d67 0836 1f6a 0636 2c10 0736 7382 0736
00000160: db96 0536 6d64 0736 fd70 0436 3768 0436
00000170: 9b2e 0336 fe18 0436 dcd8 0536 b5be 0836
00000180: eba5 0436 0c80 0536 ac40 0436 ebfa 0636
00000190: 18f5 0336 c3fb 0336 e6d0 0836 d386 0936
000001a0: 8d69 0736 0db7 0536 2114 0336 dcfe 0636
000001b0: ab65 0636 25e5 0536 a798 0536 2bc6 0836
000001c0: eada 0536 cfa9 0336 6b5f 0636 5184 0836
000001d0: 2269 0436 62a3 0636 a1f1 0836 c6b3 0336
000001e0: 334e 0936 6f46 0b36 a7ba 0a36 a85e 0736
000001f0: 476f 0836 e635 0536 a386 0736 dd7c 0336
00000200: 72a5 0936 ec88 0736 f439 0736 0a47 0536
00000210: 094f 0936 9280 0536 d991 0536 cb79 0636
00000220: f18d 0536 baae 0336 c84b 0836 53b3 0936
00000230: 8845 0736 eaba 0836 e7ce 0436 ff92 0936
00000240: 6289 0736 f420 0336 8c89 0836 d83f 0736
00000250: 0cfa 0336 f342 0536 6471 0436 8721 0636
00000260: 6729 0936 a6eb 0436 2bb4 0636 cd1b 0736
00000270: 5584 0436 3baf 0636 7b0c 0736 fc64 0736
00000280: 66fb 0736 0a99 0836 c14c 0a36 768f 0936
00000290: 4602 0636 1440 0936 d87a 0536 26f8 0836
000002a0: aeac 0636 0ac0 0336 6ef3 0836 b291 0836
000002b0: 1a4f 0736 6a4f 0736 8487 0636 8191 0536
000002c0: 347c 0336 fc5d 0536 669a 0936 f4ab 0636
000002d0: 2b5f 0636 0a8b 0936 085f 0536 a38a 0636
000002e0: 608c 0936 5408 0536 60d5 0736 8a3c 0636
000002f0: 6516 0836 771e 0636 e501 0436 375c 0436
00000300: fde5 0336 a9a9 0536 dfae 0336 4b1b 0536
00000310: 4775 0936 7ffb 0236 a1f1 0236 a5ac 0936
00000320: 3e46 0336 ac78 0636 4c2b 0936 5708 0836
00000330: bd9c 0936 60be 0636 e99d 1734 c017 1634
00000340: bd40 2035 20b5 6635 c487 b235 6084 0e36
00000350: 7d3d 5136 b5d6 8836 881a a436 4c49 b136
00000360: 739f c536 2604 ea36 9aa3 f036 ab6d 0537
00000370: 0932 1c37 2003 2437 2203 2237 486c 2437
00000380: 86bd 2c37 ed45 3d37 30e7 4237 5c0f 4137
00000390: b88a 5037 5e19 4937 583d 5137 323f 5237
000003a0: c9ed 4e37 4e0f 5137 0b68 3e37 c4e1 4737
000003b0: 2a0d 4f37 faf9 4b37 16d5 5b37 8a14 5137
000003c0: 6de3 5537 f001 4c37 3c9e 5437 e78b 5637
000003d0: fffc 8437 dd3d c837 0781 0736 a48f 0636
000003e0: a5a5 0936 93cb 0536 5faa 0936 c12a 0436
000003f0: d66c 0636 b433 0836 44c0 0836 fef9 0736
