test/test_results/triplets/results/model/model_epoch0110.tar (torch, 58708 bytes, 3 tensors)

fc.weight f4 [100, 41]
000000 96 9d 68 3b 1e ef a4 3f 2c 46 a7 3f e8 cc 91 3f
       0.003549432 1.2885473 1.306829 1.1390657
000010 02 e6 87 3f be d1 7f 3f 69 53 75 3f d6 34 68 3f
       1.0617068 0.99929416 0.958304 0.9070562
000020 db 24 61 3f 18 2a 64 3f 4e 3b 54 3f 50 58 4e 3f
       0.8794686 0.8912673 0.8290299 0.80603504
000030 1e 40 44 3f 02 b3 3e 3f 06 28 39 3f d0 c1 2e 3f
       0.76660335 0.74491894 0.72326696 0.68264484
000040 5a 92 2b 3f fe e6 25 3f f6 ea 1d 3f 4e 50 24 3f
       0.6702019 0.6480559 0.61686647 0.64185035
000050 19 16 1f 3f 99 27 1d 3f 07 a1 22 3f 4c b7 22 3f
       0.62143093 0.61388546 0.6352696 0.6356094
000060 07 a8 1e 3f 19 a6 20 3f 9d be 19 3f 76 6d 1b 3f
       0.6197514 0.62753445 0.6005648 0.607139
000070 b8 b1 15 3f ef a7 0c 3f 92 d2 0d 3f 66 eb f2 3e
       0.584743 0.54943746 0.5539943 0.4744522
000080 5b 84 de 3e e8 a1 c2 3e ef d5 aa 3e 6c e3 66 3e
       0.43460354 0.3801415 0.33366343 0.22547692
000090 0d c9 87 3e a1 a0 90 3d 35 af 42 3d 71 fd 2c 3b
       0.26520577 0.070618875 0.04753037 0.002639618
0000a0 80 92 56 39 b6 f5 66 3b 54 f5 84 3f b9 08 85 3f
       0.00020463206 0.003524167 1.0387368 1.0393287
0000b0 2b ec 6b 3f f9 d9 5d 3f c6 cd 46 3f cd e8 3f 3f
       0.9215724 0.86660725 0.77657735 0.749646
0000c0 d5 25 38 3f 7a c1 2c 3f 8b 30 23 3f b1 dd 21 3f
       0.7193273 0.6748272 0.63745946 0.632289
0000d0 c7 b2 1d 3f 18 f9 17 3f b2 8c 13 3f c8 53 11 3f
       0.6160092 0.5936446 0.5763656 0.56768465
0000e0 f6 8c 0b 3f 4f 09 05 3f 0d 0b f7 3e ca bb ef 3e
       0.54511964 0.5196733 0.4825062 0.4682296
0000f0 69 22 e4 3e 4a e5 dc 3e 1c e7 d6 3e c6 28 d1 3e
       0.44557503 0.43143684 0.41973197 0.4085142
000100 70 7a c3 3e d6 36 b6 3e 68 82 a9 3e bf d3 87 3e
       0.3817935 0.35588712 0.33107305 0.26528737
000110 6d ca 88 3e 0d 14 72 3e 93 7b 53 3e d2 74 64 3e
       0.2671694 0.23640461 0.20652609 0.22310188
000120 2c 12 3c 3e c7 42 48 3e f7 48 25 3e 58 5a ae 3d
       0.18366307 0.19556724 0.16141115 0.085133255
000130 4f 54 c5 3d 99 9b 7a 3d 25 ca c2 3d cc 0b 2a 3d
       0.09635221 0.061183546 0.09511212 0.041515157
000140 22 78 ab 3b 44 6c 2c 3a e2 81 a1 3a 9d 0e 74 3f
       0.005232827 0.0006577412 0.0012322033 0.953348
000150 79 93 74 3f d3 fa 65 3f 02 69 5a 3f 1a 4f 55 3f
       0.95537525 0.8983585 0.8531648 0.83323824
000160 61 1f 44 3f c1 c8 3e 3f 94 6f 36 3f c9 bd 2e 3f
       0.7661038 0.74525076 0.71264005 0.6825834
000170 91 a7 22 3f 32 59 1c 3f 2a d1 1a 3f 4c 67 15 3f
       0.63536936 0.610736 0.6047541 0.58360744
000180 61 4d 12 3f 89 20 0c 3f e9 8b 0d 3f 24 f0 0c 3f
       0.5714932 0.54737145 0.5529161 0.55053926
000190 25 84 08 3f ab 3f 05 3f 36 51 04 3f ea 0a ff 3e
       0.53326637 0.52050275 0.5168642 0.49813014
0001a0 ad ff 00 3f e9 19 ec 3e b2 46 e6 3e 96 14 e1 3e
       0.5039013 0.46113518 0.4497581 0.43961018
0001b0 d2 04 cb 3e 07 0b c3 3e 42 0e bb 3e 82 bd a8 3e
       0.39652115 0.3809435 0.36534315 0.32957083
0001c0 af 6c b1 3e 45 46 97 3e 57 5e 85 3e c1 f2 48 3e
       0.34653232 0.295458 0.26048538 0.19623853
0001d0 01 5c 4b 3e 7e d4 27 3e eb 25 06 3e 5c 3d 44 3d
       0.19859315 0.16389653 0.13100402 0.04791008
0001e0 fa 45 1e 3d 91 40 41 3b 20 94 1e b7 a0 db 73 3b
       0.038640954 0.0029487947 -9.452022e-06 0.0037209764
0001f0 78 18 13 3c 09 2f 8c 3b 81 fa a3 3c 20 64 90 3d
       0.008978002 0.004278068 0.02001691 0.07050347
000200 92 76 2c 3e 32 31 2f 3e 72 7d 60 3e 5c 3a 48 3e
       0.16842106 0.1710861 0.21922854 0.19553512
000210 2d 88 34 3e 76 0f 07 3e e6 89 b0 3d 74 b4 57 3d
       0.17630072 0.13189492 0.08620052 0.052662328
000220 89 be 80 3c 15 aa f8 3b ab c2 92 3b 41 7d 3c 3b
       0.015715854 0.0075886347 0.0044787726 0.002876118
000230 f8 ad 8f 3b 6e f7 42 3b 10 bf ac 3b 40 fa 99 3b
       0.0043847524 0.002974953 0.0052718 0.0046990216
000240 c5 72 2f 3b 05 af f9 3a de d8 87 3b c5 e3 2f 3b
       0.0026771289 0.0019049352 0.0041457256 0.0026838642
000250 c2 c6 e9 3a 48 c2 b7 b7 52 12 ed 39 a1 84 56 3b
       0.0017835724 -2.190577e-05 0.00045217812 0.0032732862
000260 50 c5 0f 3b 7a 0f a5 3a 75 9d 35 3b e5 31 55 3b
       0.0021937676 0.0012593113 0.002771226 0.003253096
000270 34 d1 4b 3b 09 d5 7d 3b bb fd 66 3b e1 5d 26 3b
       0.0031100037 0.0038731715 0.003524645 0.0025385546
000280 33 8e 6e 3b 5e 7d 9b 39 c7 2e 2a 3b fa f9 90 39
       0.0036400675 0.0002965731 0.0025967823 0.00027652067
000290 b6 70 4b 3b c7 c6 17 3c 19 c8 e1 3a 7d 6c 05 3e
       0.0031042523 0.009263701 0.0017225771 0.13029666
0002a0 25 4c 30 3e 75 a7 54 3e cc c7 56 3e 0a 93 66 3e
       0.17216547 0.20767005 0.20974654 0.22517028
0002b0 9a ac 6f 3e ab a6 49 3e be 24 27 3e 27 f5 0a 3e
       0.23405686 0.19692485 0.1632261 0.1357008
0002c0 8c 11 b5 3d 17 67 1e 3d b8 33 86 3b 54 08 41 3b
       0.088412374 0.038672533 0.004095521 0.0029454427
0002d0 82 23 c0 3a 04 40 83 3b 18 5c 25 3b d5 5e a6 3b
       0.001465902 0.004005434 0.0025231894 0.005077223
0002e0 7f d3 9f 3b a5 2d 12 3a f0 36 22 37 7e 0e 28 3b
       0.004877507 0.00055762596 9.668744e-06 0.0025643404
0002f0 c1 76 28 39 dc c6 b7 3a 05 dd 59 3b af d5 bd 3a
       0.00016065968 0.0014021057 0.003324331 0.0014483238
000300 f2 5e 67 3a ad 4d 34 3b 58 5b 92 3b 43 21 2e 3b
       0.00088260986 0.0027512119 0.0044664554 0.0026570118
000310 1c 6b 7d 3b 34 86 23 3b 8e 5f 06 3a ba f3 93 3b
       0.0038668578 0.0024951817 0.0005125933 0.0045151385
000320 83 5b 4d 3b 39 76 1e 3b 98 67 56 3b 0d 7c 65 3b
       0.0031335063 0.0024179353 0.0032715555 0.0035016567
000330 fc d8 34 3a cd 10 65 3b cf 67 bc 3f a5 f8 ba 3f
       0.0006898788 0.003495264 1.471918 1.460713
000340 54 ed 99 3f 90 a0 8f 3f 79 d1 85 3f fb 0d 80 3f
       1.2025552 1.1220875 1.0454551 1.0004267
000350 71 06 6c 3f 20 70 5a 3f 6d c0 62 3f 88 eb 58 3f
       0.9219733 0.8532734 0.8857487 0.8473439
000360 91 24 55 3f 6c 25 4a 3f 1a cd 44 3f 02 33 43 3f
       0.8325892 0.7896335 0.7687546 0.76249707
000370 88 d9 37 3f a3 1f 3b 3f 9a 46 32 3f da ee 30 3f
       0.718163 0.7309515 0.6963898 0.6911446
000380 c0 b5 33 3f 3f 41 30 3f 8c c6 26 3f 3b d2 2e 3f
       0.70199203 0.6884956 0.6514671 0.68289536
000390 c9 10 2e 3f bd 86 23 3f 27 48 1c 3f 42 b5 10 3f
       0.6799436 0.6387747 0.61047596 0.5652658
0003a0 11 25 1a 3f 9a 8d 0f 3f 1e 44 0e 3f 9c 87 0c 3f
       0.6021281 0.5607544 0.5557269 0.54894423
0003b0 79 77 f4 3e 1d e4 f2 3e 49 70 c6 3e 66 87 a3 3e
       0.477474 0.47439662 0.38757542 0.31939238
0003c0 43 8a 73 3e 8a b5 8f 3e c9 fc b9 3d bb 3f 80 3d
       0.23783211 0.2806819 0.09081418 0.062621556
0003d0 5e 43 fd 3a f7 1c 07 3a 94 16 74 3b 29 62 6c 3f
       0.0019322445 0.00051541574 0.0037244903 0.9233728
0003e0 2e c3 70 3f c5 43 5b 3f 24 03 54 3f 8c d6 45 3f
       0.9404782 0.85650283 0.8281729 0.772805
0003f0 6c c4 3a 3f fe 32 30 3f b8 52 2c 3f 92 d6 25 3f
       0.72955966 0.6882781 0.6731372 0.64780533

exp_avg f4 [100, 41]
000000 48 7b 63 38 56 19 b3 b8 04 34 7d b8 80 07 06 b8
       5.4235832e-05 -8.540104e-05 -6.0368344e-05 -3.1955075e-05
000010 20 4c b0 b8 cc 18 57 b9 e0 d5 a5 b9 09 72 a7 b9
       -8.4065134e-05 -0.00020513235 -0.00031630602 -0.00031937685
000020 ac eb 2b 39 fa f5 83 b9 80 0f 16 b9 11 aa 42 b9
       0.00016395625 -0.00025169534 -0.00014310889 -0.00018564636
000030 11 1b 83 b9 ad 19 09 ba 80 6b 44 ba 4a c7 7b 39
       -0.00025006433 -0.0005229961 -0.00074928254 0.00024011466
000040 03 bb e8 b8 00 49 ca 36 03 91 da 39 00 d0 12 ba
       -0.00011097456 6.0285674e-06 0.00041688242 -0.00056004524
000050 2e c9 60 b9 bc f3 22 ba 9d 8f ba 39 7e e2 2b ba
       -0.0002143725 -0.0006216129 0.00035583685 -0.0006556882
000060 b5 db 25 3a f2 83 1e ba 33 39 0b 3a fd fe fb b9
       0.00063269894 -0.0006046883 0.00053109525 -0.00048064432
000070 d8 6e c1 b9 bf bf 7d 39 2a 2c 95 b8 f9 3f 02 39
       -0.00036894414 0.00024199391 -7.1131e-05 0.00012421598
000080 fe 2a 2a ba 86 53 71 b9 9b 72 0a 3a 9c f7 b9 39
       -0.00064913917 -0.00023014666 0.000528136 0.00035470433
000090 00 06 d2 b8 ff 0e 8f 39 1c 0a c3 39 cb 34 21 3a
       -0.00010014698 0.00027286258 0.0003720083 0.00061495294
0000a0 5d f8 6c b9 a8 95 0a b9 ac c6 42 b8 51 40 02 b8
       -0.00022599236 -0.00013216457 -4.6438232e-05 -3.1054315e-05
0000b0 fa 81 a2 36 50 e4 1d b8 9e aa fa b8 d0 32 2e b9
       4.8431075e-06 -3.764435e-05 -0.00011952709 -0.00016612862
0000c0 bc 13 7f b9 d0 cc 35 39 ba 0c 16 b9 90 f7 ae b8
       -0.00024326047 0.00017337804 -0.00014309856 -8.343079e-05
0000d0 65 23 7a b8 ad 9d 41 b9 82 db a2 b9 b6 a8 0b ba
       -5.963761e-05 -0.00018464653 -0.00031062594 -0.0005327569
0000e0 16 92 88 39 a0 f0 19 b5 78 ca 87 38 08 a4 e3 39
       0.00026048784 -5.7347097e-07 6.4750144e-05 0.00043419027
0000f0 26 fe b3 b9 49 63 fd b8 13 7f d3 b9 80 92 ba 39
       -0.00034330896 -0.000120824734 -0.00040339734 0.00035585836
000100 d7 58 dd b9 90 17 27 3a ca 26 b1 b9 3c b9 05 3a
       -0.00042218596 0.00063740555 -0.0003378897 0.00051011494
000110 9f ff ba b8 e8 8f f2 b8 74 c5 93 39 56 8a 4e 38
       -8.916784e-05 -0.00011566264 0.0002818514 4.9243063e-05
000120 d5 a6 9e 39 6c de dc b9 e2 d3 a3 b8 52 c1 af 39
       0.00030260408 -0.00042127387 -7.811912e-05 0.00033522636
000130 60 66 be 39 e0 26 ae b8 1b 3c 8f 39 b0 d3 82 39
       0.000363159 -8.3042076e-05 0.00027319868 0.00024953252
000140 13 64 da 39 f2 6a a3 b9 c9 81 3f 39 11 32 c5 b7
       0.0004165476 -0.00031169463 0.00018263528 -2.3507544e-05
000150 d4 c9 91 b7 04 47 93 37 9e 39 de b7 4c c8 10 b9
       -1.737933e-05 1.7556835e-05 -2.6491292e-05 -0.00013807527
000160 92 7a 41 b9 c2 7b 60 b9 79 a3 21 39 d9 d8 1f b9
       -0.00018451575 -0.00021408408 0.00015415055 -0.00015244204
000170 4c 80 98 b8 7f 2e c0 b8 ea d8 36 b9 8b 42 b7 b9
       -7.271822e-05 -9.163934e-05 -0.0001743768 -0.00034954058
000180 42 d6 09 ba 4c 28 7e 39 75 b3 a4 b7 28 0d 66 38
       -0.0005258062 0.0002423834 -1.963389e-05 5.4848526e-05
000190 26 26 d1 39 58 9b d1 b9 b0 05 25 b9 b8 e8 e9 b9
       0.0003989201 -0.00039979327 -0.00015737745 -0.00044614612
0001a0 44 a2 ab 39 fc 0a ea b9 d2 62 17 3a 36 eb c2 b9
       0.0003273656 -0.00044640142 0.0005774918 -0.0003717781
0001b0 80 0b f3 39 5c bb 75 b9 98 2c 52 b9 1f c7 82 39
       0.0004635714 -0.00023434818 -0.00020043773 0.0002494389
0001c0 29 e5 21 38 e5 11 44 39 bc 98 e8 b9 54 26 12 b9
       3.8598813e-05 0.00018698683 -0.00044364284 -0.00013937923
0001d0 14 0e e1 39 c0 1f b0 39 fc e7 b8 b8 c0 bf a2 39
       0.00042925833 0.00033592992 -8.817014e-05 0.00031041913
0001e0 c4 dc 98 39 cf cc fc 39 9a 4e f1 39 80 f1 f9 35
       0.00029156182 0.0004821778 0.00046025665 1.8622231e-06
0001f0 30 8e c0 35 f5 09 30 39 be f7 29 39 b4 91 2d 39
       1.4346497e-06 0.00016788377 0.00016209387 0.00016552844
000200 4e 17 0d 39 d7 2e 0c 39 85 04 43 39 c3 f8 4b 39
       0.0001345549 0.0001336889 0.00018598333 0.0001945226
000210 7b 8f 25 39 46 d5 3f 39 9c f1 17 39 97 96 25 39
       0.00015789077 0.0001829463 0.00014490489 0.00015791725
000220 34 25 0d 39 29 92 14 38 5f c0 2a 39 a5 eb 00 ba
       0.00013460667 3.5422072e-05 0.00016284127 -0.0004917926
000230 77 a4 37 39 7b de d7 b9 7b 28 c1 b8 02 5d d4 b8
       0.00017513508 -0.00041173756 -9.210497e-05 -0.00010126272
000240 72 31 28 39 22 f8 57 39 19 04 0e b9 2f b3 79 b9
       0.00016040148 0.00020596434 -0.00013543702 -0.00023813242
000250 39 36 08 ba 41 a3 3c 39 8e 26 3a 39 13 0e 00 39
       -0.0005196068 0.00017989894 0.00017752705 0.00012212274
000260 4d 8b c4 b9 df c4 0f 39 d9 ce 58 b9 23 7c 04 39
       -0.0003748782 0.00013710883 -0.00020676422 0.00012634746
000270 e6 8f 2f 37 f8 aa 08 39 b4 60 00 39 ac d7 19 39
       1.0464317e-05 0.00013033662 0.00012243056 0.00014671561
000280 d2 3e 1f 38 fc b7 3c 39 0d cc 5e 39 c6 4e 54 ba
       3.796706e-05 0.00017997617 0.00021247585 -0.00080988964
000290 05 f1 05 39 e7 8b 1a 39 c2 4d 64 ba 25 c9 22 39
       0.00012773655 0.00014738702 -0.00087090966 0.00015524456
0002a0 78 5b 28 39 61 e1 e2 38 ba 82 f5 38 83 90 2c 39
       0.00016055803 0.000108185 0.0001170686 0.00016457033
0002b0 4f d1 54 39 4c 25 12 39 68 03 37 39 32 e1 14 39
       0.00020295869 0.00013937539 0.00017453509 0.00014198272
0002c0 82 23 19 39 8d ab c4 38 54 15 e5 38 e3 d0 11 ba
       0.00014604445 9.377962e-05 0.000109235436 -0.00055624376
0002d0 df 2f 30 39 7c a7 6b b8 50 7d 3b 39 31 c6 62 b9
       0.00016802501 -5.6184348e-05 0.00017880392 -0.00021626872
0002e0 76 48 e5 b8 c7 ae 5a ba e0 ed 62 39 6d 34 19 38
       -0.00010933068 -0.0008342084 0.00021641655 3.6526868e-05
0002f0 27 98 9e 39 c4 06 6c 39 f6 51 06 b9 f9 73 3b 39
       0.0003024947 0.00022509234 -0.00012809769 0.00017876913
000300 ab 13 3b 39 77 a9 1d 39 b8 4c 2c b9 04 c8 83 38
       0.00017841037 0.00015035817 -0.00016431778 6.2838226e-05
000310 c4 8a 57 b9 90 88 2f 39 af 1c 64 ba 82 6a 07 37
       -0.00020555692 0.00016740174 -0.0008701784 8.071425e-06
000320 37 01 30 38 52 f7 32 39 2a 6c c4 b9 ec 0b 50 39
       4.19628e-05 0.00017067537 -0.00037464622 0.00019840867
000330 7e 3f 56 39 68 49 8f 38 38 db da b8 09 f2 b6 b8
       0.00020432283 6.832444e-05 -0.00010435883 -8.723519e-05
000340 1c 0b 33 b8 f0 d5 f5 b8 28 f1 64 b9 67 3e aa b9
       -4.2687272e-05 -0.00011722359 -0.00021833612 -0.0003247142
000350 54 f4 ca b9 c1 fb 24 39 64 e1 8e b9 24 0e 43 b9
       -0.0003871048 0.00015734044 -0.0002725228 -0.00018601917
000360 37 a8 41 b9 df 12 96 b9 3a 69 10 ba 24 f2 4d ba
       -0.00018468579 -0.0002862429 -0.0005508844 -0.0007856211
000370 79 01 82 39 f3 d3 03 b9 80 9a 09 b8 ac d2 e4 39
       0.0002479663 -0.00012572091 -3.2807235e-05 0.00043644512
000380 57 7c 15 ba f6 83 59 b9 0c bb 38 ba 21 39 c3 39
       -0.0005702427 -0.00020743892 -0.0007046915 0.00037235863
000390 d6 2e 34 ba f7 cb 2e 3a ef ef 2f ba 9c 30 1e 3a
       -0.0006873434 0.00066679664 -0.0006711473 0.0006034465
0003a0 d9 2f ef b9 52 40 c9 b9 cf 56 75 39 7e aa a5 b8
       -0.00045621282 -0.0003838563 0.0002339736 -7.89957e-05
0003b0 5c fe 12 39 85 43 39 ba 43 77 87 b9 80 60 10 3a
       0.00014018401 -0.0007067251 -0.00025838063 0.00055075437
0003c0 1e 80 c6 39 aa 21 02 b9 56 ac 9e 39 d4 f3 c5 39
       0.00037860958 -0.00012410307 0.0003026451 0.00037756434
0003d0 f2 23 22 3a f4 a8 06 3a 79 82 a4 b7 49 c1 b6 b7
       0.0006185166 0.00051368703 -1.961108e-05 -2.1786096e-05
0003e0 d8 f9 da b6 69 af d0 37 d7 52 f3 b7 0a 87 06 b9
       -6.525992e-06 2.4877214e-05 -2.9006433e-05 -0.00012829542
0003f0 3a 46 28 b9 f2 b5 61 b9 2b cb 1c 39 67 bd 20 b9
       -0.0001604789 -0.00021525452 0.00014953005 -0.00015329347

exp_avg_sq f4 [100, 41]
000000 ed 61 07 36 74 88 d9 33 8b 81 d5 33 8c 10 97 34
       2.0173568e-06 1.01296706e-07 9.942149e-08 2.813798e-07
000010 7a a0 cd 34 a2 6c 1e 35 cb 39 5f 35 16 fa 89 35
       3.8300988e-07 5.901767e-07 8.3158073e-07 1.028008e-06
000020 5f f5 a8 35 fd 16 b5 35 e5 9c d2 35 49 e0 e5 35
       1.2588388e-06 1.3492241e-06 1.5691882e-06 1.7127105e-06
000030 a7 33 05 36 1b e5 10 36 57 6f 24 36 18 e7 36 36
       1.984861e-06 2.159103e-06 2.4502713e-06 2.7254628e-06
000040 17 ec 3d 36 23 f0 47 36 4f b3 49 36 2f 1f 51 36
       2.8300617e-06 2.9793089e-06 3.0055705e-06 3.1161578e-06
000050 fc 87 58 36 0e cc 62 36 b4 46 5a 36 6d 6c 76 36
       3.2265662e-06 3.37954e-06 3.2525686e-06 3.6719969e-06
000060 d7 19 7f 36 a4 a4 7f 36 95 0d 83 36 97 c1 6b 36
       3.8013002e-06 3.8093795e-06 3.9056854e-06 3.5130413e-06
000070 aa 99 88 36 94 97 7f 36 91 84 85 36 9a 63 91 36
       4.0710047e-06 3.808619e-06 3.9791416e-06 4.332932e-06
000080 1d 3f 9c 36 6b 24 9d 36 6b fa 92 36 ed 79 ab 36
       4.6565096e-06 4.683204e-06 4.3802916e-06 5.110391e-06
000090 87 60 aa 36 b0 c8 be 36 70 47 ba 36 22 a7 0d 37
       5.077632e-06 5.6858044e-06 5.5515484e-06 8.443169e-06
0000a0 17 9e b6 37 20 80 08 36 83 00 97 33 94 54 97 33
       2.1769707e-05 2.0340158e-06 7.0315785e-08 7.04687e-08
0000b0 bd 03 5a 34 cd 76 94 34 80 a2 e9 34 46 99 1e 35
       2.0304192e-07 2.7653587e-07 4.3517866e-07 5.908263e-07
0000c0 8d 00 46 35 94 bf 70 35 68 28 7e 35 10 73 8e 35
       7.376155e-07 8.968575e-07 9.468117e-07 1.0613312e-06
0000d0 81 8c 9b 35 8a 4e b2 35 da 9a c2 35 81 09 dd 35
       1.1589292e-06 1.3284891e-06 1.4499194e-06 1.6468549e-06
0000e0 81 ed f8 35 10 35 01 36 28 d6 07 36 d1 d8 09 36
       1.8546563e-06 1.9253384e-06 2.0241223e-06 2.0540795e-06
0000f0 b3 02 0d 36 1c ad 10 36 40 68 16 36 2d 45 10 36
       2.1012208e-06 2.1558435e-06 2.2412423e-06 2.1497938e-06
000100 cc 53 22 36 9f e0 24 36 c0 a2 21 36 a3 e8 1e 36
       2.4188657e-06 2.456865e-06 2.4085602e-06 2.3679247e-06
000110 c1 b5 0e 36 af d0 1e 36 ff b1 12 36 d9 1c 14 36
       2.1265444e-06 2.3665305e-06 2.1859303e-06 2.207051e-06
000120 b1 03 1c 36 b8 e3 23 36 2d 3e 23 36 85 a5 1a 36
       2.324796e-06 2.4421443e-06 2.4325084e-06 2.3044133e-06
000130 65 7e 2e 36 51 7c 2d 36 e0 f9 3f 36 d2 7d 47 36
       2.6001592e-06 2.585137e-06 2.8606664e-06 2.9726548e-06
000140 59 11 a4 36 ec 03 8d 37 3f 63 04 36 b9 db 85 33
       4.8896004e-06 1.6810336e-05 1.9727302e-06 6.2332624e-08
000150 3d 37 86 33 f6 d2 3c 34 a0 dd 83 34 eb 31 d0 34
       6.249909e-08 1.7585612e-07 2.4561905e-07 3.877934e-07
000160 1b 61 14 35 18 b5 3a 35 2f c8 65 35 ee dd 74 35
       5.5275603e-07 6.9553926e-07 8.5600453e-07 9.1220033e-07
000170 60 de 8c 35 6b 88 97 35 6e d5 ad 35 0e 56 bd 35
       1.0495532e-06 1.129008e-06 1.2951621e-06 1.4106643e-06
000180 5e 70 d5 35 ec 17 ef 35 58 0e f7 35 5a fb 02 36
       1.590244e-06 1.781385e-06 1.8407109e-06 1.9517815e-06
000190 d7 43 07 36 bc aa 0d 36 9f d6 12 36 f3 49 1a 36
       2.0156056e-06 2.1110018e-06 2.1880621e-06 2.2990832e-06
0001a0 a4 3e 16 36 37 62 28 36 71 42 2d 36 17 73 2b 36
       2.2388203e-06 2.509112e-06 2.5817683e-06 2.5547977e-06
0001b0 d7 d6 2e 36 cb b9 1d 36 2f 69 30 36 94 65 24 36
       2.6053074e-06 2.3502969e-06 2.6287269e-06 2.449703e-06
0001c0 32 52 28 36 54 ca 35 36 eb 78 41 36 87 79 3f 36
       2.5081795e-06 2.7088872e-06 2.8829625e-06 2.8531956e-06
0001d0 8d cf 31 36 49 87 4d 36 88 96 4e 36 84 c3 64 36
       2.6495866e-06 3.0626127e-06 3.0784013e-06 3.4088453e-06
0001e0 1d 84 64 36 37 95 b5 36 e2 59 90 37 75 dd 07 36
       3.4051548e-06 5.4115912e-06 1.7207993e-05 2.0245473e-06
0001f0 a6 6b d8 34 43 2c d5 34 fb a2 88 33 63 5a b8 33
       4.031146e-07 3.9706546e-07 6.3626395e-08 8.584609e-08
000200 48 96 12 34 90 0e 38 34 72 a9 7b 34 97 a7 92 34
       1.3651982e-07 1.7141633e-07 2.343784e-07 2.7316557e-07
000210 e0 70 9c 34 40 17 bc 34 68 49 b9 34 e3 43 d2 34
       2.9139392e-07 3.5034645e-07 3.4512345e-07 3.9164942e-07
000220 e0 25 d8 34 b6 63 41 35 34 c6 81 35 20 89 a7 35
       4.0260693e-07 7.20432e-07 9.668934e-07 1.2482378e-06
000230 10 02 b2 35 77 d7 cd 35 82 da cc 35 73 4c fa 35
       1.3262634e-06 1.5336399e-06 1.5262779e-06 1.8648701e-06
000240 0a 2e e6 35 9a 7f 03 36 2d 7a 0a 36 e3 aa 0f 36
       1.7149735e-06 1.9594795e-06 2.0634718e-06 2.140813e-06
000250 18 8b 00 36 7d 1b 02 36 ce 8f 0e 36 94 dc 0e 36
       1.915445e-06 1.938751e-06 2.1243354e-06 2.1288042e-06
000260 b8 ee 15 36 df 8f 00 36 38 01 13 36 50 5c 0c 36
       2.2341683e-06 1.915723e-06 2.1905416e-06 2.0915359e-06
000270 11 19 0d 36 6d b0 04 36 3d 13 fe 35 c8 c9 04 36
       2.1025228e-06 1.9772226e-06 1.8930074e-06 1.9786985e-06
000280 df 75 00 36 50 ef d9 35 d9 6e e2 35 14 1f c4 36
       1.9142096e-06 1.6237409e-06 1.6870573e-06 5.844873e-06
000290 1d 80 06 36 3f 71 11 34 5a 06 7e 34 d3 f4 99 33
       2.0042128e-06 1.3545376e-07 2.3657904e-07 7.169151e-08
0002a0 c3 7e d2 33 f3 02 2b 34 f5 70 52 34 2d 87 8c 34
       9.801945e-08 1.5926689e-07 1.9598868e-07 2.6175385e-07
0002b0 0d 26 9f 34 99 cd aa 34 20 39 c8 34 e5 33 c9 34
       2.9643743e-07 3.181456e-07 3.7294467e-07 3.7476926e-07
0002c0 55 fa e5 34 a1 cf ef 34 2c ed 32 35 cb 11 54 35
       4.2836714e-07 4.466829e-07 6.66553e-07 7.9002047e-07
0002d0 af f8 9f 35 8d ee bb 35 90 5f d2 35 87 66 e7 35
       1.19188e-06 1.4002013e-06 1.5674032e-06 1.724068e-06
0002e0 8e 96 fe 35 a7 b7 fb 35 5b c7 03 36 49 02 0d 36
       1.8968292e-06 1.8754407e-06 1.9636561e-06 2.1011967e-06
0002f0 18 19 14 36 82 a0 fd 35 7f ab 0b 36 69 52 15 36
       2.2068325e-06 1.8896683e-06 2.0812438e-06 2.22507e-06
000300 27 dd 11 36 8b 3a 1f 36 8d 06 06 36 51 9b 15 36
       2.1735411e-06 2.3726923e-06 1.997137e-06 2.2293136e-06
000310 a5 0c 10 36 5d 97 09 36 1d b1 0a 36 5b d8 02 36
       2.1465032e-06 2.0502696e-06 2.0666696e-06 1.9497445e-06
000320 f0 0a 0b 36 16 93 fa 35 e8 5c db 35 c1 59 dd 35
       2.071898e-06 1.8669259e-06 1.6343811e-06 1.6491905e-06
000330 81 2d ca 36 83 3e 07 36 4a 0c 06 34 d9 7d 05 34
       6.0253665e-06 2.0152954e-06 1.2484193e-07 1.2432373e-07
000340 a0 19 bf 34 d2 c6 fc 34 a6 46 41 35 8a c0 85 35
       3.5595167e-07 4.7083319e-07 7.200091e-07 9.965308e-07
000350 a5 1f a4 35 18 a9 c4 35 f5 36 cf 35 ce 1d eb 35
       1.2228162e-06 1.4652351e-06 1.5438696e-06 1.7517539e-06
000360 06 ec 00 36 97 8b 14 36 c8 64 21 36 ca 53 37 36
       1.921087e-06 2.213497e-06 2.4049532e-06 2.7317897e-06
000370 45 86 4c 36 8d 0a 55 36 0a 1b 61 36 76 86 63 36
       3.0476524e-06 3.1745615e-06 3.3543351e-06 3.3903902e-06
000380 5e 89 6d 36 69 17 74 36 d1 fe 80 36 8e 73 78 36
       3.539571e-06 3.637246e-06 3.844362e-06 3.7022141e-06
000390 87 e6 8c 36 93 01 92 36 0e 03 91 36 55 40 91 36
       4.199162e-06 4.3513223e-06 4.3216924e-06 4.328826e-06
0003a0 74 c2 80 36 b7 6a 95 36 13 ad 8b 36 e8 e6 90 36
       3.8373346e-06 4.4529693e-06 4.1626713e-06 4.3184154e-06
0003b0 44 07 9d 36 ee 29 a8 36 e5 23 ab 36 d4 f3 9f 36
       4.6798104e-06 5.0116714e-06 5.100376e-06 4.7669546e-06
0003c0 7a f0 b7 36 9d 59 b7 36 e9 1e cf 36 94 c3 cb 36
       5.48182e-06 5.4642574e-06 6.172679e-06 6.0726397e-06
0003d0 f1 7e 17 37 57 53 bb 37 a3 ff 07 36 b6 d4 80 33
       9.029857e-06 2.2330945e-05 2.0265368e-06 5.9991564e-08
0003e0 88 6e 7d 33 80 16 37 34 5a 5f 79 34 b3 0b c5 34
       5.900668e-08 1.7051389e-07 2.3224621e-07 3.6702622e-07
0003f0 2e 7d 09 35 a8 5a 2c 35 92 48 50 35 fa 54 5d 35
       5.121864e-07 6.4206915e-07 7.759164e-07 8.245257e-07
