test/test_results/triplets/results/model/model_epoch0185.tar (torch, 63316 bytes, 3 tensors)

fc.weight f4 [100, 41]
0	0x3b6c6afc	0.003607451
1	0x400853fd	2.1301262
2	0x400860fe	2.13092
3	0x3fee8b6e	1.86363
4	0x3fdd6250	1.7295628
5	0x3fd402e4	1.6563382
6	0x3fcb40c4	1.587914
7	0x3fc14b7e	1.5101163
8	0x3fba63c4	1.4561696
9	0x3fb76508	1.4327707
10	0x3fa8a798	1.3176146
11	0x3fa23e01	1.2675172
12	0x3f9746e3	1.1818508
13	0x3f91f25a	1.1402085
14	0x3f8a2647	1.0792931
15	0x3f81d921	1.0144387
16	0x3f7a9b01	0.9789277
17	0x3f6dd899	0.92908627
18	0x3f62eb89	0.8864065
19	0x3f69557a	0.9114605
20	0x3f6201cd	0.88284
21	0x3f5af6f2	0.8553306
22	0x3f6535fe	0.8953551
23	0x3f660c18	0.89862204
24	0x3f5e59d0	0.86855793
25	0x3f655cf0	0.89594936
26	0x3f5af68e	0.8553246
27	0x3f63a1b2	0.889186
28	0x3f588fb9	0.84594303
29	0x3f4f9921	0.8109303
30	0x3f535f77	0.8256754
31	0x3f34c80e	0.7061776
32	0x3f2c34df	0.67268175
33	0x3f14d8af	0.5814313
34	0x3f060037	0.5234408
35	0x3ebeb3f9	0.37246683
36	0x3ed81e27	0.42210504
37	0x3e0e6077	0.13903986
38	0x3d8f4da5	0.069972314
39	0x3be30ef3	0.0069292723
40	0xb84324d6	-4.652593e-05
41	0x3b64e806	0.0034928336
42	0x3f92b76e	1.1462228
43	0x3f892262	1.0713618
44	0x3f8c57b9	1.0964271
45	0x3f898a1e	1.0745275
46	0x3f826115	1.0185877
47	0x3f7c8e18	0.9865432
48	0x3f789d43	0.9711496
49	0x3f66f448	0.90216494
50	0x3f5dc478	0.8662791
51	0x3f5586af	0.83408636
52	0x3f4cf788	0.800652
53	0x3f46b5fe	0.7762145
54	0x3f34e500	0.70661926
55	0x3f2a5feb	0.6655261
56	0x3f225f26	0.63426435
57	0x3f0c167c	0.5472181
58	0x3ef70974	0.482494
59	0x3ed38ce0	0.41318417
60	0x3eac00d2	0.33594376
61	0x3e98be5f	0.29832742
62	0x3e627a54	0.22116977
63	0x3e13bdd3	0.14427881
64	0x3da9c86a	0.08290179
65	0x3c979977	0.018505795
66	0x3b3dd025	0.0028963175
67	0x3b231470	0.0024884008
68	0x3994762e	0.0002831681
69	0x3b1a15ee	0.0023511606
70	0x3b1c3cc2	0.0023839925
71	0x3a553531	0.00081332313
72	0x3b0ac853	0.0021176531
73	0x3b6b6a77	0.0035921612
74	0x393c986a	0.00017985856
75	0x3b0e071b	0.0021671716
76	0x3b0f34e6	0.0021851598
77	0x3b072bfa	0.0020625577
78	0x3b08e9ae	0.0020891237
79	0x3b2724af	0.0025504043
80	0x3e2d21b2	0.16907385
81	0x3912e9b2	0.00014010703
82	0x3a9d5cf5	0.0012005853
83	0x3ef6d65f	0.48210427
84	0x3ee532a5	0.447652
85	0x3f5cb193	0.86208457
86	0x3f721b99	0.9457336
87	0x3f858570	1.0431347
88	0x3f7dc6dd	0.99131566
89	0x3f7f13eb	0.9963977
90	0x3f7660c8	0.96241426
91	0x3f6f10c8	0.9338498
92	0x3f5f33f1	0.8718863
93	0x3f4d5c42	0.802189
94	0x3f4d8ef2	0.8029624
95	0x3f3da86b	0.7408511
96	0x3f35555c	0.70833373
97	0x3f2b7032	0.6696807
98	0x3f2a8e94	0.66623807
99	0x3f225f43	0.6342661
100	0x3f16923c	0.58816886
101	0x3f1485f4	0.58016896
102	0x3f0b37d9	0.5438209
103	0x3f035e45	0.5131572
104	0x3eed59d7	0.46357605
105	0x3ed7ea44	0.42170918
106	0x3ec795cf	0.38981482
107	0x3ebe10fc	0.37122333
108	0x3e9efb7e	0.31051248
109	0x3e74652d	0.2386672
110	0x3e63a18f	0.22229598
111	0x3e0e1151	0.13873793
112	0x3e34f155	0.17670186
113	0x3dd60763	0.10450628
114	0x3d764f9c	0.060134515
115	0x3c79d918	0.015249513
116	0x3d2cb8eb	0.04216854
117	0x3d4003b3	0.046878528
118	0x3b033b8f	0.0020024513
119	0x3c0e1357	0.008671603
120	0x3d1e61a1	0.038667325
121	0x3cedf032	0.029045198
122	0x398fb05d	0.00027406486
123	0x3b71ceaa	0.0036896863
124	0x3b6bfc6b	0.0036008607
125	0x3a9c5e19	0.0011929899
126	0x3b4ad58f	0.0030950045
127	0x3b35879f	0.0027699245
128	0x3b6df8d5	0.0036311646
129	0x3b2bc049	0.002620714
130	0x3b105b5a	0.0022027106
131	0x3a18aa18	0.0005823686
132	0x3b65f63e	0.0035089399
133	0x3a0c7d7c	0.0005359275
134	0x3a0409fc	0.0005036888
135	0x39a4af76	0.00031411246
136	0xb8186dcc	-3.634188e-05
137	0x3b6cc5c7	0.0036128627
138	0x3b0b241a	0.0021231235
139	0x3b4b9a78	0.0031067412
140	0x3a8dd868	0.001082194
141	0x3b2235d5	0.0024751325
142	0x3b74a14d	0.0037327588
143	0x3b2e7341	0.002661899
144	0x39c2ac92	0.00037131138
145	0x3b540707	0.0032352821
146	0x3af10750	0.001838902
147	0x39db9a64	0.00041885965
148	0x3b5d7ce8	0.0033796374
149	0x3b718834	0.0036854865
150	0x3b65d9dd	0.0035072484
151	0x3acc716d	0.0015597768
152	0x3aea89ea	0.0017893885
153	0x3b67c908	0.0035367627
154	0xb888f192	-6.529981e-05
155	0xb8b46824	-8.6024666e-05
156	0x3b5d99fc	0.0033813706
157	0x3abe5472	0.0014521016
158	0x3b6858c8	0.0035453308
159	0x39936150	0.00028110528
160	0x3b4375a8	0.0029824767
161	0x3b3e21fc	0.0029011955
162	0x3b5e0e73	0.0033883124
163	0x3b639ae9	0.0034729785
164	0x3b4962fd	0.0030729168
165	0x3b6b3487	0.0035889463
166	0x3ad498e4	0.0016219881
167	0x3b740fdd	0.00372409
168	0x3b100efc	0.0021981588
169	0x3b3a7ba3	0.002845504
170	0x3b65a0ef	0.003503855
171	0x3b44f19f	0.0030051244
172	0x3b0526b6	0.0020317263
173	0x3b02818a	0.0019913637
174	0x3a7a0290	0.0009537125
175	0x39861003	0.000255704
176	0x3b74c0b0	0.0037346296
177	0x3af435cb	0.0018631754
178	0x3b590541	0.0033114704
179	0x3a053e1a	0.0005082801
180	0x39b9ae3c	0.00035415764
181	0x3b47c4a1	0.003048219
182	0x3b166f01	0.0022954347
183	0x389eec2c	7.5780175e-05
184	0x3b3dddaa	0.0028971233
185	0x3b66ba7e	0.0035206373
186	0x3a9fd18a	0.0012193185
187	0x3a86b0d2	0.0010276085
188	0x3a5229ec	0.0008017111
189	0x3b38e1c1	0.0028210732
190	0x3b5eba1d	0.0033985444
191	0x3b6bcaca	0.0035979026
192	0x3b66170b	0.003510895
193	0x3b6df98c	0.0036312072
194	0x3b61d34e	0.0034458223
195	0x3b6c95cd	0.003610003
196	0x3b0d9047	0.0021600889
197	0x3b47c981	0.0030485096
198	0x3b7261ca	0.0036984556
199	0x39300034	0.00016784744
200	0x3b39ce0d	0.0028351576
201	0x3b6a3b91	0.003574107
202	0x3a814746	0.000986316
203	0x3a9be8cf	0.0011894944
204	0x3b5fe504	0.0034163604
205	0x3b6849dc	0.0035444414
206	0x4021d5d6	2.5286765
207	0x401e623c	2.4747458
208	0x3ffedfb4	1.9912019
209	0x3fec10c5	1.8442618
210	0x3fde2308	1.7354441
211	0x3fd35bda	1.6512406
212	0x3fc59fee	1.5439432
213	0x3fb76c9a	1.4330018
214	0x3fb7b588	1.4352274
215	0x3fad24da	1.3526871
216	0x3fa88940	1.3166885
217	0x3f9dd2d6	1.2329967
218	0x3f981301	1.18808
219	0x3f92ba30	1.146307
220	0x3f8a6c21	1.0814248
221	0x3f88eda7	1.0697526
222	0x3f81e8f9	1.0149223
223	0x3f80b708	1.0055857
224	0x3f7f900a	0.9982916
225	0x3f7b50b8	0.9817004
226	0x3f69b84d	0.91296846
227	0x3f791068	0.9729066
228	0x3f72cf0d	0.94847184
229	0x3f613843	0.87976474
230	0x3f5aa0d1	0.85401636
231	0x3f481dea	0.78170645
232	0x3f5c5004	0.86059594
233	0x3f4d0369	0.8008333
234	0x3f4e5c18	0.80609274
235	0x3f49b2fc	0.78788733
236	0x3f328bfa	0.6974484
237	0x3f35e2ca	0.7104918
238	0x3f1901f2	0.59768593
239	0x3efe7ee9	0.497062
240	0x3ec4c33b	0.384302
241	0x3ed48e91	0.4151502
242	0x3e3497d9	0.1763605
243	0x3dd6e429	0.10492737
244	0x3c34ccd5	0.011035164
245	0xb92a14b1	-0.00016220172
246	0x3b720955	0.0036931832
247	0x3d82be84	0.06383994
248	0x3d8a1867	0.06742936
249	0x3f15a6de	0.58457744
250	0x3f3b925d	0.7327021
251	0x3f5be2fe	0.8589324
252	0x3f654a13	0.89566153
253	0x3f6a69d5	0.91567737
254	0x3f63f269	0.89041764
255	0x3f602f4b	0.87572163

exp_avg f4 [100, 41]
0	0x388f2cfe	6.827152e-05
1	0x372ce95c	1.0306332e-05
2	0x37bf85ff	2.2831371e-05
3	0xb7c14e5d	-2.3043884e-05
4	0xb73db292	-1.13068545e-05
5	0xb97c27f2	-0.00024047474
6	0xb84132d3	-4.606212e-05
7	0xba117c7f	-0.00055498624
8	0x3964eda6	0.00021832305
9	0x385b31d6	5.2260082e-05
10	0xb9848bd1	-0.00025281173
11	0xb9926cb7	-0.0002792829
12	0xb9c91866	-0.00038355886
13	0x37a0ee11	1.9184345e-05
14	0x39fec244	0.00048591394
15	0xba1da5ef	-0.0006013801
16	0x387c8bad	6.0211565e-05
17	0x3923d74e	0.00015625099
18	0x39ce9b00	0.00039406866
19	0xbb008366	-0.001960957
20	0x3a86822a	0.0010262181
21	0xba3f7199	-0.0007302999
22	0x3a45b226	0.00075415
23	0xba84a91a	-0.0010121197
24	0x39b83fbb	0.00035142698
25	0x399a5b3e	0.0002944115
26	0xb91710f0	-0.00014406792
27	0xb999f722	-0.00029366562
28	0xba98bef2	-0.0011653586
29	0x3a221879	0.0006183456
30	0xb8d9a1f6	-0.00010377534
31	0x38df9147	0.00010660529
32	0xba03c5d9	-0.0005026735
33	0x39b13fa0	0.00033807475
34	0x3a014746	0.000493158
35	0x38cb9e9c	9.7093376e-05
36	0xb964e9ca	-0.00021830868
37	0xb9a12cb8	-0.0003074163
38	0x3849c5e6	4.810644e-05
39	0xb87e3862	-6.061083e-05
40	0xb88847f0	-6.498385e-05
41	0xb90a95a8	-0.00013216457
42	0x38733cb1	5.7992238e-05
43	0x381af51e	3.6944744e-05
44	0x38ab2cf7	8.162291e-05
45	0x38cd5c71	9.79238e-05
46	0xb810f892	-3.4563775e-05
47	0x382f6082	4.181313e-05
48	0xb9635e01	-0.00021683426
49	0x394bcdf9	0.0001943632
50	0x389e0838	7.535558e-05
51	0xb8e0ab0e	-0.00010713014
52	0xb90a3207	-0.00013179342
53	0xb954a89d	-0.00020280709
54	0x38a25202	7.740037e-05
55	0x39d208a6	0.00040060765
56	0xb99d10fc	-0.00029958028
57	0x3954fd5e	0.00020312282
58	0x3925fb11	0.00015829156
59	0x39bc740b	0.00035944613
60	0xba846022	-0.0010099451
61	0x3a4cf9f3	0.0007819228
62	0xb97651a4	-0.00023490802
63	0x3a193c37	0.00058454595
64	0xb98492c0	-0.0002528634
65	0x3a18647e	0.00058133143
66	0x39bb1e9b	0.00035690222
67	0xb87d78be	-6.043235e-05
68	0x399b3c2b	0.00029608732
69	0xba33009b	-0.00068283983
70	0x3681dad8	3.8699764e-06
71	0x39edb554	0.00045339263
72	0xb81a2b6c	-3.67569e-05
73	0x390256bd	0.00012430079
74	0x38b77e3c	8.749633e-05
75	0x3a32e48d	0.0006824218
76	0x39196d7a	0.00014632
77	0xb98ee9ae	-0.00027258456
78	0x38b1b834	8.474328e-05
79	0x391dce6e	0.00015049588
80	0xb9592692	-0.00020709101
81	0x3a2baea5	0.00065491564
82	0x393f81c9	0.00018263528
83	0x38ac57b5	8.217936e-05
84	0x385f6c62	5.3268282e-05
85	0x38b8404c	8.78578e-05
86	0x38d931e3	0.000103566585
87	0x3825f6d7	3.9568953e-05
88	0xb60237e0	-1.9404033e-06
89	0xb916037d	-0.00014306414
90	0x397d4882	0.00024154971
91	0x3864b17d	5.4524735e-05
92	0xb8ecb79c	-0.00011287557
93	0xb92f4158	-0.00016713643
94	0xb9109db6	-0.00013791662
95	0x38371f6a	4.3659857e-05
96	0x39ded042	0.00042498304
97	0xb9b38e96	-0.00034247775
98	0x395750f7	0.0002053416
99	0x38b5763e	8.652777e-05
100	0x39b504ea	0.00034526672
101	0xba8e0a80	-0.001083687
102	0x3a4c6e1b	0.00077983894
103	0xb97bf981	-0.00024030173
104	0x39c85059	0.00038206836
105	0xb97cb42c	-0.00024099712
106	0x399f18d4	0.00030345342
107	0x394b473e	0.00019386128
108	0x38933d22	7.020893e-05
109	0x38bfeca9	9.151671e-05
110	0xba186ae7	-0.00058142695
111	0x39d16bce	0.00039943907
112	0x3983803f	0.00025081818
113	0x385f8148	5.3287746e-05
114	0x36112680	2.1629094e-06
115	0x39a9d149	0.00032390121
116	0x39e31289	0.00043310624
117	0x392795e6	0.00015982203
118	0xba3bf42d	-0.0007169869
119	0xb7d51910	-2.540325e-05
120	0x380f0083	3.4094333e-05
121	0xb8c76308	-9.5075055e-05
122	0xba8cfde0	-0.0010756813
123	0x35f9fc20	1.8625324e-06
124	0x382133f2	3.843377e-05
125	0x393fec3e	0.00018303187
126	0x390d70d8	0.00013488845
127	0xb9bc1842	-0.00035876228
128	0xb894a82f	-7.0885166e-05
129	0x39224146	0.0001547384
130	0x392ddb22	0.00016580199
131	0xba5e2858	-0.00084746396
132	0x38c0798d	9.177914e-05
133	0xba5e6a6f	-0.0008484488
134	0xba5e5422	-0.00084811647
135	0x3944fb12	0.00018785548
136	0x3949b160	0.00019234931
137	0x38212d44	3.8427548e-05
138	0x39310dbf	0.00016885156
139	0x390564c9	0.00012721414
140	0x39412afd	0.00018421929
141	0x39278f63	0.00015979777
142	0xb898a05c	-7.277794e-05
143	0x392435b8	0.0001566027
144	0x3946accd	0.00018947125
145	0x38fe72da	0.000121330566
146	0x3934b6e6	0.00017234273
147	0x3943d45b	0.00018675758
148	0x38ebeaab	0.000112493835
149	0xb835c367	-4.3335745e-05
150	0x38a5bff5	7.903568e-05
151	0xba2aa0b8	-0.00065089343
152	0x39367aa0	0.00017402554
153	0xb90cec03	-0.00013439362
154	0x3948ba12	0.00019142803
155	0x394725c6	0.0001899219
156	0xb9307e7f	-0.00016831791
157	0x393e5b69	0.00018153865
158	0x38907618	6.888452e-05
159	0x3945f8a5	0.00018880011
160	0xb99e343a	-0.0003017502
161	0xb99cf100	-0.00029934198
162	0x38cb3790	9.6901436e-05
163	0x3846bcf0	4.738284e-05
164	0x3905f105	0.00012773655
165	0xb8d1bb26	-0.00010000756
166	0x393a6aa7	0.00017778073
167	0x37a808bb	2.0031226e-05
168	0x3930f50d	0.00016875956
169	0xb9bc55a3	-0.0003592196
170	0x38aa6ca7	8.12647e-05
171	0x390c241a	0.0001336489
172	0x3933a861	0.00017133496
173	0x3931a36a	0.00016940912
174	0x3941e88f	0.00018492549
175	0x394703fc	0.00018979603
176	0x3821ca2e	3.8573686e-05
177	0xba143fc6	-0.0005655255
178	0x38ec45b1	0.00011266338
179	0x394380b7	0.00018644599
180	0x39468ed9	0.00018935966
181	0x390d1ff3	0.0001345871
182	0xba000930	-0.00048841815
183	0x3943572b	0.00018629122
184	0x391ab4b8	0.00014753907
185	0xb90c1aa5	-0.00013361366
186	0x39400af6	0.0001831463
187	0xba437eb1	-0.0007457538
188	0x3943ca6b	0.00018672056
189	0xb9bc0de2	-0.00035868498
190	0x38d2d928	0.00010054029
191	0x388bfbaa	6.6749126e-05
192	0x38ba96a5	8.897231e-05
193	0xb8cc0e28	-9.730115e-05
194	0x38d3e8f9	0.000101046586
195	0xb89062d2	-6.884862e-05
196	0x392f851f	0.00016738892
197	0x390c7f74	0.0001339892
198	0xb7a9a08f	-2.0221136e-05
199	0x3947beb1	0.00019049157
200	0x39197067	0.0001463309
201	0x382a368f	4.058197e-05
202	0xba422f38	-0.0007407549
203	0x3940a197	0.00018370744
204	0xb80a9171	-3.3037217e-05
205	0x38a9c739	8.095656e-05
206	0xb7b1b7fa	-2.1185715e-05
207	0x36bce280	5.6292047e-06
208	0xb83dffd5	-4.5299374e-05
209	0xb7f51080	-2.921396e-05
210	0xb99a7145	-0.0002945756
211	0xb82ec50e	-4.1668354e-05
212	0xba220dbc	-0.0006181856
213	0x3955ab2b	0.00020377028
214	0x38a560b4	7.8858255e-05
215	0xb97be6f6	-0.00024023265
216	0xb998b5b6	-0.00029127084
217	0xb9d9aae5	-0.00041516792
218	0x377aff50	1.4960606e-05
219	0x39fd8576	0.00048355357
220	0xba24a9ad	-0.0006281387
221	0x383b8141	4.470465e-05
222	0x390f98ce	0.00013694467
223	0x39d701d2	0.00041009352
224	0xbb0c1f19	-0.002138084
225	0x3a8fdd52	0.0010975993
226	0xba49e10c	-0.0007701076
227	0x3a5e21c6	0.00084736606
228	0xba96dedc	-0.0011510509
229	0x39b2de94	0.0003411664
230	0x39c0340c	0.00036659872
231	0xb8c050f6	-9.1703536e-05
232	0xb98d98f0	-0.00027007563
233	0xba9eeb84	-0.0012124632
234	0x3a1f379b	0.00060736545
235	0xb8a7f50c	-8.008824e-05
236	0x38a410f3	7.8232864e-05
237	0xba021bb8	-0.0004963237
238	0x39af0188	0.00033379742
239	0x3a1e5e4a	0.0006041272
240	0x3857a438	5.1412935e-05
241	0xb962fd88	-0.00021647487
242	0xb9b4b927	-0.00034470225
243	0x38801c28	6.10876e-05
244	0xb89eb188	-7.567095e-05
245	0x3a9c7951	0.001193801
246	0xb7a481bd	-1.9610738e-05
247	0x38b00d9d	8.39487e-05
248	0x38b1bb52	8.474909e-05
249	0x38c22920	9.258301e-05
250	0x38f53b8a	0.000116936004
251	0x38af2a01	8.352474e-05
252	0xb62dac78	-2.58794e-06
253	0xb889dc78	-6.5737346e-05
254	0x398202cf	0.00024797625
255	0x37819aab	1.5450021e-05

exp_avg_sq f4 [100, 41]
0	0x36076a6b	2.017851e-06
1	0x3401d533	1.2091623e-07
2	0x340f5e98	1.3352326e-07
3	0x34f9605a	4.644997e-07
4	0x355e5054	8.281834e-07
5	0x35b2a21a	1.3309211e-06
6	0x36053738	1.9850686e-06
7	0x362acb04	2.5450145e-06
8	0x36406dc3	2.867412e-06
9	0x363f416b	2.8499296e-06
10	0x3669e913	3.4855373e-06
11	0x3662f5ba	3.3819656e-06
12	0x3685c75a	3.9869165e-06
13	0x369113f1	4.3236582e-06
14	0x36a478f6	4.9016626e-06
15	0x36c0bd84	5.7441084e-06
16	0x36c6ae6c	5.921165e-06
17	0x36c56130	5.8823716e-06
18	0x36ccc5eb	6.1027145e-06
19	0x36dd270f	6.5908603e-06
20	0x36e646fc	6.862798e-06
21	0x36de4853	6.624535e-06
22	0x36e306d8	6.765924e-06
23	0x36f3d89f	7.2671824e-06
24	0x37015e7c	7.710998e-06
25	0x370a10f6	8.22939e-06
26	0x36e5fd28	6.854203e-06
27	0x36fbad56	7.500562e-06
28	0x370244b4	7.7646e-06
29	0x36f3528a	7.251573e-06
30	0x3701cf66	7.737288e-06
31	0x3706a335	8.025022e-06
32	0x3707baf3	8.090155e-06
33	0x37101017	8.586815e-06
34	0x3706633c	8.010127e-06
35	0x37127af3	8.7309045e-06
36	0x3711e3a9	8.69568e-06
37	0x371ac4b2	9.224912e-06
38	0x37234ea6	9.733869e-06
39	0x374dfe16	1.2278111e-05
40	0x37ce6126	2.4602352e-05
41	0x36088a07	2.0345922e-06
42	0x335c13ba	5.1240683e-08
43	0x3371e5d6	5.632122e-08
44	0x3432ce4c	1.6652592e-07
45	0x349fb461	2.97473e-07
46	0x35072f46	5.036021e-07
47	0x354da5b4	7.660958e-07
48	0x3585d92b	9.972476e-07
49	0x359934fd	1.141481e-06
50	0x3599d828	1.1462298e-06
51	0x35bec7ff	1.421431e-06
52	0x35b94a76	1.3805245e-06
53	0x35de36a5	1.6556193e-06
54	0x35f23b48	1.8047658e-06
55	0x36089912	2.0354678e-06
56	0x3620158b	2.3854398e-06
57	0x362562a9	2.4644344e-06
58	0x36236568	2.434792e-06
59	0x36295bd1	2.5236407e-06
60	0x3634af11	2.6923992e-06
61	0x363783b9	2.7345798e-06
62	0x362c1f0d	2.5648071e-06
63	0x362da2ac	2.5873696e-06
64	0x36341a83	2.6837522e-06
65	0x363a6075	2.7772305e-06
66	0x3671dc38	3.6039983e-06
67	0x368122f7	3.84857e-06
68	0x36915627	4.331366e-06
69	0x3689ca60	4.1064777e-06
70	0x368387b0	3.9199003e-06
71	0x368d55a4	4.2120973e-06
72	0x368a6a74	4.1251133e-06
73	0x368631a1	3.9992888e-06
74	0x3681ae4c	3.8647904e-06
75	0x3682da0c	3.899686e-06
76	0x366e0593	3.5468008e-06
77	0x36878ec5	4.039934e-06
78	0x3652962b	3.1379848e-06
79	0x364935c2	2.9982625e-06
80	0x3656ef3d	3.202774e-06
81	0x37489e4f	1.1957788e-05
82	0x36046eb0	1.9733961e-06
83	0x33060190	3.1200727e-08
84	0x330fafb1	3.3454572e-08
85	0x33a04703	7.4634976e-08
86	0x34229e10	1.5144929e-07
87	0x34a8af9e	3.1420217e-07
88	0x3511700e	5.417977e-07
89	0x35490466	7.4884736e-07
90	0x356ce377	8.8247856e-07
91	0x357c25c1	9.3932255e-07
92	0x35ab4ce7	1.2762874e-06
93	0x35a5da16	1.2356929e-06
94	0x35c90806	1.4978002e-06
95	0x35da3451	1.6257492e-06
96	0x35f05df0	1.7908733e-06
97	0x360f5bcd	2.1362096e-06
98	0x3612112c	2.176569e-06
99	0x361358ea	2.1956462e-06
100	0x361c3412	2.327612e-06
101	0x362ba052	2.5574304e-06
102	0x36300ca9	2.6233413e-06
103	0x36274b62	2.4928818e-06
104	0x362f1af9	2.6092732e-06
105	0x3632e3b2	2.6656603e-06
106	0x363bddc9	2.7994267e-06
107	0x3644768d	2.9275282e-06
108	0x3631b85b	2.6482364e-06
109	0x3644dc72	2.9334592e-06
110	0x363d851f	2.8240681e-06
111	0x362be47d	2.5613983e-06
112	0x3632d899	2.6650143e-06
113	0x3636a7c2	2.7217761e-06
114	0x3632db41	2.665169e-06
115	0x363894e3	2.75048e-06
116	0x362784c6	2.4962224e-06
117	0x362e777b	2.5997567e-06
118	0x363e6cb8	2.837549e-06
119	0x3654a74a	3.1687837e-06
120	0x364245e1	2.8948928e-06
121	0x36808c56	3.8310345e-06
122	0x37650855	1.3651404e-05
123	0x3607e6e6	2.0250968e-06
124	0x3606b64f	2.0073674e-06
125	0x360393f2	1.9606637e-06
126	0x36057717	1.9887864e-06
127	0x36081b54	2.0281486e-06
128	0x3606f0ed	2.0107793e-06
129	0x36048f3c	1.9752906e-06
130	0x3603fa0f	1.9666074e-06
131	0x3608969a	2.035324e-06
132	0x3605a9d7	1.9917404e-06
133	0x3608b6e2	2.037203e-06
134	0x3608bfd5	2.037724e-06
135	0x36026cbd	1.9434804e-06
136	0x360217ac	1.9385288e-06
137	0x3606a5ac	2.006399e-06
138	0x36047629	1.973831e-06
139	0x3605cb17	1.9936758e-06
140	0x36038e2e	1.960328e-06
141	0x36051ba5	1.9834636e-06
142	0x3607b0ff	2.0219593e-06
143	0x3605560f	1.9868637e-06
144	0x3602f726	1.951537e-06
145	0x36063c46	2.000264e-06
146	0x36048969	1.9749516e-06
147	0x360311cd	1.9530883e-06
148	0x3606332f	1.9997349e-06
149	0x36079dce	2.0208422e-06
150	0x36068d25	2.0049713e-06
151	0x36095153	2.0461928e-06
152	0x3604859c	1.9747304e-06
153	0x3607fd13	2.0263876e-06
154	0x3602b985	1.9479496e-06
155	0x3602ad1f	1.947228e-06
156	0x36085a30	2.0318075e-06
157	0x360452e2	1.9717777e-06
158	0x36076d9c	2.0180369e-06
159	0x36040d58	1.96773e-06
160	0x360a2522	2.0585217e-06
161	0x360ae622	2.0697557e-06
162	0x360a2d8e	2.0590119e-06
163	0x3610dc54	2.158592e-06
164	0x3606891f	2.004737e-06
165	0x360770e4	2.0182279e-06
166	0x3603d74e	1.9645845e-06
167	0x3606a5ec	2.0064135e-06
168	0x36042ef0	1.9696854e-06
169	0x3607f496	2.0258935e-06
170	0x3605c29b	1.993182e-06
171	0x3604caf2	1.9787662e-06
172	0x360395b6	1.9607664e-06
173	0x3603b9c2	1.9628646e-06
174	0x3602c272	1.9484692e-06
175	0x36022ae5	1.9396477e-06
176	0x360663c0	2.0025618e-06
177	0x36088228	2.034134e-06
178	0x3605c4ba	1.9933054e-06
179	0x3602c533	1.9486295e-06
180	0x3602ed55	1.9509655e-06
181	0x3605b630	1.9924591e-06
182	0x3608dcf6	2.0394195e-06
183	0x3602b0ec	1.9474492e-06
184	0x3605a885	1.9916636e-06
185	0x3607df7d	2.0246655e-06
186	0x3603ea9c	1.9657082e-06
187	0x36095a82	2.0467273e-06
188	0x36038df4	1.9603149e-06
189	0x3608a061	2.0358932e-06
190	0x36065db2	2.0022094e-06
191	0x3606e4b9	2.010069e-06
192	0x36069c04	2.005837e-06
193	0x3607f57f	2.0259465e-06
194	0x36066d80	2.0031293e-06
195	0x3607c4ad	2.0231048e-06
196	0x3604e3b8	1.9802083e-06
197	0x360631d8	1.999657e-06
198	0x3607d69a	2.0241482e-06
199	0x3603882a	1.959978e-06
200	0x36069c9c	2.0058715e-06
201	0x3608bfe9	2.0377286e-06
202	0x360bc5e0	2.0827792e-06
203	0x36076184	2.017333e-06
204	0x36116d37	2.1670255e-06
205	0x360745f8	2.0157295e-06
206	0x342667b1	1.5497677e-07
207	0x343652f2	1.6980246e-07
208	0x3526b8d2	6.210877e-07
209	0x358eaac9	1.062953e-06
210	0x35df3c5a	1.6632359e-06
211	0x36220918	2.4145174e-06
212	0x364deaf3	3.068414e-06
213	0x366493ba	3.4060636e-06
214	0x365ea764	3.3178012e-06
215	0x3683cf86	3.928263e-06
216	0x3680dd89	3.8404874e-06
217	0x36972932	4.5049464e-06
218	0x36a3d741	4.8828374e-06
219	0x36bb0ad6	5.5742958e-06
220	0x36da9db8	6.515267e-06
221	0x36e33120	6.770846e-06
222	0x36e2366c	6.7416604e-06
223	0x36eb068e	7.004309e-06
224	0x36fe5041	7.5791327e-06
225	0x370465ea	7.891542e-06
226	0x3700c2a7	7.674716e-06
227	0x37033f71	7.82298e-06
228	0x370ed653	8.513761e-06
229	0x37170aa6	9.002781e-06
230	0x371f9e1a	9.513949e-06
231	0x3700b3e0	7.671275e-06
232	0x370afe46	8.284644e-06
233	0x370fb576	8.565714e-06
234	0x370646ef	8.003538e-06
235	0x370d7872	8.432298e-06
236	0x371146ee	8.659188e-06
237	0x37124ef7	8.720664e-06
238	0x371d46d2	9.374418e-06
239	0x3712dd32	8.753779e-06
240	0x371e84a5	9.448418e-06
241	0x371d726f	9.384573e-06
242	0x3726503f	9.913055e-06
243	0x3732018a	1.0609985e-05
244	0x3764c793	1.3636326e-05
245	0x37d87a82	2.5806254e-05
246	0x3608096c	2.0271063e-06
247	0x32cd957d	2.393312e-08
248	0x32d617f8	2.4923779e-08
249	0x335ca9bd	5.1377118e-08
250	0x33d1c6cf	9.768484e-08
251	0x346669f6	2.1458968e-07
252	0x34c88459	3.7349199e-07
253	0x3510ebd1	5.398734e-07
254	0x352ed169	6.5124783e-07
255	0x353fde38	7.1476416e-07
