test/test_results/triplets/results/model/model_epoch0045.tar (torch, 54740 bytes, 3 tensors)

fc.weight f4 [100, 41]
0.0033873133 0.49961144 0.5115012 0.5177553 0.49697366 0.4907494 0.48830277 0.478438
0.4657317 0.47812188 0.45143417 0.43060547 0.43297368 0.41321665 0.40278387 0.38564792
0.36991438 0.37306875 0.34341156 0.3484851 0.33726305 0.3394808 0.34259036 0.33620572
0.3343869 0.3184609 0.32193357 0.30453867 0.30471972 0.2829083 0.25459343 0.23080982
0.19033344 0.18598399 0.15124086 0.08460154 0.09522538 0.023364808 0.0044194087 0.0018959821
5.3336196e-05 0.0036824036 0.5343291 0.53295994 0.5271927 0.5284975 0.48853 0.48526978
0.4805675 0.4643351 0.44191784 0.4451935 0.42949778 0.41525185 0.41117802 0.4060857
0.3914617 0.38395023 0.35386223 0.347861 0.34085375 0.32649598 0.32449797 0.32160404
0.31124717 0.2939913 0.26800153 0.2521999 0.23016763 0.22067526 0.20755656 0.19885767
0.17153464 0.17349772 0.14253122 0.10110398 0.07910609 0.06770085 0.046070065 0.005154512
0.003148963 0.0002108436 0.0008452116 0.517361 0.52653867 0.5130316 0.48842394 0.5018854
0.48534706 0.4892752 0.45968345 0.4484694 0.4278066 0.4030782 0.41676855 0.400763
0.38435102 0.37039092 0.37439612 0.37021303 0.36126018 0.3404792 0.3447516 0.3381729
0.33465996 0.3115293 0.30868644 0.281455 0.2847818 0.2593764 0.25080302 0.23526038
0.21818046 0.20241489 0.16066098 0.12491342 0.13253693 0.094221994 0.07917108 0.028868796
0.0033521904 0.0023744535 0.00048844615 0.0036488369 0.5712601 0.57122046 0.5336069 0.5249955
0.5070141 0.49987143 0.5035166 0.47966024 0.4553959 0.43147537 0.4195295 0.4134583
0.4013899 0.376959 0.3445006 0.33296618 0.3123203 0.3058748 0.28115213 0.24237335
0.2348306 0.22581983 0.1827966 0.1809201 0.17261265 0.15272528 0.12321347 0.12746707
0.109582245 0.10084291 0.09376695 0.09118481 0.050860032 0.042736087 0.0694073 0.020842457
0.04406813 0.030481985 0.0031994972 0.0003676425 0.0028146545 0.580433 0.57362616 0.5499419
0.54375917 0.4978663 0.49501023 0.4668863 0.48467964 0.45429808 0.43974653 0.4389121
0.42062408 0.39170358 0.36434758 0.37419245 0.32640603 0.31338173 0.28835654 0.26658967
0.23571984 0.23582524 0.22325632 0.1872256 0.16982122 0.15479451 0.15720423 0.12636007
0.11811112 0.077852175 0.07385186 0.07098495 0.06425591 0.08310517 0.038711153 0.04241369
0.015661534 0.050156496 0.038976222 0.0015135563 -2.8168193e-05 0.0033087926 0.5349395 0.5314835
0.51147324 0.5089462 0.49965566 0.50268376 0.4758104 0.44412363 0.4665626 0.45397642
0.4444726 0.42831704 0.4123358 0.41267088 0.3872806 0.3939166 0.376019 0.3672773
0.3738872 0.3696167 0.35290134 0.35391214 0.3555092 0.3376155 0.30601844 0.30521724
0.29936206 0.27704802 0.27977407 0.25406998 0.2235305 0.21936095 0.17294419 0.1383038
0.09268484 0.11105499 0.024629802 0.004298226 0.0007402458 0.00021264344 0.0036891722 0.5305149
0.5301227 0.49507236 0.50969285 0.47938737 0.47359264 0.44417822 0.4449823 0.44342646
00000000: b0fd 5d3b 12cd ff3e bef1 023f 9d8b 043f
00000010: 5573 fe3e 8143 fb3e d202 fa3e d3f5 f43e
00000020: 6374 ee3e 64cc f43e 6122 e73e 5278 dc3e
00000030: baae dd3e 2291 d33e b039 ce3e a573 c53e
00000040: 6b65 bd3e de02 bf3e a4d3 af3e a46c b23e
00000050: bead ac3e 6dd0 ad3e 0168 af3e 2823 ac3e
00000060: c234 ab3e 4f0d a33e 7ad4 a43e 7eec 9b3e
00000070: 3904 9c3e 5bd9 903e 125a 823e 6959 6c3e
00000080: c5e6 423e 9672 3e3e e2de 1a3e 9243 ad3d
00000090: 8605 c33d 8e67 bf3c b0d0 903b 9a82 f83a
000000a0: 4eb5 5f38 7b54 713b cbc9 083f 1070 083f
000000b0: 1af6 063f 9d4b 073f 9b20 fa3e 4875 f83e
000000c0: f20c f63e 55bd ed3e 0e43 e23e 67f0 e33e
000000d0: 22e7 db3e e49b d43e ed85 d23e 77ea cf3e
000000e0: ab6d c83e 2095 c43e 6e2d b53e d61a b23e
000000f0: 6284 ae3e 7b2a a73e 9924 a63e 49a9 a43e
00000100: ca5b 9f3e 0786 963e 7f37 893e 5820 813e
00000110: 10b1 6b3e b2f8 613e b589 543e 58a1 4b3e
00000120: c7a6 2f3e 63a9 313e b4f3 113e 9a0f cf3d
00000130: 6002 a23d bea6 8a3d f7b3 3c3d 2ee7 a83b
00000140: d55e 4e3b e615 5d39 3191 5d3a c571 043f
00000150: 3dcb 063f 0a56 033f b412 fa3e 907b 003f
00000160: 697f f83e 4782 fa3e a15b eb3e c89d e53e
00000170: 7709 db3e 4460 ce3e b062 d53e cf30 cd3e
00000180: a8c9 c43e e1a3 bd3e d9b0 bf3e 908c bd3e
00000190: 18f7 b83e 4a53 ae3e 4883 b03e 0025 ad3e
000001a0: 8d58 ab3e c580 9f3e 260c 9e3e df1a 903e
000001b0: ecce 913e fccc 843e 4169 803e 19e8 703e
000001c0: b36a 5f3e d945 4f3e 5084 243e 9bd2 ff3d
000001d0: c3b7 073e 76f7 c03d 7224 a23d 417e ec3c
000001e0: 6cb0 5b3b b89c 1b3b 110b 003a 5321 6f3b
000001f0: 1a3e 123f 813b 123f 769a 083f 1b66 063f
00000200: adcb 013f 26ef ff3e 77e6 003f 0796 f53e
00000210: a729 e93e 57ea dc3e 92cc d63e ceb0 d33e
00000220: fa82 cd3e c500 c13e 6262 b03e 8b7a aa3e
00000230: 72e8 9f3e 9f9b 9c3e 2cf3 8f3e b830 783e
00000240: 6f77 703e 503d 673e 082f 3b3e 1e43 393e
00000250: 5fc1 303e 0464 1c3e 5857 fc3d ba86 023e
00000260: a86c e03d ba86 ce3d e308 c03d 1abf ba3d
00000270: 9c52 503d 090c 2f3d 6a25 8e3d cdbd aa3c
00000280: c980 343d 5bb5 f93c a8ae 513b 24c0 c039
00000290: 1176 383b 4297 143f 2ad9 123f fec8 0c3f
000002a0: cd33 0b3f 55e8 fe3e fb71 fd3e b90b ef3e
000002b0: ee27 f83e c299 e83e 7526 e13e 16b9 e03e
000002c0: 0a5c d73e 5f8d c83e c48b ba3e 2796 bf3e
000002d0: b11e a73e 9273 a03e 78a3 933e 717e 883e
000002e0: 8b60 713e 2c7c 713e 4e9d 643e 11b8 3f3e
000002f0: 9de5 2d3e 7482 1e3e 25fa 203e 8964 013e
00000300: 3ee4 f13d f670 9f3d a53f 973d 8f60 913d
00000310: 9a98 833d 0b33 aa3d 968f 1e3d fab9 2d3d
00000320: 9e4c 803c e670 4d3d 88a5 1f3d 8662 c63a
00000330: bc4a ecb7 54d8 583b ccf1 083f 4d0f 083f
00000340: e9ef 023f 4c4a 023f ded2 ff3e e2af 003f
00000350: 6c9d f33e 2c64 e33e 4be1 ee3e 996f e83e
00000360: ea91 e33e 5f4c db3e ae1d d33e 9949 d33e
00000370: a549 c63e 70af c93e 9085 c03e c50b bc3e
00000380: 256e bf3e 663e bd3e 7caf b43e f933 b53e
00000390: 4d05 b63e f0db ac3e 73ae 9c3e 6f45 9c3e
000003a0: fc45 993e 3dd9 8d3e 8c3e 8f3e 7615 823e
000003b0: 2ee5 643e 28a0 603e 4818 313e 839f 0d3e
000003c0: 8dd1 bd3d cc70 e33d 70c4 c93c 22d8 8c3b
000003d0: 0e0d 423a 0af9 5e39 0ac6 713b d3cf 073f
000003e0: 1fb6 073f 207a fd3e 3b7b 023f 4372 f53e
000003f0: bc7a f23e 546b e33e b8d4 e33e cb08 e33e

exp_avg f4 [100, 41]
9.241597e-05 7.6219876e-06 5.6567576e-05 -1.3856079e-06 8.1488986e-05 -8.796046e-05 6.801335e-05 -0.00020571242
5.6310622e-05 -0.00015426174 0.00016121661 -0.00013721792 -0.00028658684 0.0006073684 9.726959e-05 -0.00029932804
0.0003950013 -0.00026200007 0.00025082566 -1.7018232e-05 -0.00015536026 -0.00031833604 9.257101e-05 -5.653528e-05
9.478104e-05 9.469846e-06 -0.000530229 -0.00037621544 -0.0006398774 0.0007169018 -0.0002971919 0.00012119356
-0.0003017321 0.00028868343 0.00051028706 -0.0003397914 0.00011142509 -0.00022194002 -0.00037934084 0.00045833533
0.00028919693 -4.3469925e-05 1.4417019e-06 4.614444e-05 -9.996347e-06 7.0435686e-05 -9.837996e-05 8.1457474e-05
-0.00021379329 8.083161e-05 -0.00012688474 0.00017950105 -0.0001258445 -0.00028347998 0.0005961661 9.9519704e-05
-0.0002936084 0.00037686125 -0.00025947567 0.00025187622 7.946546e-06 -0.00013200364 -0.000281893 0.00011294147
-2.376819e-05 0.00012616983 4.8691996e-05 -0.0004677646 -0.00031255445 -0.00055818364 0.0007361482 -0.00023874073
0.0001950804 -0.00025432243 0.00029531927 0.00045292088 -0.00031170686 0.00013383495 -0.00018467994 -0.0004292928
0.00018573785 0.00023605832 0.00018601917 -9.663036e-07 4.8589944e-05 1.5889964e-07 7.892457e-05 -9.5840325e-05
7.576412e-05 -0.0002045074 6.943193e-05 -0.00013999302 0.00017984303 -0.00013236141 -0.00026567507 0.0005936936
9.718917e-05 -0.00028751002 0.00037487515 -0.00026137437 0.00023750134 -4.759655e-06 -0.00012684868 -0.00029725066
0.00010592895 -3.8880436e-05 0.00012056081 2.298124e-05 -0.0005007289 -0.00031088546 -0.00058510836 0.00072795956
-0.00026549608 0.00016195659 -0.00023989368 0.0002946439 0.0004644215 -0.00031958788 0.00013317552 -0.00020178061
-0.0004047728 0.0004142962 -0.00017325739 5.4177028e-05 -2.7987537e-05 1.589281e-05 -2.603492e-05 5.0164315e-05
-0.00012034777 8.063359e-05 -0.00022379184 7.225992e-05 -0.00012547143 0.00018727215 -0.0001258889 -0.0002835201
0.0006223816 0.00011480507 -0.0002697795 0.00039973395 -0.00024972158 0.0002881444 4.6014764e-05 -5.358104e-05
-0.00018501708 0.00013563619 6.6487024e-05 0.0002733622 0.000110481546 -0.00029001798 -0.00017113892 -0.00041237663
0.00071981887 -0.00014211197 0.0003015162 -0.00013898361 0.00035535995 0.00033467973 -0.00022660848 0.000107164684
-6.217712e-05 -0.0004919497 0.0001598745 -0.00036496454 0.000145998 -1.9998737e-05 3.800596e-06 -2.8972583e-05
5.3438976e-05 -0.00012665144 8.072596e-05 -0.00022286997 5.67003e-05 -0.00012957623 0.00017888646 -0.00013503798
-0.0002949487 0.0006319629 0.00010261145 -0.00026170784 0.00040736035 -0.00024291548 0.0002932596 4.832654e-05
-8.4044885e-05 -0.00017540278 0.00013751164 8.36117e-05 0.00026503686 0.00012305361 -0.00024088216 -0.00017839432
-0.00041485342 0.0007412358 -0.000112936104 0.0003131196 -0.000169154 0.0003770058 0.00033836905 -0.00021673077
9.0728296e-05 -5.524839e-05 -0.00050442567 0.0003614816 0.0005111542 0.000102686565 3.871033e-06 4.904385e-05
-8.8717425e-06 7.771772e-05 -9.004602e-05 6.6524866e-05 -0.00021174196 7.197125e-05 -0.00014873868 0.00018133872
-0.00013346922 -0.00029809377 0.0005969071 0.00010633107 -0.0003129999 0.0003763005 -0.00026335925 0.00024127684
-1.3583565e-05 -0.00015210829 -0.00032178906 0.00010336526 -7.460457e-05 9.083286e-05 2.4505061e-07 -0.00055292994
-0.0003709235 -0.0006523937 0.0007422254 -0.0003026653 0.00013602813 -0.00028708245 0.0002575295 0.00052564085
-0.0003510805 0.0001336114 -0.00022154741 -0.000410838 0.0005022951 -0.00017488755 3.8516482e-05 1.0092508e-05
4.7037298e-05 -1.4363031e-06 8.935189e-05 -8.444504e-05 8.597345e-05 -0.00020412757 8.6113214e-05 -0.00012421867
00000000: 72cf c138 60c0 ff36 f942 6d38 20f9 b9b5
00000010: 11e5 aa38 6a77 b8b8 64a2 8e38 82b4 57b9
00000020: 122f 6c38 52c1 21b9 410c 2939 28e2 0fb9
00000030: 0941 96b9 ce37 1f3a 37fd cb38 21ef 9cb9
00000040: 2d18 cf39 0e5d 89b9 4081 8339 60c2 8eb7
00000050: 34e8 22b9 57e6 a6b9 af22 c238 4b20 6db8
00000060: 2fc5 c638 aee0 1e37 11ff 0aba c83e c5b9
00000070: 72bd 27ba 77ee 3b3a 6cd0 9bb9 4c29 fe38
00000080: cc31 9eb9 6f5a 9739 c9c4 053a 0826 b2b9
00000090: e4ac e938 92b8 68b9 44e2 c6b9 ba4c f039
000000a0: 5b9f 9739 7a53 36b8 8080 c135 378b 4138
000000b0: fcb5 27b7 dfb6 9338 5751 ceb8 26d4 aa38
000000c0: b32d 60b9 2484 a938 5d0c 05b9 7238 3c39
000000d0: 20f5 03b9 0aa0 94b9 0848 1c3a 3cb5 d038
000000e0: 74ef 99b9 7695 c539 3c0a 88b9 410e 8439
000000f0: 2852 0537 756a 0ab9 0acb 93b9 fdda ec38
00000100: cd61 c7b7 754c 0439 a23a 4c38 4d3e f5b9
00000110: 59de a3b9 1253 12ba 12fa 403a 7a56 7ab9
00000120: 7f8e 4c39 9456 85b9 15d5 9a39 0376 ed39
00000130: 966c a3b9 0c56 0c39 a5a6 41b9 b412 e1b9
00000140: a0c2 4239 6c86 7739 240e 4339 f0b1 81b5
00000150: 0ecd 4b38 009e 2a34 4e84 a538 e2fd c8b8
00000160: 8de3 9e38 0a71 56b9 fc9b 9138 17cb 12b9
00000170: 3f94 3c39 7fca 0ab9 4e4a 8bb9 1aa2 1b3a
00000180: 0ad2 cb38 f1bc 96b9 e48a c439 1309 89b9
00000190: c809 7939 20b5 9fb6 af02 05b9 4fd8 9bb9
000001a0: 2c26 de38 8d13 23b8 98d5 fc38 d6c7 c037
000001b0: 5943 03ba 57fe a2b9 f561 19ba 8ad4 3e3a
000001c0: 4832 8bb9 e4d2 2939 f88b 7bb9 6f7a 9a39
000001d0: 997d f339 5c8e a7b9 08a5 0b39 1295 53b9
000001e0: b037 d4b9 e535 d939 6dac 35b9 243c 6338
000001f0: c7c6 eab7 8d51 8537 9165 dab7 8667 5238
00000200: 3863 fcb8 d419 a938 aaa9 6ab9 408a 9738
00000210: fb90 03b9 7c5e 4439 0b01 04b9 6ca5 94b9
00000220: 5227 233a 81c3 f038 3171 8db9 6293 d139
00000230: 10ed 82b9 1612 9739 faff 4038 34bc 60b8
00000240: 2501 42b9 9039 0e39 f36e 8b38 0e52 8f39
00000250: 54b2 e738 8e0d 98b9 c173 33b9 4134 d8b9
00000260: 3ab2 3c3a e403 15b9 d214 9e39 21bc 11b9
00000270: 9b4f ba39 f477 af39 c09d 6db9 9abd e038
00000280: 1665 82b8 2ff6 00ba fca3 2739 b658 bfb9
00000290: 0a17 1939 f6c2 a7b7 be0d 7f36 260a f3b7
000002a0: aa23 6038 bdcd 04b9 6b4b a938 34b2 69b9
000002b0: 7cd1 6d38 dbde 07b9 7893 3b39 fb98 0db9
000002c0: 58a3 9ab9 50aa 253a 1a31 d738 d535 89b9
000002d0: fb92 d539 21b7 7eb9 a3c0 9939 3ab2 4a38
000002e0: 4141 b0b8 53ec 37b9 0031 1039 b158 af38
000002f0: a5f4 8a39 f407 0139 5095 7cb9 5c0f 3bb9
00000300: af80 d9b9 7e4f 423a 1cd8 ecb8 342a a439
00000310: ee5e 31b9 dda8 c539 2067 b139 3942 63b9
00000320: 6245 be38 82ba 67b8 6f3b 04ba 3d85 bd39
00000330: fafe 053a 6e59 d738 ece3 8136 6fb4 4d38
00000340: d8d7 14b7 62fc a238 17d7 bcb8 4483 8b38
00000350: 0d07 5eb9 45ef 9638 bcf6 1bb9 be25 3e39
00000360: dff3 0bb9 7849 9cb9 c279 1c3a 0ffe de38
00000370: 231a a4b9 334a c539 7b13 8ab9 42ff 7c39
00000380: f8e4 63b7 427f 1fb9 ccb5 a8b9 cdc5 d838
00000390: 0675 9cb8 857d be38 808f 8334 80f2 10ba
000003a0: 8278 c2b9 6605 2bba e791 423a 0daf 9eb9
000003b0: c6a2 0e39 8e83 96b9 0605 8739 29cb 093a
000003c0: 3a11 b8b9 091a 0c39 2e4f 68b9 be65 d7b9
000003d0: 74ac 033a 0562 37b9 c28c 2138 fe52 2937
000003e0: ea49 4538 00c7 c0b5 6e62 bb38 1618 b1b8
000003f0: a54c b438 140b 56b9 ae97 b438 b240 02b9

exp_avg_sq f4 [100, 41]
1.9208644e-06 1.4052577e-07 1.3537539e-07 2.3064446e-07 3.0505277e-07 4.7560326e-07 4.9148224e-07 6.4443367e-07
6.603653e-07 7.562086e-07 8.829141e-07 7.9068917e-07 9.0218094e-07 1.0266034e-06 1.0606201e-06 1.0562545e-06
1.1833912e-06 1.2464502e-06 1.1219711e-06 1.2345549e-06 1.2781873e-06 1.3144837e-06 1.2373988e-06 1.2754514e-06
1.3480793e-06 1.2888597e-06 1.3618684e-06 1.4363891e-06 1.5722901e-06 1.338259e-06 1.514729e-06 1.6358395e-06
1.6007556e-06 1.6721831e-06 1.6917734e-06 1.9048309e-06 1.968247e-06 2.2305426e-06 2.8810923e-06 6.5975573e-06
1.5196898e-05 1.936431e-06 1.4457599e-07 1.3943097e-07 2.430939e-07 3.1298717e-07 4.963613e-07 5.0569844e-07
6.6055446e-07 6.735612e-07 7.753514e-07 8.8316864e-07 7.895514e-07 8.986557e-07 1.0109877e-06 1.0519813e-06
1.0492474e-06 1.181899e-06 1.2479445e-06 1.1239683e-06 1.2343376e-06 1.2736723e-06 1.306114e-06 1.2300993e-06
1.262621e-06 1.3413332e-06 1.2712978e-06 1.3180246e-06 1.380024e-06 1.4824676e-06 1.2521159e-06 1.3877121e-06
1.4866278e-06 1.4430055e-06 1.5345349e-06 1.5430318e-06 1.6962736e-06 1.7682702e-06 2.052612e-06 2.5231793e-06
6.288396e-06 1.4718805e-05 1.8735843e-06 1.4209758e-07 1.365286e-07 2.3760792e-07 3.111588e-07 4.7470803e-07
4.958697e-07 6.4576267e-07 6.7184516e-07 7.687679e-07 8.8290267e-07 7.851753e-07 8.8658584e-07 1.0014971e-06
1.0370319e-06 1.0256209e-06 1.1440785e-06 1.215101e-06 1.0987592e-06 1.2114677e-06 1.2534312e-06 1.2897743e-06
1.2206386e-06 1.261056e-06 1.3319324e-06 1.2625208e-06 1.3141225e-06 1.3792946e-06 1.4964519e-06 1.2695336e-06
1.4247606e-06 1.5222795e-06 1.4930378e-06 1.5572671e-06 1.5516629e-06 1.738698e-06 1.8060937e-06 2.104237e-06
2.5525974e-06 6.325807e-06 1.4681694e-05 1.927724e-06 1.4981265e-07 1.4542432e-07 2.5932647e-07 3.2928224e-07
5.088378e-07 5.229256e-07 6.8008137e-07 7.0651487e-07 8.087147e-07 9.2523175e-07 8.188386e-07 9.2105074e-07
1.0418746e-06 1.0807165e-06 1.0711778e-06 1.1809462e-06 1.2478389e-06 1.1093334e-06 1.2049029e-06 1.2428113e-06
1.2428028e-06 1.1615655e-06 1.1816923e-06 1.2327862e-06 1.1288125e-06 1.171313e-06 1.2117991e-06 1.2699032e-06
1.0693188e-06 1.1754498e-06 1.2350733e-06 1.2059241e-06 1.2760888e-06 1.2679332e-06 1.4055063e-06 1.468705e-06
1.7112814e-06 2.203159e-06 5.375237e-06 1.3591426e-05 1.908175e-06 1.5229502e-07 1.5101327e-07 2.6115862e-07
3.3439116e-07 5.266468e-07 5.326535e-07 6.960622e-07 7.006406e-07 8.01131e-07 9.1788274e-07 8.151663e-07
9.2388484e-07 1.0523031e-06 1.0853291e-06 1.0728454e-06 1.1922567e-06 1.2517829e-06 1.1166682e-06 1.2087121e-06
1.2363715e-06 1.2393247e-06 1.1617752e-06 1.1775971e-06 1.226503e-06 1.1309489e-06 1.1712305e-06 1.215568e-06
1.2748164e-06 1.0655996e-06 1.1615612e-06 1.2234824e-06 1.1846461e-06 1.2562117e-06 1.2576847e-06 1.4009183e-06
1.453937e-06 1.6944232e-06 2.1553983e-06 5.3002327e-06 1.3640674e-05 1.9188988e-06 1.4741337e-07 1.3996703e-07
2.4581863e-07 3.1373605e-07 4.89269e-07 5.0572856e-07 6.6475775e-07 6.749315e-07 7.7259153e-07 8.9038747e-07
7.9876963e-07 9.174504e-07 1.0318836e-06 1.0638962e-06 1.0636275e-06 1.1967094e-06 1.2649745e-06 1.1399775e-06
1.2561595e-06 1.306318e-06 1.3588397e-06 1.2782014e-06 1.3203859e-06 1.4057324e-06 1.3443483e-06 1.3929937e-06
1.4655848e-06 1.6057895e-06 1.3612266e-06 1.5285478e-06 1.6518678e-06 1.613871e-06 1.7034013e-06 1.7183553e-06
1.8926607e-06 1.9678082e-06 2.278352e-06 2.9263365e-06 6.6569423e-06 1.566595e-05 1.9296583e-06 1.477979e-07
1.3885541e-07 2.5064347e-07 3.0831347e-07 4.894463e-07 4.998112e-07 6.5138715e-07 6.534215e-07 7.460025e-07
00000000: 33e8 0036 6ee3 1634 b45b 1134 11a7 7734
00000010: 22c6 a334 6a56 ff34 67ee 0335 25fd 2c35
00000020: f543 3135 42fe 4a35 6501 6d35 bf3f 5435
00000030: 672d 7235 d3c9 8935 a15a 8e35 a1c4 8d35
00000040: 03d5 9e35 b44b a735 a296 9635 fcb2 a535
00000050: 2e8e ab35 516d b035 b314 a635 2d30 ab35
00000060: a7ef b435 e2fc ac35 71c9 b635 f4c9 c035
00000070: 7a07 d335 3b9e b335 b14d cb35 048f db35
00000080: 8bd9 d635 c66f e035 e410 e335 7ea9 ff35
00000090: 3a16 0436 6eb0 1536 ca58 4136 9660 dd36
000000a0: 2ef6 7e37 a2f3 0136 bf3c 1b34 7eb6 1534
000000b0: 9282 8234 a108 a834 b03d 0535 55bf 0735
000000c0: f550 3135 c6ce 3435 be21 5035 e312 6d35
000000d0: 8ff1 5335 263b 7135 46b1 8735 cd31 8d35
000000e0: ded3 8c35 bea1 9e35 0c7f a735 42db 9635
000000f0: 84ab a535 0cf3 aa35 bc4d af35 e419 a535
00000100: 5477 a935 dc07 b435 76a1 aa35 fbe6 b035
00000110: 4339 b935 33f9 c635 600e a835 6d41 ba35
00000120: 2488 c735 4bad c135 38f6 cd35 2b1a cf35
00000130: 84ab e335 4d55 ed35 9bbf 0936 e453 2936
00000140: e900 d336 c9f0 7637 de77 fb35 7c93 1834
00000150: b298 1234 2b21 7f34 570d a734 60db fe34
00000160: e81b 0535 7958 2d35 d958 3435 545d 4e35
00000170: 9c00 6d35 d6c4 5235 b7fd 6d35 2e6b 8635
00000180: 2530 8b35 11a8 8935 3d8e 9935 8d16 a335
00000190: 1479 9335 b799 a235 913b a835 4f1c ad35
000001a0: d3d4 a335 8e41 a935 d9c4 b235 e273 a935
000001b0: e860 b035 3420 b935 b2d9 c835 d864 aa35
000001c0: 673a bf35 2051 cc35 6364 c835 4a03 d135
000001d0: bb42 d035 355d e935 e868 f235 8436 0d36
000001e0: 4a4d 2b36 4542 d436 6551 7637 0c5e 0136
000001f0: 30dc 2034 ef25 1c34 8f39 8b34 35c8 b034
00000200: 1197 0835 2c5f 0c35 d68e 3635 55a7 3d35
00000210: 7316 5935 715d 7835 29ce 5b35 203e 7735
00000220: 8ad6 8b35 230d 9135 64c5 8f35 0181 9e35
00000230: 6b7b a735 68e4 9435 26b8 a135 acce a635
00000240: 61ce a635 16e7 9b35 a39a 9e35 3676 a535
00000250: b481 9735 0236 9d35 1aa5 a235 8b71 aa35
00000260: 8485 8f35 26c4 9d35 ccc4 a535 3ddb a135
00000270: 1446 ab35 da2d aa35 d4a4 bc35 5220 c535
00000280: 2eaf e535 fcd9 1336 ef5c b436 bb06 6437
00000290: 320e 0036 8986 2334 3626 2234 5e35 8c34
000002a0: 5f86 b334 e45e 0d35 abfb 0e35 08d9 3a35
000002b0: a813 3c35 4e0d 5735 6c64 7635 cdd1 5a35
000002c0: e200 7835 dc3c 8d35 a0ab 9135 b0fe 8f35
000002d0: a105 a035 ef02 a835 6de0 9535 083b a235
000002e0: 67f1 a535 df56 a635 4bee 9b35 ee0d 9e35
000002f0: 529e a435 1ccb 9735 2c33 9d35 9926 a335
00000300: 5c1a ab35 b905 8f35 f0e6 9b35 8936 a435
00000310: 2100 9f35 1b9b a835 b8cd a835 3007 bc35
00000320: e524 c335 f06b e335 76a5 1036 a7d8 b136
00000330: 40da 6437 6ec6 0036 ae48 1e34 d849 1634
00000340: 0ef9 8334 8e6f a834 4f56 0335 67c1 0735
00000350: ce71 3235 f12c 3535 1664 4f35 f602 6f35
00000360: 086b 5635 b646 7635 407f 8a35 32cb 8e35
00000370: f6c1 8e35 9f9e a035 31c8 a935 5401 9935
00000380: 5099 a835 bf54 af35 6061 b635 aa8e ab35
00000390: 1d38 b135 99ac bc35 756f b435 e6f6 ba35
000003a0: 1cb5 c435 8286 d735 64b3 b635 8128 cd35
000003b0: bfb5 dd35 2f9c d835 6ca0 e435 3da2 e635
000003c0: 5407 fe35 b00e 0436 cae5 1836 1462 4436
000003d0: b35e df36 5f6a 8337 477f 0136 61b2 1e34
000003e0: 4918 1534 2d90 8634 4886 a534 7e62 0335
000003f0: c42a 0635 fcda 2e35 c966 2f35 e740 4835
