test/test_results/triplets/results/model/model_epoch0490.tar (torch, 83092 bytes, 3 tensors)

fc.weight f4 [100, 41]
0.00035395732 1.6398797 1.2893218 2.0419679 2.3937318 2.7043548 2.726141 2.6402233
2.6044562 2.5924945 2.4549677 2.2509842 2.1291735 1.9972228 1.8587537 1.6932726
1.6567707 1.5033563 1.3853136 1.4673042 1.3676912 1.3645982 1.2933165 1.3738625
1.3089194 1.3811597 1.3227512 1.2502512 1.1554308 1.0806397 1.1670874 0.9034201
0.83762294 0.68489933 0.6587333 0.4866666 0.5139147 0.15685299 0.011019018 0.14347033
0.0013345364 0.0014629315 0.0035631307 0.0036451526 0.0031074435 0.0013174638 0.0025603091 0.0019009546
0.0029483067 0.0035765406 0.0003097863 0.0025505815 0.0010840471 0.0025208467 0.0017791478 0.002979495
0.0030474921 0.002334904 0.0027234238 0.00055160845 0.0014799605 0.00083190616 0.0027525604 0.0036335052
0.0017728475 -8.1165694e-05 0.0036301261 0.0022067504 0.00028274546 0.0036347746 0.003593014 0.0034320082
0.0036773717 0.00080362044 0.003708279 0.003542744 0.0036464247 0.0027849937 0.0027439722 0.0032484946
0.0035262767 0.0009996042 0.003662262 0.0022438616 0.0026978194 0.0009375394 0.0014685647 0.0023851595
0.0006762228 0.0026314377 -3.448865e-05 3.0403156e-05 0.003031576 0.00028879324 0.0021203028 0.0035649394
0.0014908862 0.0024551621 0.0010344835 0.003334589 0.00033221976 0.0008773174 0.0034817583 0.002939623
0.003375237 0.0020695943 0.0022073654 0.0027818154 0.002591792 0.0022135403 0.0019589823 0.0034107296
0.0022961234 0.00083997566 0.003376051 0.003301761 0.0010804783 0.0019730036 0.002281115 0.00038965256
0.00066262635 0.0015393164 0.0028635955 0.00084389036 0.0025840502 0.0010945927 0.0020047987 0.003652571
0.003557681 0.0021571638 0.002455272 0.00066222565 0.0037460013 0.00085932814 0.0010177857 0.0021191714
0.0014990993 0.001953525 0.003643534 0.0029600952 0.0030724276 0.0036507747 0.000642276 0.003550324
0.0034287272 0.0030218167 0.0036745989 0.0029960524 7.275448e-05 0.0015236775 0.0009803348 0.0021880511
0.0029780222 0.0011239063 0.003534397 0.003662205 0.0013312309 0.0033403784 0.0022658443 0.0007996525
0.003688654 0.0004734341 0.0032632686 0.0024249528 0.0019535092 0.0033017069 0.0004889475 0.003068468
0.0011750453 0.003250354 0.0032596337 0.0033981053 0.0026148711 0.0025352032 0.001820188 0.0010668527
0.0018328963 0.00091388763 0.003450365 0.0027160922 0.0020898695 0.0032899373 0.0015414628 0.0025340777
0.0031222762 0.0013579049 0.0033051362 0.0023224235 0.0035464976 0.0024099546 0.0005340431 0.001140536
-5.9169688e-05 0.0022057737 -3.0990122e-05 0.0023311668 -0.0001112678 0.0002328232 0.0010545775 0.0035932427
0.0034721305 0.0031102262 4.376247e-05 0.0028904001 0.0025829582 0.0002122781 4.614824 3.985134
3.655149 3.4651968 3.4244008 3.1420398 2.8891368 2.6521363 2.7015784 2.499489
2.325572 2.2556093 2.0882957 2.0453103 1.8870801 1.8868116 1.7478725 1.6853958
1.6512239 1.6057049 1.4415808 1.528539 1.4119911 1.239168 1.170657 0.98226
1.1017529 0.9625623 0.92015773 0.9277109 0.75763583 0.7759131 0.67669624 0.49612218
0.35587466 0.36283082 0.07670151 0.011924148 0.38640365 0.0011520068 0.0009786759 0.0010515612
0.0035096698 0.00031543477 0.003706307 0.0025863752 0.0014520728 0.0031708214 0.003709156 0.0031306278
00000000: 5993 b939 94e7 d13f 7f08 a53f 9aaf 0240
00000010: e732 1940 2614 2d40 1879 2e40 6bf9 2840
00000020: 69af 2640 6eeb 2540 311e 1d40 2010 1040
00000030: 6144 0840 ffa4 ff3f a4eb ed3f 28bd d83f
00000040: 1011 d43f fb6d c03f f551 b13f a0d0 bb3f
00000050: 8110 af3f 27ab ae3f 658b a53f bada af3f
00000060: ac8a a73f d7c9 b03f e94f a93f 3b08 a03f
00000070: 28e5 933f 6752 8a3f 1f63 953f 8a46 673f
00000080: 756e 563f 9055 2f3f bfa2 283f 5d2c f93e
00000090: ea8f 033f 129e 203e 1c89 343c e3e9 123e
000000a0: 9ceb ae3a d6bf bf3a 6a83 693b 83e3 6e3b
000000b0: 40a6 4b3b c0ae ac3a dcca 273b 7429 f93a
000000c0: 6138 413b 6564 6a3b d06a a239 a827 273b
000000d0: 9616 8e3a ca34 253b 4b32 e93a a243 433b
000000e0: 6fb8 473b 3005 193b 787b 323b d199 103a
000000f0: 3cfb c13a 4714 5a3a 4d64 343b 1a20 6e3b
00000100: e45e e83a 8037 aab8 69e7 6d3b 219f 103b
00000110: 743d 9439 6635 6e3b c678 6b3b 8beb 603b
00000120: 0f00 713b 0eaa 523a 9906 733b 622d 683b
00000130: dbf8 6e3b 7184 363b 37d4 333b b2e4 543b
00000140: 1b19 673b 2705 833a 9002 703b c00d 133b
00000150: e6cd 303b 34c5 753a db7c c03a 5650 1c3b
00000160: 8b44 313a 3374 2c3b e8a7 10b8 480a ff37
00000170: 68ad 463b 2c69 9739 c7f4 0a3b c2a1 693b
00000180: d769 c33a c9e6 203b 8297 873a 1f89 5a3b
00000190: c82d ae39 c6fb 653a 362e 643b b1a6 403b
000001a0: 1533 5d3b 08a2 073b 72a9 103b 1e4f 363b
000001b0: 0edb 293b 0b11 113b 4562 003b 8c86 5f3b
000001c0: 8f7a 163b d031 5c3a bd40 5d3b 5c62 583b
000001d0: d69e 8d3a 824d 013b c27e 153b 484a cc39
000001e0: 1ab4 2d3a e3c2 c93a 29ab 3b3b 8638 5d3a
000001f0: 2b59 293b 7078 8f3a f162 033b f95f 6f3b
00000200: fc27 693b 345f 0d3b a1e8 203b 3699 2d3a
00000210: 797f 753b 8944 613a 3967 853a cce1 0a3b
00000220: 6d7d c43a b606 003b 5bc8 6e3b 28fe 413b
00000230: c85a 493b d641 6f3b 6a5e 283a 8dac 683b
00000240: 7fb4 603b ac09 463b 8ad1 703b 6b59 443b
00000250: c493 9838 22b6 c73a 947e 803a 6865 0f3b
00000260: ec2a 433b 0a50 933a 58a1 673b 9b01 703b
00000270: b27c ae3a 40ea 5a3b 8f7e 143b c59f 513a
00000280: 58bd 713b 4037 f839 90dc 553b f5eb 1e3b
00000290: 7206 003b 7361 583b b62c 003a 5a18 493b
000002a0: fa03 9a3a e403 553b 949f 553b bfb2 5e3b
000002b0: 425e 2b3b a725 263b 6093 ee3a a3d5 8b3a
000002c0: cb3d f03a f691 6f3a 851f 623b 7700 323b
000002d0: 31f6 083b fd9b 573b e90a ca3a c512 263b
000002e0: 1a9f 4c3b bafb b13a fc9a 583b cd33 183b
000002f0: 5b6c 683b 54f0 1d3b 07ff 0b3a 0a7e 953a
00000300: f82c 78b8 be8e 103b 64fb 01b8 7dc6 183b
00000310: 7258 e9b8 0022 7439 c039 8a3a 9c7c 6b3b
00000320: af8c 633b f0d4 4b3b 988d 3738 de6c 3d3b
00000330: d946 293b f896 5e39 a3ac 9340 6f0c 7f40
00000340: f6ed 6940 c9c5 5d40 6229 5b40 2e17 4940
00000350: 9ee7 3840 9abc 2940 a9e6 2c40 a1f7 1f40
00000360: 2cd6 1440 e75b 1040 a3a6 0540 5de6 0240
00000370: d78b f13f 0b83 f13f 49ba df3f 0dbb d73f
00000380: 4e5b d33f bd87 cd3f b885 b83f 2aa7 c33f
00000390: 20bc b43f 0f9d 9e3f 17d8 953f 6475 7b3f
000003a0: 3d06 8d3f 7c6a 763f 758f 6b3f 767e 6d3f
000003b0: 6cf4 413f 3ea2 463f f73b 2d3f ba03 fe3e
000003c0: 3435 b63e f6c4 b93e ae15 9d3d 805d 433c
000003d0: b3d6 c53e effe 963a ea46 803a 8ad4 893a
000003e0: 7d02 663b f060 a539 83e5 723b 2d80 293b
000003f0: 7a53 be3a 8ecd 4f3b 5015 733b 382b 4d3b

exp_avg f4 [100, 41]
0.00018914962 7.435994e-06 8.663105e-05 6.6307635e-05 -1.416427e-05 -5.8058125e-05 0.00013932073 4.3613145e-05
6.5380373e-06 -0.00027462663 -0.0001298002 -0.00020236705 -0.0002941936 0.0005930719 -0.00025382466 -0.00035692862
-0.00014258976 -3.7150345e-05 7.4046504e-05 0.00031181518 0.0002930838 -0.00071643625 0.00027806926 4.452998e-05
0.00041708298 -0.00037105745 -1.6090053e-05 0.0008207881 -0.0010918652 -0.00020633357 0.00089722354 -0.0002960138
0.0005937391 -0.0005650609 0.0004420065 -0.00046108477 -0.00050701515 0.00058229105 -0.0008509812 0.0013906285
-0.00030554208 0.00017970632 8.092721e-05 5.4129152e-05 0.0001278685 0.00018117396 -0.0004209439 0.00017263493
-0.000303848 8.110738e-05 0.00018882047 0.00015843232 -0.0007445873 -0.00042185094 0.00017584064 -0.00030475575
-0.00030444472 0.00016269846 -0.00035948018 -0.00084887294 0.00017918379 0.0001858035 0.00015107566 -4.3721695e-05
0.00017483484 0.00019129518 -4.3252367e-05 0.00016840023 0.00018946809 -7.169813e-05 6.7405905e-05 -0.00016716884
2.0175532e-05 0.00018616898 3.8278027e-05 -9.9992394e-05 2.0013773e-05 0.00014563955 0.00015182394 0.00011944837
7.061059e-05 0.00019041725 5.4177028e-05 -0.00048874115 0.00015095109 0.00018489471 0.0001797029 0.0001631625
0.0001874021 0.00015540379 0.00019054247 0.00018966022 -0.00030349864 0.0001890941 0.00016819005 -9.877904e-05
0.00017892885 0.00015925615 0.00018409548 0.00010251198 0.00018842916 0.00018520751 -0.00013114365 -0.00030538038
0.00010265269 0.00017135215 -0.0004887038 0.00014576226 0.0001579794 0.0001694084 0.00016911696 -0.00016740666
0.00016615976 0.00018541334 0.000103137834 -0.00020898542 0.00018385737 0.00017236451 0.0001662195 0.00019013553
0.00018672798 -0.00064551487 0.00013917201 0.00018601917 0.00015568298 -0.00074396556 0.0001714996 -7.031035e-05
5.372752e-05 0.00016959243 0.00015902294 0.00018675726 2.0342975e-05 0.00018583273 0.0001848036 0.0001680635
0.00018136403 -0.0005654979 5.392926e-05 -0.0003037982 0.00013372234 -1.9816543e-05 0.00018753887 -0.00013130959
0.00010099781 -0.0003036407 -6.9657945e-05 0.00013551612 0.00018991457 0.00017886623 0.00018522349 0.00016291681
-0.00030423628 0.00018456427 7.999249e-05 2.410481e-06 0.00018018343 0.00011230253 0.00016496895 0.00018730733
2.079868e-05 -0.0008473557 -0.00020614929 0.00016064444 -0.0005655008 0.00011182789 -0.00084803643 0.00012801742
0.00018413876 -0.0002089395 0.00011167292 0.000102516504 0.00015474565 0.00015879724 0.00017319126 0.00018411038
-0.00056623743 0.00018679885 -0.00016912352 0.00015059575 0.00017085263 -0.00020827143 0.0001788626 0.00015528053
-0.00025335376 0.00018053818 0.00011179581 0.00016592519 5.484723e-05 0.00016304552 0.00018772573 0.0001850497
0.00018796603 0.00016852657 0.00019062491 0.0001623282 0.00019076934 0.00018922614 -0.0007428541 -9.974766e-05
9.284602e-05 0.0001291175 0.00019006112 0.00014362873 0.00015750424 0.00018974685 -2.980313e-05 6.709435e-05
4.693347e-05 -8.234196e-05 -0.00017445262 0.00019274364 -7.987565e-05 -8.120206e-05 -0.00050696265 -0.000397062
2.1253916e-05 -0.0007159788 0.001157542 -0.0003336955 -0.00016717621 -0.00034617662 -3.8967828e-05 9.722717e-05
5.9598467e-05 0.0004693332 -0.0007505418 0.0002450317 7.826653e-05 1.6698585e-05 0.00010674866 -0.00024458813
0.0010889798 -0.0010574844 -0.000107329775 0.001073143 -0.00026419904 0.00077425066 -0.0008772148 0.0005563403
-0.00022388731 -0.0009993822 0.00090344157 -0.0011414663 0.0015831223 -0.0004027977 0.00018500775 0.00018484418
8.117691e-05 0.0001888327 3.811527e-05 -0.00042188182 0.00018013902 0.00012033701 2.1330623e-05 0.0001277239
00000000: 7756 4639 b482 f936 b1ad b538 a40e 8b38
00000010: 14a3 6db7 7083 73b8 a016 1239 42ed 3638
00000020: 5061 db36 c3fb 8fb9 fa1a 08b9 7e32 54b9
00000030: ff3d 9ab9 6278 1b3a c513 85b9 2622 bbb9
00000040: 2684 15b9 e1d1 1bb8 6a49 9b38 207b a339
00000050: 0ba9 9939 39cf 3bba d3c9 9139 b4c5 3a38
00000060: eeab da39 7d8a c2b9 20f9 86b7 282a 573a
00000070: eb1c 8fba 3f5b 58b9 a733 6b3a 4d32 9bb9
00000080: 28a5 1b3a 9820 14ba 1cbd e739 c0bd f1b9
00000090: 36e9 04ba e4a4 183a 6214 5fba c045 b63a
000000a0: 2a31 a0b9 8c6f 3c39 77b7 a938 bc08 6338
000000b0: 7014 0639 84f9 3d39 22b2 dcb9 5605 3539
000000c0: ca4d 9fb9 3118 aa38 1cfe 4539 da20 2639
000000d0: 6830 43ba e02b ddb9 dd61 3839 a0c7 9fb9
000000e0: e19d 9fb9 099a 2a39 9d78 bcb9 e686 5eba
000000f0: 48e3 3b39 3fd4 4239 106a 1e39 d061 37b8
00000100: df53 3739 6996 4839 e069 35b8 9894 3039
00000110: f4ab 4639 a45c 96b8 455c 8d38 0b4a 2fb9
00000120: a03e a937 5b36 4339 b88c 2038 02b3 d1b8
00000130: 40e3 a737 d2b6 1839 ee32 1f39 5b80 fa38
00000140: c614 9438 beaa 4739 243c 6338 dd1e 00ba
00000150: a048 1e39 4ce0 4139 a16e 3c39 9a16 2b39
00000160: 5e81 4439 e3f3 2239 5bcc 4739 87df 4639
00000170: e61e 9fb9 9047 4639 2c5c 3039 9827 cfb8
00000180: d99e 3b39 fffd 2639 c109 4139 b3fb d638
00000190: 1195 4539 4334 4239 9b83 09b9 761b a0b9
000001a0: 3e47 d738 feac 3339 5b1c 00ba c2d7 1839
000001b0: 46a7 2539 39a3 3139 fd54 3139 e289 2fb9
000001c0: 2c3b 2e39 846b 4239 b44b d838 1923 5bb9
000001d0: d6c9 4039 bfbc 3439 354b 2e39 1e5f 4739
000001e0: 69cc 4339 c537 29ba b4ee 1139 240e 4339
000001f0: d53e 2339 af06 43ba 93d4 3339 9573 93b8
00000200: 7c59 6138 9fd4 3139 65bf 2639 45d4 4339
00000210: 35a6 aa37 18dc 4239 d7c7 4139 343a 3039
00000220: 892c 3e39 ec3d 14ba 1a32 6238 1b47 9fb9
00000230: d137 0c39 b43b a6b7 15a6 4439 26b0 09b9
00000240: c9ce d338 f731 9fb9 5315 92b8 5519 0e39
00000250: ce23 4739 0a8e 3b39 8d38 4239 a6d4 2a39
00000260: e781 9fb9 9887 4139 a4c1 a738 c0c3 2136
00000270: 9fef 3c39 f683 eb38 84fb 2c39 ee67 4439
00000280: d378 ae37 1421 5eba c729 58b9 aa72 2839
00000290: 1e3e 14ba 2485 ea38 c34e 5eba 6a3c 0639
000002a0: 5f15 4139 c516 5bb9 f131 ea38 21fe d638
000002b0: 3843 2239 cf82 2639 ad9a 3539 c10d 4139
000002c0: 8d6f 14ba 6fdf 4339 c056 31b9 3de9 1d39
000002d0: e726 3339 7063 5ab9 108d 3b39 cdd2 2239
000002e0: 91d4 84b9 d94e 3d39 eb73 ea38 34fc 2d39
000002f0: c40b 6638 33f7 2a39 3ed8 4439 e709 4239
00000300: bf18 4539 82b6 3039 7ce2 4739 a536 2a39
00000310: 4109 4839 016b 4639 18bc 42ba 9e2f d1b8
00000320: 54b6 c238 b763 0739 254b 4739 0b9b 1639
00000330: b927 2539 c8f6 4639 bc01 fab7 01b5 8c38
00000340: 6eda 4438 01af acb8 45ed 36b9 3a1b 4a39
00000350: ea82 a7b8 064b aab8 b0e5 04ba c22c d0b9
00000360: 704a b237 86b0 3bba aab8 973a daf3 aeb9
00000370: 064c 2fb9 0a7f b5b9 6371 23b8 70e6 cb38
00000380: 5ef9 7938 d610 f639 02c0 44ba 9977 8039
00000390: 0623 a438 f013 8c37 40de df38 103c 80b9
000003a0: 19bc 8e3a 4a9b 8aba 3c16 e1b8 b4a8 8c3a
000003b0: 3284 8ab9 15f7 4a3a e4f4 65ba 5ed7 113a
000003c0: 4bc3 6ab9 b4fd 82ba f0d4 6c3a 419d 95ba
000003d0: c580 cf3a 982e d3b9 a4fe 4139 bbd2 4139
000003e0: 863d aa38 6401 4639 f6dd 1f38 0530 ddb9
000003f0: b3e3 3c39 715d fc38 2aef b237 a0ed 0539

exp_avg_sq f4 [100, 41]
1.960999e-06 5.7043113e-08 5.075608e-08 5.940528e-08 1.6274349e-07 3.996085e-07 1.0101965e-06 1.7997162e-06
2.4387182e-06 3.1576965e-06 3.4006118e-06 3.1101201e-06 4.001558e-06 4.4310464e-06 5.1345014e-06 5.8105834e-06
6.338343e-06 6.1526157e-06 6.1896376e-06 6.788036e-06 7.176501e-06 7.219666e-06 7.3417764e-06 7.7535715e-06
8.621026e-06 8.163452e-06 8.960354e-06 9.264819e-06 9.018942e-06 9.556065e-06 9.648625e-06 9.987497e-06
1.0177099e-05 1.0191961e-05 9.70542e-06 1.0501509e-05 1.0292377e-05 1.0415768e-05 1.0010453e-05 1.2303572e-05
1.9452531e-05 1.9772951e-06 2.0151804e-06 2.0184623e-06 2.0040704e-06 1.9744987e-06 2.0470513e-06 1.9824827e-06
2.0413363e-06 2.0143311e-06 1.9581298e-06 1.992224e-06 2.0535817e-06 2.0441726e-06 1.9791803e-06 2.0402006e-06
2.0409432e-06 1.9875506e-06 2.0411749e-06 2.0545838e-06 1.9744427e-06 1.9655083e-06 1.9939748e-06 2.0259217e-06
1.9792703e-06 1.952179e-06 2.0259308e-06 1.9857075e-06 1.9565712e-06 2.028312e-06 2.0130226e-06 2.032906e-06
2.0194411e-06 1.9622687e-06 2.0180419e-06 2.0276116e-06 2.0206603e-06 1.9991403e-06 2.0021982e-06 2.0184566e-06
2.0413565e-06 2.0316436e-06 2.0199507e-06 2.0477999e-06 1.9963836e-06 1.9679708e-06 1.9763459e-06 1.990218e-06
1.9642555e-06 1.9940953e-06 1.9526829e-06 1.9537163e-06 2.0422708e-06 1.956766e-06 1.9855381e-06 2.0300547e-06
1.9748477e-06 1.9893357e-06 1.9673093e-06 2.0069904e-06 1.9572576e-06 1.9653912e-06 2.0311222e-06 2.039476e-06
2.0078412e-06 1.9829472e-06 2.046579e-06 1.996783e-06 1.9911936e-06 1.98514e-06 1.9814581e-06 2.033366e-06
1.9863546e-06 1.9619579e-06 2.006772e-06 2.034213e-06 1.9670986e-06 1.9812849e-06 1.9899987e-06 1.9670726e-06
1.9757213e-06 2.0782868e-06 2.063413e-06 1.9681286e-06 1.9942734e-06 2.0550635e-06 1.9844076e-06 2.0295463e-06
2.0171512e-06 1.9861116e-06 1.99097e-06 1.9636916e-06 2.0216037e-06 1.9657648e-06 1.967643e-06 1.9839767e-06
1.974892e-06 2.0488856e-06 2.0173923e-06 2.0395225e-06 1.9999943e-06 2.0241555e-06 1.9621175e-06 2.0333794e-06
2.008994e-06 2.041719e-06 2.028003e-06 2.0008317e-06 1.954299e-06 1.9737902e-06 1.9659649e-06 1.9863878e-06
2.0380694e-06 1.9700026e-06 2.009641e-06 2.0202035e-06 1.9709005e-06 2.0037787e-06 1.9856357e-06 1.9680322e-06
2.028446e-06 2.0673476e-06 2.0628672e-06 2.0552566e-06 2.0519822e-06 2.0083537e-06 2.0553798e-06 2.0040543e-06
1.9722336e-06 2.03668e-06 2.0071843e-06 2.0089833e-06 1.9930353e-06 1.991836e-06 1.9806737e-06 1.968849e-06
2.0480309e-06 1.9660827e-06 2.034422e-06 1.994478e-06 1.9838474e-06 2.0354112e-06 1.9754132e-06 1.9910021e-06
2.037634e-06 1.9721735e-06 2.0068192e-06 1.9865531e-06 2.0150997e-06 1.9898976e-06 1.9604472e-06 1.9687636e-06
1.952254e-06 1.9834529e-06 1.9529384e-06 1.9872998e-06 1.9489707e-06 1.9543568e-06 2.051346e-06 2.0307214e-06
2.0126718e-06 2.0100738e-06 1.965883e-06 2.026146e-06 2.0578436e-06 1.959057e-06 1.00586774e-07 1.05876545e-07
2.5957e-07 6.762475e-07 1.3105544e-06 2.7243111e-06 4.1643434e-06 5.168208e-06 6.428443e-06 6.6744547e-06
5.9834942e-06 6.941153e-06 7.4246027e-06 8.620048e-06 9.757558e-06 1.04401615e-05 1.0680561e-05 1.0651302e-05
1.154059e-05 1.2281847e-05 1.2280249e-05 1.19874185e-05 1.2743314e-05 1.3895339e-05 1.2440714e-05 1.1980867e-05
1.1994308e-05 1.1874595e-05 1.2140158e-05 1.193831e-05 1.3101476e-05 1.2787582e-05 1.3199471e-05 1.3164267e-05
1.3490952e-05 1.3487421e-05 1.2724847e-05 1.2703636e-05 1.4748666e-05 2.1824057e-05 1.9701142e-06 1.9699326e-06
2.0150426e-06 1.959567e-06 2.0206048e-06 2.0464338e-06 1.9760826e-06 2.00483e-06 2.020757e-06 2.0041446e-06
00000000: b599 0336 91ff 7433 e6fe 5933 cc24 7f33
00000010: 97be 2e34 c689 d634 1696 8735 c78d f135
00000020: dca8 2336 d0e8 5336 1136 6436 75b7 5036
00000030: 1f45 8636 66ae 9436 0849 ac36 88f8 c236
00000040: f4ad d436 9172 ce36 95b0 cf36 c9c4 e336
00000050: adcd f036 7540 f236 6159 f636 5615 0237
00000060: 06a3 1037 c2f5 0837 6d54 1637 1870 1b37
00000070: 1050 1737 fd52 2037 87e0 2137 f98f 2737
00000080: 4fbe 2a37 24fe 2a37 76d4 2237 a32f 3037
00000090: 6cad 2c37 62bf 2e37 91f2 2737 706b 4e37
000000a0: fe2d a337 acb1 0436 893c 0736 eb74 0736
000000b0: ab7d 0636 a181 0436 1360 0936 cb0a 0536
000000c0: e4fd 0836 f22d 0736 6a68 0336 26b2 0536
000000d0: 44d0 0936 9e2e 0936 0fd2 0436 61ea 0836
000000e0: 23f7 0836 dc61 0536 1efb 0836 7be1 0936
000000f0: ab80 0436 2de7 0336 3ad0 0536 12f5 0736
00000100: 9bd3 0436 2e02 0336 3af5 0736 3242 0536
00000110: a34d 0336 231e 0836 7717 0736 0f6d 0836
00000120: bc85 0736 85af 0336 b26d 0736 1a12 0836
00000130: ae9a 0736 f828 0636 815d 0636 d274 0736
00000140: 3dfe 0836 5f57 0836 7d8e 0736 ef6c 0936
00000150: 9cf9 0536 7b11 0436 5da1 0436 af8f 0536
00000160: a7d1 0336 4cd2 0536 d60a 0336 971c 0336
00000170: f20d 0936 fc50 0336 493f 0536 133c 0836
00000180: a087 0436 8780 0536 1e06 0436 d5af 0636
00000190: 6e59 0336 2ae5 0336 6a4e 0836 eedd 0836
000001a0: 73be 0636 c612 0536 f657 0936 7900 0636
000001b0: 72a0 0536 7238 0536 31f9 0436 f674 0836
000001c0: 504d 0536 2eaa 0336 15ac 0636 8383 0836
000001d0: 7f02 0436 37f6 0436 eb8b 0536 0d02 0436
000001e0: a296 0436 b278 0b36 2a79 0a36 3114 0436
000001f0: 5bd5 0536 b9e9 0936 dd2b 0536 5733 0836
00000200: 655e 0736 2349 0536 9b9c 0536 f7c7 0336
00000210: e3aa 0736 95eb 0336 d90b 0436 7624 0536
00000220: 6388 0436 967f 0936 8962 0736 bbde 0836
00000230: a437 0636 bad6 0736 ecac 0336 3175 0836
00000240: 41d2 0636 7704 0936 d418 0836 0746 0636
00000250: 9a26 0336 7575 0436 05ef 0336 e24d 0536
00000260: c4c5 0836 6334 0436 5fdd 0636 d592 0736
00000270: d043 0436 a878 0636 f640 0536 8912 0436
00000280: 7020 0836 c3bc 0a36 ca6f 0a36 0aed 0936
00000290: c9b4 0936 41c7 0636 28ef 0936 647d 0636
000002a0: b75a 0436 e5ad 0836 2ab3 0636 12d2 0636
000002b0: 16c0 0536 7bab 0536 b7eb 0436 9120 0436
000002c0: e770 0936 0bf1 0336 1b87 0836 dfd8 0536
000002d0: 3d22 0536 1998 0836 5791 0436 289d 0536
000002e0: 49be 0836 af59 0436 e4ac 0636 b950 0536
000002f0: 263b 0736 2e8a 0536 3a90 0336 1a1f 0436
00000300: 7803 0336 761b 0536 3a0f 0336 8d5d 0536
00000310: 10cb 0236 9827 0336 dba9 0936 8747 0836
00000320: 7011 0736 cee4 0636 9ded 0336 ecf8 0736
00000330: 7c19 0a36 5878 0336 2a02 d833 3f5e e333
00000340: 075b 8b34 6087 3535 4ee6 af35 4fd3 3636
00000350: 70bb 8b36 926a ad36 e8b3 d736 21f5 df36
00000360: d3c5 c836 0de8 e836 da20 f936 d39e 1037
00000370: 64b4 2337 2728 2f37 a930 3337 feb2 3237
00000380: 759e 4137 220e 4e37 4507 4e37 921d 4937
00000390: 1ecc 5537 0720 6937 76b8 5037 6f01 4937
000003a0: 293b 4937 ff38 4737 95ad 4b37 a74a 4837
000003b0: 69ce 5b37 3f8a 5637 4c73 5d37 19dc 5c37
000003c0: 3357 6237 0848 6237 cd7c 5537 b321 5537
000003d0: 0a71 7737 ce12 b737 4e36 0436 2f33 0436
000003e0: 2b3a 0736 1b81 0336 ba99 0736 7755 0936
000003f0: d79c 0436 b88a 0636 579c 0736 f17e 0636
