test/test_results/triplets/results/model/model_epoch0255.tar (torch, 67796 bytes, 3 tensors)

fc.weight f4 [100, 41]
0.0009148527 2.4976351 2.4555547 2.3641665 2.211376 2.1387172 2.02468 1.910797
1.8485496 1.7921798 1.6465684 1.5631107 1.4580389 1.4042333 1.3243611 1.2360734
1.2011634 1.1244674 1.0730121 1.1074647 1.0654118 1.0503762 1.08374 1.0873652
1.0419025 1.0835582 1.0324584 1.0665635 1.0130268 0.94885945 1.0116795 0.84584755
0.7978312 0.6975368 0.6182837 0.45665264 0.49398544 0.17743814 0.08637854 0.040182482
0.00037423783 0.0019962895 0.0051809633 0.0032500897 0.0053528105 0.0020708267 0.007931241 0.18564442
0.3707637 0.3802923 0.45824787 0.45189673 0.4818061 0.4651469 0.38087174 0.33490753
0.28992102 0.1416612 0.061687265 0.0047122934 0.0030035023 0.001117792 0.004078506 0.0023291414
0.00038274593 0.00086833397 0.003589125 0.0026601476 0.00012226078 -7.889682e-05 0.0019261861 0.0019898443
0.0038201734 0.0019152239 0.00086609676 -1.5915166e-05 0.0022066373 0.0011096317 0.0011193631 0.0014981462
0.0033224938 0.0014083764 0.0036228893 0.0017501973 0.001586189 0.00037484447 0.0033510844 0.0012072378
0.004914126 0.0062200283 0.011650731 0.26773337 0.34164098 0.43419328 0.4376988 0.38751853
0.36659536 0.3660481 0.31747714 0.2925461 0.19754924 0.24885213 0.18323402 0.10185849
0.0021852427 0.006888509 0.0037981826 0.0046649133 0.0041971365 0.0016881812 0.0008258348 2.3096625e-05
0.0019119594 0.002470959 0.0034191154 0.0017198287 0.0019134498 0.0017524387 0.003330989 0.00273528
0.0005252971 0.0039657517 0.00068118225 0.0013996838 0.00176925 0.0031667433 0.0008483825 0.0032997841
0.0027204894 0.0005562517 0.00016047218 0.00364132 0.002067715 0.0035664935 0.0036416615 0.0027214976
0.0037065651 0.0028033669 0.0007793574 0.0019502871 0.0014712205 0.0011333838 0.0035197823 0.0015676098
0.0019624277 0.0022603131 0.00075700873 0.001893923 0.0026560666 0.0036049464 0.0030940573 0.0033669542
0.0010651039 0.00362882 0.0031831185 0.003056844 0.003443895 0.0019163855 0.00084417075 0.0022251839
0.003671369 0.0015956057 0.0015336956 0.0033579527 2.5713394e-05 0.002532233 0.002723558 0.0022935518
-6.660672e-05 0.0033864907 0.001979165 0.0014107466 0.00023566649 0.00025629537 0.002233727 0.0035297673
0.0027889062 0.0036952752 0.002025373 0.0025001066 0.0029928382 0.0019109675 0.003731941 0.002458411
0.0016533944 0.0035847654 7.9610516e-05 0.0034352108 1.4781675e-05 0.0035756382 0.002887916 0.0030244351
0.0030123726 0.0036365578 0.0026720255 0.003540627 0.0012570772 0.0020371156 0.0024279058 0.0031998295
0.0036416857 0.0033726015 0.002204881 0.00215236 0.0034474395 0.00078190176 3.1871176 3.0496793
2.5827131 2.3998005 2.2695987 2.1212459 1.9728336 1.8329905 1.8013264 1.6916784
1.6274464 1.5309172 1.4722885 1.4168241 1.3307654 1.3219 1.2446209 1.2309268
1.2145057 1.1910508 1.1234062 1.1847999 1.1355025 1.0388839 1.0105149 0.91432405
1.0069114 0.93943465 0.92384607 0.9336667 0.8192014 0.82695127 0.71405214 0.5737594
0.46141404 0.45529407 0.21874413 0.13022982 0.060862653 0.00010092829 0.0015308001 0.004190337
0.0035956122 0.0018030724 0.0011272208 0.0011110622 0.004703154 0.004008273 0.0012549829 0.014931328
00000000: bad2 6f3a 41d9 1f40 cf27 1d40 814e 1740
00000010: 2f87 0d40 bee0 0840 5b94 0140 ff94 f43f
00000020: 469d ec3f 2666 e53f c1c2 d23f 0314 c83f
00000030: 05a1 ba3f ebbd b33f aa84 a93f a737 9e3f
00000040: b9bf 993f 8cee 8f3f 7658 893f 67c1 8d3f
00000050: 6a5f 883f ba72 863f feb7 8a3f c82e 8b3f
00000060: 105d 853f 09b2 8a3f 9927 843f 2785 883f
00000070: ddaa 813f 74e8 723f b77e 813f 7789 583f
00000080: aa3e 4c3f c691 323f d747 1e3f 60ce e93e
00000090: a9eb fc3e 58b2 353e 3be7 b03d 6396 243d
000000a0: 5a35 c439 2ed4 023b 12c5 a93b 75ff 543b
000000b0: a166 af3b b5b6 073b 09f2 013c 9219 3e3e
000000c0: bdd4 bd3e acb5 c23e 779f ea3e 025f e73e
000000d0: 4aaf f63e bc27 ee3e 9f01 c33e 0079 ab3e
000000e0: 8770 943e a20f 113e c9ab 7c3d 9569 9a3b
000000f0: 68d6 443b e082 923a fda4 853b 82a4 183b
00000100: 4aab c839 e8a0 633a 8637 6b3b df55 2e3b
00000110: 2133 0039 6875 a5b8 1578 fc3a 0c68 023b
00000120: e05b 7a3b 4008 fb3a c50a 633a 8f81 85b7
00000130: 3b9d 103b 1071 913a 98b7 923a 725d c43a
00000140: 32be 593b 4599 b83a ff6d 6d3b e066 e53a
00000150: ace7 cf3a c686 c439 de9d 5b3b 2e3c 9e3a
00000160: ad06 a13b 61d1 cb3b b5e2 3e3c 5914 893e
00000170: 91eb ae3e 954e de3e 0f1a e03e d468 c63e
00000180: 63b2 bb3e a86a bb3e 5d8c a23e 9ac8 953e
00000190: 594a 4a3e 18d3 7e3e b3a1 3b3e 2f9b d03d
000001a0: 4a36 0f3b 00b9 e13b eeea 783b 21dc 983b
000001b0: 2288 893b f645 dd3a d67c 583a a0bf c137
000001c0: b69a fa3a d0ef 213b 3d13 603b e06b e13a
000001d0: b9cc fa3a 16b2 e53a b94c 5a3b 6242 333b
000001e0: 17b4 093a 23f3 813b 5e91 323a 9875 b73a
000001f0: 2ee6 e73a 2389 4f3b fc65 5e3a 3141 583b
00000200: 3d4a 323b 6bd1 113a 6c44 2839 36a3 6e3b
00000210: 8082 073b d5bb 693b f1a8 6e3b 275b 323b
00000220: d8e9 723b b1b8 373b ca4d 4c3a c7a0 ff3a
00000230: f8d5 c03a 0d8e 943a 26ac 663b 4278 cd3a
00000240: 139c 003b c321 143b ff71 463a 833d f83a
00000250: 6711 2e3b f740 6c3b abc5 4a3b 1ea8 5c3b
00000260: f59a 8b3a 7fd1 6d3b de9b 503b 5555 483b
00000270: f8b2 613b 3a2f fb3a 574b 5d3a 64d4 113b
00000280: 5a9b 703b a523 d13a 4906 c93a 1911 5c3b
00000290: 18b3 d737 d2f3 253b b97d 323b 6a4f 163b
000002a0: 36af 8bb8 e3ef 5d3b e1b4 013b cde8 b83a
000002b0: 3e1d 7739 625f 8639 b863 123b ab53 673b
000002c0: 15c6 363b 6e2c 723b 1fbc 043b d4d8 233b
000002d0: 7e23 443b 6e79 fa3a 9593 743b 4b1d 213b
000002e0: b6b6 d83a 62ee 6a3b 92f4 a638 4621 613b
000002f0: d0fe 7737 4155 6a3b 3143 3d3b 9a35 463b
00000300: 3a6b 453b 5153 6e3b 261d 2f3b dd09 683b
00000310: 83c4 a43a 2181 053b 801d 1f3b 3bb4 513b
00000320: 59a9 6e3b dd06 5d3b c47f 103b 9c0e 0d3b
00000330: 70ee 613b 8af8 4c3a bcf9 4b40 f22d 4340
00000340: 2c4b 2540 5596 1940 1b41 1140 7ec2 0740
00000350: d085 fc3f 6f9f ea3f dd91 e63f eb88 d83f
00000360: 2a50 d03f 18f5 c33f f373 bc3f 7e5a b53f
00000370: 8556 aa3f 0534 a93f bd4f 9f3f 028f 9d3f
00000380: ec74 9b3f 5a74 983f c6cb 8f3f 86a7 973f
00000390: 2558 913f 26fa 843f 8d58 813f 2411 6a3f
000003a0: 79e2 803f ca7e 703f 2d81 6c3f c804 6f3f
000003b0: 2fb7 513f 14b3 533f 1fcc 363f e5e1 123f
000003c0: 763e ec3e 4e1c e93e 76fe 5f3e f75a 053e
000003d0: 1e4b 793d 77a9 d338 21a5 c83a 184f 893b
000003e0: 5da4 6b3b 1255 ec3a 41bf 933a 10a1 913a
000003f0: ea1c 9a3b d557 833b 3d7e a43a 87a2 743c

exp_avg f4 [100, 41]
0.00018500775 1.9663457e-05 3.7576214e-05 -0.00017951589 -0.00039680884 -0.000111972506 0.0008162835 -0.00023062539
-0.0002270556 -0.00017478532 -0.00033830336 0.0001915447 -6.5417495e-05 -0.00088835094 0.00018613109 0.0007031257
-0.00036339764 0.0004127549 -0.0006406414 0.00026170697 -0.0010903393 0.00054785394 -0.00019211053 -0.00028167994
0.00021161047 -0.0014528245 0.0010523272 -0.00050659495 4.916089e-05 0.0002292356 0.0001407841 -0.00067559886
-0.0013103085 0.0015603191 -0.00048386422 0.00024890192 -0.0004668018 0.0007297045 -0.0015033418 0.0010093916
-5.4416683e-05 0.0001716261 5.2803174e-05 -0.00044200485 -6.579444e-05 0.0001834484 0.00013884512 0.00016820228
0.00015644699 0.0001646689 0.00018633506 0.00011973005 0.00014048259 0.00021230843 -5.425784e-05 0.00016747737
0.00032565973 0.00016396312 0.00024193374 -0.0003092367 -0.00032277036 2.3245491e-05 0.00017922356 -0.0004612949
0.0001517135 -0.00071509805 -0.00047284525 0.00036001357 0.00014455542 0.00028302905 0.00018916953 0.00015300623
-0.00018150973 0.00010789076 0.00033937156 5.6080597e-05 -0.0002738023 -0.0008206663 -0.00049778307 1.2641924e-05
-0.00027131647 -0.00015046401 -4.3469925e-05 -0.0006626949 0.00017456542 0.00018282556 0.00014459252 -0.0007446027
-0.00024800963 8.274474e-06 6.184183e-05 0.00017750156 0.00011136918 0.00012635939 0.00020489782 5.6448327e-05
0.00013778463 0.00029851295 0.00017663662 0.00020774268 3.293346e-05 0.0002338704 0.00012871076 0.00019747818
-0.0006318436 9.1113754e-05 7.005903e-06 -0.0002469842 0.00021942629 0.0001580488 0.00023681294 0.00028057242
0.00011360427 -0.00040023864 -0.00010964297 -0.0003782298 0.00011063769 0.00016299542 7.942922e-05 0.00024660214
6.374155e-05 6.0167346e-05 -0.00048720045 0.00018124787 0.00017588878 -0.0002539426 0.00018530278 0.000111560854
0.00015072206 0.00018859515 0.00018931 -7.019567e-05 0.0001713252 -9.995805e-05 -7.0030175e-05 -0.00035931572
-7.085523e-05 0.0001452452 0.00018743146 0.00017365944 -0.0006487317 0.00018298114 6.775425e-05 0.00017860641
-0.00056574406 0.00016541142 0.00018569308 -0.0005650659 0.00014877119 5.5723634e-05 0.00012590655 -0.00016856781
0.00018491424 6.802199e-05 -0.00025547572 -0.0003068336 9.438644e-05 -0.00056589313 0.00018761957 0.00016620183
-6.807377e-05 0.00017799392 0.00018509231 7.664808e-05 0.00019028435 0.00015884837 -0.0003590387 0.00016665988
0.0001902516 9.2293965e-05 0.0001725702 0.00018053735 0.00018868213 0.00018877769 -0.00048933725 -0.00013203337
0.00014525116 -2.109573e-05 0.0001718265 -0.00041970698 -0.0003045404 0.00017374988 -2.1016886e-05 -0.00042005087
0.0001756861 5.4201395e-05 0.00018980232 -0.0001691577 0.00018969538 -0.000103452534 0.00014215644 0.00013332703
0.00013515654 1.9337338e-05 0.00015079648 6.5343134e-05 0.00018163411 0.00017243624 0.00015953684 0.00011930456
-7.0360955e-05 0.00010446052 0.00016463546 -0.00048007918 6.154951e-05 0.00018692603 -1.0557087e-06 3.5581394e-05
-0.0002214734 -0.00044747858 -0.00018971768 0.0008817709 -0.0002535715 -0.00025597768 -0.0002289325 -0.00039751804
0.00024995444 -0.00013612704 -0.00096214615 0.00019509398 0.00076857134 -0.00038663045 0.00040924753 -0.0007517281
0.00031740154 -0.0011393221 0.00055772834 -0.0001608909 -0.00035305694 0.0002104424 -0.0015251496 0.0011266497
-0.0005067849 -6.0594364e-05 0.00038446087 0.00017347318 -0.00062524 -0.0014303776 0.0016483653 -0.00050244184
0.00027050628 -0.0005663121 0.00082902913 -0.0015273906 0.0010341664 0.00022303265 0.00017970632 4.151952e-05
0.00012119973 0.00019005436 0.00016424006 -0.0007472541 -0.00016457586 -0.00033519955 0.0001571732 2.9848063e-05
00000000: a4fe 4139 f4f2 a437 279b 1d38 6e3c 3cb9
00000010: c80a d0b9 c8d2 eab8 dcfb 553a 08d4 71b9
00000020: c615 6eb9 9446 37b9 4f5e b1b9 64d9 4839
00000030: c030 89b8 39e0 68ba 2f2c 4339 f851 383a
00000040: 6886 beb9 0667 d839 b7f0 27ba b735 8939
00000050: b7e9 8eba db9d 0f3a 4771 49b9 71ae 93b9
00000060: c1e3 5d39 b36c beba 3eee 893a 03cd 04ba
00000070: 1b32 4e38 f65e 7039 729f 1339 ac1a 31ba
00000080: a8be abba 9f83 cc3a 28af fdb9 0d7f 8239
00000090: 14bd f4b9 a449 3f3a c80b c5ba 904d 843a
000000a0: 783d 64b8 88f6 3339 fa78 5d38 e3bc e7b9
000000b0: 1ffb 89b8 0e5c 4039 f496 1139 755f 3039
000000c0: eb0b 2439 f9aa 2c39 f062 4339 9517 fb38
000000d0: 824e 1339 1c9f 5e39 e992 63b8 dd9c 2f39
000000e0: 4fbd aa39 84ed 2b39 98af 7d39 0c21 a2b9
000000f0: 8139 a9b9 50ff c237 f5ed 3b39 f4d9 f1b9
00000100: 4815 1f39 6b75 3bba 37e8 f7b9 34c0 bc39
00000110: cd93 1739 8463 9439 cf5b 4639 4c70 2039
00000120: a653 3eb9 6943 e238 aeed b139 1538 6b38
00000130: 1f8d 8fb9 fc21 57ba a87d 02ba a618 5437
00000140: 7b3f 8eb9 e0c5 1db9 7a53 36b8 b4b8 2dba
00000150: 8c0b 3739 ddb4 3f39 c29d 1739 7131 43ba
00000160: 4a07 82b9 98d2 0a37 14b1 8138 b61f 3a39
00000170: e08e e938 577f 0439 d7d9 5639 eec2 6c38
00000180: 487a 1039 bb81 9c39 8837 3939 80d5 5939
00000190: 0922 0a38 1c3b 7539 88f6 0639 2512 4f39
000001a0: 4ea2 25ba 5314 bf38 4014 eb36 a87d 81b9
000001b0: cc15 6639 e7b9 2539 fd50 7839 cb19 9339
000001c0: d43e ee38 1fd7 d1b9 1ff0 e5b8 254d c6b9
000001d0: 2806 e838 c0e9 2a39 3d93 a638 614a 8139
000001e0: fcac 8538 325c 7c38 f06e ffb9 5b0d 3e39
000001f0: c96e 3839 9923 85b9 d64d 4239 c7f5 e938
00000200: 250b 1e39 a0c1 4539 8481 4639 0336 93b8
00000210: c2a5 3339 92a0 d1b8 2add 92b8 8a62 bcb9
00000220: 1d98 94b8 f64c 1839 4089 4439 5a18 3639
00000230: a60f 2aba a0de 3f39 4917 8e38 4b48 3b39
00000240: 714e 14ba 4a72 2d39 9bb6 4239 ee20 14ba
00000250: 76ff 1b39 ccb8 6938 c805 0439 94c1 30b9
00000260: 8ae5 4139 07a7 8e38 5ff1 85b9 82de a0b9
00000270: 56f1 c538 7258 14ba bfbb 4439 7746 2e39
00000280: d4c2 8eb8 e1a3 3a39 5715 4239 20be a038
00000290: 1187 4739 8990 2639 5c3d bcb9 6cc1 2e39
000002a0: 467e 4739 f28d c138 f6f3 3439 a04e 3d39
000002b0: f9d8 4539 a0f2 4539 de46 00ba 7072 0ab9
000002c0: 904e 1839 bcf6 b0b7 532c 3439 1e0c dcb9
000002d0: b8aa 9fb9 a130 3639 6b4d b0b7 463a dcb9
000002e0: 6138 3839 4e56 6338 ac05 4739 ed5f 31b9
000002f0: f7e8 4639 a8f4 d8b8 d40f 1539 b4cd 0b39
00000300: cfb8 0d39 9e36 a237 1f1f 1e39 d408 8938
00000310: 0975 3e39 00d0 3439 5849 2739 2633 fa38
00000320: c08e 93b8 d111 db38 ffa1 2c39 23b3 fbb9
00000330: 2414 8138 9301 4439 e0b1 8db5 3b3d 1538
00000340: 503b 68b9 8f9b eab9 f4ee 46b9 a526 673a
00000350: caf1 84b9 be34 86b9 9a0d 70b9 f869 d0b9
00000360: 510c 8339 53bd 0eb9 8938 7cba 2492 4c39
00000370: f379 493a a9b4 cab9 4690 d639 9e0f 45ba
00000380: ea68 a639 4e55 95ba 8434 123a d2b4 28b9
00000390: 801a b9b9 34aa 5c39 87e7 c7ba 17ac 933a
000003a0: c2d9 04ba b426 7eb8 7791 c939 5ae6 3539
000003b0: 25e7 23ba 827b bbba f60d d83a 4db6 03ba
000003c0: bdd2 8d39 9074 14ba 3453 593a b932 c8ba
000003d0: de8c 873a dfdd 6939 8c6f 3c39 3f25 2e38
000003e0: 9c2c fe38 5449 4739 db37 2c39 60e3 43ba
000003f0: ff91 2cb9 b9bd afb9 dcce 2439 3a62 fa37

exp_avg_sq f4 [100, 41]
1.9692218e-06 7.6115036e-08 7.644063e-08 2.3200252e-07 4.7518375e-07 1.0464025e-06 1.8875901e-06 2.8770153e-06
3.3348995e-06 4.023143e-06 4.512236e-06 4.5755146e-06 4.8970132e-06 5.2977703e-06 6.0838843e-06 7.171396e-06
7.712749e-06 7.45697e-06 7.934947e-06 8.047004e-06 8.304385e-06 9.003658e-06 8.81428e-06 8.898471e-06
9.206731e-06 9.340976e-06 9.474834e-06 9.091093e-06 9.245563e-06 9.732418e-06 8.8516335e-06 1.0208466e-05
1.031221e-05 1.0507226e-05 9.9919225e-06 1.0130588e-05 1.0325565e-05 1.0510947e-05 1.1543158e-05 1.2873218e-05
2.3492988e-05 1.9855124e-06 1.1751852e-06 1.3114427e-06 1.0890932e-06 8.702095e-07 3.4859107e-07 9.301751e-08
1.4791716e-07 2.0558885e-07 2.569561e-07 3.4327982e-07 3.6365907e-07 4.6393964e-07 4.995319e-07 5.653691e-07
6.6466083e-07 7.226505e-07 6.8535724e-07 1.2480215e-06 1.8011153e-06 1.9923443e-06 2.2941415e-06 2.5165068e-06
2.276369e-06 2.4305252e-06 2.4191625e-06 2.4298377e-06 2.3955324e-06 2.544672e-06 2.4135622e-06 2.7267522e-06
2.7762028e-06 2.6125253e-06 2.577278e-06 2.4840788e-06 2.4858143e-06 2.4181256e-06 2.4177355e-06 2.4278052e-06
1.902758e-06 5.094784e-06 2.0283576e-06 1.6094535e-06 1.474648e-06 1.544659e-06 1.5717045e-06 1.4464233e-06
1.0045617e-06 6.0832053e-07 1.9132229e-07 1.09433756e-07 1.7577297e-07 2.0045567e-07 3.0027056e-07 3.4743465e-07
4.0396523e-07 4.930662e-07 5.841018e-07 5.480169e-07 5.313138e-07 5.7711924e-07 6.407996e-07 6.566372e-07
8.701507e-07 9.61944e-07 1.4125657e-06 1.7426679e-06 1.9079582e-06 2.2041768e-06 2.2281158e-06 2.0826105e-06
2.765624e-06 2.5525515e-06 2.495016e-06 2.4507267e-06 2.4248934e-06 2.1819392e-06 2.335591e-06 2.1143287e-06
2.1381043e-06 2.0128116e-06 5.3763856e-06 1.9763395e-06 1.979971e-06 2.038076e-06 1.9654358e-06 2.0064128e-06
1.9945842e-06 1.9598144e-06 1.9547126e-06 2.027369e-06 1.9831757e-06 2.0282778e-06 2.026877e-06 2.0381192e-06
2.0277175e-06 1.9947172e-06 1.9624506e-06 1.9793613e-06 2.048755e-06 1.967229e-06 2.0120817e-06 1.9726376e-06
2.0451366e-06 1.9837858e-06 1.9599065e-06 2.0439707e-06 1.9905606e-06 2.0125606e-06 1.9971972e-06 2.0300367e-06
1.9641323e-06 2.0122793e-06 2.0354337e-06 2.0374446e-06 2.0088526e-06 2.0487118e-06 1.968406e-06 1.9934412e-06
2.0442249e-06 2.0010718e-06 2.0163188e-06 2.1075975e-06 1.9564036e-06 1.9924512e-06 2.0428208e-06 1.9870627e-06
1.9518754e-06 2.0095124e-06 1.9816985e-06 1.9715071e-06 1.9550753e-06 1.955144e-06 2.0449552e-06 2.0314021e-06
1.993134e-06 2.0220305e-06 1.981337e-06 2.0413463e-06 2.038868e-06 1.9783668e-06 2.0230027e-06 2.0393354e-06
1.9747245e-06 2.0136447e-06 1.9511813e-06 2.0316506e-06 1.9500112e-06 2.0256712e-06 1.9936685e-06 1.9969148e-06
1.9960498e-06 2.0154446e-06 1.9908125e-06 2.00924e-06 1.9667095e-06 1.9790984e-06 1.9908782e-06 2.0061962e-06
2.0360094e-06 2.023601e-06 2.0125626e-06 2.0843545e-06 2.1120118e-06 1.9671745e-06 9.168245e-08 9.175793e-08
3.2359824e-07 6.4830346e-07 1.3807804e-06 2.4404617e-06 3.6454355e-06 4.1369244e-06 4.901152e-06 5.3748636e-06
5.4838424e-06 5.828378e-06 6.2789604e-06 7.2182224e-06 8.485424e-06 9.158942e-06 8.926906e-06 9.539198e-06
9.65423e-06 9.962405e-06 1.0970697e-05 1.0645422e-05 1.079526e-05 1.1173297e-05 1.1222027e-05 1.0872966e-05
1.0208623e-05 1.0367333e-05 1.1002726e-05 9.836368e-06 1.1282769e-05 1.1274177e-05 1.1630408e-05 1.1080639e-05
1.1098599e-05 1.1300097e-05 1.1386839e-05 1.2612377e-05 1.4379681e-05 2.5644867e-05 1.9783133e-06 1.7065149e-06
1.5913406e-06 1.6926716e-06 1.6462243e-06 1.7039854e-06 1.3995025e-06 1.2717514e-06 9.0487595e-07 1.6557328e-07
00000000: f926 0436 af74 a333 ae27 a433 5e1c 7934
00000010: c21c ff34 1e72 8c35 1a59 fd35 bf12 4136
00000020: 23cd 5f36 89fe 8636 d067 9736 5f87 9936
00000030: 0651 a436 80c3 b136 2b24 cc36 d3a1 f036
00000040: 0166 0137 e236 fa36 5620 0537 9e01 0737
00000050: 1053 0b37 6b0e 1737 0be1 1337 a44a 1537
00000060: 9c76 1a37 30b7 1c37 1af6 1e37 f285 1837
00000070: 641d 1b37 6b48 2337 7a81 1437 0745 2b37
00000080: 9b02 2d37 3148 3037 fba2 2737 8bf6 2937
00000090: f73b 2d37 2c58 3037 7ca9 4137 0dfa 5737
000000a0: cf12 c537 d83e 0536 0ebb 9d35 d404 b035
000000b0: f52c 9235 5798 6935 fe25 bb34 ebc0 c733
000000c0: 29d3 1e34 d5bf 5c34 c7f3 8934 054c b834
000000d0: ec3c c334 6113 f934 9217 0635 dec3 1735
000000e0: 256b 3235 2afc 4135 64f9 3735 b181 a735
000000f0: dabd f135 37b4 0536 0df5 1936 42e1 2836
00000100: b9c3 1836 1b1c 2336 e558 2236 4b10 2336
00000110: efc2 2036 22c5 2a36 aff8 2136 3ffd 3636
00000120: cd4e 3a36 d852 2f36 4df5 2c36 26b4 2636
00000130: f7d1 2636 1547 2236 6140 2236 60ed 2236
00000140: 4462 ff35 dcf3 aa36 eb1e 0836 6704 d835
00000150: 85ec c535 1452 cf35 5bf3 d235 ba22 c235
00000160: 7ad4 8635 784b 2335 456e 4d34 d801 eb33
00000170: 1bbc 3c34 d63c 5734 df34 a134 0e87 ba34
00000180: 8fe0 d834 405b 0435 2ccb 1c35 6f1b 1335
00000190: 9b9f 0e35 55eb 1a35 6a03 2c35 c443 3035
000001a0: 4d94 6935 251c 8135 6397 bd35 9de5 e935
000001b0: 790a 0036 78eb 1336 bd86 1536 fac2 0b36
000001c0: 0f99 3936 804c 2b36 0c70 2736 2a77 2436
000001d0: 5abb 2236 6e6d 1236 26bd 1c36 e4e3 0d36
000001e0: 5a7c 0f36 d713 0736 cd66 b436 41a1 0436
000001f0: a5df 0436 e1c5 0836 eee5 0336 e9a5 0636
00000200: b2da 0536 5b85 0336 b52d 0336 ef0d 0836
00000210: b316 0536 8c1d 0836 7b05 0836 9fc6 0836
00000220: ec13 0836 fbdc 0536 a5b2 0336 2bd5 0436
00000230: 587d 0936 bd04 0436 4d07 0736 a861 0436
00000240: 2e3f 0936 2e21 0536 f086 0336 262b 0936
00000250: 9295 0536 870f 0736 9607 0636 c43b 0836
00000260: 89cf 0336 b20a 0736 7c98 0836 08bb 0836
00000270: d3cf 0636 9a7c 0936 f518 0436 0fc7 0536
00000280: 842f 0936 274a 0636 1850 0736 4070 0d36
00000290: c24a 0336 0db6 0536 6517 0936 7a59 0536
000002a0: f7fc 0236 29db 0636 52fd 0436 3c4e 0436
000002b0: f033 0336 1e35 0336 103c 0936 3953 0836
000002c0: c8c1 0536 38b2 0736 1cf7 0436 10fe 0836
000002d0: 7cd3 0836 15c4 0436 ecc2 0736 84db 0836
000002e0: 8285 0436 2722 0736 0af1 0236 7e57 0836
000002f0: f0dc 0236 c4f0 0736 f7ca 0536 bc02 0636
00000300: e0f3 0536 1341 0736 e699 0536 7bd6 0636
00000310: d0fb 0336 a7d0 0436 079b 0536 30a2 0636
00000320: 60a2 0836 33cd 0736 900f 0736 f0e0 0b36
00000330: 16bc 0d36 cd03 0436 f6e2 c433 750c c533
00000340: 01bb ad34 1307 2e35 4153 b935 d0c6 2336
00000350: 1ba4 7436 e9cf 8a36 9374 a436 ba59 b436
00000360: d901 b836 6391 c336 dcaf d236 0f34 f236
00000370: 9e5c 0e37 5ba9 1937 c5c4 1537 8b0a 2037
00000380: 9af8 2137 3424 2737 c90e 3837 bd99 3237
00000390: 4a1d 3537 f274 3b37 3d46 3c37 096b 3637
000003a0: b445 2b37 5bef 2d37 5998 3837 e106 2537
000003b0: 204b 3d37 3926 3d37 3920 4337 fbe6 3937
000003c0: 1f34 3a37 8c95 3d37 1a0a 3f37 bf99 5337
000003d0: 4240 7137 ef1f d737 2ac3 0436 680b e535
000003e0: 0c96 d535 c12f e335 d6f3 dc35 7eb4 e435
000003f0: 8ad6 bb35 0cb1 aa35 9ae6 7235 70c8 3134
