test/test_results/triplets/results/model/model_epoch0485.tar (torch, 82772 bytes, 3 tensors)

fc.weight f4 [100, 41]
0	0x3b69a722	0.0035652597
1	0x3fd9c4fa	1.7013237
2	0x3fad58bc	1.3542705
3	0x40074e2f	2.114147
4	0x401b4f21	2.4267046
5	0x402de17e	2.716888
6	0x402e8c66	2.7273192
7	0x4028af9d	2.6357186
8	0x40263617	2.5970514
9	0x4025709b	2.584998
10	0x401c5dcc	2.443225
11	0x400f62e9	2.240412
12	0x4007ca75	2.121732
13	0x3ffe4dc3	1.9867481
14	0x3fec654d	1.8468415
15	0x3fd7d0ba	1.6860573
16	0x3fd31aad	1.6492516
17	0x3fbfcb62	1.4983943
18	0x3fb07f2d	1.3788811
19	0x3fbb859f	1.4650153
20	0x3faf3d29	1.369054
21	0x3fae3557	1.3610028
22	0x3fa58521	1.2931253
23	0x3fafd7e0	1.3737755
24	0x3fa73d79	1.3065635
25	0x3fb08f6c	1.3793769
26	0x3fa90f29	1.3207752
27	0x3f9fc066	1.248059
28	0x3f944002	1.1582034
29	0x3f8a7758	1.0817671
30	0x3f9519fd	1.1648556
31	0x3f66cb70	0.9015417
32	0x3f56ac9a	0.8385712
33	0x3f30f919	0.6913009
34	0x3f28939f	0.6585025
35	0x3ef7e184	0.48414242
36	0x3f054863	0.5206358
37	0x3e201500	0.15633011
38	0x3c1433d2	0.009045558
39	0x3e11fd5e	0.14256808
40	0x3a7c5954	0.0009626348
41	0x3b6a733c	0.0035774251
42	0x3a4e06e1	0.00078593014
43	0x3a882e8a	0.0010389846
44	0x388041d0	6.115774e-05
45	0x3b6cb280	0.0036117136
46	0x3b3377eb	0.002738471
47	0x3b583dc4	0.00329958
48	0x3b21ea9f	0.0024706495
49	0x3a4f397e	0.00079049903
50	0x3b634558	0.0034678783
51	0x3b157f39	0.0022811426
52	0x3b4c3407	0.003115894
53	0x3b30ec42	0.002699629
54	0x3b5e0f90	0.0033883788
55	0x3b2189ae	0.0024648714
56	0x3b26b09f	0.0025434864
57	0x3b3867ee	0.0028138119
58	0x3b2675d3	0.0025399819
59	0x3b53579f	0.003224827
60	0x3b70c66d	0.0036739365
61	0x3b6e90ee	0.0036402303
62	0x3abc0142	0.0014343637
63	0x3ad36237	0.0016127293
64	0x3b60c415	0.0034296561
65	0x3b575fa5	0.0032863405
66	0x3acd9865	0.0015685676
67	0x3b4472bc	0.0029975614
68	0x3b638a4f	0.003471989
69	0x3ae88c89	0.0017742078
70	0x3a590218	0.0008278205
71	0x3b08461b	0.002079374
72	0x3a9e0d1b	0.0012058349
73	0x3b7277be	0.0036997641
74	0x3a9cebd9	0.0011972144
75	0x3aec47d1	0.0018026774
76	0x3a9ba0b4	0.0011873455
77	0x3a8bad9c	0.0010656598
78	0x3a83643c	0.0010024379
79	0x3a0182cb	0.0004940449
80	0x3abe268f	0.0014507341
81	0x3b21c1ff	0.002468228
82	0x3a8e2655	0.0010845164
83	0x3b3abb8b	0.0028493132
84	0x3abe9b14	0.0014542066
85	0x3b738ea1	0.003716387
86	0x3b6a32b3	0.0035735785
87	0x3b246fea	0.002509112
88	0x3b6ce194	0.0036145197
89	0x3af832f2	0.0018936081
90	0x3b58909e	0.0033045183
91	0x3b5b6a59	0.0033480136
92	0x3b278d65	0.0025566455
93	0x3b6182ad	0.0034410164
94	0x3b42ba30	0.0029713027
95	0x3af31330	0.0018545147
96	0x3b7056f4	0.0036672922
97	0x3b29407a	0.0025825785
98	0x3b7203d2	0.0036928547
99	0x39c3d2c7	0.0003735034
100	0x3b642707	0.0034813301
101	0x3b6eb137	0.0036421546
102	0x3afec176	0.0019436318
103	0x3b1e8ad6	0.002419164
104	0x39df801f	0.00042629332
105	0x3b4d3149	0.0031309894
106	0x3b39f983	0.002837748
107	0x3acbccb9	0.0015548683
108	0x3b147cb3	0.0022657334
109	0x3b44b77e	0.0030016596
110	0x3b5953ce	0.0033161524
111	0x3b08f74e	0.0020899358
112	0x3b347d5a	0.0027540536
113	0x3b6f5cd8	0.0036523845
114	0x39e174c6	0.00043002347
115	0x3b0fed44	0.002196149
116	0x3b7080d0	0.0036697872
117	0x3b5c1e98	0.0033587571
118	0x3b3874ef	0.002814587
119	0x3b6adf41	0.0035838636
120	0x3b7226a5	0.0036949303
121	0x3b619bb9	0.0034425093
122	0x3aa38433	0.0012475312
123	0x3b71cd6c	0.0036896123
124	0x3af5fa06	0.0018766529
125	0x3b4e8d2c	0.003151725
126	0x3b4ec994	0.0031553255
127	0x3ae826a0	0.0017711706
128	0x3a803b6d	0.0009783335
129	0x3b42afca	0.002970683
130	0x3b2941de	0.0025826613
131	0x3b6f09bf	0.0036474315
132	0x3aab3af5	0.0013063835
133	0x3b6de4a6	0.0036299615
134	0x3b6f90a8	0.0036554728
135	0x3b3fc796	0.002926325
136	0x3b727f01	0.003700197
137	0x3b402d59	0.0029323904
138	0x3a811397	0.0009847757
139	0x3b204f4f	0.0024461334
140	0x3a18bed4	0.00058267755
141	0x3ac65831	0.0015132484
142	0x3b6e7f00	0.0036391616
143	0x3b080e5e	0.0020760517
144	0x39e991b1	0.00044549772
145	0x3b280dd8	0.0025643017
146	0x3ae20483	0.0017243776
147	0xb8d9f2c2	-0.000103925835
148	0x3b5bd9d5	0.0033546586
149	0x3b7154a9	0.0036824143
150	0x3b727d88	0.0037001092
151	0x3b46c9d5	0.0030332704
152	0x3b1f10a1	0.0024271386
153	0x3b6d96e0	0.0036253259
154	0x3a2ceeff	0.00065968925
155	0x3aabf8b0	0.0013120379
156	0x3b6fe801	0.003660679
157	0x39623981	0.00021574461
158	0x3b3252fb	0.0027210105
159	0x3b71d875	0.00369027
160	0x3abf9021	0.0014615097
161	0x3b5ae6a5	0.0033401635
162	0x3b333c21	0.0027349072
163	0x3a36587e	0.00069559354
164	0x3b442108	0.0029926915
165	0x39b508da	0.00034529605
166	0x3b5294f1	0.0032132233
167	0x38282f6c	4.0098486e-05
168	0x3b74b60c	0.0037339954
169	0x3b118a56	0.0022207699
170	0x39956322	0.00028493354
171	0x39e25fba	0.000431774
172	0x3af32ee9	0.0018553409
173	0x3b124d78	0.0022324007
174	0x3b640aa1	0.0034796374
175	0x3b72b2cb	0.0037032838
176	0x3b3c83ae	0.002876501
177	0x3b6f01eb	0.003646965
178	0x3b0b2468	0.0021231417
179	0x3ac0f480	0.0014721304
180	0x3b51c529	0.0032008386
181	0x3b10565a	0.0022024126
182	0x3b6b27d9	0.0035881905
183	0x3b147c48	0.0022657085
184	0x3b17e0ba	0.002317472
185	0x3b73a617	0.0037177855
186	0x39b38120	0.00034237746
187	0x3b365af9	0.002782522
188	0x3a6a5b75	0.000894002
189	0x3b2556a8	0.0025228653
190	0x3b6c77de	0.0036082189
191	0x3b6dc5ae	0.0036281156
192	0x3b58d95d	0.0033088543
193	0x3b4248f6	0.002964554
194	0x3b5650dc	0.0032702005
195	0x3b396f63	0.0028295151
196	0x3b530fe9	0.0032205528
197	0x3b6034c6	0.0034211143
198	0x3b4951d3	0.0030718937
199	0x3af5ba71	0.001874758
200	0x3a28be01	0.0006437004
201	0x396654d9	0.00021966117
202	0x3b630aa2	0.0034643789
203	0x39ef49b8	0.00045640557
204	0x3a6290ce	0.00086427934
205	0x3b64fce0	0.0034940764
206	0x409338f2	4.6007013
207	0x407ed8c8	3.9819813
208	0x4068fdb6	3.6404853
209	0x405cc204	3.4493418
210	0x4059f2a4	3.4054346
211	0x4047e3ef	3.123287
212	0x4037f0e6	2.8740783
213	0x4028a928	2.6353245
214	0x402bfe52	2.6873975
215	0x401f357f	2.4876401
216	0x40143dca	2.3162713
217	0x400ff55f	2.2493513
218	0x4004f0ca	2.0771966
219	0x400212d0	2.0323982
220	0x3ff06b70	1.8782787
221	0x3ff04a07	1.8772591
222	0x3fdef62a	1.7418873
223	0x3fd6828f	1.6758593
224	0x3fd299b2	1.6453154
225	0x3fcd3f4b	1.603494
226	0x3fb7e690	1.4367237
227	0x3fc3788d	1.5271164
228	0x3fb4909a	1.4106629
229	0x3f9ee626	1.2413986
230	0x3f95fd7e	1.1717985
231	0x3f7c3b5c	0.98528075
232	0x3f8d16d8	1.1022596
233	0x3f77d178	0.96804
234	0x3f6dbf52	0.92870057
235	0x3f6cf718	0.92564535
236	0x3f41fcdd	0.75776464
237	0x3f477608	0.77914476
238	0x3f2f6b9a	0.6852356
239	0x3effb4b1	0.49942544
240	0x3eb6c721	0.35698798
241	0x3ebeac84	0.37240994
242	0x3dac543a	0.084145024
243	0x3b122136	0.0022297627
244	0x3ec279c5	0.37983528
245	0x38a4ead4	7.8638695e-05
246	0x3b72eb21	0.0037066417
247	0x3b6f0182	0.0036469405
248	0x3a499cbe	0.0007690898
249	0x3b662de5	0.003512257
250	0x3a9e5d7d	0.0012082305
251	0x3b3500f6	0.002761898
252	0x3b679b85	0.00353405
253	0x391a0b8c	0.00014690886
254	0x3aa99227	0.0012937234
255	0x38654ce8	5.466948e-05

exp_avg f4 [100, 41]
0	0x38a9c739	8.095656e-05
1	0x38289a66	4.0198116e-05
2	0xb5df1f70	-1.6623944e-06
3	0x38b3b08c	8.5682695e-05
4	0x385b5230	5.2290212e-05
5	0x390b5d02	0.00013290721
6	0x391acde4	0.00014763285
7	0xb834af6c	-4.307872e-05
8	0xb8849a7f	-6.3230276e-05
9	0xb98d577a	-0.0002695879
10	0x38e4e297	0.00010914093
11	0xba131be8	-0.00056117633
12	0x39856517	0.00025443055
13	0x39a6a313	0.00031783487
14	0xb9c09d39	-0.00036738234
15	0xb91735f8	-0.00014420587
16	0xbadcbad4	-0.0016840347
17	0x3af3b3a0	0.0018592961
18	0xb9b977a8	-0.000353751
19	0x3904ce14	0.00012665271
20	0x38fb1724	0.00011972923
21	0x38bd8e16	9.038688e-05
22	0xba359eac	-0.0006928246
23	0x3a82e725	0.0009987099
24	0xba3e3db4	-0.0007257119
25	0xba07a31a	-0.00051741453
26	0x3a16a0a3	0.00057459826
27	0xb7c041e0	-2.2918859e-05
28	0x39796ecc	0.00023787766
29	0x3a0d6843	0.00053942594
30	0xba1eb74e	-0.0006054536
31	0xb7dde540	-2.6452006e-05
32	0xba267c9b	-0.0006350965
33	0x3a761b9a	0.0009388268
34	0xba7eb985	-0.00097169756
35	0x3a2fca6c	0.00067058834
36	0x3989f945	0.00026316397
37	0x39a8d837	0.0003220455
38	0x3961ab1d	0.00021521417
39	0x38a42153	7.8263365e-05
40	0xb88f8679	-6.843819e-05
41	0xb8d08840	-9.9435914e-05
42	0x3942fbef	0.00018595134
43	0x3942ad13	0.00018565757
44	0x39471c83	0.0001898874
45	0xb892040c	-6.962576e-05
46	0x3918d082	0.00014573525
47	0xb95ab830	-0.00020858715
48	0x3926a7c0	0.00015893485
49	0x39428e6b	0.00018554337
50	0x38a89972	8.039446e-05
51	0xba003db7	-0.0004892009
52	0x3905f455	0.00012774889
53	0x391d7a18	0.0001501817
54	0xb930a66e	-0.00016846668
55	0x3925bf07	0.0001580679
56	0x3926c910	0.00015905895
57	0xb9bd624b	-0.00036122123
58	0x39288b48	0.00016073615
59	0x38f8808e	0.00011849507
60	0xb8930419	-7.0102695e-05
61	0x37addf82	2.0727286e-05
62	0xba2a1d9a	-0.00064893963
63	0x39388292	0.00017596249
64	0xb92f3d48	-0.0001671213
65	0x38f80fab	0.0001182848
66	0x393b5026	0.00017863567
67	0xb99f46ff	-0.0003037974
68	0x38c1391e	9.213596e-05
69	0x3937bb9e	0.00017522133
70	0x394438d9	0.00018713194
71	0x39321d38	0.00016986288
72	0x394063d2	0.00018347733
73	0x385ecbc8	5.311871e-05
74	0x39411840	0.00018414948
75	0x393646bd	0.00017383225
76	0x3940b7aa	0.00018378967
77	0xba42fd8f	-0.0007438296
78	0xba42adb8	-0.0007426399
79	0x394562ad	0.00018824144
80	0x393d2e65	0.00018041728
81	0xb9da40b0	-0.00041628396
82	0x3940d0f9	0.00018388395
83	0x3919cc6a	0.00014667367
84	0xba2a77e8	-0.0006502853
85	0x37abef3b	2.0496189e-05
86	0xb8d0ace6	-9.950418e-05
87	0xb9dce207	-0.00042130073
88	0x381f7d0b	3.802501e-05
89	0xba143254	-0.00056532514
90	0x38ea93a9	0.00011185493
91	0x38e8ba5b	0.000110973335
92	0x3926c361	0.00015903778
93	0x38a969eb	8.078277e-05
94	0xb99f0231	-0.00030328476
95	0x39376091	0.00017488214
96	0xb8944c0a	-7.071353e-05
97	0xb9dd2568	-0.00042180275
98	0x346e6400	2.2201857e-07
99	0x3948111a	0.00019079857
100	0x38c04aff	9.1692425e-05
101	0x37ab0900	2.038898e-05
102	0x39357cf3	0.00017308052
103	0x392c2404	0.00016416615
104	0x3944c142	0.00018764011
105	0xb984791a	-0.0002526723
106	0x391950ac	0.0001462127
107	0xba2acced	-0.00065155217
108	0xba0036f8	-0.00048910035
109	0xb99f915a	-0.0003043514
110	0xb95b6091	-0.00020921441
111	0x39323bb0	0.00016997638
112	0xb9bd534b	-0.00036110947
113	0x381f6f03	3.801194e-05
114	0x3944e922	0.00018778865
115	0x3932c463	0.00017048563
116	0x3575f940	9.163232e-07
117	0xb95b3e7c	-0.00020908745
118	0xb9bc0c4f	-0.00035867325
119	0x38654f44	5.4671676e-05
120	0x37b266b2	2.1267075e-05
121	0x38c5c875	9.43103e-05
122	0x39446259	0.00018728654
123	0x37b1bd4e	2.1188196e-05
124	0xba142fb3	-0.00056528597
125	0x38fb8475	0.00011993285
126	0xb98558ee	-0.00025433995
127	0x3937e3d7	0.00017537117
128	0x394294b0	0.00018556672
129	0xb99f74a0	-0.00030413736
130	0xb9dcc8a7	-0.00042111168
131	0x38620c83	5.389425e-05
132	0x393ecda5	0.0001819642
133	0x37aa39fc	2.029258e-05
134	0x355f9f20	8.330553e-07
135	0xb99ed3a7	-0.00030293802
136	0xb89429d2	-7.0649796e-05
137	0x39121db9	0.00013934718
138	0x3941ab24	0.00018469669
139	0x3928de5b	0.00016104562
140	0xba5de74c	-0.0008464947
141	0x393b685a	0.00017872584
142	0x386485d0	5.448406e-05
143	0x3933b647	0.00017138674
144	0x39458580	0.00018837117
145	0x39240df5	0.00015645458
146	0x393928c3	0.0001765816
147	0x3946b314	0.00018949463
148	0x38d540cb	0.000101687
149	0xb8926abe	-6.981705e-05
150	0x37abbb43	2.0471989e-05
151	0xb99f3605	-0.0003036709
152	0x392adb06	0.00016294056
153	0xb7aafcf3	-2.0383368e-05
154	0x3943d4d5	0.00018675935
155	0x393e4368	0.00018144923
156	0xb830da76	-4.2165128e-05
157	0x3944bc8e	0.00018762259
158	0xb9bbb724	-0.0003580387
159	0x37b289af	2.1283367e-05
160	0x393ccbd4	0.00018005009
161	0x38d9e573	0.000103901046
162	0x3919f60a	0.00014682874
163	0x3949ca6f	0.00019244266
164	0x390d01e2	0.00013447509
165	0x394629c7	0.00018898315
166	0x38fafcfa	0.000119680495
167	0x39477626	0.00019022133
168	0xb7a32c42	-1.9451723e-05
169	0x392dd04d	0.00016576164
170	0x39462e84	0.0001890008
171	0x3944fc76	0.00018786066
172	0xba14335e	-0.0005653406
173	0xba005b90	-0.00048964564
174	0xb93057a2	-0.00016817314
175	0x35a57780	1.2328237e-06
176	0x3918c8f5	0.00014570712
177	0x37b4bff5	2.1547059e-05
178	0x39303ffd	0.00016808505
179	0xba2a6808	-0.0006500487
180	0xb985b126	-0.00025499723
181	0x392fab04	0.00016753009
182	0xb8d1b34f	-9.9992954e-05
183	0xba0038db	-0.00048912846
184	0x392df274	0.00016588887
185	0xb835b9fd	-4.3326978e-05
186	0x39455cc1	0.00018821938
187	0xb9bbd4ad	-0.00035825875
188	0x394115d3	0.00018414044
189	0xb9dd62b8	-0.00042225956
190	0x3891c5d9	6.950991e-05
191	0xb7a369d9	-1.9480403e-05
192	0x38e8c8fe	0.0001110006
193	0xb99ef7f9	-0.00030320862
194	0x38e7e09a	0.00011056774
195	0xb9bc6cf1	-0.00035939322
196	0x38fa804c	0.00011944826
197	0x38c37d40	9.321654e-05
198	0x39046d75	0.00012629277
199	0x393718a1	0.00017461415
200	0x3944b23e	0.00018758417
201	0x3946f11d	0.00018972573
202	0x38c368ac	9.317821e-05
203	0x3946457e	0.0001890864
204	0x39466df3	0.00018923711
205	0x38c1b86e	9.23731e-05
206	0xb69b3070	-4.624999e-06
207	0xb774d204	-1.4592431e-05
208	0x3833da23	4.288008e-05
209	0xb8ad893f	-8.274847e-05
210	0x3939df2e	0.00017726116
211	0x39381a22	0.00017557343
212	0xb96a47bf	-0.00022342707
213	0xb93910a9	-0.00017649181
214	0xb9f3f818	-0.00046533416
215	0x399b21d4	0.00029589108
216	0xba361b2e	-0.0006946799
217	0x37f5c503	2.9298017e-05
218	0x3997c3c4	0.0002894682
219	0xba1d402c	-0.0005998637
220	0x388404f8	6.295176e-05
221	0xbb0c0914	-0.0021367716
222	0x3b27b697	0.002559101
223	0xb9e73562	-0.00044099527
224	0x38cd6a1c	9.794926e-05
225	0xb8770b30	-5.889981e-05
226	0xb8907331	-6.887911e-05
227	0xba0560da	-0.00050879794
228	0x3a5a6bb6	0.000833209
229	0xb9da401a	-0.0004162796
230	0xba250163	-0.0006294457
231	0x3a29ef40	0.00064824894
232	0xb84df3a0	-4.9102702e-05
233	0x398f18e2	0.00027293625
234	0x39ada013	0.00033116396
235	0xb97c25a6	-0.00024046618
236	0x383edef0	4.5507157e-05
237	0xba51d7be	-0.00080048654
238	0x3a8e5bc5	0.001086109
239	0xba64c23c	-0.0008726453
240	0x3a1c7535	0.0005968393
241	0x398e37cf	0.0002712593
242	0x3a3d8fdb	0.0007231214
243	0x3928238c	0.00016034971
244	0x3876a63e	5.8805796e-05
245	0x39cf0fea	0.00039493974
246	0x35f9f180	1.8622231e-06
247	0xb79ffd0d	-1.9072113e-05
248	0x3943a6d4	0.00018658797
249	0x38a94fb5	8.0733946e-05
250	0x393f186c	0.00018224277
251	0x39195b9f	0.00014625349
252	0xb8d20d1a	-0.00010016021
253	0x3946f3cf	0.00018973577
254	0x393e4ae0	0.00018147705
255	0x3946b77a	0.00018951102

exp_avg_sq f4 [100, 41]
0	0x36074b40	2.016037e-06
1	0x33751d18	5.706997e-08
2	0x336b5bc6	5.479867e-08
3	0x338945d6	6.392263e-08
4	0x3433ef96	1.6757835e-07
5	0x34e3018e	4.2283176e-07
6	0x3590f34f	1.0799648e-06
7	0x36015593	1.9272309e-06
8	0x362caef3	2.573183e-06
9	0x3653c417	3.155559e-06
10	0x36598c84	3.241731e-06
11	0x36500079	3.099469e-06
12	0x3688a577	4.0723785e-06
13	0x36995761	4.5699276e-06
14	0x36affd54	5.2448977e-06
15	0x36c65e63	5.911848e-06
16	0x36de7aa4	6.630393e-06
17	0x36cda627	6.1288188e-06
18	0x36d19638	6.246173e-06
19	0x36e8998e	6.932015e-06
20	0x36f3b3e5	7.262907e-06
21	0x36fde139	7.566207e-06
22	0x3700008c	7.629522e-06
23	0x3707cff1	8.095042e-06
24	0x3708a525	8.144682e-06
25	0x370e0ec5	8.467298e-06
26	0x3715d617	8.930939e-06
27	0x3718df49	9.111894e-06
28	0x37172e12	9.011028e-06
29	0x371ff866	9.534973e-06
30	0x37292a4c	1.0083033e-05
31	0x3729e6f3	1.0126957e-05
32	0x372f39ac	1.0444241e-05
33	0x372ca8b0	1.02912745e-05
34	0x371e96bb	9.452629e-06
35	0x372e3ae9	1.0384924e-05
36	0x372a65b9	1.0156474e-05
37	0x372e5d01	1.0392862e-05
38	0x37241858	9.78083e-06
39	0x3749c079	1.2025347e-05
40	0x37a3c7df	1.9524186e-05
41	0x36086a30	2.0327388e-06
42	0x3603ff7c	1.9669233e-06
43	0x3604337e	1.9699505e-06
44	0x360340c0	1.955821e-06
45	0x36083298	2.0295029e-06
46	0x3606147d	1.9979482e-06
47	0x3608befc	2.0376747e-06
48	0x3605ab64	1.9918307e-06
49	0x3603e6e5	1.965492e-06
50	0x36070aca	2.0122848e-06
51	0x360965e1	2.0473892e-06
52	0x36067a45	2.0038726e-06
53	0x3605d8cf	1.9944744e-06
54	0x36087f73	2.0339764e-06
55	0x360598ae	1.9907416e-06
56	0x3605a269	1.991308e-06
57	0x36090ee7	2.0423265e-06
58	0x3605a528	1.9914678e-06
59	0x360682b5	2.0043638e-06
60	0x36082389	2.0286263e-06
61	0x360787f5	2.0195705e-06
62	0x360983e4	2.0491361e-06
63	0x3604a65b	1.9766364e-06
64	0x36087d31	2.033845e-06
65	0x3606a014	2.0060734e-06
66	0x3604a2be	1.9764261e-06
67	0x3608e86a	2.0400862e-06
68	0x3606e2b8	2.0099524e-06
69	0x3604c98c	1.9786848e-06
70	0x3603c46c	1.9634854e-06
71	0x360516f2	1.98319e-06
72	0x360430bd	1.9697902e-06
73	0x36074253	2.0155173e-06
74	0x36041b7c	1.968553e-06
75	0x3604b4f4	1.9774861e-06
76	0x36045437	1.9718552e-06
77	0x3609e1f7	2.054612e-06
78	0x360a3737	2.0595742e-06
79	0x36047e90	1.9743202e-06
80	0x36065d52	2.0021876e-06
81	0x360d887e	2.1090086e-06
82	0x36045202	1.9717268e-06
83	0x36061f91	1.998593e-06
84	0x3609b854	2.0521884e-06
85	0x3607bad7	2.0225323e-06
86	0x3608549f	2.0314835e-06
87	0x36094752	2.0456105e-06
88	0x36077dca	2.0189786e-06
89	0x3609874d	2.0493346e-06
90	0x3606a722	2.006484e-06
91	0x3606c1b8	2.0080315e-06
92	0x3605bce9	1.9928505e-06
93	0x3606edab	2.0105897e-06
94	0x3608eb66	2.04026e-06
95	0x3604f138	1.980994e-06
96	0x3608342e	2.0295952e-06
97	0x36092c50	2.0440384e-06
98	0x3607a73c	2.021391e-06
99	0x360362ab	1.9577953e-06
100	0x3606fdcc	2.0115285e-06
101	0x36077ed1	2.0190384e-06
102	0x3604f75c	1.9813515e-06
103	0x36058183	1.989393e-06
104	0x36037b6e	1.9592367e-06
105	0x3608bbe0	2.0374937e-06
106	0x3606058a	1.997078e-06
107	0x3609b5fd	2.0520522e-06
108	0x360944e1	2.0454684e-06
109	0x3608e8fe	2.0401199e-06
110	0x36089a1b	2.035528e-06
111	0x3605200a	1.9837194e-06
112	0x3608f16b	2.0406103e-06
113	0x36073779	2.0148857e-06
114	0x360354a5	1.956979e-06
115	0x3605217f	1.9838042e-06
116	0x360796dc	2.020438e-06
117	0x36089f21	2.0358204e-06
118	0x360948fa	2.0457069e-06
119	0x3607cda5	2.0236268e-06
120	0x3608817e	2.0340954e-06
121	0x3608be56	2.037637e-06
122	0x3608ad5d	2.036649e-06
123	0x3607c78e	2.0232724e-06
124	0x36098e1c	2.049731e-06
125	0x36069910	2.005665e-06
126	0x3608e205	2.039714e-06
127	0x3604e727	1.9804081e-06
128	0x3604188f	1.9683828e-06
129	0x3608fc1e	2.041233e-06
130	0x36094cfb	2.04594e-06
131	0x36076d2c	2.0180114e-06
132	0x36045f5a	1.9725035e-06
133	0x36078b59	2.0197679e-06
134	0x3607aff0	2.0218977e-06
135	0x3608ce2e	2.0385592e-06
136	0x36082c6b	2.0291434e-06
137	0x360624af	1.9988909e-06
138	0x36041650	1.968252e-06
139	0x3605869e	1.9896902e-06
140	0x3609e388	2.0547031e-06
141	0x36048d91	1.9751935e-06
142	0x36074d3a	2.016152e-06
143	0x3605291b	1.984247e-06
144	0x36038485	1.9597658e-06
145	0x3605b42e	1.9923423e-06
146	0x3604c279	1.978273e-06
147	0x3603031b	1.9522329e-06
148	0x3606caba	2.0085558e-06
149	0x36081d50	2.0282641e-06
150	0x36079123	2.0201048e-06
151	0x3608f5e3	2.0408704e-06
152	0x36056277	1.9875858e-06
153	0x3607da5e	2.0243674e-06
154	0x3603857f	1.9598226e-06
155	0x360440f5	1.9707343e-06
156	0x3607d747	2.0241876e-06
157	0x3603246b	1.954172e-06
158	0x3608f7ea	2.0409884e-06
159	0x3607c920	2.0233638e-06
160	0x3604fe8c	1.9817699e-06
161	0x3607b414	2.0221387e-06
162	0x3607b983	2.022455e-06
163	0x36082002	2.028421e-06
164	0x36066b57	2.0030036e-06
165	0x36038b2a	1.9601525e-06
166	0x36069c18	2.0058415e-06
167	0x360340c5	1.9558222e-06
168	0x36080c82	2.027286e-06
169	0x36055b0c	1.987154e-06
170	0x36036d1a	1.9584027e-06
171	0x36038822	1.959976e-06
172	0x36097430	2.048222e-06
173	0x36095b95	2.0467899e-06
174	0x360894a5	2.0352102e-06
175	0x3607c334	2.023019e-06
176	0x36061943	1.998226e-06
177	0x360796c9	2.0204336e-06
178	0x36052e46	1.984548e-06
179	0x3609862e	2.0492694e-06
180	0x3608cce0	2.0384832e-06
181	0x36054581	1.9859e-06
182	0x36083721	2.0297668e-06
183	0x360948a7	2.045688e-06
184	0x360565cf	1.9877805e-06
185	0x3607fb0e	2.02627e-06
186	0x36036023	1.957648e-06
187	0x3608f77d	2.0409636e-06
188	0x3603e1d4	1.965197e-06
189	0x3609369c	2.0446378e-06
190	0x36072fef	2.0144469e-06
191	0x3607bca3	2.0226369e-06
192	0x3606a20f	2.0061887e-06
193	0x3608b275	2.0369455e-06
194	0x3606aa51	2.0066693e-06
195	0x36090372	2.0416596e-06
196	0x360652bc	2.0015714e-06
197	0x3606bd6e	2.0077819e-06
198	0x36064155	2.0005584e-06
199	0x3604ec58	1.9807103e-06
200	0x3603d69e	1.9645445e-06
201	0x3603c71b	1.9636416e-06
202	0x3607deab	2.0246177e-06
203	0x36054828	1.9860545e-06
204	0x36084824	2.030757e-06
205	0x360728d1	2.0140326e-06
206	0x33d69caf	9.993652e-08
207	0x33e6fd70	1.07563096e-07
208	0x348aa975	2.58278e-07
209	0x352ea55e	6.506069e-07
210	0x35b49bee	1.3456427e-06
211	0x3639e5e6	2.7700967e-06
212	0x3693c68f	4.4040567e-06
213	0x36b341bf	5.3422696e-06
214	0x36d45008	6.327409e-06
215	0x36d529e1	6.35277e-06
216	0x36c44d9f	5.8502915e-06
217	0x36ea4eb6	6.9829066e-06
218	0x36fedd53	7.5955554e-06
219	0x370d3275	8.416003e-06
220	0x372210f1	9.659897e-06
221	0x3737b499	1.0949699e-05
222	0x373189ab	1.0582075e-05
223	0x3732e9d6	1.0664071e-05
224	0x37421158	1.1567339e-05
225	0x374b9964	1.2135457e-05
226	0x3753e6a2	1.2630278e-05
227	0x37520448	1.2517972e-05
228	0x375f0046	1.3291899e-05
229	0x375b822f	1.3083728e-05
230	0x3758575e	1.2894945e-05
231	0x3747fd38	1.1920281e-05
232	0x3744ecab	1.1737614e-05
233	0x374798c7	1.1896896e-05
234	0x374a58e5	1.2060836e-05
235	0x3750a79b	1.243679e-05
236	0x375bdecd	1.3105292e-05
237	0x3758c73e	1.2920993e-05
238	0x375ce6d7	1.3166768e-05
239	0x37556799	1.271991e-05
240	0x375e496d	1.3249327e-05
241	0x375d00d7	1.3172822e-05
242	0x3754f8f2	1.2694147e-05
243	0x374d6916	1.2243419e-05
244	0x376d1937	1.4132172e-05
245	0x37b7b4ec	2.1899548e-05
246	0x3607eaf9	2.025334e-06
247	0x3607e32c	2.02488e-06
248	0x3603fc29	1.9667298e-06
249	0x36072752	2.0139455e-06
250	0x360452d8	1.9717754e-06
251	0x36060442	1.9970034e-06
252	0x36084e32	2.0311095e-06
253	0x3603489f	1.9562792e-06
254	0x360454db	1.9718925e-06
255	0x36033f2b	1.955729e-06
