test/test_results/triplets/results/model/model_epoch0180.tar (torch, 62996 bytes, 3 tensors)

fc.weight f4 [100, 41]
000000 84 f5 77 3a 64 79 05 40 43 b0 05 40 d5 52 e9 3f
       0.0009458887 2.085534 2.0888832 1.8228403
000010 a2 19 d9 3f f7 e9 cf 3f 0f 6b c7 3f 35 11 be 3f
       1.6960948 1.6243275 1.5579547 1.4849001
000020 c2 8f b6 3f a0 e4 b3 3f 07 74 a5 3f 68 48 9f 3f
       1.4262621 1.4054146 1.2926034 1.2443972
000030 39 80 94 3f 54 8d 8f 3f db 18 88 3f ed 13 7e 3f
       1.160163 1.1215005 1.0632585 0.99249154
000040 f2 3b 76 3f 86 a5 68 3f 97 30 5f 3f 59 8e 64 3f
       0.9618522 0.9087757 0.8718352 0.89279705
000050 f9 67 5d 3f bc bd 57 3f 58 39 61 3f 60 46 62 3f
       0.86486775 0.84273887 0.87978125 0.88388634
000060 12 b4 5a 3f 80 af 61 3f 42 71 57 3f 3b e6 5e 3f
       0.85431015 0.88158417 0.8415719 0.87070054
000070 a5 0a 56 3f a4 bb 4c 3f 02 b7 4e 3f 3f ec 30 3f
       0.8360999 0.79973817 0.80748 0.6911048
000080 5d 23 29 3f 8e b5 11 3f e5 fd 01 3f 47 a5 ba 3e
       0.66069585 0.56917655 0.5077804 0.36454222
000090 15 89 d4 3e e9 fd 0b 3e 04 5c 8a 3d e7 a6 c8 3b
       0.41510835 0.13671078 0.06755832 0.006123412
0000a0 9c e8 da b8 bb da 04 3b 4d 2b 96 3f 45 c1 8d 3f
       -0.00010438377 0.0020271975 1.1731964 1.1074606
0000b0 5b 01 8e 3f 0d 8e 8a 3f 48 c1 82 3f 88 7f 7d 3f
       1.1094164 1.08246 1.0215235 0.9902272
0000c0 b2 ee 79 3f 4a 69 67 3f 5a a6 5d 3f e1 a0 55 3f
       0.97629845 0.90395033 0.8658196 0.83448607
0000d0 fd d8 4d 3f 3b e8 46 3f 35 6d 36 3f ac 4a 2c 3f
       0.8040922 0.77698106 0.71260387 0.6730144
0000e0 64 82 22 3f 1b e4 0d 3f be ea f8 3e a2 3b da 3e
       0.6348021 0.55426186 0.48616594 0.4262362
0000f0 3e 91 b2 3e 4c 97 a0 3e c5 17 7d 3e d4 d1 2f 3e
       0.34876436 0.3136543 0.24716099 0.17169887
000100 f1 73 e8 3d 08 17 49 3d 60 42 1b 3b 5e 3b 8f 39
       0.11350239 0.04909423 0.0023690686 0.00027319317
000110 eb 39 f9 3a 03 17 6e 3b 12 c6 05 3c 50 ad 87 3b
       0.0019014453 0.0036329634 0.008164899 0.0041405335
000120 0a 37 13 b9 3a ae f9 3b ae ce b8 3b e1 4a a6 3b
       -0.00014039516 0.0076196464 0.0056398725 0.005074844
000130 ac d5 48 3a ae 9e 33 3b 43 1d c1 3a b0 b3 ec 3b
       0.0007661234 0.0027407813 0.0014733452 0.007223569
000140 dc 9d 29 3e da 6d a4 38 c0 72 6f 3b 3c 5f 14 3f
       0.16564125 7.840591e-05 0.0036536902 0.57957816
000150 62 cc 0c 3f 74 35 6b 3f 87 d8 7b 3f e6 33 88 3f
       0.54999363 0.9187844 0.9837727 1.0640838
000160 f3 16 80 3f 05 77 80 3f 96 14 77 3f e7 54 6e 3f
       1.0007004 1.0036322 0.96515787 0.930983
000170 61 be 5e 3f 9c 2e 4e 3f f5 07 4d 3f 22 d1 3e 3f
       0.87009245 0.8053987 0.80090266 0.7453786
000180 f6 34 36 3f ba 06 2b 3f a7 db 2a 3f cb bc 22 3f
       0.7117456 0.6680714 0.6674141 0.63569325
000190 3d 45 18 3f 81 a6 14 3f 88 42 0c 3f de f3 04 3f
       0.5948065 0.58066565 0.5478902 0.5193461
0001a0 a6 de f3 3e dd 07 dd 3e 29 4f ce 3e 84 e1 c4 3e
       0.47630805 0.43170062 0.4029477 0.38453305
0001b0 68 f4 a6 3e 2c 23 83 3e dd cc 7f 3e 7a a8 2b 3e
       0.32608342 0.25612772 0.24980493 0.16763487
0001c0 99 9a 4b 3e 5c 39 07 3e 92 2e b6 3d 48 62 29 3d
       0.19883193 0.13205475 0.08895601 0.041353494
0001d0 32 8e 7b 3d 5e d9 8b 3d 99 d5 07 3c 90 bd 9d 39
       0.061414905 0.06828569 0.008290672 0.0003008661
0001e0 91 67 28 3d 23 40 e5 3c a4 0f d7 37 d2 83 bb 3a
       0.041114394 0.027984684 2.563728e-05 0.0014306253
0001f0 66 af 87 3a 7e 09 75 3b ca de a4 b8 f0 d7 27 3b
       0.0010351955 0.003738969 -7.861627e-05 0.0025610887
000200 e5 5e dc 3a d0 aa 14 3b ae d8 45 3b 9a 01 52 3b
       0.0016812949 0.002268482 0.0030188966 0.0032044412
000210 46 64 0b 3a ae b5 51 3b 6f 1b 4e 3b d8 81 5e 3b
       0.0005317371 0.0031999159 0.0031449457 0.0033951905
000220 95 2d 55 3b 8a 41 75 3a 15 f5 4d 3b 98 9b 2a b8
       0.003252839 0.00093557744 0.0031426598 -4.0676066e-05
000230 4a 3d 72 3b 84 df 24 3b 75 83 e3 3a 21 04 13 3b
       0.00369628 0.002515764 0.0017357903 0.002243288
000240 ad 5f 65 3b 28 16 af 38 e2 4f 6c 3b b3 2c 65 3b
       0.0034999654 8.348777e-05 0.0036058356 0.003496927
000250 fa 09 80 39 2a 0d cb 3a 90 ca f4 39 0a 78 44 3b
       0.00024421496 0.0015491594 0.00046690227 0.0029978775
000260 d9 35 68 3b 8d ba fe 3a 3c 11 50 3b 1d 2b 56 3b
       0.0035432486 0.0019434259 0.0031748554 0.0032679506
000270 fd 6b 04 3b 94 11 73 3b aa 9d 71 3a 11 d8 68 3b
       0.0020205968 0.0037089335 0.0009216914 0.0035529176
000280 fa 6a 3a 3b 58 bf 41 3b 65 14 d3 3a 94 21 4b 3b
       0.002844511 0.0029563513 0.00161041 0.0030995356
000290 74 6b 6e 38 f6 6d f1 3a 7c 63 6e 3b f3 48 a6 3a
       5.6843695e-05 0.0018419612 0.0036375215 0.0012686535
0002a0 2b 56 44 3b 47 ee 2c 3b 64 d4 2a 3a 06 99 06 3a
       0.0029958587 0.0026387142 0.0006516634 0.00051344966
0002b0 94 2c 5b 3b 77 6a 5c 3b ce f7 70 3b cb 45 66 3b
       0.0033443319 0.0033632794 0.0036768797 0.0035136815
0002c0 96 49 91 3a 79 32 3d 3b 6d 4e 47 39 c9 21 68 3b
       0.0011084552 0.0028869195 0.00019007335 0.0035420528
0002d0 75 d3 66 3b 40 a2 0b 3a cf 25 33 3b 91 0d 5a 3b
       0.0035221253 0.00053266063 0.0027335768 0.0033272246
0002e0 96 c0 81 3a d4 75 ea 3a 11 c6 6f 3b a2 a9 45 3b
       0.0009899314 0.0017887899 0.0036586563 0.0030160923
0002f0 25 ec 6e 3b 28 97 26 3b 08 63 8a 39 2c 1f 43 3a
       0.003645667 0.0025419686 0.00026395195 0.00074433046
000300 a6 0b 09 3a ca c3 e7 3a 7a 20 d2 39 82 d0 cc 3a
       0.0005227871 0.0017682251 0.00040078518 0.0015626105
000310 94 1a 5e 3b 90 9e 12 3a 92 13 c2 3a e3 a2 64 3b
       0.0033890354 0.00055930857 0.0014806858 0.0034887127
000320 84 9d 11 3a bb 07 c6 3a 34 54 64 3b 2d f3 2e 3b
       0.00055547827 0.0015108505 0.0034840228 0.0026695237
000330 be 31 58 3b 09 99 53 3a fd f8 1d 40 45 bd 1a 40
       0.0032988633 0.0008071815 2.468322 2.417802
000340 1a ee f8 3f 59 20 e7 3f 5d 8f d9 3f 08 4f cf 3f
       1.9447663 1.8056747 1.6996876 1.6195993
000350 38 3d c2 3f 4f 99 b3 3f 55 3a b4 3f ff ce a9 3f
       1.5174932 1.4031161 1.4080302 1.3266295
000360 33 5c a5 3f 26 cd 9a 3f f8 69 95 3f e8 71 90 3f
       1.2918762 1.2093856 1.1672964 1.1284761
000370 38 59 87 3f b9 81 86 3f 96 f3 7d 3f f7 e4 7c 3f
       1.0574102 1.0508338 0.9919981 0.9878687
000380 e0 70 7a 3f 2a 2b 76 3f 00 43 66 3f e0 98 74 3f
       0.97828484 0.96159613 0.89945984 0.9554577
000390 35 1b 6f 3f cc c9 5d 3f 9a 76 57 3f 26 6e 45 3f
       0.9340089 0.8663604 0.84165347 0.771212
0003a0 f6 19 58 3f 46 ef 4a 3f da d0 4b 3f 3a a4 45 3f
       0.84414613 0.7927135 0.7961556 0.77203715
0003b0 a5 f2 2e 3f bd ea 32 3f dc c9 15 3f 26 ee f6 3e
       0.68338996 0.6988943 0.5851114 0.48228568
0003c0 a5 f7 c0 3e 31 f1 d1 3e 3c 8e 31 3e c3 6c ce 3d
       0.37688938 0.41004327 0.17339414 0.100793384
0003d0 15 e0 1b 3c 1e 42 42 39 ea b2 cc 3a 67 ae 6c 3e
       0.009513875 0.00018525912 0.0015617285 0.23113404
0003e0 54 1a 75 3e 60 7b 32 3f 26 03 50 3f 65 d4 67 3f
       0.23935825 0.69719505 0.81254804 0.90558463
0003f0 c9 b5 6a 3f ad dc 6d 3f 0b 2c 66 3f d2 2a 60 3f
       0.9168363 0.9291485 0.89910954 0.8756534

exp_avg f4 [100, 41]
000000 a4 fe 41 39 1c e0 d9 b8 03 07 fe b8 f4 1b 01 38
       0.00018500775 -0.0001038911 -0.0001211297 3.078203e-05
000010 90 aa 1e 38 c2 6d ca b9 73 75 84 39 3a 18 0a b9
       3.7828984e-05 -0.00038610218 0.00025264508 -0.0001316973
000020 f0 eb 23 b9 98 b4 96 b9 3a cf 74 b9 fc e7 fa b7
       -0.00015632785 -0.00028744782 -0.00023346851 -2.9910349e-05
000030 c3 cc 06 ba ba 4d 4c ba 68 28 9a 3a 8a 73 ff 38
       -0.0005142206 -0.00077935646 0.001176131 0.00012180868
000040 58 77 20 ba 98 26 6b 38 18 32 87 ba 18 6a bf 38
       -0.0006121299 5.606431e-05 -0.0010314612 9.127351e-05
000050 db 6c b1 b9 f3 e1 26 3a a8 ea 89 b8 fa 49 16 ba
       -0.00033841174 0.00063660665 -6.576377e-05 -0.0005733069
000060 fc 4b 22 b9 98 28 2a b9 dc 30 53 39 51 70 2f ba
       -0.0001547783 -0.00016227586 0.0002014073 -0.00066924567
000070 32 93 21 3a 20 13 13 38 4d 0f 08 ba 90 63 c0 3a
       0.00061635964 3.5065343e-05 -0.0005190268 0.001467811
000080 b6 8f 9f ba ef 09 b4 b9 68 89 54 b9 33 7d 85 ba
       -0.0012173567 -0.00034339676 -0.00020269083 -0.0010184407
000090 b6 f8 0c 3a 13 af ef 39 68 ea 3f 39 eb e3 32 ba
       0.0005377637 0.00045716073 0.00018302503 -0.00068241236
0000a0 d3 e8 8a 3a 87 f6 33 39 38 78 5a 36 fe 12 94 b7
       0.0010597951 0.00017162609 3.2554508e-06 -1.7651819e-05
0000b0 d8 3a 88 38 8e 35 8c 38 02 26 19 b9 18 80 84 39
       6.495946e-05 6.6856956e-05 -0.00014605376 0.0002527244
0000c0 d8 25 39 b6 23 e0 6f 37 38 d0 01 b9 1c 77 91 b8
       -2.7589176e-06 1.4297696e-05 -0.00012379966 -6.936325e-05
0000d0 de 21 ee 38 37 ab 57 b9 45 1a af b9 74 5d 4a 3a
       0.000113550326 -0.0002056778 -0.00033398173 0.0007719614
0000e0 2c d3 3a 39 b6 39 89 b9 f1 a0 34 39 b8 d5 04 ba
       0.0001781701 -0.00026173674 0.00017226093 -0.0005067247
0000f0 95 4a 99 38 4c 8a 33 b8 23 d4 15 3a f6 e6 5c 39
       7.3095005e-05 -4.2805725e-05 0.000571551 0.00021066875
000100 6b 99 9d b8 4a 64 9e 38 0c 14 67 39 52 50 b4 39
       -7.51492e-05 7.5527074e-05 0.00022037345 0.0003439212
000110 91 c7 89 b9 ec e4 1c 3a 80 12 0f b8 e6 95 a8 b9
       -0.00026279365 0.000598504 -3.4111086e-05 -0.0003215514
000120 0a e6 b9 39 5b ef ce b9 9a 78 e3 b8 9f c9 87 39
       0.00035457342 -0.00039469716 -0.00010846667 0.00025899426
000130 ec b5 52 b9 54 d7 1e 3a f2 ff 08 3a 74 b8 15 b9
       -0.00020094932 0.0006059308 0.0005226127 -0.00014278461
000140 78 95 0a 39 f9 ce 17 ba 7a 53 36 b8 56 52 61 38
       0.00013216387 -0.0005791034 -4.3469925e-05 5.372086e-05
000150 c0 3d 72 36 b3 18 7d 38 64 4b 79 38 b4 c4 d5 b7
       3.6096753e-06 6.0342903e-05 5.943644e-05 -2.5483176e-05
000160 a3 24 3c 39 0c 72 8a 37 9a 78 bb b7 44 b0 eb b8
       0.00017942725 1.650399e-05 -2.2348297e-05 -0.00011238505
000170 7f b0 95 b8 34 cd ec 38 9a 37 40 b9 c4 09 61 b9
       -7.1377486e-05 0.00011291579 -0.0001833126 -0.0002146131
000180 f2 32 0b 3a 20 f1 3e 39 32 9f 88 b9 27 38 42 39
       0.00053100206 0.00018209638 -0.0002605855 0.000185222
000190 63 db 0d ba e4 ea b7 37 c0 15 77 b6 ee da fc 39
       -0.00054114143 2.192468e-05 -3.6818528e-06 0.000482283
0001a0 6e a3 a2 38 cf a8 a0 b9 4a 03 5e 38 34 77 5b 38
       7.755203e-05 -0.0003064335 5.2931988e-05 5.2324685e-05
0001b0 a1 94 aa 39 47 5e be b9 5f 1c 1a 3a ba 43 92 38
       0.00032535664 -0.00036309866 0.00058788614 6.9744376e-05
0001c0 da 93 60 b9 3c 73 90 3a 3d 58 2c ba 17 87 9a 38
       -0.00021417384 0.0011020671 -0.0006574428 7.368455e-05
0001d0 17 e9 2f 39 d6 01 aa b9 f2 bb ca 39 71 39 d0 39
       0.00016776133 -0.00032426295 0.00038668473 0.0003971565
0001e0 30 f3 71 b8 15 86 71 b9 02 25 ed b9 ce 0b 3e 39
       -5.7685364e-05 -0.000230335 -0.00045231736 0.0001812421
0001f0 27 2a 41 39 45 08 aa b7 01 91 47 39 0c 3d 27 39
       0.00018421617 -2.026943e-05 0.00019032137 0.00015949103
000200 6c ff 39 39 a0 12 00 ba 16 48 9f b9 86 72 fc 38
       0.00017738127 -0.0004885588 -0.00030380551 0.00012037628
000210 b6 00 45 39 98 5e 05 39 f0 dd 04 39 a5 05 c2 38
       0.00018787649 0.00012719107 0.00012671179 9.251692e-05
000220 0e 40 fa 38 0a 0a 42 39 2e 13 85 b9 2b 10 46 39
       0.0001193286 0.00018505022 -0.00025382027 0.00018888775
000230 a0 78 1a 36 da 26 dd b9 67 6a 38 39 cc 69 00 ba
       2.3018001e-06 -0.0004218135 0.00017587245 -0.00048985775
000240 e2 35 c2 38 15 ae 46 39 8e 50 0b b9 70 17 bd 38
       9.260677e-05 0.00018947602 -0.00013286082 9.016588e-05
000250 2d 21 45 39 cb ab 3d 39 7a ec 43 39 c4 5c 13 39
       0.00018799743 0.00018088442 0.00018684744 0.0001405357
000260 bc 5e 0b b9 54 c6 34 39 5a 49 01 39 e6 0f f4 38
       -0.00013291364 0.0001724002 0.00012329724 0.00011637788
000270 dc 75 33 39 a0 ea 3a b8 5e 62 40 39 9a ea 98 38
       0.00017114676 -4.4564367e-05 0.00018347192 7.291623e-05
000280 ca b2 1a 39 6f 70 11 39 95 56 3f 39 5a ae dc 38
       0.00014753189 0.00013870162 0.00018247434 0.00010522893
000290 11 87 47 39 93 b2 35 39 64 d4 d2 b8 fa e5 3f 39
       0.00019028435 0.00017328029 -0.00010053141 0.00018300852
0002a0 dc 20 9f b9 b1 f8 21 39 3f ff 44 39 b3 59 5e ba
       -0.00030351325 0.00015446801 0.00018787103 -0.0008481994
0002b0 10 97 5b b9 86 d5 5b b9 b3 86 a8 37 37 17 bf 38
       -0.00020941743 -0.00020965011 2.0089885e-05 9.111914e-05
0002c0 b4 67 3f 39 18 38 17 39 43 ff 47 39 cf 8f a7 38
       0.00018253812 0.00014421379 0.00019073211 7.989967e-05
0002d0 e1 95 a8 38 6b a3 5e ba 6f 19 1d 39 42 ea e9 38
       8.0387814e-05 -0.0008492979 0.00014982162 0.0001115394
0002e0 ba 2d 43 ba 76 77 38 39 8b 2b ac b7 ec da 09 39
       -0.00074454735 0.0001759211 -2.0524274e-05 0.00013146893
0002f0 06 06 5f 38 4d 1f 27 39 a4 66 48 39 99 82 3f 39
       5.3172953e-05 0.00015938022 0.00019111723 0.00018263831
000300 00 83 47 39 38 24 38 39 a2 d6 44 39 33 99 3e 39
       0.0001902692 0.000175611 0.00018771974 0.00018176883
000310 da 0e 5f b9 18 68 5e ba ae fb 3a 39 13 ed be 38
       -0.0002127247 -0.0008484139 0.000178321 9.1040645e-05
000320 13 86 5d ba 85 8e 3d 39 13 76 95 38 a4 bb b9 b9
       -0.00084504596 0.00018077537 7.126867e-05 -0.00035425753
000330 ce e5 89 38 24 0e 43 39 cc 22 16 b9 8b e7 20 b9
       6.5754735e-05 0.00018601917 -0.00014318078 -0.00015345046
000340 9e fa 24 38 14 84 19 38 e9 31 fa b9 a4 7c 92 39
       3.9334052e-05 3.660105e-05 -0.00047720902 0.00027940155
000350 cc 21 24 b9 85 d4 2c b9 e8 29 a4 b9 d4 ba 8f b9
       -0.00015652849 -0.00016482368 -0.0003131174 -0.00027414283
000360 3f f5 92 b8 d4 c2 14 ba 1b e5 6b ba 44 08 ab 3a
       -7.007503e-05 -0.00056747836 -0.0008998678 0.0013048728
000370 72 6a e4 38 69 ca 2a ba 80 02 c1 36 3d a7 95 ba
       0.00010891714 -0.0006515147 5.7521393e-06 -0.0011417639
000380 30 7a dc 38 68 43 d6 b9 74 c2 33 3a b0 5a 94 b8
       0.00010513177 -0.00040867482 0.0006857284 -7.074082e-05
000390 1a 4f 1f ba a2 48 4f b9 e8 b3 2d b9 18 23 8e 39
       -0.00060771557 -0.00019768116 -0.00016565586 0.00027110497
0003a0 d7 bc 29 ba b2 2b 27 3a b0 f6 82 37 71 6d 0e ba
       -0.00064749777 0.00063770555 1.561208e-05 -0.0005433178
0003b0 51 4a c4 3a 6d 52 9c ba 45 af d3 b9 e1 ad 6e b9
       0.0014975761 -0.001192642 -0.00040375642 -0.00022762224
0003c0 92 e8 89 ba fa 42 1c 3a 1c 5e 07 3a f8 4c b7 38
       -0.0010521582 0.0005960908 0.00051638647 8.7404565e-05
0003d0 1a 64 2a ba 8a 38 88 ba d3 6d 3c 39 91 57 b9 38
       -0.00064999016 -0.0010392827 0.0001796999 8.837798e-05
0003e0 e8 51 31 38 24 72 aa 38 73 55 9d 38 fb b8 46 38
       4.227637e-05 8.127492e-05 7.5022595e-05 4.7379155e-05
0003f0 9e ec 1b 39 97 af 51 38 56 28 0d b7 c4 c8 c3 b8
       0.00014870099 4.9993014e-05 -8.413646e-06 -9.33572e-05

exp_avg_sq f4 [100, 41]
000000 f2 2d 04 36 d5 8b 03 34 95 d0 0d 34 c3 83 03 35
       1.9696276e-06 1.2251196e-07 1.320753e-07 4.899304e-07
000010 ae b3 61 35 60 18 af 35 12 0a ff 35 91 2a 22 36
       8.40805e-07 1.304561e-06 1.9001911e-06 2.4164658e-06
000020 0f 91 3b 36 d3 f6 3c 36 ae 4e 6a 36 b7 8c 63 36
       2.7949607e-06 2.8157854e-06 3.4914515e-06 3.3907543e-06
000030 55 5c 84 36 3c 52 8c 36 70 b2 a7 36 26 26 c3 36
       3.9446554e-06 4.1818985e-06 4.9977607e-06 5.815894e-06
000040 9e 4c c4 36 62 3e c7 36 8d 23 c3 36 e1 de d3 36
       5.8501746e-06 5.9379245e-06 5.8155915e-06 6.3142365e-06
000050 d2 2a dc 36 ac 75 d0 36 df 04 db 36 0a 6b ea 36
       6.561496e-06 6.212582e-06 6.5272757e-06 6.9862044e-06
000060 88 fe fb 36 18 7b 03 37 02 d5 e4 36 5b 36 fc 36
       7.5100143e-06 7.8368685e-06 6.819727e-06 7.516513e-06
000070 af f9 fd 36 3d 42 e8 36 13 b5 f5 36 78 81 03 37
       7.5690546e-06 6.92185e-06 7.322649e-06 7.838353e-06
000080 23 e2 04 37 72 53 0f 37 db 98 03 37 cc ce 11 37
       7.920465e-06 8.542893e-06 7.843798e-06 8.690822e-06
000090 9d 99 10 37 3e 08 1b 37 ac 99 1d 37 2a 6a 49 37
       8.618835e-06 9.240639e-06 9.393709e-06 1.2005252e-05
0000a0 1d b7 cd 37 5c 46 05 36 11 1c 64 33 56 ac 6e 33
       2.4523173e-05 1.98595e-06 5.3110913e-08 5.5570432e-08
0000b0 88 ed 45 34 32 f0 a9 34 20 eb 0b 35 fd 07 4e 35
       1.8433468e-07 3.1653468e-07 5.2123687e-07 7.6752605e-07
0000c0 f3 80 85 35 7d 35 9c 35 4c 4c 9f 35 f8 65 c6 35
       9.946801e-07 1.1638473e-06 1.1868628e-06 1.4781826e-06
0000d0 9f a4 c1 35 58 31 e4 35 50 98 f3 35 d1 0c 11 36
       1.4427532e-06 1.7001685e-06 1.814924e-06 2.1614144e-06
0000e0 c3 b5 28 36 42 57 2a 36 00 c6 2b 36 e7 6c 29 36
       2.513975e-06 2.5382765e-06 2.5596237e-06 2.5246352e-06
0000f0 ba 7c 35 36 a1 80 38 36 83 a7 2a 36 83 fc 2f 36
       2.7043702e-06 2.7493008e-06 2.5429479e-06 2.6224013e-06
000100 9b ac 35 36 c2 ba 3e 36 06 58 59 36 e0 30 72 36
       2.7071571e-06 2.8420914e-06 3.2386756e-06 3.608926e-06
000110 b6 84 93 36 56 cb 84 36 9b ac 84 36 3c 91 90 36
       4.396391e-06 3.957578e-06 3.9540005e-06 4.308442e-06
000120 80 37 88 36 8f 3a 8a 36 be b0 86 36 6d e2 87 36
       4.059577e-06 4.1195376e-06 4.0140867e-06 4.049673e-06
000130 cd 59 71 36 57 6a 88 36 04 15 49 36 0d c4 4d 36
       3.596407e-06 4.0654954e-06 2.9963567e-06 3.0661497e-06
000140 1a c2 62 36 42 93 4f 37 2c 25 08 36 6a ff 08 33
       3.3789606e-06 1.2372448e-05 2.0287216e-06 3.1897265e-08
000150 a8 9b 13 33 58 1f bd 33 e5 db 3c 34 72 6c bd 34
       3.4367673e-08 8.8067e-08 1.7588862e-07 3.5282898e-07
000160 09 27 1a 35 9d 2d 54 35 00 bf 7d 35 28 0a 88 35
       5.7426274e-07 7.904253e-07 9.4527786e-07 1.0135745e-06
000170 e3 be b4 35 8e ac af 35 ac ed d1 35 93 35 e1 35
       1.34666e-06 1.3088736e-06 1.5640885e-06 1.6779398e-06
000180 dd 4b 03 36 23 8b 17 36 1b 16 18 36 5a f0 1b 36
       1.956468e-06 2.2581742e-06 2.2662632e-06 2.3236703e-06
000190 30 e9 1e 36 ea 23 2f 36 45 93 35 36 e3 e7 28 36
       2.3679568e-06 2.6097937e-06 2.7056824e-06 2.5168927e-06
0001a0 56 6a 33 36 60 0a 38 36 07 ad 43 36 67 c8 48 36
       2.6734974e-06 2.7424176e-06 2.915798e-06 2.9918972e-06
0001b0 f8 1d 3a 36 62 d1 4e 36 c9 27 43 36 ce cd 2b 36
       2.7733604e-06 3.081827e-06 2.9080422e-06 2.560078e-06
0001c0 ba 51 34 36 42 4d 3c 36 9a 2b 3a 36 9a 0d 43 36
       2.6869661e-06 2.8059153e-06 2.774154e-06 2.9065181e-06
0001d0 3b 35 30 36 66 d3 39 36 25 e4 37 36 96 13 4a 36
       2.6257028e-06 2.7690198e-06 2.7401923e-06 3.0111746e-06
0001e0 68 f3 4b 36 4e 0d 88 36 b5 fa 6a 37 96 a8 04 36
       3.0391038e-06 4.0546647e-06 1.4005859e-05 1.9767663e-06
0001f0 7b 1c 03 36 d5 f0 06 36 e7 d7 01 36 2b 67 04 36
       1.95371e-06 2.0107739e-06 1.934817e-06 1.9729584e-06
000200 cd 2c 03 36 21 ca 07 36 84 23 07 36 fa aa 04 36
       1.9546599e-06 2.0234222e-06 2.013724e-06 1.9769054e-06
000210 0b d9 01 36 2e ef 04 36 5f f4 04 36 42 ad 05 36
       1.9348834e-06 1.9808754e-06 1.9811775e-06 1.9919394e-06
000220 75 4f 05 36 e0 11 03 36 4b e0 07 36 62 49 02 36
       1.9864794e-06 1.9530926e-06 2.0247123e-06 1.9414224e-06
000230 ac f8 06 36 23 96 08 36 eb 2c 04 36 67 e5 08 36
       2.0112302e-06 2.035297e-06 1.9695678e-06 2.039911e-06
000240 fd 71 06 36 48 db 02 36 34 0b 08 36 62 87 06 36
       2.0033906e-06 1.9499148e-06 2.02721e-06 2.004636e-06
000250 86 c0 02 36 cc 2a 04 36 92 19 03 36 2c d7 05 36
       1.9483573e-06 1.9694444e-06 1.9535405e-06 1.994379e-06
000260 81 15 08 36 ed 7c 04 36 23 3d 06 36 ac 27 06 36
       2.0278096e-06 1.974225e-06 2.0003142e-06 1.9990648e-06
000270 ac eb 04 36 32 f1 07 36 82 3d 04 36 81 e8 07 36
       1.9806712e-06 2.0256962e-06 1.9705335e-06 2.0251903e-06
000280 ec 4a 07 36 b6 3c 08 36 62 e9 07 36 77 f6 10 36
       2.0160178e-06 2.0300918e-06 2.0252414e-06 2.1601134e-06
000290 14 51 03 36 d0 cc 03 36 ad 2b 07 36 90 ef 02 36
       1.9567715e-06 1.9639738e-06 2.014199e-06 1.9510953e-06
0002a0 08 66 07 36 19 25 04 36 7f ef 01 36 c8 ea 07 36
       2.0175958e-06 1.9691126e-06 1.9361903e-06 2.0253228e-06
0002b0 ed a7 06 36 62 dc 06 36 b4 e7 05 36 08 49 05 36
       2.0065302e-06 2.0095836e-06 1.9953413e-06 1.9861054e-06
0002c0 75 a0 02 36 23 cc 04 36 8e 24 02 36 2f 1c 06 36
       1.9464908e-06 1.9788356e-06 1.9392787e-06 1.998396e-06
0002d0 1f 54 06 36 0d 37 09 36 d8 55 05 36 b7 1d 06 36
       2.001652e-06 2.0446635e-06 1.9868512e-06 1.9984852e-06
0002e0 68 37 09 36 69 62 04 36 93 6f 07 36 f5 de 05 36
       2.0446842e-06 1.9726815e-06 2.0181512e-06 1.9948322e-06
0002f0 bb 16 07 36 4e 19 05 36 5c e7 02 36 91 78 03 36
       2.0129798e-06 1.9833274e-06 1.9506178e-06 1.95907e-06
000300 3d 3a 03 36 c9 92 04 36 b5 00 03 36 9d 56 04 36
       1.955442e-06 1.9754973e-06 1.9520933e-06 1.9719948e-06
000310 66 65 08 36 51 d8 09 36 7a 7b 04 36 b4 3a 07 36
       2.03246e-06 2.0540504e-06 1.9741406e-06 2.0150737e-06
000320 ed 8e 0a 36 76 da 05 36 58 28 09 36 cc 31 0c 36
       2.0646796e-06 1.9945705e-06 2.0438074e-06 2.0890611e-06
000330 3a 85 11 36 27 0b 04 36 df 2d 2a 34 a5 c9 35 34
       2.1684232e-06 1.9676024e-06 1.5849172e-07 1.6930296e-07
000340 64 ac 2f 35 09 1e 90 35 8a 69 d8 35 2e 63 1a 36
       6.544344e-07 1.0737577e-06 1.612397e-06 2.3005518e-06
000350 8b ec 41 36 e8 c9 5d 36 e9 7b 5a 36 b4 09 84 36
       2.8896927e-06 3.3049091e-06 3.2556657e-06 3.935036e-06
000360 16 bf 80 36 fa 9f 94 36 4c b5 9d 36 56 38 bd 36
       3.8369426e-06 4.4293674e-06 4.7000703e-06 5.6391973e-06
000370 c3 ae dc 36 cf 1c e0 36 73 1d e4 36 1f d4 df 36
       6.576856e-06 6.679074e-06 6.798358e-06 6.670612e-06
000380 df 80 f3 36 78 b1 fb 36 18 a1 f0 36 6c 5d fc 36
       7.256967e-06 7.501043e-06 7.171311e-06 7.521061e-06
000390 c5 e1 08 37 3f a9 12 37 99 bd 17 37 87 59 00 37
       8.158798e-06 8.741684e-06 9.0444455e-06 7.650239e-06
0003a0 59 37 0b 37 59 7d 0b 37 2e 0c 00 37 a9 d7 05 37
       8.297932e-06 8.31423e-06 7.63223e-06 7.97763e-06
0003b0 59 3c 0d 37 19 eb 0e 37 5d 63 1c 37 16 53 0f 37
       8.418306e-06 8.5185975e-06 9.321459e-06 8.542809e-06
0003c0 da e5 1d 37 f9 78 1c 37 2b 65 26 37 e2 8b 2c 37
       9.411446e-06 9.326491e-06 9.917926e-06 1.0284568e-05
0003d0 0d f5 5e 37 d6 6e d8 37 69 ca 04 36 8f 71 d6 32
       1.32892865e-05 2.5800819e-05 1.978735e-06 2.496452e-08
0003e0 09 25 dd 32 d4 8b 83 33 ef f3 00 34 80 08 89 34
       2.5744628e-08 6.1255975e-08 1.2009671e-07 2.5524423e-07
0003f0 5f a4 e0 34 a8 4f 20 35 a5 12 43 35 36 b8 55 35
       4.1842847e-07 5.972056e-07 7.267029e-07 7.9616746e-07
