test/test_results/triplets/results/model/model_epoch0010.tar (torch, 52628 bytes, 3 tensors)

fc.weight f4 [100, 41]
000000 4f 02 2f 3b ad 4a d4 3e d5 79 d9 3e f0 05 df 3e
       0.0026704257 0.41463223 0.42475763 0.43559217
000010 4f 23 d1 3e 7e 0f ce 3e 2b a7 c9 3e 7a 11 c7 3e
       0.4084725 0.40246195 0.39385352 0.3888052
000020 3d ec c0 3e 21 09 c6 3e 02 4b ba 3e 5a 1f b3 3e
       0.37680236 0.3867884 0.3638535 0.34984857
000030 17 16 b3 3e ce ed aa 3e c8 40 a5 3e 77 31 9d 3e
       0.3497779 0.33384556 0.32275987 0.307018
000040 35 ee 92 3e 81 e7 9a 3e bf 55 87 3e fa c3 84 3e
       0.28697363 0.30254748 0.26432607 0.25930768
000050 a9 aa 80 3e 0d 34 79 3e 3e 31 6e 3e 1e 83 68 3e
       0.25130203 0.24336262 0.23260972 0.22706267
000060 15 b6 5e 3e 98 80 59 3e a9 0a 39 3e 4d f7 36 3e
       0.21749146 0.21240461 0.18070473 0.17867775
000070 03 df 39 3e 82 c4 1b 3e 10 99 0d 3e d7 26 02 3e
       0.18151478 0.1521168 0.1382792 0.12710129
000080 a9 dd c5 3d 2b 2f e6 3d 64 3f 99 3d 0d d7 2e 3d
       0.09661419 0.11239465 0.07482794 0.042685557
000090 18 eb 0c 3d c4 ee 8a 3c dd 7c b6 39 7f 56 f4 39
       0.03440389 0.016959555 0.00034806776 0.0004660375
0000a0 d2 28 1d 39 79 89 62 3b 2d f3 d7 3e ee bb d7 3e
       0.00014987894 0.0034566803 0.42177716 0.42135566
0000b0 54 20 d8 3e b9 93 d9 3e 41 05 c9 3e d5 8d c8 3e
       0.42212164 0.42495516 0.3926182 0.3917071
0000c0 64 a5 c8 3e 89 39 c4 3e a8 14 b6 3e 1b 85 ba 3e
       0.39188683 0.38325146 0.35562634 0.36429676
0000d0 1c 35 b6 3e 6c d9 a9 3e b4 0b ab 3e 8f d8 a7 3e
       0.35587394 0.33173692 0.33407366 0.3278241
0000e0 d1 3b a1 3e cb 22 9d 3e 51 6f 8e 3e fc 1b 8b 3e
       0.3149095 0.30690607 0.27819303 0.27169788
0000f0 2e f1 88 3e ec 07 84 3e 09 1d 73 3e 9e 3e 74 3e
       0.26746505 0.25787294 0.23741545 0.23852012
000100 1b fc 76 3e a6 a8 5c 3e 09 d4 53 3e 82 fe 30 3e
       0.24119608 0.2154871 0.20686354 0.17284587
000110 18 69 1c 3e 5f 7c 1d 3e 07 16 06 3e 67 7a 0d 3e
       0.15274465 0.15379475 0.1309434 0.13816224
000120 18 30 e5 3d ee e3 00 3e f4 aa c7 3d 1c e3 79 3d
       0.11190814 0.12586948 0.097494036 0.061007604
000130 59 d5 55 3d 08 b0 0e 3d 7f a3 ba 3c 57 be 2b 3b
       0.052205417 0.034835845 0.02278304 0.002620598
000140 8c 3b 9b 39 58 90 08 b9 01 59 90 3a 5c 15 da 3e
       0.0002960827 -0.00013023743 0.0011012853 0.4259442
000150 26 d2 dc 3e fe f0 d7 3e ad da c6 3e bb 3e d1 3e
       0.4312908 0.4217605 0.3883871 0.40868172
000160 ab 08 cb 3e 2e c4 d1 3e 8c 96 c0 3e e0 5b bb 3e
       0.3965505 0.40969986 0.37614858 0.36593533
000170 1a fb b4 3e 49 2f aa 3e 66 32 b1 3e 4b 9f ab 3e
       0.35347825 0.332392 0.34608763 0.33519968
000180 51 33 9f 3e 04 0f 99 3e ef 24 9a 3e 8a 36 96 3e
       0.3109384 0.2989427 0.30106303 0.29338485
000190 59 b0 91 3e 7b 03 82 3e 7f ce 87 3e cf 61 80 3e
       0.28454855 0.2539328 0.26524732 0.25074622
0001a0 d7 27 71 3e f0 81 63 3e 36 c8 5c 3e 14 fb 49 3e
       0.23550354 0.22217536 0.2156075 0.19724685
0001b0 7e 03 3c 3e c2 8c 2e 3e 30 97 26 3e 7c 06 10 3e
       0.18360707 0.17045882 0.16268611 0.14064974
0001c0 39 80 0f 3e 88 a5 05 3e 09 e7 be 3d f3 33 8d 3d
       0.14013757 0.13051426 0.0932141 0.06894674
0001d0 49 92 a3 3d 50 d2 62 3d d5 c9 22 3d 03 30 97 3c
       0.07986886 0.05537635 0.039743263 0.018455511
0001e0 78 04 ee 38 6a 09 c2 39 b0 e9 d4 39 c9 2d 48 3b
       0.00011349557 0.00037009577 0.00040609902 0.0030544868
0001f0 29 a9 e1 3e 2f bc dc 3e c2 9c cf 3e 59 4b d0 3e
       0.4407437 0.43112323 0.40549284 0.40682486
000200 4a 3c cb 3e e4 1c ca 3e b4 3f d0 3e d9 7e c4 3e
       0.39694434 0.39475167 0.40673602 0.38378027
000210 5b d2 ba 3e 7f d1 b2 3e 5a c6 af 3e d8 96 b0 3e
       0.36488613 0.34925458 0.34331018 0.34490085
000220 5e 77 af 3e 74 3a a2 3e 97 5f 94 3e 01 35 96 3e
       0.34270757 0.3168522 0.2897918 0.29337314
000230 ba de 8b 3e ec 49 8f 3e e4 e7 88 3e 3b 6a 6e 3e
       0.27318364 0.27986085 0.26739419 0.23282711
000240 e1 e5 65 3e 18 5b 63 3e e0 e0 45 3e 93 b3 4b 3e
       0.22450973 0.22202718 0.19324064 0.19892721
000250 db a0 47 3e c4 12 31 3e 7e 6d 0f 3e 90 52 24 3e
       0.19494955 0.17292315 0.14006612 0.1604712
000260 d9 b0 0a 3e 95 a5 fb 3d 02 e2 e8 3d 41 a2 d9 3d
       0.13544025 0.12287442 0.113712326 0.106266506
000270 f9 77 77 3d 1a 71 7b 3d a6 ba 86 3d 5d 63 17 3d
       0.06041715 0.06138716 0.06578569 0.036959995
000280 84 a5 b2 3c d0 ab 36 38 f7 a8 65 3a 37 a2 4a 39
       0.02180744 4.3552194e-05 0.00087608345 0.00019324651
000290 d8 b9 f2 3a 2a cf e1 3e 10 64 d9 3e f8 e7 d7 3e
       0.001851852 0.44103366 0.42459154 0.42169166
0002a0 b5 c3 d8 3e 57 73 ca 3e 86 2d c8 3e 80 0a bc 3e
       0.42336813 0.39541122 0.39097232 0.3672676
0002b0 7c 8c c6 3e ca 56 bd 3e a5 d2 b6 3e ab 0e b9 3e
       0.38779056 0.36980277 0.35707584 0.36144003
0002c0 c7 89 b2 3e 8a 09 a7 3e 1a 0b 9a 3e 82 3d a5 3e
       0.3487074 0.32624465 0.30086595 0.3227349
0002d0 a5 a3 8f 3e 9f 0d 92 3e 4b 11 87 3e ef 72 85 3e
       0.28054538 0.28526017 0.2638038 0.2606425
0002e0 91 74 65 3e da 0d 6f 3e 6e 9e 66 3e a8 4a 53 3e
       0.22407748 0.23345128 0.22521374 0.20633948
0002f0 d9 de 43 3e 93 d4 3d 3e 92 27 39 3e cf f2 1e 3e
       0.19127978 0.18538122 0.18081501 0.15522312
000300 7f 11 1f 3e 71 af f7 3d 0a 54 e3 3d ac 03 d6 3d
       0.15534018 0.1209401 0.111000136 0.10449919
000310 d1 ce bf 3d 0d ce cc 3d ab df 88 3d 90 d8 4e 3d
       0.09365619 0.100002386 0.06683286 0.0504995
000320 0b a4 0a 3d 92 7c b3 3c a5 33 94 3a dc 64 b4 3a
       0.03384785 0.021909986 0.0011306895 0.0013762969
000330 a9 28 d8 39 d5 ff 26 3b e7 f4 d9 3e 6b 58 dd 3e
       0.00041229025 0.0025482078 0.42569658 0.4323152
000340 a4 2d d5 3e 3e 3e d6 3e 45 8d ce 3e f2 80 d0 3e
       0.41636384 0.41844362 0.40342155 0.40723377
000350 d3 9f c5 3e fd 99 b9 3e 81 60 bf 3e e4 1b ba 3e
       0.385985 0.36250296 0.37378314 0.36349404
000360 e7 9d bc 3e 59 56 ae 3e 4a 92 a8 3e 19 d2 a8 3e
       0.3683922 0.34050253 0.3292411 0.32972792
000370 cb c0 9a 3e 5b de 9a 3e a1 87 95 3e 40 8a 8b 3e
       0.30225214 0.3024777 0.2920504 0.27253914
000380 72 bf 8a 3e 8f cd 8e 3e 00 f1 78 3e e3 9f 70 3e
       0.27099186 0.27891204 0.24310684 0.23498492
000390 31 75 75 3e 48 91 5e 3e 45 bc 4d 3e 1d 3f 37 3e
       0.23970486 0.21735108 0.2009135 0.1789517
0003a0 bf e9 36 3e d8 40 1c 3e fb 9a 19 3e 23 57 10 3e
       0.17862605 0.15259111 0.15000527 0.1409574
0003b0 43 58 f7 3d 5a ec 06 3e a4 da c5 3d f2 8b 84 3d
       0.120773815 0.13176098 0.09660843 0.06472005
0003c0 e4 d6 52 3d 16 16 40 3d b1 72 8a 3c f2 08 0f 3b
       0.051474467 0.046896063 0.016900392 0.00218254
0003d0 58 75 de 39 f1 f6 03 3a f6 bf 4e 3b bc 4e de 3e
       0.00042430568 0.00050340506 0.0031547523 0.43419445
0003e0 c7 78 df 3e 61 ab cc 3e 86 32 dc 3e 41 a6 ca 3e
       0.43646833 0.39974502 0.43007296 0.39579967
0003f0 93 c8 ca 3e 68 ad bc 3e 3e 6a c0 3e 66 9d c1 3e
       0.3960615 0.36851048 0.37581056 0.37815398

exp_avg f4 [100, 41]
000000 04 dc 22 39 99 55 77 b9 3d f6 25 b9 7a cf 3c b9
       0.00015531486 -0.00023587643 -0.00015827357 -0.00018006368
000010 9e 7d 9a b9 cd 18 32 b9 f4 37 3a b9 7d ec 55 b9
       -0.0002946676 -0.00016984642 -0.00017759186 -0.00020401362
000020 28 ae f1 b7 7b e3 e9 b9 67 0e 24 b9 be e9 22 b9
       -2.8810537e-05 -0.0004461071 -0.00015645624 -0.000155366
000030 ec 3d ba b9 94 68 6b b9 26 16 76 38 f7 6f 9d b9
       -0.0003552282 -0.00022450305 5.8671598e-05 -0.00030028794
000040 48 de fd b7 82 f0 9f b8 ca d2 6d ba 7f 79 b3 b8
       -3.0263458e-05 -7.626509e-05 -0.00090722425 -8.5580155e-05
000050 96 bc 8b b9 73 3b 76 39 f4 53 db 38 f6 da 9e b9
       -0.00026652653 0.00023482535 0.00010458371 -0.00030299247
000060 b2 46 94 b8 7e 55 6a b9 b0 8b 80 b9 a2 ea a0 39
       -7.070358e-05 -0.00022347827 -0.00024518138 0.00030692393
000070 9c 6e c0 b8 3e c1 8a b9 5d a1 36 b9 4e 59 df 36
       -9.175876e-05 -0.00026465388 -0.00017416985 6.6563143e-06
000080 dc 88 aa 39 5c 3f 0f ba 75 c9 26 b9 33 15 df b9
       0.00032526895 -0.00054644584 -0.00015906042 -0.0004254967
000090 50 40 07 ba 7c 39 1b 3a 18 15 0b b9 46 5e df b9
       -0.00051594246 0.00059213466 -0.00013263931 -0.00042604114
0000a0 54 8d 18 3a 5b cf c1 38 60 02 87 b9 f3 16 19 b9
       0.00058193994 9.24158e-05 -0.00025750976 -0.00014599766
0000b0 2a c7 37 b9 45 88 96 b9 58 87 2e b9 52 a3 39 b9
       -0.00017526434 -0.00028711758 -0.00016644353 -0.00017703816
0000c0 4b 65 58 b9 04 e6 a3 b7 48 a7 e9 b9 ba ff 29 b9
       -0.000206371 -1.9538224e-05 -0.00044565857 -0.00016212362
0000d0 bc 19 28 b9 9d 9a bb b9 08 9f 65 b9 7a 02 5b 38
       -0.00016031315 -0.00035782615 -0.00021898386 5.2215975e-05
0000e0 f8 01 96 b9 98 a3 db b7 56 8e a2 b8 0a 9d 6e ba
       -0.00028611696 -2.6183014e-05 -7.751274e-05 -0.000910238
0000f0 4e e3 85 b8 b9 4a 87 b9 e0 96 5d 39 1a 43 e4 38
       -6.384273e-05 -0.0002580488 0.00021132408 0.00010884386
000100 79 b9 a2 b9 0c af 38 b8 a7 5c 58 b9 32 4c 5b b9
       -0.00031037236 -4.4032044e-05 -0.00020633881 -0.00020913852
000110 7a 78 ad 39 a6 01 55 b8 78 bc 8f b9 ef c4 1b b9
       0.00033086893 -5.0784693e-05 -0.00027415506 -0.00014855315
000120 18 79 55 38 03 69 a0 39 d9 df 0b ba 85 a8 1f b9
       5.0895935e-05 0.00030595818 -0.0005335785 -0.000152262
000130 c6 d5 e5 b9 2f 70 05 ba 40 d2 1e 3a d1 84 25 3a
       -0.00043837557 -0.0005090264 0.00060585514 0.00063140417
000140 dc a3 c9 38 d0 c7 d9 b8 a3 03 43 ba 6a ec 80 b9
       9.614948e-05 -0.00010384584 -0.00074392016 -0.00024590205
000150 cd 9a 3a b9 b4 4a 3a b9 e7 24 9f b9 31 48 23 b9
       -0.0001779601 -0.00017766171 -0.00030354338 -0.00015571785
000160 06 47 2e b9 51 70 48 b9 30 9d e9 b7 e9 27 e8 b9
       -0.00016620391 -0.00019115327 -2.784896e-05 -0.00044280224
000170 48 d0 29 b9 3a a2 32 b9 1d 8b b0 b9 38 e2 40 b9
       -0.00016194687 -0.00017035837 -0.00033672983 -0.0001839482
000180 da 7a 7b 38 a1 8e 8b b9 20 69 e3 b7 5b c8 dc b8
       5.9957478e-05 -0.00026618413 -2.7109461e-05 -0.000105277366
000190 4c d0 6f ba 6a 93 94 b8 34 e9 8c b9 52 45 56 39
       -0.0009148165 -7.084648e-05 -0.0002687663 0.00020434454
0001a0 02 8c e1 38 68 d6 9e b9 31 b0 1d b8 85 7f 59 b9
       0.000107549145 -0.00030295854 -3.7595808e-05 -0.00020742237
0001b0 29 f9 79 b9 51 36 af 39 15 88 86 b8 7a e6 8a b9
       -0.0002383931 0.0003341907 -6.414965e-05 -0.0002649313
0001c0 c9 81 3a b9 06 9b b2 36 ea de a9 39 c3 2e 07 ba
       -0.00017786691 5.3228605e-06 0.00032400276 -0.00051568093
0001d0 be 8b 2d b9 6b 93 ef b9 8b 01 05 ba 1c 4a 1c 3a
       -0.00016550624 -0.00045695467 -0.0005073777 0.0005961971
0001e0 53 78 26 3a a6 05 0e ba 08 7a 69 b8 16 fb 0c 39
       0.0006350327 -0.0005417712 -5.566518e-05 0.00013444977
0001f0 14 82 84 b9 63 26 2f b9 b8 0e 3c b9 64 35 9a b9
       -0.00025273918 -0.000167036 -0.0001793456 -0.00029412948
000200 89 99 26 b9 c2 0e 36 b9 7a cd 56 b9 04 49 0b b8
       -0.0001588819 -0.0001736237 -0.00020485176 -3.3208184e-05
000210 5a 97 e9 b9 ac 6c 3c b9 ea 97 38 b9 b8 1c b5 b9
       -0.0004455399 -0.0001796956 -0.000176042 -0.00034544407
000220 7a f3 45 b9 4a bc 4e 38 dd 83 86 b9 80 29 d2 36
       -0.00018878086 4.9289585e-05 -0.00025656717 6.263319e-06
000230 c7 4d 9b b8 66 05 6b ba 60 5f 54 b8 d6 3a 7c b9
       -7.405463e-05 -0.0008965343 -5.0633564e-05 -0.00024054511
000240 36 70 65 39 b6 32 fd 38 02 41 9c b9 d0 a9 d4 b7
       0.00021880944 0.00012073426 -0.00029803073 -2.5351444e-05
000250 78 ed 40 b9 60 0d 51 b9 16 ce b4 39 28 9b ce b7
       -0.00018399011 -0.00019936776 0.0003448582 -2.4629364e-05
000260 9a c3 81 b9 39 83 1c b9 51 9f 49 38 44 19 a8 39
       -0.00024750532 -0.00014926204 4.807051e-05 0.0003206228
000270 ea fd ff b9 cf b0 13 b9 1c 17 e4 b9 6e 11 06 ba
       -0.0004882657 -0.00014084879 -0.00043504767 -0.00051142916
000280 78 be 15 3a e9 ee 1d 3a 08 0c 56 39 b6 85 42 3a
       0.0005712281 0.0006024675 0.00020413112 0.0007420437
000290 e0 6a 36 39 ec 8d 7f b9 9b 73 2e b9 34 db 42 b9
       0.00017396687 -0.00024371565 -0.00016637 -0.00018582941
0002a0 7a 61 94 b9 5c 92 2e b9 14 6f 32 b9 70 b6 60 b9
       -0.00028301385 -0.00016648456 -0.00017016783 -0.00021430268
0002b0 fe 9d 20 b8 71 36 ed b9 16 b6 2a b9 2c fb 17 b9
       -3.8294114e-05 -0.00045244725 -0.00016280296 -0.00014494051
0002c0 c0 e5 b7 b9 08 a4 67 b9 15 d5 84 38 dd 33 90 b9
       -0.00035075657 -0.00022090983 6.33394e-05 -0.00027504461
0002d0 30 53 b6 b7 f1 34 6e b8 86 60 66 ba ef 4f 76 b8
       -2.1734828e-05 -5.6792927e-05 -0.0008788187 -5.8725414e-05
0002e0 1e 6f 88 b9 02 d8 6e 39 58 2c fb 38 7c 4e 94 b9
       -0.0002602273 0.00022777918 0.00011976872 -0.00028287235
0002f0 3a 2c 86 b7 10 f7 4c b9 35 ea 49 b9 f9 ec b0 39
       -1.599464e-05 -0.00019546994 -0.00019256103 0.00033745894
000300 18 28 5b b8 b2 04 6d b9 62 c1 20 b9 04 a1 72 38
       -5.225101e-05 -0.0002260383 -0.0001533083 5.7847254e-05
000310 41 1f a9 39 6a d3 06 ba 68 4c 06 b9 34 b3 dd b9
       0.00032257478 -0.00051431975 -0.000128077 -0.00042285922
000320 9f dd fe b9 d0 16 0f 3a a7 b2 81 ba b8 f1 a7 38
       -0.00048611776 0.00054584164 -0.0009895161 8.008204e-05
000330 95 7d c6 39 94 08 27 39 c2 97 83 b9 86 d8 22 b9
       0.0003785907 0.00015929557 -0.00025099335 -0.00015530185
000340 a2 f1 44 b9 27 e1 97 b9 47 7f 38 b9 e6 aa 38 b9
       -0.00018782032 -0.00028968716 -0.00017595022 -0.00017611272
000350 57 b3 5f b9 b0 ff da b7 53 a2 e8 b9 85 01 25 b9
       -0.00021333747 -2.6106689e-05 -0.0004437143 -0.00015736192
000360 9f cd 20 b9 9c 60 ba b9 5e 54 6c b9 48 e4 59 38
       -0.00015335389 -0.00035548664 -0.00022538143 5.1949435e-05
000370 b0 d8 94 b9 30 e9 43 b8 dd 1d ac b8 c7 1c 71 ba
       -0.00028390205 -4.6708796e-05 -8.2071616e-05 -0.00091977086
000380 a2 75 aa b8 e2 10 8b b9 a0 31 5c 39 a5 2c db 38
       -8.1281425e-05 -0.00026524725 0.00020999322 0.000104510495
000390 c6 ee a5 b9 5e 7c 59 b8 1d 5c 5d b9 64 f4 68 b9
       -0.00031649153 -5.1852658e-05 -0.00021110517 -0.00022216287
0003a0 01 aa ad 39 14 47 94 b8 40 b1 93 b9 f1 ab 3d b9
       0.00033123794 -7.070429e-05 -0.00028170086 -0.00018088498
0003b0 0e 89 3f 38 2a f3 9f 39 bb b5 0b ba 76 6b 2a b9
       4.566559e-05 0.00030508015 -0.0005329509 -0.00016252496
0003c0 ca fa ea b9 6e 64 09 ba e4 75 20 3a bf ae 29 3a
       -0.0004481881 -0.00052411004 0.00061210827 0.00064728776
0003d0 9c 4f 82 39 f8 58 b6 39 78 e9 05 39 fc 2c 74 b9
       0.00024854846 0.00034780032 0.00012770842 -0.00023286411
0003e0 92 62 2b b9 ce 21 45 b9 ca 60 93 b9 c8 4e 36 b9
       -0.00016344551 -0.00018799977 -0.00028110138 -0.00017386221
0003f0 d6 b9 37 b9 0f 54 5c b9 2c 7b ec b7 02 75 e4 b9
       -0.00017521469 -0.00021012149 -2.8190749e-05 -0.00043574726

exp_avg_sq f4 [100, 41]
000000 c8 fb 7c 35 a4 88 4c 35 a8 8b 57 35 3a 2f 55 35
       9.4243705e-07 7.619476e-07 8.029697e-07 7.9417407e-07
000010 1d 56 5d 35 d6 54 72 35 31 6d 6b 35 4c c4 7c 35
       8.2454227e-07 9.027548e-07 8.7703216e-07 9.4162965e-07
000020 cf fb 7c 35 10 87 6c 35 b6 1d 80 35 18 f2 61 35
       9.4243745e-07 8.8113393e-07 9.54539e-07 8.4171324e-07
000030 c8 82 68 35 fd f5 69 35 8f 11 71 35 c1 1b 7a 35
       8.6617047e-07 8.7157224e-07 8.980505e-07 9.3172645e-07
000040 c3 83 57 35 ac 2c 85 35 d5 9a 73 35 df 38 60 35
       8.028548e-07 9.922273e-07 9.0749865e-07 8.352926e-07
000050 d5 75 82 35 aa 10 66 35 f4 0e 64 35 a6 70 6f 35
       9.720048e-07 8.5705926e-07 8.495838e-07 8.9198363e-07
000060 63 e1 7b 35 55 82 71 35 f6 b7 68 35 e5 82 6c 35
       9.383277e-07 8.9969154e-07 8.6694433e-07 8.810733e-07
000070 9a e2 71 35 25 ed 88 35 93 ee 80 35 5a e0 8a 35
       9.0109245e-07 1.0201808e-06 9.606177e-07 1.0347096e-06
000080 fd 86 a7 35 fb cf 93 35 66 37 b1 35 58 09 e2 35
       1.2481756e-06 1.1012884e-06 1.3203651e-06 1.6841032e-06
000090 09 68 02 36 12 84 45 36 0e 85 9a 36 4d 99 f6 36
       1.9432066e-06 2.9432163e-06 4.6050473e-06 7.349218e-06
0000a0 4e 06 28 37 5e 89 7e 35 b9 93 48 35 2a 0b 54 35
       1.0015048e-05 9.482227e-07 7.472077e-07 7.89924e-07
0000b0 99 52 57 35 bc 8f 58 35 bb 4e 70 35 ac 63 67 35
       8.0213937e-07 8.067543e-07 8.9521535e-07 8.619925e-07
0000c0 b8 e5 77 35 fc e4 75 35 2d 1a 6f 35 e5 ab 7b 35
       9.2348955e-07 9.160283e-07 8.907253e-07 9.3754926e-07
0000d0 b4 af 5c 35 c5 71 65 35 6d 67 64 35 43 d6 6b 35
       8.221207e-07 8.5474704e-07 8.5087123e-07 8.7856114e-07
0000e0 23 10 76 35 fc 30 53 35 a8 de 85 35 2d 50 71 35
       9.1665623e-07 7.8674907e-07 9.974074e-07 8.989617e-07
0000f0 af 7b 5d 35 98 02 82 35 5c 91 66 35 69 8c 61 35
       8.25089e-07 9.68651e-07 8.58932e-07 8.4023355e-07
000100 41 cf 6d 35 93 76 7b 35 a8 9c 74 35 4b 7a 68 35
       8.8590974e-07 9.3677335e-07 9.112505e-07 8.6604695e-07
000110 45 bb 6d 35 69 c0 6f 35 84 fb 87 35 4f c4 7c 35
       8.8561893e-07 8.931443e-07 1.0131484e-06 9.416298e-07
000120 62 9a 86 35 fb 16 a3 35 77 bd 91 35 77 6e ad 35
       1.0028709e-06 1.2151135e-06 1.0858483e-06 1.2921654e-06
000130 10 3d c8 35 7d f1 f5 35 e4 14 37 36 21 1a a1 36
       1.4918933e-06 1.8324205e-06 2.7281285e-06 4.8012157e-06
000140 c9 b9 ef 36 73 de 27 37 99 30 82 35 28 25 45 35
       7.1443833e-06 1.0005769e-05 9.699899e-07 7.344229e-07
000150 17 5e 51 35 23 cc 55 35 c6 ee 5f 35 69 e8 6d 35
       7.7995486e-07 7.964574e-07 8.3421435e-07 8.862758e-07
000160 27 80 65 35 59 5f 72 35 91 24 7a 35 5d 72 6d 35
       8.5495634e-07 9.0290774e-07 9.318547e-07 8.84558e-07
000170 d5 a3 7d 35 bb d8 5d 35 c1 ab 63 35 e4 e4 61 35
       9.448825e-07 8.26443e-07 8.4814025e-07 8.415211e-07
000180 7d 16 6b 35 9f 71 75 35 df ba 4e 35 10 aa 83 35
       8.7577047e-07 9.143495e-07 7.7012913e-07 9.809755e-07
000190 d4 e9 6c 35 32 f2 5c 35 98 16 81 35 e6 ba 62 35
       8.8257116e-07 8.2308827e-07 9.617825e-07 8.4463534e-07
0001a0 2d 67 62 35 5e 68 6e 35 92 ba 7a 35 1a ed 6d 35
       8.43417e-07 8.8813783e-07 9.3403753e-07 8.863441e-07
0001b0 d5 b4 68 35 4f 4b 6a 35 67 43 6f 35 8b d3 87 35
       8.668988e-07 8.728138e-07 8.913252e-07 1.0119851e-06
0001c0 3f 49 7c 35 d2 6c 87 35 bf 1e a5 35 07 46 90 35
       9.39839e-07 1.0089955e-06 1.2302406e-06 1.0749217e-06
0001d0 5a cd aa 35 04 40 c7 35 2c b2 dd 35 12 f6 45 36
       1.2725752e-06 1.4845286e-06 1.6517638e-06 2.949852e-06
0001e0 ed ac 95 36 24 88 ec 36 d5 39 28 37 e5 cc 7d 35
       4.4606772e-06 7.049197e-06 1.0027045e-05 9.4548005e-07
0001f0 45 9e 43 35 45 68 52 35 cb bb 5d 35 27 20 5d 35
       7.2873473e-07 7.838283e-07 8.260219e-07 8.2375703e-07
000200 46 cf 73 35 97 8e 67 35 d7 a8 75 35 1b 3d 7a 35
       9.0826177e-07 8.62617e-07 9.1515307e-07 9.322118e-07
000210 f5 63 70 35 d4 ac 80 35 e7 94 60 35 75 b6 63 35
       8.9552424e-07 9.587043e-07 8.3663184e-07 8.48296e-07
000220 79 7f 63 35 13 2e 6e 35 64 00 79 35 db 3d 4f 35
       8.4749587e-07 8.8728956e-07 9.2760297e-07 7.720352e-07
000230 be dc 84 35 db 80 6c 35 1f ea 5b 35 d2 bd 81 35
       9.899011e-07 8.810436e-07 8.192455e-07 9.666494e-07
000240 93 d7 60 35 62 ac 5f 35 3d 27 6a 35 5c ec 72 35
       8.3760204e-07 8.3324824e-07 8.722889e-07 9.0495973e-07
000250 a2 0b 66 35 90 4c 62 35 aa e6 64 35 29 cc 64 35
       8.5698605e-07 8.4302974e-07 8.527228e-07 8.523371e-07
000260 c4 8e 82 35 2a a4 73 35 13 2d 82 35 a1 35 9e 35
       9.727305e-07 9.0763444e-07 9.698873e-07 1.1787525e-06
000270 62 33 8c 35 b7 7e a5 35 23 f8 be 35 f3 14 e4 35
       1.0445767e-06 1.2330337e-06 1.422832e-06 1.6993421e-06
000280 e3 57 2f 36 62 3e 99 36 d2 bb ec 36 f2 cf 20 37
       2.612819e-06 4.5670176e-06 7.0552132e-06 9.585159e-06
000290 59 ed 7a 35 d2 54 48 35 c8 97 59 35 fd d7 5b 35
       9.3477644e-07 7.4629236e-07 8.105967e-07 8.189816e-07
0002a0 6e 91 5c 35 71 02 78 35 a2 a5 6d 35 9c cb 7f 35
       8.2168015e-07 9.239075e-07 8.853041e-07 9.5291193e-07
0002b0 24 51 7a 35 46 c6 6e 35 0c 14 7f 35 52 27 60 35
       9.325033e-07 8.8950435e-07 9.5024075e-07 8.350372e-07
0002c0 7c fa 64 35 21 85 68 35 0c b4 71 35 ce fa 73 35
       8.530112e-07 8.6620463e-07 9.00415e-07 9.0889523e-07
0002d0 2d 5b 56 35 ff 6c 84 35 18 61 70 35 41 8d 5b 35
       7.985389e-07 9.866488e-07 8.954826e-07 8.178941e-07
0002e0 c6 de 81 35 5c 76 61 35 50 89 60 35 77 30 6a 35
       9.676085e-07 8.399127e-07 8.364632e-07 8.724232e-07
0002f0 03 f6 73 35 d9 a1 6a 35 ac 8a 60 35 eb 66 66 35
       9.088255e-07 8.740731e-07 8.3648297e-07 8.583144e-07
000300 dc 97 6a 35 33 9e 82 35 ed 73 73 35 54 80 82 35
       8.739278e-07 9.731797e-07 9.069325e-07 9.723103e-07
000310 19 12 9d 35 ba 69 8b 35 0b e3 a6 35 f1 1f c8 35
       1.1702679e-06 1.0387078e-06 1.2434042e-06 1.4910457e-06
000320 43 2e fa 35 8f fb 35 36 f1 2d 95 36 5a 93 f0 36
       1.8639915e-06 2.7117528e-06 4.4458943e-06 7.1697114e-06
000330 22 9d 1c 37 4a bc 7c 35 75 5a 4d 35 6c d7 54 35
       9.33491e-06 9.415131e-07 7.6500083e-07 7.9289634e-07
000340 68 16 5c 35 6e 2c 5b 35 bd 39 71 35 f2 df 68 35
       8.198899e-07 8.164851e-07 8.9863516e-07 8.675262e-07
000350 21 37 7d 35 84 dd 7d 35 3e c0 6f 35 41 61 80 35
       9.433007e-07 9.457219e-07 8.931419e-07 9.565048e-07
000360 5a cd 5e 35 32 4e 69 35 0f a5 69 35 91 f7 6e 35
       8.300027e-07 8.6913053e-07 8.7039456e-07 8.9022166e-07
000370 8b 88 79 35 99 4e 56 35 c6 8f 85 35 aa 09 74 35
       9.2958425e-07 7.9835587e-07 9.951116e-07 9.0911146e-07
000380 b6 aa 5e 35 1a 00 83 35 93 fa 69 35 68 ff 65 35
       8.294986e-07 9.76029e-07 8.71639e-07 8.5680813e-07
000390 42 6b 72 35 52 31 80 35 a9 d2 79 35 de 3c 6a 35
       9.0308106e-07 9.551097e-07 9.306628e-07 8.7260366e-07
0003a0 27 35 6f 35 d1 ac 74 35 4d 88 8a 35 78 e5 80 35
       8.9111785e-07 9.1148564e-07 1.032147e-06 9.603527e-07
0003b0 36 5a 89 35 a9 6a a7 35 ec 26 96 35 cd 5a b2 35
       1.023355e-06 1.2473512e-06 1.1187199e-06 1.328846e-06
0003c0 41 4a ce 35 d1 c9 db 35 6a 2b 40 36 17 c2 a1 36
       1.5369807e-06 1.6375508e-06 2.86355e-06 4.820769e-06
0003d0 b4 b8 fc 36 14 27 28 37 9f 0c 7e 35 f9 0f 49 35
       7.5316875e-06 1.0022679e-05 9.464074e-07 7.490158e-07
0003e0 b6 e1 51 35 33 64 60 35 50 12 56 35 60 36 74 35
       7.818702e-07 8.359231e-07 7.974786e-07 9.097621e-07
0003f0 c0 2b 68 35 80 82 7c 35 c9 58 78 35 6b 16 6b 35
       8.64904e-07 9.406722e-07 9.25164e-07 8.7576944e-07
