test/test_results/triplets/results/model/model_epoch0430.tar (torch, 79188 bytes, 3 tensors)

fc.weight f4 [100, 41]
0.0029579871 2.125232 1.8422153 2.5098329 2.587262 2.7186947 2.667835 2.5583448
2.5156615 2.4815679 2.3099937 2.126597 1.9862808 1.875549 1.7415054 1.6001557
1.5715995 1.4280896 1.3375405 1.4258982 1.3317995 1.32463 1.289296 1.3498322
1.2858349 1.3581022 1.2945604 1.2509187 1.1606869 1.0495778 1.1746931 0.90897465
0.8452296 0.7049621 0.66618925 0.48574182 0.52699035 0.15009888 0.04973131 0.13655384
0.0003294351 0.003606211 0.0015402386 0.0005874319 0.003195557 0.0034286056 0.0016625371 0.003623967
0.001255827 0.0022500376 0.0023757154 0.003740947 0.0019694788 0.0011957535 0.0034128914 0.00083318196
0.0009205625 0.003651494 0.000950159 0.0018531648 0.0030947744 0.0025635215 0.0036908335 1.2313787e-05
0.003467727 0.0018361432 0.000544781 0.0035037878 0.0021016435 3.0912197e-05 0.0029822602 0.0003499291
0.0024987718 0.002071939 0.003052399 0.0010151932 0.0010279194 0.003282364 0.001078655 0.0025658505
-5.4841265e-05 2.9720773e-05 0.0001647238 0.0016942617 0.0034996646 0.0030998536 0.0034745461 0.003657913
0.0027783867 0.00358808 0.0020464929 0.0022010424 0.0012831308 0.0021895336 0.003581246 0.00033954205
0.0032677061 0.0036691295 0.0027000604 0.0035084293 0.0022729866 0.002587731 0.0002223024 0.0008532087
0.0033463852 0.003540526 0.0013060353 0.0036488853 0.0036485721 0.0035694537 0.00333506 0.000114509094
0.0035471623 0.0020310502 0.0035054372 0.00017923728 0.0024379706 0.003493582 0.003551887 0.0035865167
0.0021757418 0.0022401595 0.0023012548 0.0033196046 0.0036282125 0.0021790722 0.0036921322 0.00043656625
0.00097528193 0.0036359502 0.0036642705 0.0026932503 0.0010584033 0.0028429902 0.0029284784 0.0035475916
0.0032203551 0.0014430905 0.0022712834 0.0006707895 0.0036608605 -0.000105264044 0.0025395595 0.0004924773
0.003377181 0.0009181759 -4.6828063e-08 0.0036320519 0.0019694201 0.0031145257 0.0025476082 0.0035909896
0.00040375825 0.0029461517 0.003545203 0.0028476994 0.0027592294 0.0037487713 0.003646189 0.003300551
0.0015832661 0.0031038176 0.0013418815 0.0016907041 0.0022443093 0.0025240835 0.0021960074 0.0029501421
0.0032832879 0.00087379036 0.00274434 0.0027716092 0.0036963674 0.003665522 0.0035012027 0.002937831
0.0014127536 0.0029121526 0.00043731136 0.0036619115 0.0034983202 0.00042770116 0.0031932956 0.0036733919
0.00067852146 0.003042053 0.003190502 0.0036142746 0.0021655771 0.0036386515 0.0022791058 0.0027051156
0.001896417 0.0033813731 0.0017730276 0.0033995013 0.0013343532 0.0015872053 0.0012608515 0.000119370015
0.0015019445 0.00025880904 0.0024805544 0.0032023934 0.0018800542 0.0028525696 4.3240013 3.8754263
3.4232671 3.2260177 3.1380243 2.8948917 2.6885378 2.4941688 2.5440996 2.3764782
2.223161 2.1277962 1.9764055 1.9099832 1.7703799 1.7621695 1.6291844 1.5905192
1.5683285 1.5372199 1.3925347 1.4812515 1.3965268 1.2496881 1.1889116 1.0325556
1.1346854 1.003141 0.96570325 0.94830453 0.79442674 0.8174569 0.71029633 0.5450733
0.4123064 0.39912874 0.14773302 0.016709331 0.29006502 0.00027706847 0.0034007533 0.003222828
0.0009944756 0.002756581 0.0005672197 0.0015004609 0.0033805117 0.00315363 0.0009753067 0.0033395723
00000000: cada 413b cd03 0840 b6cd eb3f 1aa1 2040
00000010: b395 2540 18ff 2d40 cfbd 2a40 ecbb 2340
00000020: 9900 2140 02d2 1e40 f0d6 1340 2a1a 0840
00000030: 733e fe3f fd11 f03f a6e9 de3f e7d1 cc3f
00000040: 2c2a c93f a4cb b63f 8734 ab3f d583 b63f
00000050: 6878 aa3f 7a8d a93f a707 a53f 4dc7 ac3f
00000060: 3d96 a43f 4bd6 ad3f 28b4 a53f 1b1e a03f
00000070: 6391 943f 9158 863f 585c 963f 90b2 683f
00000080: f860 583f 6578 343f 618b 2a3f 27b3 f83e
00000090: d7e8 063f 85b3 193e 0fb3 4b3d c5d4 0b3e
000000a0: 08b8 ac39 2e56 6c3b d5e1 c93a e3fd 193a
000000b0: 8d6c 513b 75b2 603b 7de9 d93a 1480 6d3b
000000c0: 909a a43a 5e75 133b e4b1 1b3b ad2a 753b
000000d0: 5f12 013b d4ba 9c3a d1aa 5f3b e569 5a3a
000000e0: e751 713a e74d 6f3b 1714 793a e4e5 f23a
000000f0: b3d1 4a3b c100 283b e9e1 713b 5097 4e37
00000100: ce42 633b beaa f03a a2cf 0e3a ce9f 653b
00000110: babb 093b b8a7 0138 0672 433b b076 b739
00000120: 6fc2 233b 5ec9 073b c20a 483b 3b10 853a
00000130: 40bb 863a ee1c 573b a861 8d3a d427 283b
00000140: 5c05 66b8 e050 f937 b5b9 2c39 fd11 de3a
00000150: a15a 653b ea26 4b3b 36b5 633b 99b9 6f3b
00000160: 9815 363b fe25 6b3b 741e 063b 5d3f 103b
00000170: ba2e a83a 477e 0f3b 56b3 6a3b 9004 b239
00000180: 0327 563b c775 703b 7ff3 303b aded 653b
00000190: 63f6 143b ec96 293b d919 6939 dea9 5f3a
000001a0: 074f 5b3b 2b08 683b 462f ab3a 2322 6f3b
000001b0: e21c 6f3b 7fed 693b 0691 5a3b 9a24 f038
000001c0: 8277 683b 5e1b 053b 7abb 653b a4f1 3b39
000001d0: 5cc6 1f3b 94f4 643b c7c6 683b c40b 6b3b
000001e0: e496 0e3b a4cf 123b a6d0 163b b98d 593b
000001f0: 4ec7 6d3b c4ce 0e3b b3f7 713b eee2 e439
00000200: 10aa 7f3a 1f49 6e3b 4224 703b 3e81 303b
00000210: 1fba 8a3a 7651 3a3b b7eb 3f3b b67e 683b
00000220: 980c 533b 1526 bd3a d0d9 143b ecd7 2f3a
00000230: 0ceb 6f3b 34c1 dcb8 bd6e 263b 9819 013a
00000240: b253 5d3b beb1 703a 0020 49b3 b807 6e3b
00000250: 6311 013b 121d 4c3b c6f5 263b cf56 6b3b
00000260: 84af d339 3914 413b a356 683b 78a0 3a3b
00000270: 30d4 343b f2ad 753b e7f4 6e3b 0f4e 583b
00000280: 9885 cf3a 6b69 4b3b 12e2 af3a 9e9a dd3a
00000290: 4315 133b 186b 253b e4ea 0f3b 2c57 413b
000002a0: 6e2c 573b 140f 653a 63da 333b e3a3 353b
000002b0: c13e 723b 4139 703b 6f74 653b a088 403b
000002c0: 252c b93a d0d9 3e3b f046 e539 aefc 6f3b
000002d0: 1344 653b 143d e039 9c46 513b 4abd 703b
000002e0: cede 313a 2e5d 473b be17 513b 77dd 6c3b
000002f0: 5bec 0d3b 7176 6e3b 0d5d 153b 4f48 313b
00000300: 3291 f83a 079a 5d3b ef64 e83a 2bca 5e3b
00000310: 77e5 ae3a c609 d03a 2843 a53a 4a56 fa38
00000320: e5dc c43a c3b0 8739 cc90 223b 3fdf 513b
00000330: 276c f63a 2df2 3a3b 385e 8a40 fc06 7840
00000340: cf16 5b40 1377 4e40 64d5 4840 e845 3940
00000350: 0111 2c40 76a0 1f40 87d2 2240 3818 1840
00000360: 4548 0e40 d02d 0840 dbfa fc3f 547a f43f
00000370: cf9b e23f c58e e13f 1d89 d03f 2296 cb3f
00000380: fdbe c83f 9fc3 c43f 943e b23f a699 bd3f
00000390: 64c1 b23f c8f5 9f3f 412e 983f c82a 843f
000003a0: 5f3d 913f ed66 803f 5438 773f 16c4 723f
000003b0: 8d5f 4b3f db44 513f fbd5 353f ec89 0b3f
000003c0: d319 d33e 9a5a cc3e 5347 173e 02e2 883c
000003d0: 6783 943e 8043 9139 2cdf 5e3b 1536 533b
000003e0: 1059 823a c1a7 343b 78b1 143a 1dab c43a
000003f0: 938b 5d3b 22ad 4e3b baab 7f3a badc 5a3b

exp_avg f4 [100, 41]
0.00013447509 3.9246333e-05 -7.170419e-05 4.7168942e-05 -0.00011553899 0.00015875099 0.00024897198 -4.9664384e-05
-0.00021093327 -3.9162493e-05 5.1484738e-05 -0.0007196716 0.000726611 -4.9089256e-05 -0.0011158561 0.00027278627
0.0009023134 -0.00069838227 -0.00065943826 0.00040209078 0.0005093907 -0.00016609495 2.6927446e-06 -0.00074334815
0.0016264778 -0.00080455386 -0.00076100044 -4.3426175e-05 0.0012265368 -0.00025246298 -0.00023151882 -0.00032793952
-6.0404273e-05 0.00040653313 -0.0003600454 -0.00030736197 -0.00090671214 0.0009916665 0.0005058826 -0.0009006477
-0.00018664918 5.4235832e-05 -0.0006499504 -0.00084896816 -0.00025343697 0.000102299426 0.00017783364 5.3588898e-05
0.0001823702 -0.00048990187 0.00016239527 1.7044185e-06 0.00017271384 0.00018350214 9.140123e-05 0.00018474819
0.00018646556 5.436535e-05 0.00018416661 0.00017349178 0.00012846997 0.00015457436 2.3731081e-06 0.00018924977
9.07006e-05 0.00017750227 -0.0008496335 9.066788e-05 0.00016795432 0.00019241139 -0.0003044415 0.00018883377
-0.0004214245 0.00016887834 -0.00030338264 -0.00074541214 -0.0007433424 -0.0002097632 -0.00074331654 0.00015669128
0.00019098661 0.0001948079 0.00018974685 0.00017783031 -0.0001334103 0.00012695015 9.24142e-05 -2.0127189e-05
0.00014619702 -7.024301e-05 0.00017153898 0.0001686034 0.00018260421 0.00016824591 6.86598e-05 0.00018951207
0.00011029477 5.4423348e-05 0.00015181658 -0.00017045235 0.00016531839 0.00015523983 0.0001902203 0.00018520995
-0.00020928729 8.011754e-05 0.00018391224 -4.4358912e-05 3.598177e-05 6.815498e-05 0.00010424426 0.00018941253
7.931718e-05 0.00017010383 -0.00013371304 0.00018995821 0.00015833483 8.028124e-05 -0.00010037209 3.982597e-05
-0.00048720939 0.00016402024 0.00016884906 0.00011192997 -9.969434e-05 0.00016807407 3.835486e-05 0.00018830437
-0.000744079 2.3502798e-06 1.4169073e-06 0.00015006331 -0.0007434204 0.00014595642 0.00013958206 8.1671e-05
0.000119953605 0.00017786732 -0.00048947893 0.00018895973 -7.085814e-05 0.00019006776 0.00015587344 0.0001888738
-0.00020975969 0.00018581019 0.00018852142 -9.740637e-05 0.00017130474 0.00012610196 0.00015493133 6.993574e-05
0.0001871027 0.00013960394 -0.00013232017 -0.00036130124 0.00015131015 -4.442603e-05 5.344399e-05 0.00011168768
0.00017760457 -0.00025108858 0.0001826051 0.00018217976 0.00016611474 -0.00042092832 0.00016532767 -0.00030389428
0.00011155406 0.00018583397 -0.00035912517 -0.00035978272 -1.9850708e-05 -1.97368e-05 8.039523e-05 0.00013956847
0.00018140094 0.0001400353 0.0001874993 1.4707257e-06 8.237227e-05 0.00018762969 0.00012685262 2.2328048e-05
0.00018733845 0.00012720155 -0.00025465956 6.661584e-05 -0.00048750572 3.7507554e-05 0.00016458475 0.00015087813
0.00017500682 0.000102086226 0.00017467418 9.215058e-05 0.0001804318 0.00017839414 0.00018146014 0.00019029842
-0.0006519719 0.00019008343 -0.00041793898 -0.00025351992 0.0001786847 0.00014053978 -5.6530993e-05 -0.00011590891
6.5350025e-05 -0.00023003476 9.3431e-05 0.00032578874 -7.311126e-05 -0.00025479018 -3.9862207e-05 4.3973643e-05
-0.0008326242 0.00078210176 -0.00011023373 -0.001391913 0.0003912439 0.0010255915 -0.0008631727 -0.0007500231
5.5808807e-05 0.000925218 -0.00016624783 -4.991627e-05 -0.0009913017 0.0020777434 -0.0010176722 -0.0008241482
0.00014534412 0.0011119158 1.928443e-05 -0.00039554326 -0.00036101404 9.3696886e-05 0.00049596885 -0.00033117112
-0.00036942947 -0.0011606074 0.0013766014 0.00049644726 -0.0011717532 -5.0917384e-05 0.00010268642 0.00012018826
-0.0007429418 0.00015043559 -0.0008490257 0.00017983581 9.184234e-05 -0.00025452225 -0.00074325677 -0.00020901096
00000000: e201 0d39 6e9c 2438 e55f 96b8 44d7 4538
00000010: 864d f2b8 6576 2639 7488 8239 ba4e 50b8
00000020: f82d 5db9 6842 24b8 51f1 5738 58a8 3cba
00000030: 0a7a 3e3a 30e5 4db8 eb41 92ba c104 8f39
00000040: 3a89 6c3a a413 37ba 27de 2cba b6cf d239
00000050: a288 053a c629 2eb9 00b5 3436 40dd 42ba
00000060: 8a2f d53a b2e8 52ba e07d 47ba 8024 36b8
00000070: bfc3 a03a 025d 84b9 dcc3 72b9 4cef abb9
00000080: 985a 7db8 f423 d539 7ac4 bcb9 6d25 a1b9
00000090: 6cb0 6dba cefa 813a 359d 043a 7219 6cba
000000a0: 42b7 43b9 487b 6338 6f61 2aba 4a8d 5eba
000000b0: bcdf 84b9 9689 d638 db78 3a39 a4c4 6038
000000c0: a13a 3f39 c26c 00ba a648 2a39 60c3 e435
000000d0: 851a 3539 7b6a 4039 a9ae bf38 f7b8 4139
000000e0: f885 4339 5a06 6438 d91c 4139 58eb 3539
000000f0: e5b5 0639 3d15 2239 b041 1f36 5971 4639
00000100: 8436 be38 e71f 3a39 f0b9 5eba f324 be38
00000110: e51c 3039 0ac2 4939 729d 9fb9 ae01 4639
00000120: a4f2 dcb9 ef14 3139 540f 9fb9 c367 43ba
00000130: dddc 42ba e1f3 5bb9 21db 42ba 7f4d 2439
00000140: 9443 4839 5945 4c39 c8f6 4639 f677 3a39
00000150: 0ee4 0bb9 ec1d 0539 7fce c138 cfd6 a8b7
00000160: 774c 1939 6e4f 93b8 25df 3339 21cb 3039
00000170: 7279 3f39 2b6b 3039 73fd 8f38 c2b7 4639
00000180: 0e4e e738 a044 6438 f430 1f39 74bb 32b9
00000190: 5159 2d39 e0c7 2239 df75 4739 eb34 4239
000001a0: 2174 5bb9 c704 a838 91d8 4039 050e 3ab8
000001b0: 22eb 1638 6dee 8e38 b69d da38 0a9d 4639
000001c0: 1657 a638 e65d 3239 5235 0cb9 852f 4739
000001d0: af06 2639 aa5c a838 db7e d2b8 cf0a 2738
000001e0: 2370 ffb9 d9fc 2b39 130d 3139 f2bb ea38
000001f0: fe12 d1b8 0a3d 3039 38df 2038 9273 4539
00000200: 4c0e 43ba 80b9 1d36 902c be35 505a 1d39
00000210: 19e2 42ba e10b 1939 c65c 1239 c946 ab38
00000220: 9a8f fb38 e581 3a39 6050 00ba 7e23 4639
00000230: ad99 94b8 ed4c 4739 f571 2339 6d0c 4639
00000240: f0f2 5bb9 0bd6 4239 d5ad 4539 a646 ccb8
00000250: 44a0 3339 3d3a 0439 1075 2239 77aa 9238
00000260: 0031 4439 a662 1239 6dbf 0ab9 086d bdb9
00000270: 02a9 1e39 1656 3ab8 0c29 6038 de39 ea38
00000280: 5d3b 3a39 8aa4 83b9 af79 3f39 8207 3f39
00000290: 162f 2e39 0bb0 dcb9 cf5b 2d39 0054 9fb9
000002a0: 21f2 e938 6ddc 4239 f748 bcb9 38a1 bcb9
000002b0: 1285 a6b7 7590 a5b7 dc99 a838 2059 1239
000002c0: 7236 3e39 71d6 1239 769b 4439 c065 c535
000002d0: 47bf ac38 76be 4439 be03 0539 1e4d bb37
000002e0: 4870 4439 6861 0539 d483 85b9 1bb4 8b38
000002f0: e997 ffb9 6e51 1d38 6294 2c39 0a35 1e39
00000300: 0982 3739 2017 d638 be28 3739 f740 c138
00000310: 4b32 3d39 500f 3b39 5646 3e39 d88a 4739
00000320: 18e9 2aba 2251 4739 d21e dbb9 deea 84b9
00000330: 4f5d 3b39 dc5d 1339 b11b 6db8 1f14 f3b8
00000340: 870c 8938 7c35 71b9 63f0 c338 a0ce aa39
00000350: 4f53 99b8 5c95 85b9 b831 27b8 5770 3838
00000360: 7744 5aba f605 4d3a 482d e7b8 da70 b6ba
00000370: de1f cd39 246d 863a 8a46 62ba 339d 44ba
00000380: 4014 6a38 548a 723a d052 2eb9 305d 51b8
00000390: 91ee 81ba c02a 083b 6a63 85ba a60b 58ba
000003a0: 8467 1839 b4bd 913a 00c5 a137 eb60 cfb9
000003b0: 7c46 bdb9 227f c438 e803 023a 09a1 adb9
000003c0: fcaf c1b9 861f 98ba 146f b43a 0324 023a
000003d0: 8395 99ba 2090 55b8 5a59 d738 950d fc38
000003e0: fbc1 42ba 3fbe 1d39 2691 5eba 4f92 3c39
000003f0: 7b9b c038 6671 85b9 1ed7 42ba f429 5bb9

exp_avg_sq f4 [100, 41]
2.002585e-06 8.966116e-08 7.984358e-08 1.4576432e-07 3.6460082e-07 1.0204019e-06 2.0867792e-06 2.785089e-06
3.090791e-06 3.0418134e-06 3.4707616e-06 3.8744474e-06 5.145065e-06 5.3858466e-06 5.865952e-06 6.615806e-06
7.018957e-06 6.6387784e-06 6.868974e-06 7.41762e-06 7.312952e-06 8.237459e-06 7.668695e-06 7.973818e-06
8.648915e-06 8.894818e-06 9.95789e-06 9.774086e-06 1.0199865e-05 9.512662e-06 1.0148041e-05 1.04172295e-05
1.0726134e-05 1.0441053e-05 9.891766e-06 1.1137932e-05 1.0530845e-05 1.0095759e-05 1.0379307e-05 1.1917668e-05
2.0440204e-05 2.0191214e-06 2.0527702e-06 2.0575496e-06 2.0399414e-06 2.0104542e-06 1.9787149e-06 2.0176728e-06
1.9725899e-06 2.0469986e-06 1.9891506e-06 2.0232528e-06 1.9815511e-06 1.9699648e-06 2.0100856e-06 1.965619e-06
1.9654703e-06 2.0157186e-06 1.9669028e-06 1.9798088e-06 2.0012333e-06 1.9912113e-06 2.0219127e-06 1.9526785e-06
2.0092064e-06 1.9790582e-06 2.0539271e-06 2.0109164e-06 1.9833844e-06 1.9532997e-06 2.0388472e-06 1.9574632e-06
2.042091e-06 1.981546e-06 2.03882e-06 2.0515704e-06 2.0516381e-06 2.0379955e-06 2.0607656e-06 2.0068326e-06
1.982757e-06 2.0208765e-06 1.9583326e-06 1.9799459e-06 2.033811e-06 2.0041662e-06 2.0130228e-06 2.0249436e-06
1.9970125e-06 2.0274233e-06 1.9841902e-06 1.9865863e-06 1.971836e-06 1.9864874e-06 2.0152288e-06 1.958187e-06
2.005765e-06 2.016078e-06 1.9940887e-06 2.0346997e-06 1.9871013e-06 1.9913057e-06 1.9564816e-06 1.9651768e-06
2.0357613e-06 2.0121056e-06 1.9717631e-06 2.0264747e-06 2.0180673e-06 2.013566e-06 2.00657e-06 1.9537385e-06
2.0113487e-06 1.980248e-06 2.0295045e-06 1.9547895e-06 1.9884883e-06 2.0129387e-06 2.0320394e-06 2.0252198e-06
2.0598134e-06 2.0159418e-06 2.0568912e-06 2.0096852e-06 2.0326145e-06 1.9865417e-06 2.0209407e-06 1.9611723e-06
2.0529692e-06 2.022695e-06 2.0222983e-06 1.9942286e-06 2.0529508e-06 1.9980928e-06 1.9994131e-06 2.012831e-06
2.004874e-06 1.9745576e-06 2.0454254e-06 1.9617676e-06 2.0281814e-06 1.9519364e-06 1.9915344e-06 1.9607155e-06
2.0366e-06 1.9662718e-06 1.9518807e-06 2.0300704e-06 1.9821357e-06 2.0025543e-06 1.9913618e-06 2.0152565e-06
1.958624e-06 1.9967968e-06 2.0299378e-06 2.0403058e-06 1.994696e-06 2.024768e-06 2.0167563e-06 2.0100904e-06
1.9851434e-06 2.0516432e-06 2.0019895e-06 2.0463974e-06 1.989539e-06 2.0451573e-06 1.9875129e-06 2.0412808e-06
2.0076975e-06 1.9667118e-06 2.0433883e-06 2.0429327e-06 2.024859e-06 2.0244238e-06 2.0120094e-06 1.9990823e-06
1.972827e-06 1.9985214e-06 1.959769e-06 2.021332e-06 2.011469e-06 1.9586032e-06 2.002913e-06 2.0193768e-06
1.962093e-06 2.0001323e-06 2.0388516e-06 2.0145987e-06 2.0450648e-06 2.0165078e-06 1.9863812e-06 1.9929048e-06
1.9803012e-06 2.0061786e-06 1.9786858e-06 2.0068378e-06 1.9696108e-06 1.9741944e-06 1.9691286e-06 1.95348e-06
2.0526402e-06 1.9642916e-06 2.0591256e-06 2.0673158e-06 2.04986e-06 2.0005339e-06 1.5951791e-07 1.4045267e-07
4.4838507e-07 1.0517715e-06 2.4390927e-06 4.2271186e-06 5.465618e-06 5.5791747e-06 5.085905e-06 5.5302185e-06
5.7566112e-06 7.194162e-06 7.518296e-06 8.297602e-06 9.539273e-06 1.0225987e-05 1.006744e-05 1.0569199e-05
1.1108744e-05 1.0988316e-05 1.2370611e-05 1.1239917e-05 1.2159665e-05 1.319299e-05 1.2669089e-05 1.2602802e-05
1.1917324e-05 1.2429141e-05 1.1594039e-05 1.2151534e-05 1.2610973e-05 1.2444088e-05 1.2445024e-05 1.2269107e-05
1.3192785e-05 1.2544941e-05 1.1563507e-05 1.1692417e-05 1.39245085e-05 2.2601651e-05 2.0116693e-06 2.006465e-06
2.053216e-06 1.9968438e-06 2.0564744e-06 1.9765987e-06 2.0097846e-06 2.0387924e-06 2.0525058e-06 2.0372822e-06
00000000: 2664 0636 be8b c033 7976 ab33 6483 1c34
00000010: 5bbe c334 bef4 8835 980a 0c36 77e7 3a36
00000020: 636b 4f36 f521 4c36 3beb 6836 4001 8236
00000030: c6a3 ac36 12b8 b436 25d4 c436 57fd dd36
00000040: 6284 eb36 acc2 de36 0a7c e636 dfe4 f836
00000050: c861 f536 9e33 0a37 cba8 0037 4ac7 0537
00000060: cf1a 1137 f43a 1537 d010 2737 61fb 2337
00000070: 1620 2b37 9298 1f37 8141 2a37 a9c5 2e37
00000080: 65f4 3337 fb2b 2f37 d0f4 2537 0edd 3a37
00000090: a3ad 3037 f460 2937 c922 2e37 fff1 4737
000000a0: 0177 ab37 3e80 0736 53c2 0936 6f14 0a36
000000b0: ede5 0836 57eb 0636 10ca 0436 5b67 0736
000000c0: d660 0436 2b5f 0936 597d 0536 38c7 0736
000000d0: cafa 0436 bd33 0436 02e5 0636 14e9 0336
000000e0: 86e6 0336 c845 0736 22ff 0336 dbdc 0436
000000f0: ed4c 0636 c0a0 0536 32b0 0736 c30a 0336
00000100: e7d5 0636 f6cf 0436 33d6 0936 48f3 0636
00000110: 491a 0536 6f15 0336 21d3 0836 f65c 0336
00000120: db0a 0936 b3fa 0436 a9d2 0836 b6ad 0936
00000130: e0ae 0936 7fc4 0836 af4b 0a36 1fad 0636
00000140: 820f 0536 659e 0736 e66b 0336 36df 0436
00000150: 9b7c 0836 507f 0636 7817 0736 44e4 0736
00000160: 6a04 0636 de0e 0836 2128 0536 4b51 0536
00000170: e253 0436 984f 0536 5e3d 0736 6669 0336
00000180: c89a 0636 f54b 0736 2fd2 0536 e08b 0836
00000190: 245a 0536 5fa2 0536 194c 0336 7be1 0336
000001a0: 1d9e 0836 b607 0736 a252 0436 92fe 0736
000001b0: 226e 0736 cd20 0736 9ca8 0636 f91c 0336
000001c0: b5fa 0636 67e4 0436 9f32 0836 072f 0336
000001d0: f871 0536 0616 0736 2c5e 0836 03e9 0736
000001e0: 533b 0a36 9e49 0736 1f09 0a36 21de 0636
000001f0: 0d68 0836 8750 0536 7f9f 0736 af9c 0336
00000200: bec5 0936 a3bd 0736 d2b6 0736 96d4 0536
00000210: 6dc5 0936 f916 0636 a82d 0636 2c14 0736
00000220: 798b 0636 a482 0436 2444 0936 e9a6 0336
00000230: e41b 0836 03fe 0236 4da6 0536 d694 0336
00000240: 86ac 0836 4bf4 0336 0efd 0236 583c 0836
00000250: d504 0536 9f63 0636 56a3 0536 d83d 0736
00000260: e770 0336 b500 0636 113a 0836 30ec 0836
00000270: 9edc 0536 40e1 0736 9c57 0736 17e5 0636
00000280: 8138 0536 f6ae 0936 eb59 0636 d754 0936
00000290: 0584 0536 893f 0936 3661 0536 f0fc 0836
000002a0: fbbb 0636 dafb 0336 2521 0936 5119 0936
000002b0: d0e2 0736 56db 0736 0f06 0736 f927 0636
000002c0: e964 0436 561e 0636 9384 0336 38a6 0736
000002d0: c6fc 0636 8c70 0336 c969 0636 a184 0736
000002e0: 80ac 0336 033a 0636 34d3 0836 8b32 0736
000002f0: f23d 0936 5753 0736 c54d 0536 d8bd 0536
00000300: 51e5 0436 e3a1 0636 90c9 0436 36ad 0636
00000310: a82d 0436 677c 0436 5f25 0436 8818 0336
00000320: 17c0 0936 46d2 0336 822f 0a36 37bc 0a36
00000330: 5490 0936 e940 0636 f347 2b34 56cf 1634
00000340: 93b9 f034 982a 8d35 4baf 2336 acd6 8d36
00000350: 4d65 b736 bf34 bb36 97a7 aa36 3790 b936
00000360: ea28 c136 6265 f136 ac45 fc36 ee35 0b37
00000370: de0a 2037 4890 2b37 53e7 2837 5d52 3137
00000380: b15f 3a37 755a 3837 5f8b 4f37 1393 3c37
00000390: 5d01 4c37 7657 5d37 538d 5437 9f70 5337
000003a0: 84f0 4737 c186 5037 0584 4237 71de 4b37
000003b0: b793 5337 f3c6 5037 f9ca 5037 6ad7 4d37
000003c0: 9556 5d37 1c78 5237 e200 4237 8c2a 4437
000003d0: 4f9d 6937 ad98 bd37 3700 0736 cea6 0636
000003e0: fbc9 0936 8401 0636 f601 0a36 b5a5 0436
000003f0: d6df 0636 30d2 0836 c8bd 0936 3eb8 0836
