test/test_results/triplets/results/model/model_epoch0450.tar (torch, 80468 bytes, 3 tensors)

fc.weight f4 [100, 41]
000000 a1 fe 0f 3b ba 43 fe 3f 38 7a d7 3f 36 56 1a 40
       0.002197184 1.9864419 1.6834173 2.411512
000010 ea 6e 24 40 cc 00 2f 40 e3 56 2c 40 a7 71 25 40
       2.5692697 2.7344236 2.6928031 2.5850618
000020 ac 1b 23 40 83 6c 21 40 cb 32 17 40 01 ef 0a 40
       2.548564 2.522248 2.3624752 2.1708376
000030 03 54 02 40 22 5e f5 3f 85 71 e4 3f 27 fa d0 3f
       2.0363777 1.9169352 1.7847143 1.632634
000040 8f f9 cc 3f 6c fa b9 3f de cc ad 3f ca 1f b9 3f
       1.6013659 1.4529548 1.3578146 1.4462826
000050 45 f8 ab 3f 04 a6 ab 3f 0c ef a5 3f 7f 58 ae 3f
       1.3435141 1.3410039 1.2963576 1.3620757
000060 91 66 a5 3f a5 01 af 3f 78 72 a7 3f ac b2 9f 3f
       1.2921926 1.3672377 1.3081808 1.2476401
000070 bc 4e 94 3f d8 a5 87 3f 51 7a 96 3f 72 e4 67 3f
       1.1586528 1.0597486 1.1756078 0.90582955
000080 7f 30 58 3f d0 d9 32 3f 2b 29 2a 3f 3b ee f7 3e
       0.84449 0.69863605 0.6646907 0.48423943
000090 5b 63 07 3f 91 87 19 3e 59 11 22 3d 2e 62 10 3e
       0.5288598 0.1499312 0.039567325 0.14099953
0000a0 0a bd ef 38 d9 e1 4a 3b 4d 52 51 3b e6 9d 39 3b
       0.00011431619 0.003095737 0.0031939924 0.0028322875
0000b0 b8 f0 73 3b 11 e5 3b 3b 03 65 62 3a e5 70 54 3b
       0.0037222337 0.002867047 0.0008636268 0.0032415923
0000c0 3c 8b f3 39 e8 48 63 3b 1e ab df 3a 99 4d 69 3b
       0.0004645231 0.0034680907 0.0017064547 0.003559923
0000d0 b1 1b a0 3a 56 98 fd 39 35 e8 41 3b 26 e9 89 39
       0.0012215284 0.0004836942 0.002958787 0.00026304385
0000e0 1a a4 9f 39 47 5f 5a 3b d3 e5 6a 39 0f 96 a5 3a
       0.00030449108 0.003332095 0.00022401595 0.0012633222
0000f0 81 90 2c 3b 0f c4 0a 3b 50 c4 63 3b ba 7e f0 3a
       0.0026331248 0.002117399 0.0034754463 0.0018348314
000100 00 da 41 3b a8 6e a9 3a 66 41 11 3b 3b 9d 4b 3b
       0.00295794 0.0012926655 0.0022164225 0.0031069058
000110 72 15 c5 3a d2 7d fe 3a a5 76 63 3b ba 9b 8c 3a
       0.0015036298 0.001941616 0.0034708169 0.0010727562
000120 42 a0 59 3b e0 df d8 3a 17 c3 63 3b bd df 24 3b
       0.0033207093 0.0016546212 0.0034753734 0.0025157772
000130 32 8a 34 3b 10 4e 75 3b ef 14 5e 3b e4 70 f3 39
       0.002754819 0.0037430562 0.003388699 0.00046432682
000140 e4 61 55 3b 62 e3 60 39 fa bf 0e 3b be 92 63 3a
       0.0032559568 0.00021447011 0.0021781907 0.0008681229
000150 7f c1 6c 3b 97 5f 21 3b d7 a9 40 3b 4c 47 65 3b
       0.0036126075 0.0024623626 0.0029398107 0.0034985123
000160 0d c9 0e 3b 31 47 6a 3b ac 35 b2 3a f8 08 c6 3a
       0.0021787316 0.0035748 0.0013596318 0.0015108874
000170 52 52 09 3a b4 e8 cc 3a 43 08 54 3b 0f 8a 87 3a
       0.0005238402 0.0015633316 0.0032353557 0.0010340827
000180 bf da 34 3b 7d 1d 5b 3b 9a ca 10 3b ba 48 70 3b
       0.0027596203 0.0033434324 0.0022093416 0.0036664442
000190 cc 15 d5 3a 9f b5 06 3b 87 04 c9 3a a3 39 62 39
       0.0016257106 0.0020555032 0.0015336432 0.00021574511
0001a0 4e 60 6e 3b ce c7 4b 3b 20 f5 38 3a 8c 47 6d 3b
       0.003637332 0.0031094435 0.00070555694 0.0036205975
0001b0 7b 88 5e 3b 4d ec 53 3b 4f 4d 46 3b 8c a1 81 3a
       0.003395586 0.003233689 0.0030258482 0.0009890064
0001c0 ee 69 50 3b cc 5c de 3a 1d 47 72 3b 7a f2 80 3a
       0.003180142 0.0016964911 0.0036968656 0.0009837889
0001d0 27 1d 03 3b 46 a2 48 3b df ea 6d 3b 54 76 3a 3b
       0.002000639 0.00306143 0.0036303324 0.0028451877
0001e0 9b ef 6f 3b bc b5 32 3b 02 8a 1a 3b f5 77 2b 3b
       0.0036611322 0.0027268967 0.0023580794 0.002616403
0001f0 3a dc 6d 3b ec 85 b0 3a 31 cc 5b 3b 2f d3 89 3a
       0.0036294595 0.0013467646 0.0033538456 0.0010515208
000200 20 de 41 3b eb 18 5d 3b 43 07 63 3b 58 82 08 3b
       0.002958186 0.0033736776 0.003464178 0.0020829644
000210 0c 19 34 3b 98 95 0c 3b 23 8a 1c 3b 07 00 4f 3b
       0.002748075 0.002145147 0.0023886047 0.003158571
000220 39 f1 35 3b 31 77 51 3a cb 5a 5d 3b 36 df ef 38
       0.0027762188 0.0007990478 0.003377604 0.00011437984
000230 d0 ed 6f 3b bd 24 29 3b f5 83 01 3b dd 26 08 3a
       0.0036610253 0.0025809251 0.001976249 0.00051937794
000240 bf 14 71 3b de d4 94 39 bb 0a f4 3a 7b 48 75 3b
       0.0036786047 0.00028387358 0.0018618921 0.0037427235
000250 8c a7 bb 3a 54 27 2f 3b c1 ce 08 3b f5 7e 53 3b
       0.0014316901 0.0026726322 0.0020875188 0.0032271717
000260 ca 51 19 3a b0 f5 20 3b 8e 04 73 3b f9 91 5d 3b
       0.00058486743 0.0024560504 0.0037081572 0.003380893
000270 6c 4a 1b 3b 27 6f 72 3b b3 01 55 3b a1 5f 2c 3b
       0.0023695482 0.0036992521 0.0032502234 0.0026302116
000280 75 f5 60 39 08 c3 5c 3b 4c 9c 6a 3b 0b bc ec 3a
       0.00021453745 0.0033685584 0.0035798727 0.0018061412
000290 28 db b1 3a ff 12 65 3b 0e ef bd 3a 5e 38 6b 3b
       0.0013569342 0.003495395 0.00144908 0.0035891752
0002a0 53 d3 32 3b 58 ae eb 37 ee 40 69 3b f4 af 6f 3b
       0.0027286604 2.8095368e-05 0.003559168 0.0036573382
0002b0 52 a2 65 3b d2 e8 65 3b 9b e7 44 3b 42 98 1e 3b
       0.0035039377 0.0035081399 0.0030045274 0.002419964
0002c0 a7 e4 3e 3a fe 20 17 3b 6b 11 01 3a 27 21 65 3b
       0.00072819967 0.0023060436 0.0004923555 0.0034962387
0002d0 a4 d6 50 3b 3b 79 09 3a 27 7e 35 3b af 0e 5f 3b
       0.0031866217 0.00052442 0.00276936 0.0034035852
0002e0 ee ae ab 38 59 ce 24 3b 61 97 75 3b 54 26 54 3b
       8.1864986e-05 0.0025147407 0.0037474262 0.0032371478
0002f0 f8 6e 63 3b c4 30 5e 3b df 32 e7 3a 35 42 11 3b
       0.0034703594 0.0033903578 0.0017639062 0.0022164707
000300 04 a9 a8 3a 44 d7 43 3b ac e1 aa 3a 88 69 4b 3b
       0.0012867753 0.0029882947 0.0013037226 0.0031038243
000310 79 dd 50 3a 22 82 9c 3a e2 f6 3f 3a 60 c9 fa 3a
       0.00079675723 0.0011940638 0.000732286 0.0019133501
000320 bd 81 4e 3b 86 f1 32 3b 7f 55 60 3b e7 7f 1f 3b
       0.0031510436 0.0027304604 0.0034230647 0.002433771
000330 77 fb 02 3b 6b 9d 07 3b 62 d4 8d 40 94 62 7b 40
       0.001998631 0.0020693194 4.4321756 3.9278917
000340 57 a0 60 40 6a 54 54 40 bc 70 4f 40 88 44 3e 40
       3.5097864 3.3176522 3.2412558 2.9729328
000350 aa f6 2f 40 9c 15 22 40 eb 99 25 40 47 7f 1a 40
       2.7494302 2.532569 2.5875194 2.4140184
000360 ce 4c 10 40 a9 86 0b 40 6a 01 01 40 fd 18 fb 3f
       2.2546878 2.180094 2.0157113 1.9617001
000370 dc ed e7 3f de 30 e7 3f 83 06 d6 3f d2 7e d0 3f
       1.8119464 1.8061788 1.6720737 1.6288702
000380 66 9a cc 3f 1f ba c7 3f ea 69 b4 3f 8d db c0 3f
       1.5984619 1.5603675 1.4094822 1.5067002
000390 31 e6 b3 3f fb 9a 9f 3f fc 77 97 3f 55 6e 82 3f
       1.4054624 1.2469171 1.1833491 1.0189921
0003a0 f3 7b 8f 3f 0d e1 7d 3f d1 75 74 3f 49 af 70 3f
       1.1209701 0.99171525 0.95492274 0.94017464
0003b0 73 db 47 3f 26 ff 4d 3f 6c 53 33 3f d8 8c 07 3f
       0.7806923 0.8046745 0.70049167 0.52949286
0003c0 ca da c8 3e 61 b0 c9 3e 48 4a fe 3d d0 c3 e0 3b
       0.39229423 0.3939238 0.12416512 0.00685928
0003d0 47 f8 a6 3e b5 e3 4b 3a 1c d1 32 3b 06 c1 2a 3b
       0.32611296 0.00077777664 0.0027285283 0.0026054992
0003e0 91 e3 3f 3b f4 81 fe 3a 56 af 22 3b c1 15 42 3a
       0.0029279927 0.0019417391 0.0024823747 0.0007403754
0003f0 b8 f6 3b 3b d7 56 70 3b 91 8c 32 3b 71 d6 6d 3b
       0.0028680991 0.0036672854 0.0027244429 0.0036291147

exp_avg f4 [100, 41]
000000 d1 36 31 39 ec 83 cf b8 c3 ac 82 b7 9c 65 15 38
       0.00016900456 -9.8951015e-05 -1.5577656e-05 3.5619e-05
000010 4d 0c 17 39 7e f9 8f 38 d8 21 06 b6 0c e6 72 b8
       0.00014405065 6.865243e-05 -1.9987256e-06 -5.7911544e-05
000020 87 c0 3d b9 4e 65 b0 39 ed 07 eb b9 10 fe 9a 38
       -0.00018096167 0.00033644814 -0.00044828598 7.390615e-05
000030 94 69 35 b9 76 b0 86 b9 06 c7 92 b8 4f fe 9d 39
       -0.00017300836 -0.00025689945 -6.9988935e-05 0.00030134848
000040 c0 b3 4b b9 89 59 94 38 65 a3 a6 39 70 d8 50 b9
       -0.0001942655 7.073867e-05 0.00031783726 -0.00019917055
000050 d3 9c 50 ba 36 ea de 39 30 da 25 39 e2 8c 84 b9
       -0.0007957939 0.0004251764 0.00015816907 -0.00025281968
000060 18 31 23 ba b1 42 34 3a ee e5 d6 b9 2e c7 1b b9
       -0.0006225272 0.0006876393 -0.00040988572 -0.00014856152
000070 6a c7 f8 39 45 6d c6 39 06 03 54 3a 10 a9 31 b9
       0.0004745082 0.00037846915 0.0008087609 -0.00016943016
000080 98 a6 4b b9 0a 21 52 39 e3 cf 7e ba 1c cf 44 ba
       -0.0001942165 0.00020039469 -0.00097203086 -0.00075076683
000090 c2 f1 e9 39 44 ca 87 3a 13 87 b7 b9 86 5b 9b 39
       0.00044621347 0.0010359962 -0.00035005118 0.00029632094
0000a0 7e 09 53 39 05 f1 05 39 f8 9f 85 b9 19 aa bc b9
       0.00020126064 0.00012773655 -0.00025486923 -0.00035984887
0000b0 d3 bb 39 b8 2c 4f 19 39 2a b5 42 39 57 c6 fa 38
       -4.4282362e-05 0.00014620711 0.0001856877 0.000119578726
0000c0 b6 04 46 39 c7 28 31 b9 18 ef 3a 39 29 50 a8 38
       0.00018884506 -0.00016895226 0.00017827412 8.025795e-05
0000d0 bc e4 3f 39 81 08 45 39 bb 51 13 39 2c 8c 46 39
       0.0001830039 0.00018790552 0.0001404946 0.0001893497
0000e0 4f 24 46 39 34 5a e7 38 97 17 47 39 3a f5 3e 39
       0.00018896277 0.0001103174 0.00018986907 0.00018211166
0000f0 28 c5 22 39 20 56 30 39 a1 be 90 38 a7 43 14 ba
       0.0001552297 0.00016816752 6.9019625e-05 -0.0005655833
000100 09 e2 0c 39 9f de 3e 39 56 32 00 ba d3 40 04 39
       0.00013435645 0.00018202745 -0.0004890313 0.0001261265
000110 ab e7 3b 39 2e 1e 14 ba 29 aa 09 b9 13 c5 42 ba
       0.00017920013 -0.0005650249 -0.00013128728 -0.0007429879
000120 f4 61 5c b9 3b 34 3a 39 91 16 30 b9 6c 12 dd b9
       -0.00021017325 0.000177578 -0.00016793075 -0.0004216613
000130 70 3c bd b9 b0 d4 f9 35 c6 f6 2e b9 1d 83 46 39
       -0.0003609392 1.8613846e-06 -0.00016685863 0.00018931595
000140 88 26 db 38 dc 46 4b 39 7f 3a 00 ba d6 0a 43 39
       0.00010449911 0.00019385986 -0.0004891529 0.00018600686
000150 6b b4 af 37 18 f5 26 39 68 33 13 39 86 a4 aa 38
       2.094564e-05 0.00015922298 0.00014038163 8.1368766e-05
000160 8c b2 31 39 9c 04 62 38 52 bf 3d 39 a1 95 3c 39
       0.0001694655 5.388689e-05 0.00018095717 0.00017984818
000170 99 dd 44 39 83 73 3c 39 70 6e fd 38 51 ff 42 ba
       0.00018774568 0.00017972109 0.00012084551 -0.0007438558
000180 8a c8 1d 39 7b 1b d8 38 fd a5 2d 39 ba 08 33 b8
       0.00015047393 0.00010304801 0.00016560401 -4.2685053e-05
000190 7c 32 3b 39 3a b9 32 39 7c 99 2a ba bd 23 47 39
       0.00017852517 0.00017044405 -0.00065078563 0.00018991432
0001a0 91 17 93 b8 72 2c 05 39 8a f0 41 39 8e 26 68 38
       -7.013896e-05 0.00012700426 0.00018495522 5.5349017e-05
0001b0 81 27 d7 38 e1 f5 fb 38 71 48 0c 39 f3 e0 42 ba
       0.00010259357 0.00012014411 0.00013378427 -0.0007434033
0001c0 81 5e fd 38 bb 1f 3a 39 88 87 ad b7 2c ec 42 ba
       0.00012081583 0.00017750163 -2.0686319e-05 -0.0007435705
0001d0 b3 fd 31 39 75 9c 0c 39 dc 46 8f 38 00 e2 15 39
       0.00016974546 0.00013409725 6.83197e-05 0.00014293939
0001e0 16 65 66 38 18 01 bb b9 5d 5e 28 39 7b e0 22 39
       5.4930417e-05 -0.00035668234 0.00016056882 0.0001553315
0001f0 16 d9 23 38 de e8 3d 39 90 10 ea 38 c1 06 43 ba
       3.9064405e-05 0.00018111194 0.000111610745 -0.0007439666
000200 92 6a 9f b9 b8 50 d6 38 58 90 a8 38 af ab 32 39
       -0.00030406244 0.0001021935 8.0377504e-05 0.0001703936
000210 45 48 bc b9 2c fe 2f 39 6f 3f 2a 39 de ea 05 39
       -0.00035912 0.00016783987 0.00016236094 0.00012771363
000220 dc fe 17 39 e1 39 42 39 0e 47 5b b9 48 78 46 39
       0.00014495425 0.00018522843 -0.00020911937 0.0001892756
000230 73 a6 21 38 e5 82 dc b9 22 be 34 39 c4 a7 5e ba
       3.854041e-05 -0.00042059194 0.00017236968 -0.0008493627
000240 36 5b 91 b8 f4 2f 46 39 3c 66 14 ba c5 a2 a7 37
       -6.931128e-05 0.00018900615 -0.0005660986 1.9983747e-05
000250 74 30 3e 39 37 4f 22 39 6a 86 31 39 4f 2f eb 38
       0.00018137862 0.00015479034 0.00016930109 0.00011214485
000260 68 34 5e ba dd 22 28 39 ef d1 ac b7 06 2c 5c b9
       -0.0008476437 0.00016034716 -2.0601756e-05 -0.00020997235
000270 6f 51 2a 39 fb 22 a1 37 4f fa e9 38 4e e3 22 39
       0.000162428 1.9208985e-05 0.000111569294 0.00015534202
000280 4d e3 47 39 1e a6 d8 38 e8 28 8b b8 fc d5 39 39
       0.00019062795 0.00010330624 -6.635656e-05 0.0001772269
000290 5b 0d 3e 39 62 7f 0a b9 40 df 3b 39 cf 8d 93 b8
       0.00018124787 -0.0001320816 0.00017916877 -7.03592e-05
0002a0 b2 a5 1e 39 c5 6b 47 39 aa 58 d0 b8 da 0c cf b8
       0.0001512978 0.00019018266 -9.934728e-05 -9.872923e-05
0002b0 10 e2 8e 38 20 4c ab 38 ee 3a 0c 39 f0 4e 2b 39
       6.813195e-05 8.168095e-05 0.00013373393 0.00016337237
0002c0 98 d4 42 39 83 7c 2e 39 15 8a 5e ba 35 bf aa 38
       0.00018580479 0.00016640317 -0.0008489204 8.141847e-05
0002d0 41 c6 fa 38 6d 69 5e ba f5 a3 1e 39 8c 77 c0 38
       0.000119578566 -0.00084843376 0.00015129133 9.177541e-05
0002e0 ab 27 46 39 9a 5a 27 39 12 3a 34 b8 fb e4 fa 38
       0.00018897529 0.00015960113 -4.2969426e-05 0.0001196358
0002f0 42 66 31 b9 8a 1a c2 38 71 57 37 39 d8 13 2e 39
       -0.0001691813 9.255584e-05 0.00017484814 0.00016601325
000300 03 78 3f 39 7b 2b 14 39 88 99 3f 39 06 ed 04 39
       0.00018259887 0.00014130578 0.00018272374 0.00012676799
000310 0e f6 42 39 84 b3 40 39 51 f5 42 39 b9 68 14 ba
       0.00018592944 0.00018377422 0.00018592669 -0.0005661357
000320 72 21 85 b9 42 24 bb b9 a5 25 c3 38 d2 52 2b 39
       -0.00025392656 -0.00035694434 9.3053364e-05 0.00016338684
000330 28 8d 34 39 e6 f3 33 39 52 6a 19 b9 2f 0a b8 b8
       0.00017218722 0.0001716163 -0.00014630824 -8.7757006e-05
000340 a4 2a a5 b7 db 31 04 39 77 aa 0a b7 c4 7f 6b b9
       -1.9689389e-05 0.00012607074 -8.26513e-06 -0.00022458943
000350 a0 e1 6d b8 2d 01 0a ba e5 dc 34 3a c1 db 56 ba
       -5.6715333e-05 -0.00052644574 0.0006899371 -0.0008196198
000360 42 47 b1 39 0c a8 25 b9 bf a2 95 b9 e3 a3 63 b9
       0.00033813162 -0.00015798229 -0.0002854075 -0.0002170946
000370 c5 92 f3 39 5c 7c a5 b9 52 2c e4 38 13 0b a8 39
       0.00046457924 -0.00031563907 0.000108801425 0.00032051708
000380 50 0b e3 b9 76 5f 88 ba 29 57 2b 3a c0 61 14 37
       -0.00043305242 -0.0010404426 0.000653612 8.844247e-06
000390 1a 80 be b9 2b 0b c2 b9 c4 c0 24 3a fa 73 2d ba
       -0.00036335067 -0.00037010884 0.0006284828 -0.0006616708
0003a0 d0 2f d7 37 ff 9a 38 3a ad 1a 06 3a 41 eb 66 3a
       2.5652262e-05 0.0007042139 0.00051156693 0.0008808859
0003b0 aa 8d 1c b9 8e 37 af b9 3c 6c 12 39 3d 6a 5e ba
       -0.00014930093 -0.00033419993 0.00013963965 -0.00084844587
0003c0 e4 3b 2c ba 70 02 65 39 ba d5 a8 3a 1a e1 2b ba
       -0.00065702037 0.0002184005 0.0012881078 -0.0006556675
0003d0 27 ff 39 39 2c f0 85 ba af 3d 1e 39 f7 cc 22 39
       0.00017738027 -0.0010218672 0.00015091033 0.0001552588
0003e0 ea 3d 9f b9 80 65 34 39 6c 54 dc b9 00 ac 43 39
       -0.00030372973 0.0001720395 -0.0004202457 0.00018660724
0003f0 06 50 11 39 7f c5 37 b8 a8 8f bc b9 e7 e3 34 b8
       0.00013858089 -4.3814533e-05 -0.00035965187 -4.3127595e-05

exp_avg_sq f4 [100, 41]
000000 bb 72 05 36 4e 21 a5 33 83 e4 90 33 40 b9 e6 33
       1.9885326e-06 7.689469e-08 6.7470886e-08 1.07439064e-07
000010 c0 ed 8f 34 42 60 38 35 7d 71 d4 35 81 51 2e 36
       2.6808812e-07 6.8685415e-07 1.582826e-06 2.5975462e-06
000020 f9 36 50 36 22 82 54 36 0c 0b 59 36 f6 03 6d 36
       3.1026414e-06 3.166621e-06 3.234195e-06 3.5318058e-06
000030 ba f8 9b 36 ea 50 a5 36 c3 0e c4 36 43 d3 e4 36
       4.6483156e-06 4.926803e-06 5.8429737e-06 6.8195236e-06
000040 17 3b e3 36 18 4f d3 36 be db d9 36 0d 0e ee 36
       6.772006e-06 6.2974977e-06 6.4926853e-06 7.0945885e-06
000050 17 ba fa 36 97 66 05 37 0d 1d 07 37 00 c8 12 37
       7.4722443e-06 7.951304e-06 8.053391e-06 8.748844e-06
000060 1d 24 11 37 1e 81 12 37 f6 0b 1a 37 ce db 25 37
       8.651082e-06 8.732341e-06 9.1819e-06 9.885944e-06
000070 f6 41 28 37 0e 78 20 37 a1 f1 29 37 73 4e 32 37
       1.0028938e-05 9.564696e-06 1.0129444e-05 1.0627892e-05
000080 eb 79 2f 37 1c b4 29 37 9d ba 27 37 66 15 2f 37
       1.0459199e-05 1.011512e-05 9.997425e-06 1.0435795e-05
000090 c2 d6 2d 37 be 01 2a 37 63 54 30 37 dd 4a 58 37
       1.0361606e-05 1.0133195e-05 1.0510065e-05 1.2892034e-05
0000a0 78 f8 b1 37 ab 8d 06 36 7f eb 08 36 5e 40 09 36
       2.1215747e-05 2.0050018e-06 2.0402656e-06 2.0452057e-06
0000b0 47 17 08 36 ad 28 06 36 36 fe 03 36 1f a0 06 36
       2.0279128e-06 1.9991232e-06 1.9668491e-06 2.0060759e-06
0000c0 c5 9a 03 36 02 a1 08 36 21 c3 04 36 94 13 07 36
       1.961061e-06 2.0359298e-06 1.9783113e-06 2.0127964e-06
0000d0 ec 4d 04 36 1f 92 03 36 90 30 06 36 84 48 03 36
       1.971489e-06 1.9605575e-06 1.9995823e-06 1.956273e-06
0000e0 75 53 03 36 27 a1 06 36 4d 51 03 36 b3 41 04 36
       1.95691e-06 2.006136e-06 1.9567844e-06 1.9707775e-06
0000f0 2a c6 05 36 75 13 05 36 37 11 07 36 db 69 09 36
       1.993389e-06 1.982987e-06 2.0126588e-06 2.0476207e-06
000100 e6 35 06 36 c3 37 04 36 1f 3a 09 36 fe 54 06 36
       1.999893e-06 1.970199e-06 2.0448422e-06 2.0017028e-06
000110 4c 88 04 36 18 69 09 36 40 40 08 36 f3 bd 09 36
       1.9748868e-06 2.0475763e-06 2.0302978e-06 2.0525156e-06
000120 10 89 08 36 a7 80 04 36 1c 61 08 36 39 21 09 36
       2.034536e-06 1.9744418e-06 2.0322104e-06 2.043393e-06
000130 86 04 09 36 7d e8 07 36 7a ea 08 36 34 96 04 36
       2.0417224e-06 2.0251894e-06 2.0402063e-06 1.9756963e-06
000140 3a 99 08 36 fa bc 07 36 58 76 09 36 44 07 04 36
       2.0354769e-06 2.0226566e-06 2.0483476e-06 1.9673762e-06
000150 ce a7 07 36 57 b0 05 36 0c 3c 06 36 ee 23 07 36
       2.0214243e-06 1.9921188e-06 2.0002508e-06 2.0137481e-06
000160 42 4a 05 36 e6 52 07 36 89 70 04 36 02 9a 04 36
       1.9861768e-06 2.016482e-06 1.9735037e-06 1.9759177e-06
000170 58 a2 03 36 19 98 04 36 a1 86 06 36 0f b3 09 36
       1.9615018e-06 1.9758065e-06 2.004592e-06 2.0518817e-06
000180 ff f3 05 36 1d b2 06 36 1b 39 05 36 34 e6 07 36
       1.9960569e-06 2.0071232e-06 1.9851784e-06 2.0250563e-06
000190 61 b6 04 36 bc 0b 05 36 9e a6 09 36 12 47 03 36
       1.9775691e-06 1.9825375e-06 2.0511575e-06 1.956189e-06
0001a0 32 10 08 36 bd 5c 06 36 63 b7 03 36 2f 4d 07 36
       2.0275006e-06 2.0021537e-06 1.9627266e-06 2.0161494e-06
0001b0 e7 c6 06 36 44 83 06 36 60 23 06 36 7c 95 09 36
       2.0083332e-06 2.0043963e-06 1.9988147e-06 2.0501602e-06
0001c0 7b 60 06 36 45 8d 04 36 ea b8 07 36 67 94 09 36
       2.0023715e-06 1.9751762e-06 2.0224202e-06 2.0500972e-06
0001d0 27 f3 04 36 f4 4d 06 36 15 78 07 36 98 97 06 36
       1.9811066e-06 2.001293e-06 2.0186465e-06 2.0055795e-06
0001e0 96 3d 08 36 f2 e4 0a 36 a6 0e 0a 36 57 ef 05 36
       2.0301427e-06 2.0696866e-06 2.057213e-06 1.9957859e-06
0001f0 9f 8b 07 36 d8 7f 04 36 84 cc 06 36 5e cd 09 36
       2.0197838e-06 1.9743948e-06 2.00866e-06 2.053413e-06
000200 04 fb 08 36 b8 eb 06 36 0d 00 07 36 35 2a 05 36
       2.041169e-06 2.0104762e-06 2.0116597e-06 1.9843112e-06
000210 9e 0f 09 36 f9 4e 05 36 4f 78 05 36 9a 6a 06 36
       2.0423681e-06 1.9864513e-06 1.9888573e-06 2.0029606e-06
000220 b7 e5 05 36 b4 d2 03 36 20 a4 08 36 63 1a 03 36
       1.9952256e-06 1.9643167e-06 2.0361113e-06 1.953588e-06
000230 fc 74 07 36 2e 43 09 36 0b 01 05 36 77 e3 09 36
       2.0184661e-06 2.0453695e-06 1.9819151e-06 2.0546993e-06
000240 21 15 08 36 74 51 03 36 73 64 09 36 29 a0 07 36
       2.0277878e-06 1.9567933e-06 2.047306e-06 2.0209793e-06
000250 8a 66 04 36 1a bf 05 36 c4 12 05 36 9c a3 06 36
       1.9729218e-06 1.992978e-06 1.9829467e-06 2.006279e-06
000260 28 dc 09 36 96 82 05 36 11 be 07 36 e5 95 08 36
       2.0542739e-06 1.9894555e-06 2.02272e-06 2.035283e-06
000270 3d 56 05 36 d9 63 07 36 37 af 06 36 0d fb 05 36
       1.9868742e-06 2.0174687e-06 2.0069544e-06 1.9964675e-06
000280 26 ce 03 36 39 ab 07 36 84 f4 09 36 5a 6c 09 36
       1.9640515e-06 2.0216232e-06 2.0556918e-06 2.047766e-06
000290 fe 95 04 36 74 73 08 36 73 95 04 36 c6 2a 08 36
       1.975684e-06 2.0332782e-06 1.9756524e-06 2.0290477e-06
0002a0 96 f1 05 36 c5 34 03 36 92 51 08 36 64 5d 08 36
       1.9959166e-06 1.9551237e-06 2.031306e-06 2.031994e-06
0002b0 12 29 07 36 27 1d 07 36 d2 4e 06 36 0d 82 05 36
       2.0140474e-06 2.0133537e-06 2.0013435e-06 1.9894244e-06
0002c0 dc ca 03 36 6f 6b 05 36 30 d2 09 36 2b 0e 07 36
       1.96386e-06 1.988108e-06 2.0536936e-06 2.0124814e-06
0002d0 8b 6c 06 36 4c d7 09 36 9b db 05 36 76 dc 06 36
       2.0030736e-06 2.053991e-06 1.9946372e-06 2.0095881e-06
0002e0 73 1a 03 36 94 9e 05 36 91 1b 08 36 6d 8f 06 36
       1.9535917e-06 1.991085e-06 2.0281625e-06 2.005104e-06
0002f0 ca 92 08 36 9b cd 06 36 28 c8 04 36 f1 3a 05 36
       2.0351022e-06 2.0087234e-06 1.978604e-06 1.9852853e-06
000300 fa 3d 04 36 13 21 06 36 d3 37 04 36 ee 4a 06 36
       1.9705608e-06 1.9986808e-06 1.9702027e-06 2.001117e-06
000310 b5 ba 03 36 c6 16 04 36 0a a2 03 36 bc 73 09 36
       1.96292e-06 1.9682789e-06 1.961484e-06 2.0481957e-06
000320 d7 db 08 36 e7 71 09 36 c6 08 08 36 c5 71 07 36
       2.0393543e-06 2.048089e-06 2.0270686e-06 2.018279e-06
000330 15 a9 09 36 e2 50 05 36 21 01 11 34 af fe 08 34
       2.051301e-06 1.9865624e-06 1.3504588e-07 1.275864e-07
000340 5c 41 c2 34 34 0b 5d 35 99 c9 f1 35 31 8f 67 36
       3.618287e-07 8.234522e-07 1.8014572e-06 3.450503e-06
000350 67 85 b1 36 4d cd c0 36 b1 13 bf 36 a9 43 b8 36
       5.290541e-06 5.745946e-06 5.694536e-06 5.491504e-06
000360 1c 4c bb 36 74 03 e7 36 00 3d f1 36 fe 89 0b 37
       5.5818946e-06 6.8847385e-06 7.189461e-06 8.317174e-06
000370 58 29 25 37 6d 2f 2b 37 b3 06 28 37 0e 30 2e 37
       9.8443925e-06 1.0203436e-05 1.001514e-05 1.0382397e-05
000380 e6 99 3b 37 59 12 44 37 7a a3 52 37 fd 2d 51 37
       1.1181901e-05 1.1686782e-05 1.2555038e-05 1.2468078e-05
000390 f6 b2 69 37 ff b2 5f 37 ca 6d 54 37 57 4d 45 37
       1.392955e-05 1.3333512e-05 1.2661747e-05 1.1760122e-05
0003a0 12 ba 4a 37 16 37 52 37 16 d9 45 37 1a c6 4e 37
       1.2083461e-05 1.2529801e-05 1.1792659e-05 1.2324681e-05
0003b0 3e c5 5d 37 ee e3 4e 37 0f 61 4b 37 f7 c6 51 37
       1.32185505e-05 1.2331626e-05 1.2122341e-05 1.2503696e-05
0003c0 d9 57 52 37 f1 ad 53 37 9c 6e 4a 37 a8 a1 53 37
       1.2537429e-05 1.2617079e-05 1.20658915e-05 1.2614219e-05
0003d0 93 8c 7a 37 a0 40 c5 37 c4 11 06 36 dc d3 05 36
       1.4933891e-05 2.3514323e-05 1.9977897e-06 1.9941863e-06
0003e0 96 f2 08 36 ba 31 05 36 52 3c 09 36 6a da 03 36
       2.0406783e-06 1.984749e-06 2.0449702e-06 1.9647655e-06
0003f0 31 21 06 36 ba 08 08 36 ec fe 08 36 74 fe 07 36
       1.9986876e-06 2.0270659e-06 2.0413963e-06 2.0264679e-06
