test/test_results/triplets/results/model/model_epoch0390.tar (torch, 76564 bytes, 3 tensors)

fc.weight f4 [100, 41]
0	0x3b6ce433	0.003614676
1	0x4010da5c	2.2633276
2	0x40045d2b	2.0681865
3	0x4024994b	2.5718563
4	0x4025fa37	2.593397
5	0x402b511f	2.6768262
6	0x40268317	2.601751
7	0x401f4d7f	2.489105
8	0x401b7608	2.429079
9	0x4017b313	2.3703048
10	0x400c379a	2.1908937
11	0x40014d15	2.0203297
12	0x3ff19522	1.8873637
13	0x3fe409b7	1.7815465
14	0x3fd5e321	1.6709939
15	0x3fc4f5fd	1.538757
16	0x3fc1579e	1.5104864
17	0x3fb146c6	1.3849723
18	0x3fa7d2f2	1.311125
19	0x3fb03d72	1.3768752
20	0x3fa54c37	1.2913884
21	0x3fa46e6a	1.2846196
22	0x3fa2ab57	1.2708539
23	0x3fa8052a	1.3126576
24	0x3fa0092e	1.2502801
25	0x3fa92d35	1.3216921
26	0x3fa0fa11	1.2576314
27	0x3f9f9bf3	1.2469467
28	0x3f93b730	1.1540279
29	0x3f84b3a3	1.0367321
30	0x3f955481	1.1666414
31	0x3f69158d	0.9104851
32	0x3f59f83d	0.85144407
33	0x3f368f4e	0.71312416
34	0x3f2aa0f2	0.66651833
35	0x3ef6a24c	0.48170698
36	0x3f08521f	0.53250307
37	0x3e1ac141	0.15112783
38	0x3d87c492	0.0662929
39	0x3e01917f	0.12653159
40	0x382e447d	4.1548617e-05
41	0x3b275f82	0.0025539105
42	0x3aa736e5	0.0012757449
43	0x3acce7fd	0.0015633103
44	0x39c1f60a	0.00036995142
45	0x3b69ab4b	0.0035655077
46	0x3b47aab4	0.0030466737
47	0x3b408958	0.0029378738
48	0x3b35d00c	0.0027742414
49	0x3a426559	0.00074156147
50	0x3b5fa295	0.0034124006
51	0x3b253034	0.0025205733
52	0x3b4a63dd	0.0030882277
53	0x3b1b73ba	0.0023720101
54	0x3b6ed9ff	0.0036445854
55	0x3b0c2743	0.0021385706
56	0x3b071c51	0.0020616243
57	0x3b55d9e2	0.003263109
58	0x3b116092	0.0022182805
59	0x3b3be88f	0.0028672551
60	0x3b727cda	0.0037000687
61	0x3b5e39d1	0.0033908973
62	0x3b32cd40	0.0027282983
63	0x3ab08986	0.001346872
64	0x3b7439dd	0.0037265935
65	0x3b38cdd2	0.002819885
66	0x3a8cfc38	0.0010756319
67	0x3b6dd3fd	0.0036289685
68	0x3b487eae	0.0030593085
69	0x3aa0bbec	0.0012263036
70	0xb8596720	-5.1832874e-05
71	0x3ac05226	0.001467292
72	0x388f258c	6.825765e-05
73	0x3b3591ce	0.0027705315
74	0x3a19f10a	0.00058724044
75	0x3a315289	0.0006764313
76	0x3a779b88	0.0009445478
77	0x39b9cdce	0.00035439286
78	0x3b1eeb66	0.0024249195
79	0x3a0af6a2	0.00053010334
80	0xb902d85a	-0.00012478363
81	0x38b610f8	8.681597e-05
82	0x3b0486c3	0.0020221926
83	0x3b4fa24d	0.0031682432
84	0x3853b2d0	5.0472852e-05
85	0x3b6b994a	0.0035949522
86	0x3b59a528	0.0033210013
87	0x3b154371	0.0022775794
88	0x3b73336b	0.0037109505
89	0x3afa226a	0.0019083743
90	0x3b51180c	0.0031905202
91	0x3b5deccc	0.0033863066
92	0x3b2b108a	0.0026102387
93	0x3b5ae9d8	0.0033403542
94	0x3b5952e8	0.0033160988
95	0x3ad6aee1	0.0016379022
96	0x3b6f4f3d	0.0036515736
97	0x3b5616e0	0.0032667443
98	0x3b6664ab	0.0035155218
99	0xb8ff995e	-0.000121879144
100	0x3b5c0ee5	0.0033578214
101	0x3b610974	0.003433791
102	0x3acb7616	0.0015522863
103	0x3b07c818	0.002071863
104	0x3a17f26e	0.0005796318
105	0x3b6c098c	0.0036016433
106	0x3b1f30be	0.0024290527
107	0x3b1610b7	0.0022898146
108	0x3b5cd23f	0.0033694652
109	0x3b63e309	0.0034772775
110	0x3b6bc729	0.0035976863
111	0x3aa3aae3	0.0012486841
112	0x3b6b0e15	0.0035866548
113	0x3b38ffd3	0.0028228655
114	0x3b371e57	0.0027941668
115	0x3a9f9660	0.0012175553
116	0x3b55dd7b	0.0032633233
117	0x3b627f85	0.003456087
118	0xb8395500	-4.41866e-05
119	0x39700f7b	0.0002289395
120	0x3b45bc55	0.003017207
121	0x3b0510f0	0.0020304285
122	0x3b1a4f8c	0.0023545949
123	0x3b64f48a	0.0034935796
124	0xb8b69b72	-8.70739e-05
125	0x3b614ff7	0.0034379938
126	0x3b23902d	0.0024957762
127	0x3b0472c7	0.0020210014
128	0x3aa19232	0.0012326895
129	0x3b28e3a9	0.0025770462
130	0x3b3782de	0.0028001587
131	0x3b6b9c11	0.0035951177
132	0x3a95e89e	0.0011437123
133	0x3b6f28b6	0.0036492771
134	0x3b7167d9	0.003683558
135	0x3b60384d	0.0034213245
136	0x3b733e63	0.0037116043
137	0x3b3247b3	0.002720338
138	0x39fd1945	0.00048274748
139	0x3afb7438	0.0019184416
140	0x3aef6ee9	0.0018267307
141	0x3a8cae97	0.0010733184
142	0x3b644523	0.0034831248
143	0x3add44ff	0.0016881524
144	0xb8d56fee	-0.0001017748
145	0x3b1067ba	0.0022034482
146	0x3a81a077	0.0009889741
147	0x3ac242bc	0.0014820914
148	0x3b4b4a58	0.0031019654
149	0x3b726728	0.0036987755
150	0x3b5ee85e	0.0034013013
151	0x3b6a5870	0.003575828
152	0x3acd6bc3	0.0015672374
153	0x3b6c3824	0.0036044205
154	0x3b15925a	0.0022822828
155	0xb8d5c2de	-0.00010192928
156	0x3b654d63	0.0034988753
157	0x3b461384	0.0030224035
158	0x3b5cd3cb	0.0033695574
159	0x3b57dfc7	0.0032939778
160	0x3b7111a2	0.0036784192
161	0x3b265a20	0.0025383309
162	0x3a817a26	0.0009878322
163	0x3af26ffe	0.0018496511
164	0x3b6aad8a	0.0035809004
165	0x3a457cce	0.0007533551
166	0x3b625f4d	0.0034541667
167	0x39f671f2	0.00047005672
168	0x3b6948b5	0.0035596315
169	0x3b189491	0.0023281912
170	0x3a2afd7c	0.00065227575
171	0x39d5046e	0.00040629826
172	0x3b12a17f	0.0022374091
173	0x3b11595c	0.0022178506
174	0x3b699172	0.003563967
175	0x3b6d16d1	0.003617693
176	0x3b28fd8a	0.0025785887
177	0x3b72fb2c	0.003707598
178	0x3aebe2f0	0.001799671
179	0x3b456f1d	0.0030126043
180	0x3b697c90	0.0035627224
181	0x3ae20671	0.0017244351
182	0x3b74a162	0.0037327637
183	0x3b4d24b9	0.0031302406
184	0x3afd144b	0.0019308416
185	0x3b704f67	0.0036668421
186	0x388be902	6.6714376e-05
187	0x3b61f1c7	0.0034476386
188	0x39fb43d7	0.00047924995
189	0x3b6272eb	0.003455336
190	0x3b54d15a	0.0032473416
191	0x3b653d5c	0.00349792
192	0x3b446b85	0.0029971313
193	0x3b733589	0.0037110767
194	0x3b399256	0.0028315983
195	0x3b71148c	0.0036785929
196	0x3b0da945	0.0021615785
197	0x3b2282dd	0.002479724
198	0x3b11adba	0.0022228793
199	0x3aaf6698	0.0013382016
200	0x3aab758f	0.00130813
201	0x3b3f7335	0.0029212956
202	0x3b4a0927	0.003082821
203	0x3b65a0b3	0.003503841
204	0x3b02447b	0.0019877243
205	0x3b6e7ef8	0.0036391597
206	0x4081320b	4.0373588
207	0x406d73be	3.7101893
208	0x404d0fd3	3.2040908
209	0x4041e71d	3.029731
210	0x403d0c20	2.953865
211	0x4031bedc	2.7772741
212	0x402690d6	2.60259
213	0x401ba9a6	2.4322295
214	0x401c7897	2.4448602
215	0x40112315	2.2677662
216	0x4008ce40	2.1375885
217	0x40005bbb	2.0055988
218	0x3ff08749	1.8791286
219	0x3fe8849f	1.8165473
220	0x3fd81c52	1.6883643
221	0x3fd6b26d	1.6773201
222	0x3fc74eb9	1.5570899
223	0x3fc406e0	1.5314598
224	0x3fc18dbe	1.5121381
225	0x3fbbe7cf	1.4680117
226	0x3fadd772	1.3581374
227	0x3fb67e62	1.4257319
228	0x3fadf0c8	1.3589106
229	0x3f9c182c	1.2194877
230	0x3f978486	1.1837318
231	0x3f8506f4	1.0392747
232	0x3f92b613	1.1461815
233	0x3f8266a5	1.0187575
234	0x3f7a5fa9	0.97802216
235	0x3f784911	0.9698649
236	0x3f5131f5	0.81716853
237	0x3f57b5b7	0.8426165
238	0x3f391b2c	0.72307086
239	0x3f121107	0.5705723
240	0x3ee0d6d0	0.4391389
241	0x3ed84926	0.42243308
242	0x3e37a14a	0.1793262
243	0x3d89b2c3	0.06723549
244	0x3e66d5ca	0.22542492
245	0x382577ef	3.9450762e-05
246	0x3b5d5af4	0.0033776136
247	0x3b697cd9	0.0035627394
248	0x3aad5d3e	0.0013226641
249	0x3b6e49e2	0.0036359956
250	0x3abec8e2	0.0014555717
251	0x3b3cd624	0.0028814161
252	0x3b6fa3b6	0.0036566085
253	0x39944bf4	0.0002828535
254	0x3a8a6a83	0.0010560307
255	0x394cc3eb	0.00019527941

exp_avg f4 [100, 41]
0	0xb892c24c	-6.998013e-05
1	0x38460ee0	4.7220732e-05
2	0x37fa47f0	2.983582e-05
3	0x3762d7c8	1.352089e-05
4	0x38a6b37b	7.948928e-05
5	0xb865f290	-5.482376e-05
6	0xba5a392d	-0.000832456
7	0x39252c1a	0.00015752055
8	0x3a480e56	0.0007631531
9	0xb9bce452	-0.00036028266
10	0x39c69b32	0.00037881132
11	0xb9fe8b21	-0.00048550314
12	0x3a0d9861	0.00054014294
13	0xb9bccc0e	-0.00036010187
14	0xba000127	-0.0004882984
15	0x3a1d11ba	0.0005991716
16	0xbac02d0a	-0.001466186
17	0x3a7c3d72	0.0009622193
18	0xb8a86c9a	-8.031093e-05
19	0xb9033006	-0.00012511024
20	0xbacbd31c	-0.0015550586
21	0x3ae393a8	0.001736273
22	0x397d51fa	0.00024158499
23	0x3990c661	0.00027613624
24	0xb9f6fe7d	-0.00047110385
25	0xb9670ef7	-0.00022035452
26	0xb9da3f9c	-0.00041627593
27	0x3a563f89	0.00081729196
28	0x3996171d	0.0002862745
29	0xba92e411	-0.0011206885
30	0x39c34ca0	0.00037250388
31	0xb9cf195c	-0.0003950101
32	0x38e563ac	0.00010938136
33	0x377fcaa0	1.5246362e-05
34	0xb6b08420	-5.26059e-06
35	0xbab58949	-0.0013850118
36	0x397389d2	0.00023225628
37	0xb9fa84fb	-0.00047782794
38	0x3aa0f3f0	0.001227973
39	0x38c3ac54	9.330423e-05
40	0x38a5c3ba	7.90427e-05
41	0xb9dc94f0	-0.00042072637
42	0x393eee40	0.00018208567
43	0x393c8b2c	0.00017980923
44	0x39464e20	0.00018911855
45	0xb90b68bf	-0.00013295094
46	0x390601b9	0.00012779878
47	0xb9a00e7d	-0.00030528373
48	0x391e47da	0.00015094821
49	0x3945001d	0.00018787426
50	0x38c0ef44	9.19984e-05
51	0xb9dcb33e	-0.00042095216
52	0x390c0bd9	0.00013355854
53	0x392b6aa0	0.00016347552
54	0xb8d1bac8	-0.00010000687
55	0x3930c716	0.00016858833
56	0x3934dc1a	0.00017248132
57	0xb95ce5ea	-0.00021066485
58	0x392e9154	0.00016648072
59	0x3918df10	0.00014578947
60	0x37b333df	2.1362617e-05
61	0x38bbe935	8.960293e-05
62	0xb9bb939c	-0.00035777397
63	0x393ebbce	0.00018189775
64	0xb8383c66	-4.392527e-05
65	0x3917f961	0.00014493383
66	0x3940b44a	0.0001837771
67	0xb8d34d4b	-0.00010075661
68	0x3907123e	0.00012881399
69	0x393f34f4	0.00018234906
70	0x39458922	0.0001883847
71	0x393dea55	0.0001811174
72	0x39471454	0.00018985692
73	0x39188a4b	0.00014547368
74	0xba5e6f01	-0.0008485169
75	0x394315e0	0.00018604798
76	0x393eb835	0.00018188434
77	0x3945dcef	0.00018869688
78	0x392a678a	0.00016251035
79	0xba5dadee	-0.00084563985
80	0x394b1b48	0.00019369752
81	0x394b81e7	0.00019407981
82	0x3933f688	0.0001716261
83	0x39061555	0.00012787183
84	0x3946a8d7	0.00018945649
85	0xb8927b39	-6.9847745e-05
86	0xb95c2784	-0.00020995556
87	0xba006071	-0.00048971834
88	0x381cfc3c	3.742821e-05
89	0xba14518e	-0.00056579045
90	0x38fcb296	0.000120495606
91	0x38d5d1b7	0.00010195694
92	0x39227193	0.00015491834
93	0x38ea7678	0.00011180056
94	0xb95a644a	-0.0002082746
95	0x39397eca	0.00017690207
96	0xb7af8375	-2.092284e-05
97	0xb959f94f	-0.00020787607
98	0x38a56215	7.886082e-05
99	0x39496df2	0.00019209812
100	0x38eaea35	0.00011201614
101	0x38c1ceb0	9.241456e-05
102	0x393aabc3	0.00017802329
103	0x39342b49	0.00017182263
104	0xba5e6497	-0.0008483617
105	0xb8d0eb84	-9.962081e-05
106	0x3925b898	0.00015804393
107	0xba008c05	-0.0004903677
108	0xb95b2b4e	-0.000209016
109	0xb9091885	-0.00013074472
110	0xb83563a2	-4.3246553e-05
111	0x393d6bc1	0.00018064586
112	0xb8d1b6d7	-9.999953e-05
113	0x39181530	0.00014503743
114	0xb9bc8dbb	-0.00035963752
115	0x393e0198	0.00018120406
116	0x38ebed9b	0.00011249931
117	0xb933b5df	-0.00017138523
118	0x39487ae3	0.00019119265
119	0x3947f240	0.00019068364
120	0x39097f5c	0.00013112783
121	0x393509fa	0.00017265222
122	0x392a235e	0.00016225639
123	0xb930e01b	-0.00016868154
124	0x39478f81	0.00019031578
125	0x38d6edc9	0.00010248606
126	0xb9dcdbbe	-0.0004212539
127	0x39349c03	0.00017224257
128	0x39403b3a	0.0001833261
129	0xb9dd7480	-0.00042239204
130	0xb9bc1626	-0.00035874656
131	0x388e48cb	6.7846464e-05
132	0x3940109a	0.00018316731
133	0x37b2bfae	2.1308511e-05
134	0x37adde33	2.0726677e-05
135	0xb930d75a	-0.00016864893
136	0xb7b20263	-2.1220365e-05
137	0x391d7c4a	0.00015018988
138	0x3946793e	0.00018927918
139	0x3933ae37	0.0001713567
140	0xba13f273	-0.0005643733
141	0x39408f57	0.00018363945
142	0x38c0734e	9.1767506e-05
143	0x39397cf6	0.00017689526
144	0x3948d34a	0.00019152198
145	0x392e817b	0.00016642168
146	0x3942d16f	0.00018579302
147	0xba2a720c	-0.00065019797
148	0x390be92d	0.00013342938
149	0x37abba6e	2.0471602e-05
150	0x38c2c6b8	9.287655e-05
151	0xb90a0a93	-0.00013164645
152	0x3939e438	0.00017727993
153	0x388f2507	6.825668e-05
154	0xba00765d	-0.000490045
155	0x39476e68	0.00019019248
156	0x38a92eed	8.0672886e-05
157	0xb99fe360	-0.0003049625
158	0xb95c048e	-0.00020982532
159	0xb959adc5	-0.00020759467
160	0x37b4e3f2	2.1563817e-05
161	0x39261fa3	0.00015842779
162	0x39451d78	0.00018798362
163	0x39388894	0.00017598487
164	0x388f494c	6.832424e-05
165	0x39444d60	0.00018720841
166	0x38c1a048	9.232812e-05
167	0x3945a12f	0.0001884743
168	0xb8d00352	-9.918831e-05
169	0x392a53d3	0.0001624369
170	0x394423d6	0.00018705367
171	0x394566b0	0.00018825638
172	0xba001ce9	-0.00048871204
173	0xba005a9c	-0.00048963143
174	0xb90ae24b	-0.00013245006
175	0x37af1a8b	2.0873986e-05
176	0x39238ccc	0.00015597342
177	0x381f6456	3.8002e-05
178	0x3937ea99	0.00017539634
179	0xb99ea1ef	-0.00030256758
180	0xb90c4006	-0.00013375291
181	0x3939d5ac	0.00017722574
182	0x37b391b7	2.1406317e-05
183	0xb9856744	-0.00025444676
184	0x3934ad9e	0.00017230815
185	0x38284daa	4.012665e-05
186	0x3946f726	0.00018974821
187	0xb9304090	-0.0001680872
188	0x39450ee0	0.00018792925
189	0xb931f556	-0.0001697143
190	0x38faa926	0.00011952435
191	0x38c401d1	9.3463466e-05
192	0x390d654a	0.00013484541
193	0xb7bcdf61	-2.2515365e-05
194	0x3918d416	0.00014574858
195	0x36197cc8	2.287141e-06
196	0x392fd7fc	0.00016769761
197	0x39261a1e	0.00015840723
198	0x392eec18	0.00016681885
199	0x393dab4b	0.00018088256
200	0x393e8d6f	0.000181725
201	0x39133591	0.00014038967
202	0x390919ff	0.00013075022
203	0xb905f732	-0.00012775956
204	0x3935a304	0.00017322233
205	0xb836537a	-4.3469925e-05
206	0xb6c17b70	-5.7662182e-06
207	0x346a8280	2.1840424e-07
208	0xb89300e3	-7.0096714e-05
209	0x37932fa7	1.7545955e-05
210	0xb8a081a3	-7.653541e-05
211	0xba9639b3	-0.0011461288
212	0x37a80740	2.0030537e-05
213	0x3a8f026c	0.0010910756
214	0xba118d6d	-0.0005552385
215	0x3a131ae3	0.00056116114
216	0xba19b3ba	-0.0005863268
217	0x3a1360c3	0.00056220236
218	0xb9bfa8f6	-0.00036556245
219	0xba394972	-0.0007068134
220	0x3a4b5428	0.00077563757
221	0xbad90922	-0.0016558508
222	0x3a6d12f6	0.0009043658
223	0x38b71335	8.7296976e-05
224	0xb9ce498a	-0.00039346173
225	0xbae17dea	-0.0017203663
226	0x3b0034a6	0.001956263
227	0x39ae8723	0.0003328855
228	0x39cfddc8	0.00039647357
229	0xba0318ff	-0.0005000978
230	0xb9865fd8	-0.0002562988
231	0xb9f765f5	-0.00047187475
232	0x3a76e8b7	0.00094188325
233	0x398f36ce	0.00027315918
234	0xba9e5733	-0.0012080431
235	0x3a000a0b	0.0004884309
236	0xba0303c2	-0.00049978134
237	0x397077b6	0.0002293278
238	0x3969cd22	0.0002229703
239	0x37db07a0	2.6110385e-05
240	0xbab8ac0a	-0.0014089358
241	0x39993971	0.0002922523
242	0xba14afba	-0.0005671937
243	0x3ab7594b	0.0013988403
244	0xb72519d0	-9.840776e-06
245	0x3995d942	0.00028581364
246	0xb95b42f8	-0.00020910415
247	0xb8d0192e	-9.922903e-05
248	0x393e96f2	0.00018176044
249	0x37aa7e29	2.0324327e-05
250	0x393c29c6	0.00017944639
251	0x391253ac	0.00013954815
252	0xb8d28d10	-0.00010039855
253	0x39456585	0.00018825203
254	0x3941cfd5	0.00018483338
255	0x3946643a	0.00018920089

exp_avg_sq f4 [100, 41]
0	0x36084645	2.0306481e-06
1	0x33cd2041	9.551923e-08
2	0x33db22cb	1.0204311e-07
3	0x347ec51d	2.3727303e-07
4	0x35319158	6.614914e-07
5	0x35b20d53	1.3265911e-06
6	0x35f34d08	1.812733e-06
7	0x361b894b	2.3176715e-06
8	0x362adfaa	2.5462164e-06
9	0x36489a8e	2.9892285e-06
10	0x3683aa64	3.9239403e-06
11	0x368f188e	4.2645906e-06
12	0x36ad015e	5.155961e-06
13	0x36c5bae9	5.8928167e-06
14	0x36cdc306	6.13218e-06
15	0x36d2ccc0	6.2823237e-06
16	0x36e1bd1e	6.7275387e-06
17	0x36dbc018	6.5490713e-06
18	0x36d8d88d	6.4625115e-06
19	0x36f9bc5a	7.4427053e-06
20	0x370e84a9	8.494747e-06
21	0x3711ee64	8.698178e-06
22	0x370d34fe	8.416593e-06
23	0x371407c1	8.823293e-06
24	0x37136ad6	8.7867575e-06
25	0x371b9ea7	9.275659e-06
26	0x371b9c62	9.275131e-06
27	0x372d4782	1.0328253e-05
28	0x37348c57	1.07615115e-05
29	0x3724043b	9.776147e-06
30	0x3722fe77	9.7152e-06
31	0x3731f191	1.0606266e-05
32	0x3736e5e2	1.0901569e-05
33	0x372e6cdb	1.0396553e-05
34	0x3725b5c6	9.877089e-06
35	0x372e857d	1.0402288e-05
36	0x373526ae	1.07974465e-05
37	0x373c0741	1.1207362e-05
38	0x373975ed	1.1054316e-05
39	0x37595c4a	1.2955696e-05
40	0x37b5815a	2.1637115e-05
41	0x36096721	2.047462e-06
42	0x360465c5	1.972877e-06
43	0x3604befd	1.9780703e-06
44	0x36039478	1.9606941e-06
45	0x36087e72	2.033918e-06
46	0x36065967	2.0019595e-06
47	0x3608ecdc	2.040345e-06
48	0x3605e621	1.9952497e-06
49	0x3603c77f	1.9636643e-06
50	0x3606e97d	2.0103464e-06
51	0x36092975	2.0438722e-06
52	0x36064a92	2.0010962e-06
53	0x3605701d	1.9883803e-06
54	0x360838c1	2.0298614e-06
55	0x36051f6e	1.983684e-06
56	0x36050c72	1.9825789e-06
57	0x36088f23	2.0348896e-06
58	0x36053ea4	1.9855006e-06
59	0x3605f59f	1.9961515e-06
60	0x3607930b	2.0202158e-06
61	0x3606c430	2.0081752e-06
62	0x3608e99b	2.0401556e-06
63	0x36045a2c	1.972202e-06
64	0x3607fd8d	2.0264154e-06
65	0x3605df7e	1.9948634e-06
66	0x360400b7	1.966995e-06
67	0x360824af	2.0286932e-06
68	0x36064075	2.0005075e-06
69	0x36044002	1.970679e-06
70	0x3602e0a0	1.9502259e-06
71	0x3604932e	1.9755203e-06
72	0x3602df1b	1.9501374e-06
73	0x3605d1ee	1.994074e-06
74	0x3609be13	2.0525229e-06
75	0x360391fb	1.9605493e-06
76	0x36041149	1.9679594e-06
77	0x360399ea	1.961011e-06
78	0x36062cdf	1.9993674e-06
79	0x360af65e	2.0707007e-06
80	0x3605003e	1.9818685e-06
81	0x3607fe95	2.0264754e-06
82	0x36054392	1.9857875e-06
83	0x36068a97	2.0048226e-06
84	0x3603333c	1.9550343e-06
85	0x36082799	2.0288628e-06
86	0x3608bd01	2.0375594e-06
87	0x36096b90	2.04772e-06
88	0x36078ba7	2.0197856e-06
89	0x36098a5f	2.0495133e-06
90	0x360696a9	2.0055252e-06
91	0x3606cd91	2.0087211e-06
92	0x3605b2aa	1.992254e-06
93	0x3606c0fa	2.0079883e-06
94	0x3608a6fa	2.0362772e-06
95	0x3604a115	1.9763295e-06
96	0x3607aabf	2.0215955e-06
97	0x360870a8	2.0331154e-06
98	0x3606fe98	2.011575e-06
99	0x3602e278	1.9503332e-06
100	0x3606a2f0	2.0062398e-06
101	0x3606c745	2.0083546e-06
102	0x360493f4	1.9755653e-06
103	0x36051005	1.982787e-06
104	0x3609ccab	2.0533723e-06
105	0x36082c63	2.0291416e-06
106	0x36058600	1.9896543e-06
107	0x360946d3	2.0455816e-06
108	0x3608a7f1	2.0363334e-06
109	0x36083270	2.0294938e-06
110	0x3607d0d4	2.0238122e-06
111	0x36043acf	1.9703764e-06
112	0x36081643	2.0278537e-06
113	0x3605ecee	1.9956456e-06
114	0x3608e545	2.0399032e-06
115	0x36042626	1.9691738e-06
116	0x360693b9	2.0053542e-06
117	0x36087994	2.0336347e-06
118	0x36033dc5	1.9556476e-06
119	0x3603db06	1.964801e-06
120	0x3607702a	2.0181856e-06
121	0x360717b3	2.0130362e-06
122	0x360a7b0d	2.0635227e-06
123	0x3608c31e	2.0379152e-06
124	0x36032192	1.9540062e-06
125	0x3606ea14	2.0103807e-06
126	0x36094600	2.0455336e-06
127	0x36053011	1.9846523e-06
128	0x36045bb8	1.972292e-06
129	0x3609557c	2.046435e-06
130	0x36091f99	2.0432983e-06
131	0x36073b85	2.0151213e-06
132	0x36043f4e	1.970638e-06
133	0x3607844e	2.019358e-06
134	0x3607936e	2.0202383e-06
135	0x3608739a	2.0332868e-06
136	0x3607cd9f	2.0236255e-06
137	0x3605e08a	1.9949243e-06
138	0x36037999	1.95913e-06
139	0x3604f06f	1.9809484e-06
140	0x36095d27	2.0468813e-06
141	0x36040bae	1.9676331e-06
142	0x3606e9a9	2.0103564e-06
143	0x3604b189	1.9772872e-06
144	0x3602f202	1.9512377e-06
145	0x3605485b	1.986066e-06
146	0x3603e503	1.9653824e-06
147	0x36098572	2.0492266e-06
148	0x36063394	1.9997578e-06
149	0x36078efc	2.0199795e-06
150	0x3606ca4b	2.0085306e-06
151	0x36085d15	2.031976e-06
152	0x36047f5d	1.9743668e-06
153	0x360721e9	2.0136306e-06
154	0x360932a9	2.044408e-06
155	0x3602ce73	1.9491679e-06
156	0x3606e26b	2.0099349e-06
157	0x3608e7d9	2.0400532e-06
158	0x3608bb89	2.037474e-06
159	0x3608d42b	2.0389077e-06
160	0x36080c7a	2.0272842e-06
161	0x3606e163	2.0098748e-06
162	0x3605f402	1.9960576e-06
163	0x3609e37d	2.0547006e-06
164	0x3607638e	2.0174516e-06
165	0x3603e6c1	1.9654838e-06
166	0x36070311	2.0118352e-06
167	0x3603a29c	1.9615172e-06
168	0x360859c8	2.0317839e-06
169	0x36058224	1.9894296e-06
170	0x3603d546	1.9644663e-06
171	0x36038a1c	1.9600911e-06
172	0x36095495	2.0463824e-06
173	0x36095959	2.0466598e-06
174	0x360871af	2.0331752e-06
175	0x36078e73	2.0199484e-06
176	0x3605ae6b	1.992007e-06
177	0x360771b4	2.0182752e-06
178	0x3604c799	1.9785714e-06
179	0x3608dc01	2.0393638e-06
180	0x36086ea2	2.0329976e-06
181	0x3604af9f	1.9771758e-06
182	0x36078e84	2.0199523e-06
183	0x3608b66e	2.0371767e-06
184	0x3604de73	1.9799015e-06
185	0x36075af5	2.0169512e-06
186	0x36031d6d	1.953765e-06
187	0x36087d03	2.0338346e-06
188	0x3603774a	1.9589957e-06
189	0x360868e4	2.0326634e-06
190	0x36066b86	2.0030143e-06
191	0x3606cd36	2.0087004e-06
192	0x36062cad	1.999356e-06
193	0x3607d1f6	2.023878e-06
194	0x3605f813	1.9962943e-06
195	0x36078998	2.0196658e-06
196	0x360502de	1.9820213e-06
197	0x3605602c	1.9874524e-06
198	0x36053561	1.9849615e-06
199	0x36047a3a	1.9740678e-06
200	0x360486cf	1.9748002e-06
201	0x3606aa53	2.0066698e-06
202	0x36078322	2.0192897e-06
203	0x360a6bdc	2.0626385e-06
204	0x3609ec9a	2.055231e-06
205	0x3608226f	2.0285622e-06
206	0x344cc492	1.9070492e-07
207	0x34516278	1.9500465e-07
208	0x354a951c	7.5467847e-07
209	0x35d9bd36	1.6222828e-06
210	0x362f77af	2.6146697e-06
211	0x3657ddb1	3.2166538e-06
212	0x367fe318	3.8130147e-06
213	0x3681a12d	3.863263e-06
214	0x368e7be6	4.2463535e-06
215	0x36b4bc48	5.386337e-06
216	0x36c1c049	5.774233e-06
217	0x36e3857a	6.780666e-06
218	0x37012777	7.698188e-06
219	0x3709e8d4	8.220046e-06
220	0x37127845	8.730281e-06
221	0x371e6b17	9.442468e-06
222	0x371bb4d3	9.280821e-06
223	0x371771ff	9.026843e-06
224	0x372b2dae	1.020303e-05
225	0x374275af	1.1590701e-05
226	0x37489f81	1.1958066e-05
227	0x373f1eba	1.1391641e-05
228	0x374cd2d5	1.2208436e-05
229	0x374b8bb7	1.2132273e-05
230	0x375203cd	1.251786e-05
231	0x37400fbb	1.1447754e-05
232	0x374fc467	1.238389e-05
233	0x3758e36c	1.2927554e-05
234	0x37477f88	1.18910175e-05
235	0x3741db87	1.1554809e-05
236	0x374d7e39	1.2248341e-05
237	0x37517a78	1.2485885e-05
238	0x3748f3da	1.1977705e-05
239	0x37465e33	1.1823652e-05
240	0x37493f24	1.1995235e-05
241	0x374f918a	1.2372047e-05
242	0x3758722b	1.2901185e-05
243	0x374e7c25	1.23074615e-05
244	0x37781bbd	1.478841e-05
245	0x37c313fb	2.3255116e-05
246	0x3608e5b4	2.0399284e-06
247	0x36085030	2.0312254e-06
248	0x3604772c	1.97389e-06
249	0x36079ca0	2.0207735e-06
250	0x36049616	1.9756894e-06
251	0x36062bc8	1.999304e-06
252	0x3608636e	2.0323455e-06
253	0x36035f07	1.9575834e-06
254	0x36040c1b	1.967658e-06
255	0x36034ff1	1.9567053e-06
