test/test_results/triplets/results/model/model_epoch0375.tar (torch, 75604 bytes, 3 tensors)

fc.weight f4 [100, 41]
00000000: 34cf 103b ad38 1440 1aba 0840 fbff 2540
00000010: f403 2640 cdfa 2940 25c1 2440 56dc 1c40
00000020: bf35 1840 219c 1440 70cf 0840 1dd3 fc3f
00000030: 2844 ed3f c5e6 df3f a6c8 d13f 023f c23f
00000040: 3a64 be3f fe86 ae3f 6964 a53f 6c95 ad3f
00000050: 4483 a33f 5be4 a03f 351f a13f c34c a53f
00000060: 83f2 9d3f b16c a63f 6a1f 9f3f e5a4 9e3f
00000070: b9b9 933f 8b6f 843f 0485 943f 5ffe 693f
00000080: fe0d 593f 7fe0 373f e74a 2a3f 4713 f83e
00000090: cc42 083f 7e0d 1e3e 57fb 8f3d 21ef f43d
000000a0: f75c dc39 efe5 4c3b 4c68 673b 5169 4f3b
000000b0: 35db 6f3b 2863 1e3b c950 c139 37a6 373b
000000c0: 8914 01b9 62ec 6d3b baa7 703a 6bb7 413b
000000d0: cedf a939 7ca5 bc3a 6c74 0e3b d9fa 233b
000000e0: 97bb 3a3b 2a8a 1f3b 55dc 273b 143d f6b8
000000f0: 9ae5 cd3a e7c7 2a3a d0e2 353b 8cb3 6f3b
00000100: 1b53 fd3a e925 0a3a 1c22 743b dd6c 083b
00000110: 344c 9439 a5b0 6b3b 1ce4 5c3b e91b 5e3b
00000120: f2f4 5f3b 6212 f539 3acc 5c3b 6881 703b
00000130: 038d 6b3b beaf 723b fbdc 3739 6148 703b
00000140: 4569 343b b59f 013b d3c6 103b a163 0b3a
00000150: 68cc 653b 6ace 093b 626b 2c3b 3a5b 4e3b
00000160: a93e cc3a 7d25 533b 127a 223a d0c6 713a
00000170: bf3e 8f3a 9b85 4f3a a64f 2b3b 483b 5c3b
00000180: 9295 d93a 45e4 1e3b 0ec5 7b3a ca25 613b
00000190: 21c0 2e3a b091 493a 32f0 553b 07a6 393b
000001a0: ff47 5c3b 23d8 083b 8384 be3a 3993 453b
000001b0: eba9 243b 1631 0f3b e88f e63a 1568 683b
000001c0: b398 023b 9440 a3b8 71d4 2f3b 9376 713b
000001d0: 7818 1d3a 197a 183b 5ada 673b 555e 6d3b
000001e0: 0289 b63a 5046 8a3a 20fe 663b 6c7b 2d3b
000001f0: 642e 683b db31 6b3a e05f 463b 38e3 283b
00000200: 6b9e 633b c583 483b bafd 3f3b 292d a33a
00000210: ca6f 6a3b 5241 c43a 8283 c83a 58f3 1d3b
00000220: 7c06 e73a a78a 00b9 df8a 6c3b 769f 453b
00000230: 6acc 4a3b 9948 723b 9ecf 693a 0436 5c3b
00000240: 68ed 603b 3e0c 0e3b b0b4 6e3b 333d 503b
00000250: f112 5539 4c82 d03a 1c07 4a3a 3249 143b
00000260: 25ff 603b d6c2 923a 2af0 3e3b e422 5d3b
00000270: f8c9 5d3a ed4b 323b f8cf 283b 25b5 2f3b
00000280: cef1 043b e90d 753a 84ed 22b8 4936 5c3b
00000290: 34eb b53a 3571 753b dc7c 843a fc8e 723b
000002a0: bce6 173b 64b7 bd3a 380d 6e3b 2e79 723b
000002b0: 8a86 493b 59e4 473b 1010 1d3b 90fd c43a
000002c0: 9ae4 873a de0c ba3a 3957 4e3b c4db 313b
000002d0: 7dc8 183b 8a80 583b 0b0e c73a bffe 263b
000002e0: 99a8 423b c3e2 af3a 55b7 6a3b ee7e 1e3b
000002f0: dce3 6b3b b0c6 143b 0702 d139 1124 503a
00000300: a154 3339 a2c2 f13a c899 b0b8 a33a c73a
00000310: 0387 333b ddb5 133b 7ee4 283b 7f11 683b
00000320: ce5e 623b 68cf 1e3a 8f7a c93a d963 6b3b
00000330: c6c4 603b 198d 083b 24c1 7b40 da27 6840
00000340: 4c72 4840 6c38 3e40 5041 3a40 ac6e 2f40
00000350: 064e 2440 dddc 1840 4748 1940 429b 0d40
00000360: 6acd 0540 512f fb3f 7af4 eb3f b644 e33f
00000370: f078 d43f 54fe d23f 8bc2 c33f cd93 c03f
00000380: 39b6 be3f 41dd b83f f896 aa3f 3e79 b33f
00000390: b705 ab3f e9fc 993f a3fe 953f bee2 843f
000003a0: c015 923f 7a65 833f 927d 7b3f 5f61 7a3f
000003b0: be2f 543f 025d 583f 59a2 3a3f 9ff5 133f
000003c0: b610 e73e cf83 db3e bf00 413e 4f53 a63d
000003d0: e3a9 503e 9c41 143a 41d4 343b 1a21 123b
000003e0: 12e2 5e3b ee64 d23a 9b46 573b 078a 4639
000003f0: 0c17 1b3b 8a1f 703b d8dc 733b 2121 693b
0.002209616 2.3159592 2.1363587 2.5937488 2.5939913 2.6559327 2.5742886 2.4509482
2.3782804 2.3220294 2.137661 1.9751927 1.8536425 1.74923 1.6389358 1.5175478
1.4874337 1.3634946 1.2921268 1.3561225 1.2774434 1.2569689 1.2587649 1.2914051
1.2339634 1.300192 1.2431462 1.2394072 1.1541053 1.034654 1.1603093 0.91403764
0.84786975 0.7182693 0.6652054 0.48452207 0.53226924 0.15434834 0.07030361 0.11959673
0.00042030934 0.003126498 0.0035309969 0.0031648467 0.0036599163 0.0024167988 0.00036872018 0.0028022656
-0.00012310049 0.0036304225 0.00091802666 0.0029558789 0.0003240094 0.001439258 0.0021736873 0.0025021343
0.002849316 0.0024343827 0.0025613506 -0.00011741571 0.0015708685 0.0006514773 0.00277536 0.0036575524
0.0019327136 0.0005269931 0.0037251776 0.002081684 0.00028285536 0.0035963443 0.00337053 0.0033891147
0.0034173098 0.00046743738 0.0033691064 0.0036698226 0.0035942204 0.003703102 0.00017534562 0.0036664235
0.0027528566 0.001977903 0.0022091165 0.0005317275 0.0035064463 0.0021027573 0.0026309122 0.003148748
0.0015582639 0.003221839 0.00061979995 0.0009223046 0.0010928734 0.0007916332 0.0026140003 0.003360467
0.0016600362 0.0024244946 0.00096042536 0.00343548 0.00066662027 0.00076892506 0.0032644388 0.002832772
0.003361225 0.002088078 0.0014535341 0.0030147566 0.0025125693 0.0021849326 0.0017590495 0.0035462428
0.0019927442 -7.784474e-05 0.0026829506 0.0036844357 0.0005992721 0.0023266135 0.003537795 0.0036219556
0.001392633 0.0010549519 0.0035246685 0.002647127 0.0035428042 0.00089719676 0.0030269548 0.0025770199
0.0034731876 0.003059612 0.002929552 0.0012449372 0.0035772198 0.001497308 0.0015297981 0.0024101343
0.0017625834 -0.00012258683 0.0036093516 0.003015486 0.0030944594 0.003696954 0.0008919182 0.0033601532
0.0034321193 0.0021674777 0.0036423616 0.0031774759 0.00020320319 0.0015907972 0.0007706748 0.0022626636
0.0034331765 0.0011196982 0.0029134848 0.003374272 0.00084605766 0.00272059 0.0025758725 0.0026810851
0.0020285728 0.0009348081 -3.8845013e-05 0.0033601692 0.00138793 0.003745151 0.0010108012 0.0037011495
0.00231783 0.001447421 0.0036323797 0.0036998498 0.0030750358 0.0030501096 0.0023965873 0.0015029181
0.0010367811 0.0014194509 0.0031485094 0.0027139047 0.002331286 0.00330356 0.001518668 0.002548143
0.0029702543 0.0013419021 0.003581484 0.0024184543 0.003599397 0.0022701435 0.00039865097 0.00079399446
0.00017102297 0.0018444846 -8.420978e-05 0.001519997 0.0027393706 0.002253882 0.0025770958 0.003541082
0.0034541371 0.00060581276 0.0015371608 0.0035917668 0.0034296974 0.0020836054 3.9336634 3.6274323
3.1319761 2.9721937 2.9102364 2.7411299 2.5672622 2.3884804 2.3950365 2.2126012
2.0906625 1.9623815 1.8433983 1.7755344 1.6599407 1.6483865 1.5293745 1.5045105
1.489936 1.4442521 1.3327322 1.4021375 1.3361119 1.2030307 1.1718334 1.0381696
1.1412888 1.0265343 0.9823848 0.97804826 0.8288535 0.8451692 0.7290397 0.57796663
0.45129937 0.42874 0.18847941 0.081213586 0.20377307 0.00056555285 0.0027592333 0.0022297562
0.003400926 0.0016051808 0.003284848 0.0001893417 0.002366486 0.0036639892 0.003721049 0.0035572725

exp_avg f4 [100, 41]
00000000: 162f 2e39 a967 8038 24f6 dab7 40cb a838
00000010: b8e7 fc36 b812 a836 1a74 5a36 702e 8cb9
00000020: 77b1 02ba 2ee9 a439 139d 22ba dec5 6039
00000030: 1a95 c139 4cd8 1e39 d82c 1b39 a592 eab9
00000040: b3ea d6b9 98e6 293a e65c 9aba 3c78 6039
00000050: 9cf1 8db9 be47 643a df7a c639 7a22 d7ba
00000060: 4719 b0b8 32b9 e337 50db 9a37 cad3 253a
00000070: f1d5 e7b9 1163 8939 0010 5dba 951a 853a
00000080: e590 e538 19c1 a0ba 8a67 1db9 17a0 0539
00000090: 3220 303a 9842 9e39 00ab 5737 372a 8839
000000a0: 0044 72ba fef0 0539 c282 0ab9 2bd4 84b9
000000b0: fdc2 b037 b792 2a39 45ae 4539 8d7a 1839
000000c0: 7e03 4739 4f3d a5b7 c25d 4239 f5bc 1239
000000d0: d2ae 4639 803c 2aba f103 3139 d07a dcb9
000000e0: 1ea4 bcb9 981b 2a39 334e dcb9 b786 4739
000000f0: 3806 3d39 0b27 4539 c412 1e39 7e4e d2b8
00000100: 3827 3439 110e 5eba 499b 3bb8 2c67 3139
00000110: 343b 4639 7805 d2b8 561f c338 1b96 32b9
00000120: cc2f d738 8c2c 5eba c161 e638 7704 a237
00000130: 0ef5 90b8 798a 2338 99d9 4739 c342 9ab7
00000140: fda1 bab9 28a9 3339 7f3a 00ba 9ea4 4439
00000150: eb08 9038 d1f7 3039 50ef 2239 850d 0639
00000160: 0c31 3c39 b43e fb38 02ef 4339 e775 4339
00000170: 2249 43ba b2e0 4239 6384 2239 c643 5ab9
00000180: a5a1 3a39 f8ed 2939 b886 4139 eb3f d938
00000190: 5b67 4339 c49c 4439 130b 5bb9 defe bbb9
000001a0: 1c48 d838 47a5 3139 c59f 2aba 7ccc 0d39
000001b0: 1292 2639 a987 2e39 822e 3739 b4e4 ceb8
000001c0: 9b9b 3239 bcac 4839 d27d 1d39 c82b 98b8
000001d0: c18d 4439 7900 2a39 6b41 6838 67d6 92b7
000001e0: ac5e 3f39 5a54 4339 1261 0c37 08dc 2239
000001f0: 9b28 aa38 fc30 4339 02b5 0c39 0cc8 dcb9
00000200: 61f2 0ab9 5b8f 0539 a48a 1339 ac36 3f39
00000210: a84c d0b8 d731 3b39 1bdc 3c39 9c48 2b39
00000220: 11b8 3839 4a28 4839 d352 1f38 c8dc 9fb9
00000230: 0a7e 0639 54c7 3bb8 31cd 4239 3949 5bb9
00000240: e671 c538 5c21 00ba e046 42b8 1681 fa38
00000250: 5a12 4739 f31a 3c39 219f 4439 9466 2e39
00000260: 606e 30b9 e714 3e39 ed1a 1539 2ffa d638
00000270: bbf5 3f39 7d23 1e39 f6f6 2239 19e4 1e39
00000280: d1fd 3439 86f5 4239 cada 4b39 591d 9b38
00000290: 5b0d 3e39 741e a3b7 dec8 4139 8966 b137
000002a0: 871c 2e39 686d 2aba 7791 a7b7 3869 1e38
000002b0: b6bb 0b39 084a 0639 9ade 2939 6d58 3c39
000002c0: 2ac2 42ba 6704 3e39 57bd 84b9 f527 1e39
000002d0: 4374 2a39 26e0 5ab9 8547 3b39 711a 2739
000002e0: a9a4 9fb9 ee73 3e39 2b83 a938 c4db 2739
000002f0: 307f 2138 24dd 2d39 a4d3 4539 9f26 4339
00000300: aef0 4639 4984 3839 df41 4739 f93f 3c39
00000310: 290f bcb9 c193 00ba 9285 dcb9 3055 0ab9
00000320: 5ba5 2fb9 ac3d 4539 c222 3c39 5aa6 ca37
00000330: 2e8d 9c38 be39 3139 5ccc b337 20c1 dcb8
00000340: 1500 6637 88c2 8bb8 58a3 b937 5763 d5b8
00000350: 8a0f 93b9 210c 06ba da8d bd39 792e 26ba
00000360: a00d b737 7afe da39 5cf8 3039 6659 2238
00000370: 1ebc ccb9 c830 e7b9 4cd3 3e3a 0591 a4ba
00000380: fc54 1339 e4c6 f0b9 0442 913a b89b cc39
00000390: 702d e9ba b0ad 2db9 2807 9838 f014 ceb7
000003a0: e04f 443a 1c60 e6b9 a117 9139 e028 61ba
000003b0: 5231 963a 125f f338 b03f 96ba 2738 2bb9
000003c0: 3b0e 5d39 a6de 4a3a d04d fe38 a0ce 9638
000003d0: 982b cf38 d397 49ba be38 1e39 39c4 2d39
000003e0: c69c 30b9 6381 3a39 7c8d 5ab9 69ef 4739
000003f0: 3247 2a39 fcfb 6138 1c25 39b8 06a6 6538
0.00016611474 6.122824e-05 -2.6102243e-05 8.0487225e-05 7.537161e-06 5.0089693e-06 3.2552111e-06 -0.0002673748
-0.0004985551 0.0003145425 -0.00062032155 0.00021436016 0.00036922918 0.00015148631 0.00014798658 -0.00044741217
-0.00040992125 0.00064811995 -0.0011776953 0.00021407095 -0.0002707363 0.00087082 0.0003785705 -0.0016413473
-8.397042e-05 2.7146747e-05 1.8460356e-05 0.00063258095 -0.00044219152 0.00026204486 -0.0008432865 0.0010155017
0.000109465596 -0.0012264579 -0.00015011258 0.00012743507 0.00067186647 0.00030185725 1.2854813e-05 0.00025971394
-0.00092417 0.00012773645 -0.00013209417 -0.0002533508 2.1071633e-05 0.00016267119 0.00018852304 0.00014541503
0.0001897942 -1.9698082e-05 0.00018536209 0.00013994037 0.00018947877 -0.00064940006 0.00016881504 -0.00042053172
-0.0003598043 0.00016222743 -0.00042019933 0.00019028304 0.00018026761 0.00018801929 0.00015075045 -0.000100282006
0.00017180748 -0.0008470724 -4.4728895e-05 0.0001691847 0.00018904806 -0.00010014599 9.304161e-05 -0.00017031321
0.00010260902 -0.0008475266 0.00010985463 1.9313984e-05 -6.9121e-05 3.899119e-05 0.0001905918 -1.8389319e-05
-0.00035597375 0.00017133786 -0.0004891529 0.00018753341 6.868116e-05 0.00016876987 0.00015538675 0.00012784272
0.00017947349 0.00011980292 0.00018685687 0.00018640571 -0.00074495573 0.00018584987 0.00015498842 -0.00020815348
0.0001779856 0.00016205746 0.00018456101 0.00010359272 0.00018635152 0.00018750416 -0.00020889593 -0.0003585731
0.00010313114 0.00016941606 -0.0006508793 0.00013522984 0.00015885409 0.0001664447 0.00017469566 -9.865445e-05
0.0001703337 0.00019137835 0.00015019558 -7.25608e-05 0.00018744824 0.0001621264 5.5374036e-05 -1.7504395e-05
0.00018250447 0.00018628073 8.367251e-06 0.00015531492 8.113795e-05 0.00018614897 0.00013418871 -0.00042110716
-0.00013250999 0.00012737272 0.0001407066 0.00018235546 -9.932491e-05 0.00017852277 0.00018011073 0.0001633488
0.00017616178 0.00019088495 3.798569e-05 -0.00030491338 0.00012826189 -4.4769913e-05 0.00018577721 -0.00020912745
9.414907e-05 -0.00048877834 -4.6319212e-05 0.00011944973 0.00018984955 0.00017939117 0.00018751297 0.00016632146
-0.00016825786 0.00018127599 0.00014219778 0.000102509155 0.00018306721 0.00015081275 0.00015541524 0.00015153027
0.00017260692 0.00018592746 0.00019441094 7.3964424e-05 0.00018124787 -1.9445295e-05 0.00018480743 2.114779e-05
0.0001660456 -0.0006501288 -1.9975689e-05 3.7768128e-05 0.00013326001 0.00012806815 0.00016200021 0.00017962018
-0.00074294454 0.00018121452 -0.0002531807 0.0001508294 0.00016255774 -0.00020873602 0.00017860353 0.00015936211
-0.00030449525 0.00018162999 8.08298e-05 0.0001600823 3.8503844e-05 0.00016580947 0.00018866226 0.00018611037
0.00018972412 0.00017596887 0.00019002658 0.00017952909 -0.0003586945 -0.00049048295 -0.00042061188 -0.0001319244
-0.000167509 0.00018810359 0.00017942025 2.415774e-05 7.4649564e-05 0.00016901546 2.1433625e-05 -0.0001052639
1.3709087e-05 -6.664271e-05 2.2129781e-05 -0.00010175135 -0.00028049602 -0.00051135017 0.00036154577 -0.00063393224
2.1821645e-05 0.000417698 0.00016877189 3.870707e-05 -0.0003905007 -0.00044096098 0.00072794105 -0.0012555426
0.00014050672 -0.00045924552 0.0011082296 0.00039025932 -0.0017790031 -0.0001656327 7.249258e-05 -2.4566863e-05
0.0007488709 -0.00043940626 0.0002767416 -0.00085891597 0.001145879 0.00011604851 -0.0011463072 -0.00016328749
0.00021081504 0.00077388657 0.000121261575 7.191044e-05 9.878649e-05 -0.0007690165 0.00015089192 0.00016571664
-0.0001684307 0.00017786543 -0.00020842807 0.00019067306 0.00016238986 5.387886e-05 -4.4141998e-05 5.4752476e-05

exp_avg_sq f4 [100, 41]
00000000: 487a 0536 c646 ac33 78e7 d033 5d5d 9534
00000010: f581 3435 7fba 9a35 8f99 e135 599a 0e36
00000020: 6a55 2a36 a50e 4d36 9b3c 8836 bf13 9636
00000030: 4268 b136 9c33 c436 8ebc cc36 8e7d d236
00000040: d1e2 ed36 c601 e036 7c0d eb36 5011 0837
00000050: aa0d 0a37 ad69 0637 b7dd 0c37 eb62 1b37
00000060: 7194 1c37 ee5a 2837 6a37 2837 303d 2937
00000070: c5a3 3637 0f82 2337 025c 2137 eebb 3537
00000080: 6cb0 3d37 d291 3737 6cac 2a37 dd1a 3d37
00000090: 2c9f 3937 c1db 3937 40d6 3837 f9c5 6637
000000a0: 71ef b637 ba95 0636 d172 0836 24e1 0836
000000b0: 11ab 0736 7895 0536 9772 0336 bd00 0636
000000c0: 9bfe 0236 d1bd 0736 4af1 0336 0920 0636
000000d0: 0f3b 0336 4664 0936 af14 0536 640e 0936
000000e0: 92ff 0836 6a65 0536 5c22 0936 5def 0236
000000f0: 3194 0436 4dad 0336 53c5 0536 8849 0836
00000100: d4f6 0436 87cf 0936 5ae3 0736 2f0a 0536
00000110: 4439 0336 662a 0836 56b0 0636 b391 0836
00000120: 5aa3 0636 0ca8 0936 1d95 0636 e758 0736
00000130: a922 0836 9bbe 0736 25dc 0336 e717 0936
00000140: 5012 0b36 301c 0a36 e57c 0936 faac 0336
00000150: 8942 0736 bc47 0536 62da 0536 3d7c 0636
00000160: f2a0 0436 3a85 0636 68b0 0336 e3d4 0336
00000170: 84ab 0936 4ec1 0336 6aa3 0536 328f 0836
00000180: b183 0436 d14f 0536 fde5 0336 feb1 0636
00000190: 6997 0336 58a9 0336 3f7c 0836 48f0 0836
000001a0: 93b4 0636 b817 0536 c472 0936 8629 0636
000001b0: f5a4 0536 6e18 0536 05c0 0436 121f 0836
000001c0: cbff 0436 77e5 0236 c2ba 0536 13e7 0736
000001d0: fa9e 0336 1273 0536 c573 0736 0060 0836
000001e0: 159e 0536 171c 0636 b6bb 0c36 0af7 0536
000001f0: f636 0736 4109 0436 e156 0636 8048 0936
00000200: 6470 0836 6666 0636 4b2c 0636 bf44 0436
00000210: 2141 0836 328a 0436 5e91 0436 9877 0536
00000220: 8fbb 0436 4aef 0236 9352 0736 e3e5 0836
00000230: 4555 0636 44e9 0736 0ce8 0336 eea0 0836
00000240: 9fd9 0636 fe34 0936 24c3 0736 3c6d 0636
00000250: 922f 0336 8e87 0436 e7bc 0336 d849 0536
00000260: f665 0836 df20 0436 4003 0636 2393 0636
00000270: dcb7 0336 67ce 0536 7cc0 0536 09f3 0536
00000280: 43b0 0536 582b 0536 0306 0536 b20e 0c36
00000290: 729c 0436 67fa 0736 0637 0436 b4b9 0736
000002a0: d37d 0536 1a98 0936 17e0 0736 ae87 0736
000002b0: 0d51 0636 5d59 0636 d685 0536 249b 0436
000002c0: 96a3 0936 da6e 0436 40b8 0836 99cd 0536
000002d0: 0970 0536 3694 0836 4079 0436 2ba5 0536
000002e0: 8fc6 0836 d444 0436 b409 0736 d275 0536
000002f0: a550 0736 b25a 0536 5554 0336 d6b6 0336
00000300: 6b25 0336 e4c2 0436 8cec 0236 f071 0436
00000310: 3fd8 0836 df30 0936 9728 0936 bb80 0836
00000320: 78b6 0836 3335 0436 bbca 0536 aa9b 0936
00000330: 2d10 0c36 7558 0536 6ddc 3e34 c10b 5034
00000340: a213 5735 754d c535 a3ee 0d36 2c7f 3d36
00000350: 4734 5f36 b2cd 7936 8590 8c36 93fb b636
00000360: 50f1 c436 5b81 e636 b329 0137 791e 0637
00000370: 13a1 0d37 379e 2237 e7bf 1937 84ea 1f37
00000380: bddc 3437 4e43 3737 2649 3537 3982 3937
00000390: 489e 5037 1d23 5537 ac32 5f37 4b46 4d37
000003a0: ba63 4837 fc40 5a37 843e 4637 9777 4137
000003b0: 9ca4 5137 d07a 5637 9532 5337 e578 4a37
000003c0: 4ccd 5a37 eb8e 5437 baba 5237 f46f 4e37
000003d0: 56d1 8237 2fa8 c537 5319 0636 3f6e 0536
000003e0: 7d87 0836 ddbc 0436 24a8 0836 d84b 0336
000003f0: 6473 0536 aa59 0736 1df9 0736 5f46 0736
1.9889721e-06 8.022248e-08 9.727859e-08 2.7821343e-07 6.724434e-07 1.1528172e-06 1.6808498e-06 2.124949e-06
2.5381692e-06 3.0555905e-06 4.0601712e-06 4.472647e-06 5.2871483e-06 5.8472633e-06 6.1016244e-06 6.273104e-06
7.0895553e-06 6.6759267e-06 7.0051155e-06 8.110263e-06 8.228622e-06 8.011627e-06 8.396272e-06 9.261751e-06
9.332886e-06 1.00347515e-05 1.0026482e-05 1.0087431e-05 1.0886176e-05 9.745839e-06 9.61777e-06 1.08321965e-05
1.1306354e-05 1.0941601e-05 1.0172935e-05 1.12715325e-05 1.1063919e-05 1.1078025e-05 1.1017139e-05 1.3755162e-05
2.180759e-05 2.0054708e-06 2.0332411e-06 2.0396628e-06 2.0216141e-06 1.9905547e-06 1.9587221e-06 1.9967986e-06
1.951971e-06 2.0227055e-06 1.966097e-06 1.9986203e-06 1.9554898e-06 2.0472958e-06 1.9830584e-06 2.0422967e-06
2.041434e-06 1.9877575e-06 2.043459e-06 1.9510837e-06 1.9755792e-06 1.9621395e-06 1.9933402e-06 2.030838e-06
1.9813206e-06 2.0535388e-06 2.0248904e-06 1.9824472e-06 1.9553854e-06 2.0290258e-06 2.0070197e-06 2.0350387e-06
2.006264e-06 2.0512407e-06 2.0054351e-06 2.0168316e-06 2.0285754e-06 2.0227515e-06 1.9648662e-06 2.0428504e-06
2.0723273e-06 2.058001e-06 2.048729e-06 1.9621207e-06 2.0155296e-06 1.98603e-06 1.994566e-06 2.0039872e-06
1.9763215e-06 2.0045104e-06 1.9623203e-06 1.9644438e-06 2.0514426e-06 1.963304e-06 1.9913664e-06 2.034893e-06
1.9746187e-06 1.9865004e-06 1.9654392e-06 2.007116e-06 1.9608653e-06 1.9619092e-06 2.03379e-06 2.0405441e-06
2.0072664e-06 1.983235e-06 2.0481393e-06 1.9991726e-06 1.9914562e-06 1.9832764e-06 1.9781303e-06 2.0283665e-06
1.9818424e-06 1.9505076e-06 1.9927252e-06 2.025107e-06 1.9613058e-06 1.9885524e-06 2.0183954e-06 2.0321459e-06
1.991056e-06 1.9983906e-06 2.0970888e-06 1.996234e-06 2.014856e-06 1.967492e-06 2.0018126e-06 2.0456791e-06
2.0331e-06 2.002716e-06 1.9993338e-06 1.9709548e-06 2.030349e-06 1.9749973e-06 1.9754148e-06 1.9888157e-06
1.9778706e-06 1.9510794e-06 2.0164632e-06 2.039939e-06 2.001719e-06 2.0252346e-06 1.965559e-06 2.0359253e-06
2.0094228e-06 2.0445436e-06 2.0230154e-06 2.0031139e-06 1.954821e-06 1.9748436e-06 1.9630477e-06 1.9861527e-06
2.0324928e-06 1.9688666e-06 1.9969448e-06 2.00532e-06 1.9627541e-06 1.9938686e-06 1.9930585e-06 1.996001e-06
1.9921142e-06 1.9843774e-06 1.9822044e-06 2.087018e-06 1.9760596e-06 2.026232e-06 1.970156e-06 2.022466e-06
1.9891784e-06 2.0503126e-06 2.0247005e-06 2.0195544e-06 2.0014734e-06 2.0019572e-06 1.9896447e-06 1.9759837e-06
2.050981e-06 1.9734057e-06 2.0372827e-06 1.9938218e-06 1.9883757e-06 2.035185e-06 1.974011e-06 1.9914685e-06
2.0381156e-06 1.9709596e-06 2.0122216e-06 1.9887125e-06 2.016351e-06 1.9871336e-06 1.956961e-06 1.9626946e-06
1.9542301e-06 1.9782974e-06 1.9509198e-06 1.9735853e-06 2.039145e-06 2.0443038e-06 2.0438217e-06 2.034051e-06
2.037179e-06 1.9700499e-06 1.993655e-06 2.05052e-06 2.0871041e-06 1.9870033e-06 1.777532e-07 1.9375786e-07
8.012231e-07 1.4700187e-06 2.1149542e-06 2.8237218e-06 3.326002e-06 3.7223622e-06 4.1891494e-06 5.4533098e-06
5.8693477e-06 6.869593e-06 7.698708e-06 7.994117e-06 8.441758e-06 9.69279e-06 9.164191e-06 9.531741e-06
1.0780231e-05 1.0923321e-05 1.0805472e-05 1.1057179e-05 1.2434619e-05 1.2703965e-05 1.3303634e-05 1.22353185e-05
1.1944148e-05 1.3008943e-05 1.1816275e-05 1.1531541e-05 1.2495697e-05 1.27839885e-05 1.2588357e-05 1.2068286e-05
1.3041612e-05 1.266946e-05 1.2560451e-05 1.2304623e-05 1.5594687e-05 2.3562547e-05 1.9982297e-06 1.9882716e-06
2.0344444e-06 1.9779466e-06 2.036345e-06 1.9564668e-06 1.988571e-06 2.016876e-06 2.026157e-06 2.015753e-06
