test/test_results/triplets/results/model/model_epoch0150.tar (torch, 61140 bytes, 3 tensors)

fc.weight f4 [100, 41]
00000000: 03e0 163b 0d57 e83f b1ce e83f 5dd9 cc3f
00000010: 97ce be3f f9e0 b53f 2a90 ae3f fd43 a53f
00000020: 933c 9f3f c353 9e3f c29d 913f b3a3 8b3f
00000030: 3d25 833f d847 7c3f 63bb 6f3f 4846 5f3f
00000040: cde2 583f 2ac8 4d3f 0945 453f 4021 4b3f
00000050: 46ff 433f 7496 3f3f 9b86 463f 61e4 493f
00000060: 5c90 423f d340 473f e6cd 3e3f 4af0 443f
00000070: 023f 3b3f dec0 323f af98 343f 3222 1a3f
00000080: 0560 123f b20a fc3e 4855 e03e a37a 9d3e
00000090: 8a3c b63e 980b ef3d 72f7 753d 56a3 c33b
000000a0: 899b 05b8 37d2 4f3b 1b05 9d3f a68e 993f
000000b0: cc34 913f d3e5 893f 6c4b 7d3f affe 763f
000000c0: c8ca 6f3f 74f7 5e3f f0b8 533f aa75 4d3f
000000d0: f2ae 453f e775 3e3f e6df 313f e771 293f
000000e0: 45f9 1f3f a045 103f 0786 003f 04a7 f13e
000000f0: 52ff d53e eb56 c83e 76eb b73e ee20 9b3e
00000100: 27de 893e 69c6 5c3e d7a7 293e 0f6a ab3d
00000110: 50fa 703d b5d9 ce3c 14fb 9e39 036d a53b
00000120: 1439 803b c043 063c b5bc ec3b 8790 873b
00000130: 18ed 073a e751 813b d69e 563d 98ba 413d
00000140: 1f33 ae3d 78f3 63b7 4ebc 163b 09af 793f
00000150: d426 753f 1fc5 893f 0443 873f 2764 883f
00000160: bb95 7c3f 165c 773f 0122 6e3f acc2 623f
00000170: 9263 513f 370d 453f 2a07 423f 8a18 373f
00000180: ae34 2f3f 0aaa 243f 1704 243f 308a 1f3f
00000190: af77 183f d079 133f 6d9e 0e3f 16d1 073f
000001a0: 7364 033f ecd7 f13e 3546 e43e 9540 de3e
000001b0: b5c9 c23e 2c77 b13e 7d83 ab3e 4d26 8e3e
000001c0: da20 9c3e 0cca 783e d744 5a3e 1e92 173e
000001d0: 3e72 233e ad69 113e ba6d b73d 52ac f93c
000001e0: b66f 463d c6c1 5e3c 8f42 833a 3fb5 313b
000001f0: 5648 053b a0d2 573b 9424 553a e9d7 543b
00000200: fe3f 1c3b 7c4e 4038 02a6 ce3a 50cf 703b
00000210: 1755 a63a 32fb 723b 7325 693b ba86 753b
00000220: a82f 673b d508 cb3a 01c3 3d3b 892f a039
00000230: 683f 703b 7ea6 c93a f472 ff3a 268b 003b
00000240: c507 6e3b 72f5 0d3a a91a 593b 802c 653b
00000250: 07c2 6239 66ad da3a 89ab a239 0daa 4d3b
00000260: 3f74 5f3b 5436 033b 2cbc 543b 635c 583b
00000270: 1270 213b 06ff 483b 2f28 253b 3c93 863a
00000280: 98bb 09b9 a327 eb3a 0434 363b 01d9 0d3a
00000290: 5fce c03a ec68 393b ca55 2e3b 4f73 0c3b
000002a0: 9a34 873a f094 613b b03f b73a dbfb ec39
000002b0: 4ceb 163b d996 1a3b db84 7a3b 9177 7d3b
000002c0: 7bfb cd3a 0262 563b 545b 033a 7ea6 753b
000002d0: 60f0 723b 6c29 3439 6842 473b 37c6 673b
000002e0: c44c ecb8 e871 023b 7196 713b e4ec 4b3b
000002f0: 96ac 6d3b 795c 243b f056 0539 60d8 683a
00000300: d4dc 273a 87f0 f43a bf59 063a 0938 e23a
00000310: 0aa2 443b 92c7 113a bce3 183b 2c74 563b
00000320: dbbf 1c3b 1f51 603b 03ed 363b 6c0e 8b39
00000330: 6ace 503a 919f 0e3b 8530 0640 cd85 0340
00000340: d831 d83f 6971 c93f b6a2 bd3f 2343 b53f
00000350: 138a a83f 570b 9c3f 4163 9e3f b866 953f
00000360: 7c99 903f 9f27 883f 8cd1 823f dea7 7d3f
00000370: 9ea9 6c3f 9fb9 6c3f d840 5f3f 465b 5e3f
00000380: a373 5e3f 8392 593f 2636 4c3f 37e4 563f
00000390: 927f 563f 3bf0 463f 84b9 3f3f 9553 313f
000003a0: f0d3 403f 49e8 323f 696c 333f 545f 2f3f
000003b0: c0ce 193f f386 1c3f 5697 013f 927d d63e
000003c0: b6e8 a33e c8e5 b83e 7e8b 163e e5dd af3d
000003d0: 1672 a93b acd5 ff39 79d9 383b c469 593f
000003e0: bbbe 5d3f 1fe6 7c3f d6f4 7c3f 28fe 783f
000003f0: 0b1d 6f3f 88b0 673f 8fd6 613f f342 573f
0.0023021705 1.8151566 1.8188077 1.6003834 1.4906796 1.4209281 1.3637745 1.2911373
1.2440361 1.2369312 1.1376269 1.0909332 1.0245739 0.98547125 0.93645304 0.87216616
0.8472107 0.8038355 0.77058464 0.7934761 0.7656139 0.7483895 0.7754914 0.78864104
0.76001525 0.7783329 0.74532926 0.7692915 0.7314302 0.6982554 0.70545477 0.6020843
0.57177764 0.4922691 0.43815064 0.30757627 0.35593063 0.11672133 0.060050435 0.005970399
-3.1854524e-05 0.0031710991 1.2267183 1.1996658 1.1344237 1.0773262 0.9894321 0.96482366
0.93668795 0.87096334 0.8270407 0.80257666 0.7722007 0.74398655 0.69482267 0.66189426
0.6248973 0.5635624 0.5020451 0.47197735 0.41796356 0.39128813 0.3592183 0.3029856
0.269273 0.21560062 0.16567932 0.083698384 0.058832467 0.025250295 0.00030323176 0.0050483956
0.0039130542 0.008194864 0.007224644 0.004137102 0.0005185171 0.003946531 0.05239757 0.04729709
0.08505844 -1.3586941e-05 0.0023000422 0.9753271 0.9576237 1.0763282 1.0567327 1.0655564
0.9866597 0.96624887 0.93020636 0.88578296 0.8179256 0.7697329 0.7579218 0.7152182
0.6843976 0.6432196 0.6406874 0.6232023 0.5955762 0.57607746 0.5571049 0.53053415
0.5132515 0.47235048 0.44584814 0.43408647 0.38044515 0.34661233 0.33498755 0.27763596
0.30493814 0.24295825 0.21315323 0.14801833 0.15961549 0.14200468 0.089564756 0.030477677
0.04844638 0.013596004 0.0010014343 0.0027116088 0.0020337305 0.0032931939 0.0008130756 0.0032477325
0.0023841853 4.584946e-05 0.0015766027 0.0036744662 0.0012690154 0.0037075994 0.00355753 0.0037464336
0.0035276208 0.0015490303 0.0028955343 0.00030552995 0.0036658887 0.0015384702 0.0019489215 0.001961419
0.003632055 0.00054152973 0.0033127463 0.003496915 0.0002162532 0.0016683757 0.00031026852 0.0031381876
0.0034096388 0.0020021396 0.0032460792 0.003301405 0.002463345 0.0030669584 0.0025200953 0.0010267268
-0.00013135222 0.001794089 0.0027802 0.0005411059 0.0014709941 0.0028291298 0.0026601427 0.0021431034
0.0010315359 0.003442105 0.0013980772 0.00045201075 0.0023028431 0.0023588447 0.003822616 0.0038676003
0.0015715206 0.0032712226 0.00050108624 0.003748327 0.0037069544 0.00017181569 0.0030404571 0.0035365948
-0.00011267656 0.001990432 0.0036863352 0.003111654 0.00362662 0.0025079532 0.00012716255 0.000888234
0.00064034504 0.0018687405 0.00051250675 0.0017259131 0.003000381 0.00055610493 0.00233291 0.0032723052
0.0023918066 0.003422804 0.0027912266 0.0002652289 0.00079653284 0.002176259 2.0967114 2.0550416
1.6890211 1.5737735 1.481528 1.4161114 1.3167137 1.2190961 1.237404 1.1671972
1.129684 1.0637091 1.0220199 0.9908427 0.92446315 0.92470735 0.8720832 0.8685802
0.868952 0.84989184 0.79770124 0.8394198 0.83788407 0.7771031 0.7489245 0.6926816
0.7532339 0.6988569 0.70087296 0.68504834 0.600811 0.61143416 0.50621545 0.41892678
0.32013482 0.3611281 0.1470165 0.08587245 0.005171071 0.00048796588 0.0028205796 0.8492701
0.86619157 0.98788637 0.9881109 0.9726281 0.9340369 0.9050374 0.88218015 0.8408653

exp_avg f4 [100, 41]
00000000: d62b 2e39 b628 2db8 217e 84b8 3690 b038
00000010: 4eb2 55b9 50f2 e337 7291 ceb9 9b11 53ba
00000020: fc0a d339 4afa 7c39 0ea3 8cb7 74e7 a1b9
00000030: 634c 52b8 7092 1bba f837 9d37 cceb 8ab8
00000040: 7162 9839 1ef7 c4ba f479 183a 2516 4c39
00000050: e167 2dba 9272 9b38 a4de 1939 505d 4bb7
00000060: 1a86 0aba 49cf 153a 0fbd 7938 47f0 c8b9
00000070: 7c46 9cba 0f95 373a 1549 5db9 4f8f 21ba
00000080: 736a ae39 9c05 58ba f4a4 dbb9 2125 8d3a
00000090: e5cf fbb9 4852 c3b7 8457 5639 c23b fe39
000000a0: 34aa 51b9 582e fc38 9468 4437 6d16 e3b7
000000b0: 387f b638 2a4c dfb8 2446 d437 76e2 7bb9
000000c0: ee7e 0aba 7430 c039 14ae 6139 f4bb a238
000000d0: e437 feb8 a05b 2f37 aac1 abb9 cab4 bf38
000000e0: 0e34 7e38 d493 a339 b288 7eba 0659 093a
000000f0: 6a02 a439 fd4b a2b9 aad4 e238 b720 d639
00000100: 8d7c 3c39 6db4 3bb9 a54d 1e3a f51b c239
00000110: ce9a 5138 8d05 e8b9 c9cb 7239 abd5 88b8
00000120: 7177 8eba 1194 173a a368 2aba 6413 ccb8
00000130: c0e7 6239 3190 e4b9 1c4e c938 e213 5d39
00000140: 1c1a 3239 4add ce39 aa4d 00ba 6c50 3a38
00000150: 5676 cb36 f266 bb38 5c8b 7db8 508d 1b38
00000160: 9474 5cb9 9e8e 05ba d7b8 d639 620e 2439
00000170: 1bad 7c38 969c 24b9 53ea d537 0a1b b5b9
00000180: 8a75 ac38 d936 ca38 0d21 8939 4315 7eba
00000190: 55eb d439 c7c3 4e39 cf80 acb9 f687 a338
000001a0: 745e 9939 9cc5 6538 323c 8eb9 4bdf 093a
000001b0: f73d 2a39 fc12 0bb9 34f7 35ba 2752 2b3a
000001c0: e09b 1e37 9ca4 57b9 38c2 df39 5683 e9b9
000001d0: 649a 1eb9 4856 523a 136b b2b9 5648 1138
000001e0: c80d 1839 5404 a439 f6c8 2eb9 b33d 1e39
000001f0: e787 3339 6c12 85b9 2694 4239 41bd fc38
00000200: 11aa 2c39 9d1d 4739 9ac7 2aba 1b5b c238
00000210: e0fe 3e39 7981 8c38 0c22 d338 d6a7 b537
00000220: 9820 bf38 9025 3d39 6792 bcb9 292c 4639
00000230: 20b0 97b8 ece9 29ba 5649 3739 d496 14ba
00000240: 1945 9038 a449 4439 8623 5cb9 4248 a638
00000250: 24eb 4739 fff7 3839 b706 4539 e9bf f838
00000260: 0aa4 31b9 7679 3239 51b7 e338 ebf5 e838
00000270: 54c6 2939 d125 a0b9 47be 2b39 2307 43ba
00000280: e027 4b39 c0a7 3839 788f 1839 7e47 4e39
00000290: 8c6f 3c39 a17e 1d39 ce22 dcb9 8c47 3539
000002a0: 49e8 42ba 4479 ea38 53fa 3d39 24db 4439
000002b0: b750 00ba 5049 00ba 2ac7 d2b8 d32b 2038
000002c0: f457 3a39 b2c0 f938 6d36 4539 4e9f a737
000002d0: 603e 2238 cc12 4439 0ce9 1239 1c34 c138
000002e0: bd86 4739 7896 3339 bc8a 34b8 76d5 0439
000002f0: 63df 1738 ea66 2839 bb71 4639 f232 4039
00000300: d457 4239 da7c 3739 69e0 4539 4b06 3439
00000310: 1844 9fb9 f2cb 4539 93d0 2c39 ccca 59b9
00000320: 35b5 2839 eb6e 2eb9 b546 1739 f637 4c39
00000330: a182 4a39 d136 3139 327b 79b8 d4a7 bbb8
00000340: f1af c738 bf9f 81b9 82e7 0a38 5c03 e7b9
00000350: 57ee 62ba 36b2 cd39 15a3 8c39 5e63 acb7
00000360: 4fe8 a7b9 f234 7db8 210d 23ba 104b 1937
00000370: 798b 05b9 9620 9839 93c2 d3ba 1ca1 263a
00000380: f33f 4c39 9b58 40ba 3cb0 fd38 6c9f fe38
00000390: 2078 8bb7 e3ab 0bba f438 1f3a 33c8 8a38
000003a0: cbc3 ccb9 72b8 9dba d311 423a e71b 81b9
000003b0: fe2f 23ba a77e ba39 9f96 5bba 8984 e8b9
000003c0: 8b6f 933a c560 08ba 8827 3cb8 4e0e 5f39
000003d0: c9b8 0b3a 7a10 1238 0a17 1939 3a60 5438
000003e0: f31e 8e37 5708 dc38 7283 34b8 53a2 6238
000003f0: e255 41b9 b23a fbb9 930d cf39 bfb9 2139
0.00016610263 -4.128433e-05 -6.317744e-05 8.4191954e-05 -0.00020379687 2.7173344e-05 -0.00039399747 -0.00080516346
0.0004025324 0.00024125833 -1.6765229e-05 -0.0003088076 -5.0139042e-05 -0.00059346016 1.8741921e-05 -6.6242734e-05
0.00029065044 -0.001502726 0.0005816512 0.00019463206 -0.00066149054 7.412316e-05 0.00014674157 -1.2121469e-05
-0.0005284265 0.0005714787 5.95423e-05 -0.00038325993 -0.0011922861 0.00070031075 -0.00021103428 -0.0006163017
0.00033267177 -0.0008240582 -0.00041893835 0.0010768512 -0.00048029344 -2.3284127e-05 0.00020441232 0.00048491178
-0.00019995199 0.000120249286 1.1706859e-05 -2.7070952e-05 8.7021326e-05 -0.00010647655 2.5305031e-05 -0.00024021589
-0.0005283196 0.00036657194 0.00021522521 7.759771e-05 -0.00012122074 1.0452146e-05 -0.00032759953 9.141264e-05
6.06068e-05 0.00031199923 -0.00097097 0.0005239401 0.00031282316 -0.00030955664 0.000108161315 0.00040841635
0.00017975476 -0.00017900924 0.00060387916 0.00037023393 4.9973656e-05 -0.00044254624 0.00023154834 -6.524784e-05
-0.0010869337 0.00057822565 -0.00065005774 -9.73109e-05 0.00021639373 -0.0004359498 9.598976e-05 0.0002108361
0.0001698513 0.00039456255 -0.00048943853 4.4420754e-05 6.0636476e-06 8.93603e-05 -6.044969e-05 3.7086487e-05
-0.00021024264 -0.0005094799 0.00040954977 0.00015645617 6.02427e-05 -0.00015698592 2.5500694e-05 -0.00034543156
8.2234925e-05 9.642327e-05 0.000261553 -0.00096924993 0.00040611127 0.00019718624 -0.00032902366 7.7977704e-05
0.00029252807 5.4781893e-05 -0.000271292 0.00052594085 0.00016235547 -0.00013263145 -0.0006941438 0.0006535374
9.453826e-06 -0.0002056532 0.0004267858 -0.00044539076 -0.00015125569 0.0008023721 -0.00034030582 3.4638062e-05
0.00014500984 0.00031283742 -0.00016668797 0.00015091039 0.00017121398 -0.00025381462 0.00018556471 0.00012051548
0.00016466553 0.0001898915 -0.00065147283 9.2676106e-05 0.0001821476 6.6998364e-05 0.00010067606 2.1655036e-05
9.113661e-05 0.00018038438 -0.00035967233 0.00018899202 -7.233047e-05 -0.00064816955 0.0001747956 -0.0005668227
6.8793255e-05 0.0001871945 -0.00020994068 7.928956e-05 0.00019065716 0.00017639993 0.00018789886 0.000118613076
-0.00016941145 0.0001702065 0.00010858349 0.00011108428 0.00016190979 -0.00030545754 0.00016378715 -0.0007439723
0.00019374443 0.00017610099 0.00014549296 0.00019672324 0.00017970632 0.0001501986 -0.000419876 0.00017288158
-0.0007435126 0.00011180577 0.00018117698 0.00018773653 -0.000489484 -0.0004893737 -0.000100506775 3.8187787e-05
0.00017771107 0.000119091375 0.00018807659 1.9982133e-05 3.86819e-05 0.00018699019 0.00014010462 9.212663e-05
0.00019028313 0.00017126824 -4.304455e-05 0.00012668021 3.620925e-05 0.00016060067 0.0001892512 0.00018329525
0.00018534 0.00017498751 0.00018870983 0.00017168482 -0.00030377577 0.0001886336 0.00016480898 -0.0002077028
0.00016089233 -0.00016635253 0.00014426823 0.00019475803 0.00019312884 0.00016900456 -5.948096e-05 -8.948115e-05
9.521831e-05 -0.00024723817 3.3117372e-05 -0.00044062256 -0.0008656731 0.00039233424 0.00026824386 -2.055027e-05
-0.00032025806 -6.036921e-05 -0.0006219913 9.1369875e-06 -0.00012735826 0.00029015978 -0.001615601 0.00063564046
0.00019478779 -0.0007337422 0.00012096806 0.000121413585 -1.6626029e-05 -0.00053280423 0.00060738553 6.617643e-05
-0.0003905579 -0.0012033118 0.0007403169 -0.00024625586 -0.0006225108 0.00035571048 -0.00083766313 -0.00044349235
0.0011248452 -0.0005202408 -4.485951e-05 0.00021272266 0.00053299643 3.4824458e-05 0.000145998 5.0634357e-05
1.6942131e-05 0.00010491971 -4.3037762e-05 5.4033775e-05 -0.00018437908 -0.00047918182 0.0003949223 0.00015423352

exp_avg_sq f4 [100, 41]
00000000: 2491 0536 cf17 e533 88e0 eb33 07f1 d634
00000010: 7a8e 1f35 5172 8135 c965 c235 29e5 0a36
00000020: 5071 2236 2952 2e36 c144 5136 8e4a 5536
00000030: 3f5e 7036 d6c9 7f36 2b9c 9c36 4129 b536
00000040: 7fcc ae36 3d04 b136 d4f1 bf36 3165 ca36
00000050: baf8 c736 1ffb c136 47b1 bd36 bc07 cc36
00000060: 1dc5 d536 c361 d036 3ce9 c336 b5c1 c136
00000070: d374 d236 9a42 c336 faa1 d036 ae52 e236
00000080: 3335 db36 b5bb e536 dbb3 e436 142f fe36
00000090: 5424 f536 d06c 0337 8881 0937 5b63 4a37
000000a0: 54c5 c537 a3ac 0636 107d 6b33 fe4b 8033
000000b0: 7f00 5834 821c a334 9369 0935 4a4f 4a35
000000c0: ba9c 9235 5438 ab35 bfc8 b635 3162 d735
000000d0: dd7b de35 f37b fa35 3925 0536 21f1 2336
000000e0: b621 3f36 19c5 3836 dce2 3c36 c614 4936
000000f0: 53cb 5336 a00a 4d36 1649 4536 62d2 3f36
00000100: d70b 4b36 e80f 4936 da1f 4336 bddd 3036
00000110: 1508 2e36 e227 3236 0ac4 4736 ee61 4036
00000120: c091 6736 311e 3e36 c8de 3b36 091b 6436
00000130: 4564 4536 b778 7236 a843 2136 9e56 3a36
00000140: 46c4 9536 2184 7037 6191 0936 add4 3933
00000150: d605 4633 c652 2334 b9d7 8134 9c16 e734
00000160: 81ae 3735 6d58 8635 46d5 9f35 6dfd ab35
00000170: 550c d335 937e d735 8d1f f335 1f20 0136
00000180: f940 1d36 017e 3736 a87b 3036 3fcc 3636
00000190: 9ba4 4736 f8ae 5436 7291 4f36 31c3 4c36
000001a0: 8366 4936 8a1a 5536 9e51 5a36 d24b 5636
000001b0: 280b 4d36 3d95 4a36 6f07 5336 cdda 3d36
000001c0: 0e57 4436 8ad2 5536 1ccd 4c36 a3ee 5136
000001d0: 41b7 4a36 b71f 5e36 e14e 5936 4457 5c36
000001e0: abc0 7336 4578 b336 8ba7 8a37 690b 0636
000001f0: 9e6b fb35 92a6 0136 3503 f635 605f fa35
00000200: 1333 f435 f84c ef35 9dc6 f835 1578 f435
00000210: e585 ef35 db16 f835 5da7 f935 27ce fd35
00000220: cf99 fe35 2db3 fc35 de4c 0436 f216 ff35
00000230: 38c9 0436 ca0a 0736 1637 0236 b25f 0836
00000240: 5487 0536 5b20 0336 135f 0836 6f3e 0736
00000250: 8324 0236 1400 0436 5390 0336 2298 0636
00000260: f0f5 0836 224b 0436 fc13 0736 7e9e 0636
00000270: 4dcf 0536 1583 0836 388e 0536 4784 0a36
00000280: a8df 0336 a27a 0536 5fe6 0736 7b61 1d36
00000290: 14b4 0436 b876 fa35 35dc 0036 b48c f535
000002a0: d60a fd35 1637 f435 881e ef35 c622 eb35
000002b0: a2a2 f535 dc61 f735 5c62 f735 8f99 f735
000002c0: 4f43 f535 3f4d fc35 2b8a fa35 4e62 0136
000002d0: d4a5 0336 b92a 0036 2304 0436 a3f2 0436
000002e0: 91e3 0136 51e7 0336 6db0 0736 465b 0636
000002f0: 9363 0836 03d7 0436 e4df 0236 1d84 0436
00000300: 5a33 0436 6b54 0636 01d8 0236 0f9b 0536
00000310: 5d10 0936 88fb 0336 d23d 0536 e05d 0836
00000320: 3048 0636 1964 0936 ed27 0636 f9c1 0436
00000330: b160 1f36 cb6d 0536 9d80 0c34 9fa2 1434
00000340: 072a 0635 405b 4435 cffb 9b35 bdcc e535
00000350: fe04 2336 22c9 3b36 0c79 4636 7a7b 6936
00000360: 8ba1 6e36 8785 8536 a96a 8e36 0615 af36
00000370: 1751 ca36 4e68 c436 161d c736 b575 d836
00000380: dd60 e536 3ad3 e136 cd94 dd36 acd1 d736
00000390: 6a15 ea36 9383 f536 3fd3 ed36 3947 d936
000003a0: a56e d436 c443 e636 11ed d536 300c e336
000003b0: c7f0 f436 c0cb ea36 8a4c fa36 ecf9 f836
000003c0: 5fa8 0837 a5d1 0337 1500 0d37 67d2 1537
000003d0: a87a 5d37 dc51 cf37 562d 0636 fce1 2133
000003e0: 7951 2933 90be 0e34 906e 6234 c095 cb34
000003f0: f05c 1f35 2bb7 6935 979e 8a35 59d2 9435
1.9903027e-06 1.0667974e-07 1.0983882e-07 4.0035977e-07 5.9439446e-07 9.644519e-07 1.448375e-06 2.0696991e-06
2.4205838e-06 2.5975844e-06 3.1183447e-06 3.178287e-06 3.5817645e-06 3.8115445e-06 4.6673426e-06 5.399023e-06
5.2094106e-06 5.2755045e-06 5.720396e-06 6.0318494e-06 5.9596177e-06 5.7810826e-06 5.6532767e-06 6.080574e-06
6.3708417e-06 6.210264e-06 5.838605e-06 5.7743987e-06 6.272088e-06 5.8192063e-06 6.2177396e-06 6.74495e-06
6.532902e-06 6.846584e-06 6.8158674e-06 7.5752705e-06 7.305798e-06 7.833543e-06 8.195995e-06 1.2063271e-05
2.3576118e-05 2.0068044e-06 5.4828945e-08 5.9742874e-08 2.0116748e-07 3.0381858e-07 5.119011e-07 7.5366245e-07
1.0923461e-06 1.2756886e-06 1.3618481e-06 1.6047326e-06 1.6576338e-06 1.8662525e-06 1.984021e-06 2.4429248e-06
2.848084e-06 2.7532863e-06 2.8146233e-06 2.9963426e-06 3.15598e-06 3.0553565e-06 2.939783e-06 2.8583677e-06
3.025625e-06 2.9960593e-06 2.9075804e-06 2.6355112e-06 2.5932725e-06 2.6547282e-06 2.976742e-06 2.8667232e-06
3.450652e-06 2.832978e-06 2.7994847e-06 3.3990384e-06 2.9413652e-06 3.6131075e-06 2.403025e-06 2.7766578e-06
4.4633953e-06 1.4335878e-05 2.0499212e-06 4.3267097e-08 4.6105775e-08 1.5210671e-07 2.418508e-07 4.3043553e-07
6.842675e-07 1.0009513e-06 1.1908494e-06 1.2814249e-06 1.5724314e-06 1.6055586e-06 1.8114093e-06 1.9241195e-06
2.3432642e-06 2.734247e-06 2.629802e-06 2.7239e-06 2.9749124e-06 3.1692307e-06 3.0930064e-06 3.0511985e-06
3.0011004e-06 3.175492e-06 3.2532039e-06 3.1932618e-06 3.0553874e-06 3.0187214e-06 3.1445777e-06 2.8290553e-06
2.9256948e-06 3.1862023e-06 3.0517758e-06 3.1282332e-06 3.0207013e-06 3.3099038e-06 3.2381433e-06 3.283335e-06
3.632197e-06 5.348617e-06 1.65289e-05 1.9974198e-06 1.8732278e-06 1.9319455e-06 1.8329362e-06 1.8654209e-06
1.8194281e-06 1.7829288e-06 1.8535244e-06 1.8214365e-06 1.7845856e-06 1.8484092e-06 1.8600655e-06 1.8909967e-06
1.8969239e-06 1.882761e-06 1.9714275e-06 1.9005658e-06 1.9786658e-06 2.0122848e-06 1.9403574e-06 2.0321281e-06
1.9897316e-06 1.9539355e-06 2.032092e-06 2.0152909e-06 1.9392762e-06 1.9669578e-06 1.960453e-06 2.005611e-06
2.0408734e-06 1.9713266e-06 2.01282e-06 2.005981e-06 1.993921e-06 2.034188e-06 1.9901327e-06 2.0640598e-06
1.9650706e-06 1.9889926e-06 2.0250661e-06 2.3451564e-06 1.9774352e-06 1.8661003e-06 1.9201664e-06 1.8294872e-06
1.8853123e-06 1.8195449e-06 1.7815773e-06 1.7518985e-06 1.8301255e-06 1.8431415e-06 1.843156e-06 1.8447626e-06
1.8273512e-06 1.8797945e-06 1.8666664e-06 1.9279719e-06 1.9617046e-06 1.9098354e-06 1.967194e-06 1.9810766e-06
1.935496e-06 1.9655165e-06 2.021926e-06 2.0020684e-06 2.032354e-06 1.9794686e-06 1.950183e-06 1.9746433e-06
1.9699423e-06 2.0016694e-06 1.949724e-06 1.99088e-06 2.0424116e-06 1.9666932e-06 1.9854529e-06 2.0320222e-06
2.0009575e-06 2.0472855e-06 1.9990796e-06 1.978244e-06 2.3749128e-06 1.9882452e-06 1.3085305e-07 1.3842735e-07
4.998005e-07 7.3148476e-07 1.1621686e-06 1.7121416e-06 2.4291799e-06 2.7982246e-06 2.9574758e-06 3.4791578e-06
3.5558794e-06 3.9792535e-06 4.2443467e-06 5.217854e-06 6.029509e-06 5.853398e-06 5.934048e-06 6.4510045e-06
6.836008e-06 6.7301125e-06 6.603636e-06 6.4319083e-06 6.9762364e-06 7.3168862e-06 7.0877427e-06 6.4753954e-06
6.330973e-06 6.862423e-06 6.375493e-06 6.766546e-06 7.299797e-06 6.997463e-06 7.459491e-06 7.4200707e-06
8.145434e-06 7.85702e-06 8.404274e-06 8.93008e-06 1.3201185e-05 2.4714442e-05 1.9993945e-06 3.7691265e-08
3.9422478e-08 1.3294107e-07 2.1088113e-07 3.7920654e-07 5.936736e-07 8.706581e-07 1.0327957e-06 1.1088079e-06
