test/test_results/triplets/results/model/model_epoch0305.tar (torch, 71060 bytes, 3 tensors)

fc.weight f4 [100, 41]
00000000: f93c 553b de09 2340 cfc9 1c40 3a3a 2340
00000010: e89f 1c40 6935 1b40 e6f7 1340 dd98 0b40
00000020: d2aa 0640 90c2 0240 134a f03f a43d e13f
00000030: e312 d23f 9c00 c83f 6d3a bd3f 97b4 af3f
00000040: f7cd ab3f b502 9f3f bc85 973f a6fb 9d3f
00000050: 0a9a 963f d557 923f 9b1c 963f 4074 973f
00000060: 46e5 903f 8be0 973f 87db 913f 3251 953f
00000070: 071b 8e3f f888 803f 0841 8c3f f70a 643f
00000080: 0c72 573f d326 3a3f 506e 263f be66 f33e
00000090: 4171 053f 02b4 333e 5296 d73d f803 943d
000000a0: df63 9cb7 8926 883a 0486 903a d04f e43a
000000b0: b890 ab39 5249 723b 05b8 3c3b 59cb 6d3b
000000c0: 2a98 203b d3b0 1739 6277 5b3b feb0 6d3b
000000d0: afa3 373b 318d d83a 5826 753b db3e b93a
000000e0: 00f9 993a 5378 753b 6533 ad3a 2560 f03a
000000f0: 4c15 503b 5f04 313b 0a58 6e3b fd15 1539
00000100: 4815 663b 8787 da3a 09f8 813a 27a5 623b
00000110: 3e92 f03a 7e4d 4839 31e6 683b 1db3 063a
00000120: 48f8 643b c771 943a d57d 6a3b 68d5 0f3b
00000130: 02ce 3b3a 32bb 913a 7aac 4a3b 999c 373b
00000140: f1fd 6e3b b84b 803a b196 213b 3137 503b
00000150: 9a70 d1b8 0b9e 723b a023 5c3b 5ff2 333b
00000160: 5031 6c3b ceb5 363b c025 3c3b 2f9a 413b
00000170: d1a0 033b 4ec0 423b b287 7a3b d4a5 173a
00000180: e70b 5a3b 2d6c 793b cbfb 483b 3699 4b3b
00000190: 8350 2c3b be57 223b be22 043a 7076 8e3a
000001a0: 0721 583b 231e 683b 6d40 9d3a 5db5 683b
000001b0: 179e 703b b4ad 623b 2b6e 543b 3a53 fc39
000001c0: 76d3 603b ee0e cc3a 4265 6b3b c281 873a
000001d0: de4d 113b 273b 733b 8a3c 4d3a a661 443b
000001e0: 49d6 363b beb6 bf3a 926d 493b e513 383b
000001f0: aa18 173a 4746 5b3b 30fb 393b d60d ee3a
00000200: 1522 903a bac0 403b df14 573b cdd4 593b
00000210: 06e3 203a ca8a 5c3b a5c5 5b3b 5f4d 733b
00000220: 5f32 593b 4eb8 e83a 68a2 c63a b13c 533a
00000230: 9bdd 633b c018 39b8 a33d 353b 7561 223a
00000240: e9b7 643b bdfb a43a be49 843a 955e 6f3b
00000250: e888 003b d1f2 473b 365b 253b 49f3 683b
00000260: e250 0b39 bd3f 3d3b a074 763b 7943 733b
00000270: d079 253b daf9 733b c9c6 543b e841 273b
00000280: 7bd1 013a 3457 083b d80a 5b3b 8d2f 3c3b
00000290: 1d0a 713b 129e 473a 8095 643b 2060 fb39
000002a0: 2718 723b 80d9 083b b030 b339 299b 1a3a
000002b0: 2f43 5c3b a703 4d3b fa68 733b e6b4 633b
000002c0: 35ef db3a 983d 543b f529 413a b402 743b
000002d0: 85e7 6e3b 5bc6 2b3a 34ce 543b 718b 6f3b
000002e0: 4465 303a cd86 3d3b a6d2 483b 68a6 6b3b
000002f0: c4e2 263b a592 693b 890a 093b d5d4 153b
00000300: 1b86 073b 3884 583b 18bd d73a 0ffa 443b
00000310: 2e23 ec39 c4c7 6c3a f0d2 8c3a db7b 9e3a
00000320: 50a4 ff3a 65f8 303b 8f2b 283b 80b4 403b
00000330: 78f4 413b 8396 5c3b 7cc1 6140 542f 5440
00000340: c9df 3640 2366 2c40 d965 2640 a833 1c40
00000350: e047 1140 1a87 0640 2d1b 0540 8bf9 f73f
00000360: 0a11 ec3f e373 dd3f f53d d23f 8244 cb3f
00000370: 4a13 be3f e65f bd3f 8b7a b03f 694d ae3f
00000380: 7c01 ad3f dc79 a83f a61b 9c3f ddd9 a43f
00000390: f140 9d3f 97f1 8e3f 9fd0 8b3f aff8 7c3f
000003a0: 4246 8b3f 87dc 813f 14a7 773f f1a2 7a3f
000003b0: 35c8 573f 3869 5c3f cdde 3d3f 725f 173f
000003c0: 6aab f13e f65f e83e a970 5f3e 0eff 143e
000003d0: ecc7 e73d d946 1e3a bac3 273b 5cc7 6f3b
000003e0: 45a8 a63a c253 723b abea 963a 2766 303b
000003f0: 29d2 753b 14ec 043a ac93 9239 405a 063a
0.0032537563 2.5474772 2.4498174 2.5504289 2.44726 2.425135 2.3120055 2.181205
2.104176 2.0431252 1.8772606 1.7596936 1.6412014 1.5625186 1.4783455 1.3726987
1.342223 1.2422701 1.1837687 1.2342422 1.1765759 1.1433054 1.172748 1.1832352
1.1319969 1.18654 1.139512 1.1665404 1.1101998 1.00418 1.0957346 0.8907923
0.84158397 0.7271549 0.65012074 0.47539324 0.52125937 0.17549136 0.10526718 0.072273195
-1.8643155e-05 0.0010387461 0.0011026268 0.0017418806 0.00032723485 0.0036969972 0.0028796208 0.0036284535
0.002450476 0.00014466354 0.0033487906 0.0036268826 0.0028021147 0.001652157 0.0037406888 0.0014133112
0.0011747181 0.0037455752 0.0013214169 0.00183392 0.0031750975 0.0027010662 0.0036368393 0.00014217939
0.00351079 0.001667247 0.0009915839 0.0034583302 0.001835413 0.00019102354 0.0035537595 0.00051383843
0.0034938026 0.0011325412 0.0035780568 0.0021947268 0.00071641814 0.0011118411 0.0030925558 0.0028016923
0.003646728 0.0009788191 0.002465647 0.0031771178 -9.98687e-05 0.003702047 0.003359057 0.0027457697
0.0036040135 0.002787936 0.0028709024 0.0029541363 0.0020084868 0.0029716673 0.0038227853 0.0005784903
0.0033271255 0.0038058863 0.0030667658 0.0031066663 0.0026293106 0.0024771537 0.00050405774 0.0010869037
0.003297867 0.0035418354 0.001199735 0.0035508492 0.0036715323 0.0034588398 0.0032414298 0.00048127194
0.0034305728 0.0015568414 0.0035918509 0.0010338353 0.0022171657 0.0037114115 0.00078291504 0.002996543
0.002789872 0.0014626605 0.0030735475 0.002808803 0.0005763868 0.0033458637 0.002837848 0.0018162082
0.0010996485 0.002941175 0.0032818837 0.0033238411 0.0006137345 0.003365206 0.0033534553 0.0037124974
0.0033141596 0.0017755122 0.0015154602 0.0008058055 0.0034769538 -4.4130487e-05 0.0027655147 0.0006194332
0.0034899658 0.0012587231 0.0010092778 0.003652488 0.0019612852 0.003050972 0.0025231368 0.00355454
0.00013286204 0.0028877102 0.0037606135 0.0037119074 0.0025249608 0.003722778 0.0032467118 0.002552146
0.00049521745 0.002080393 0.0033423211 0.0028714866 0.003677971 0.0007614802 0.0034879148 0.0004794607
0.0036940665 0.0020881593 0.00034177816 0.00058977545 0.003360938 0.0031282695 0.0037141428 0.0034745275
0.0016779663 0.0032385346 0.0007368618 0.0037233057 0.0036453914 0.00065526896 0.003247154 0.003655162
0.0006728957 0.002891946 0.0030643134 0.003595734 0.0025464753 0.0035640385 0.002091082 0.0022862453
0.0020679298 0.0033037793 0.0016459553 0.0030056273 0.0004503964 0.0009032453 0.0010744017 0.0012091355
0.0019503925 0.0027003523 0.0025660729 0.0029404461 0.0029595178 0.0033659048 3.5274343 3.3153887
2.8574088 2.693734 2.5999663 2.4406528 2.270012 2.101996 2.0797837 1.937303
1.84427 1.7300991 1.6425158 1.5880282 1.4849637 1.4794891 1.3787397 1.3617374
1.3516078 1.3162189 1.2195938 1.2878987 1.2285444 1.1167477 1.0923041 0.9881696
1.0880816 1.0145425 0.96739316 0.9790488 0.84289867 0.8609805 0.7416809 0.59130013
0.4720109 0.45385712 0.2182032 0.1455042 0.11317429 0.0006037779 0.002559884 0.0036587333
0.0012714943 0.0036976193 0.0011514028 0.0026916356 0.0037509298 0.0005070579 0.00027957314 0.00051251426

exp_avg f4 [100, 41]
00000000: b215 5bb9 6271 6438 38c7 8138 3807 a537
00000010: e2e5 9c37 c6a8 bbb8 b733 c7b9 a0b5 8f39
00000020: eef9 0a39 852b 9db9 74b4 abb9 7768 b739
00000030: ab0c a9b9 b549 0cb9 abb0 83b9 c8b1 afb9
00000040: 2083 ed38 acb7 8239 a519 12ba e40d 00b9
00000050: bcf2 95b9 16ec 9db9 7d2e f739 8c8e a139
00000060: 0681 01ba e0ea 8c37 a62c ddb9 36b5 7e3a
00000070: 8059 fb39 b889 90ba c7e0 8a3a 4c92 30bb
00000080: 405d d23a 6791 2bb9 bf75 5bba f1b1 8b39
00000090: 006b 6e3a ead7 aa39 d343 ffb9 92b9 64ba
000000a0: ca7f 3f39 3be9 42ba 0c6a 4139 61ac 3739
000000b0: 3f96 4539 4c96 d4b8 59a1 1839 7575 0cb9
000000c0: e2dd 2a39 5cbe 4639 3dc8 fb38 ed95 31b9
000000d0: 5916 2339 1f19 3b39 56ef 6238 b647 3c39
000000e0: 5453 4039 2903 b637 76cb 3e39 be63 3539
000000f0: 6505 fb38 f07c 1d39 f035 a335 c64d 4639
00000100: 78e2 c038 7722 3a39 b306 43ba 7c40 a838
00000110: c3ef 3839 3cc9 4539 5014 0db9 4be3 4639
00000120: 1ba7 0eb9 7456 4239 973b 0bb9 bdc5 00ba
00000130: ca10 4539 8510 4339 ca41 84b9 e048 bcb9
00000140: cc83 34b8 9cb7 4839 9c0c 2739 204a 0539
00000150: 660b 4939 ba65 35b8 84a7 5ab9 fd59 bcb9
00000160: 7fa8 8f38 0917 bcb9 8bde 1839 31bd 1839
00000170: 6923 3639 6261 1939 9510 a4b7 7fd4 4339
00000180: 4e9d fc38 8041 bc35 925b 1339 e3e6 9eb9
00000190: a792 2139 06fd 2839 d3f7 4539 bac5 4239
000001a0: 1402 5cb9 61ed aa38 5ac0 3e39 8ddd d0b8
000001b0: 3e7b 1a38 7f24 c638 7ead fd38 a37e 5eba
000001c0: 3e78 c238 c690 3539 d3d0 2638 0623 43ba
000001d0: d89c 2d39 e2bb 2fb8 2fbc 4339 cad0 0d39
000001e0: 504a 1a39 18ef 29ba cb7c d438 294b bcb9
000001f0: 622d 5eba f61c d738 1284 bcb9 553d 3639
00000200: 03a7 4039 a24d 9fb9 0c58 5ab9 3f93 e938
00000210: 6a0d 4439 8d40 d638 2cfa d738 7061 ac35
00000220: 4521 d738 b414 3739 9f32 2aba 03dc 4139
00000230: 855c 0cb9 7837 4639 5dd2 1d39 3fa1 4439
00000240: fe30 31b9 cf0c 4039 47cf 42ba 5fc5 d3b8
00000250: 42c6 3539 26fe 0339 fbfd 2739 c670 6438
00000260: c1f2 4339 02cb 1a39 056d c4b7 8a3b 32b8
00000270: 8432 2239 4b86 3cb8 ad48 5ab9 aa7e dbb9
00000280: f2fd 4539 81b4 3139 07e9 2db9 ac5b 1639
00000290: 20fc f935 f32e 4339 0d9d a838 5bcb 4439
000002a0: ee6b 95b8 95ca 3039 488f 4539 5c4f 5eba
000002b0: d458 5bb9 cd1d 85b9 e28e a5b7 95df c138
000002c0: 90dd 3a39 5304 fb38 c29f 4339 f48a a5b7
000002d0: 5acd a937 3e6e 4339 6e9c f838 517d a7b7
000002e0: d58d 4439 595e 1239 6cc5 9fb9 3404 6538
000002f0: 4cef dcb9 d859 8e38 df17 2f39 1ad4 2f39
00000300: 62c2 3339 cd20 d238 80e0 3b39 f46d 0e39
00000310: 556a 4739 81ab 4239 e8be 3f39 c145 4039
00000320: ccbe 3539 4c69 bbb9 0ae3 2339 fe80 0a39
00000330: 77df 0f39 5cb7 30b9 9cd1 0038 c9c3 d937
00000340: a4f2 d536 31c4 d537 5d84 19b9 b046 05ba
00000350: 56d7 bc39 1e15 f238 be11 adb9 7171 b2b9
00000360: 3bad bb39 c008 f8b9 c2c1 07b9 5985 9eb9
00000370: e8f6 04ba 04ab 0439 cc21 d139 f2fe 2eba
00000380: edf5 27b9 4cd6 c3b9 968b f9b9 224d 2c3a
00000390: 0cbd cb39 9a94 12ba 8e68 1db9 6211 71b9
000003a0: 22c8 853a 6c38 143a 4b16 a9ba ad0c a53a
000003b0: 52d2 3bbb ea97 f03a e73b 10b9 5087 6cba
000003c0: b288 8b39 2f21 843a e09d c239 878c 13ba
000003d0: 9af1 7cba 5272 67b9 f094 dcb9 fb21 94b8
000003e0: bb39 3e39 5820 6338 9e56 4039 1f73 1e39
000003f0: 44d7 38b8 2604 5eba 4874 4539 045c 5eba
-0.0002089355 5.4465032e-05 6.188307e-05 1.9672894e-05 1.8703697e-05 -8.948291e-05 -0.00037994768 0.00027410407
0.00013253812 -0.00029977798 -0.0003275011 0.00034982312 -0.0003224363 -0.00013378898 -0.00025117895 -0.00033511058
0.000113254646 0.00024932378 -0.00055732793 -0.00012212206 -0.00028600346 -0.0003012127 0.00047146148 0.0003081452
-0.00049401855 1.6798673e-05 -0.0004218567 0.00097163336 0.00047941133 -0.0011027372 0.0010595553 -0.0026942668
0.0016049519 -0.00016361997 -0.00083717325 0.00026644723 0.0009094924 0.00032585795 -0.00048687923 -0.0008725162
0.00018262785 -0.0007435267 0.0001844542 0.00017516456 0.00018843355 -0.00010136943 0.00014555956 -0.00013395197
0.00016295121 0.00018953666 0.0001200591 -0.00016935887 0.00015553217 0.00017843068 5.4105498e-05 0.00017955792
0.00018341589 2.1697562e-05 0.00018195607 0.00017298662 0.000119696175 0.0001501923 1.2160144e-06 0.00018911724
9.1974565e-05 0.00017751181 -0.0007439658 8.0228754e-05 0.00017636926 0.0001886235 -0.00013454375 0.00018967425
-0.00013604427 0.00018533488 -0.00013278272 -0.0004912278 0.00018793638 0.00018602803 -0.0002522602 -0.0003591245
-4.303809e-05 0.00019141886 0.00015931058 0.00012711482 0.000191731 -4.3248503e-05 -0.00020852505 -0.000359252
6.850156e-05 -0.00035875317 0.00014578753 0.00014566329 0.00017370064 0.00014627495 -1.9558045e-05 0.0001867581
0.00012045597 1.4026155e-06 0.00014053125 -0.00030308132 0.00015408789 0.00016115987 0.00018879706 0.0001857494
-0.00020981609 8.150447e-05 0.00018191469 -9.95948e-05 3.683124e-05 9.448174e-05 0.000120962955 -0.0008487498
9.273038e-05 0.00017315437 3.9771967e-05 -0.00074438786 0.00016556995 -4.189823e-05 0.00018666753 0.00013524588
0.00014714268 -0.0006482466 0.00010132192 -0.00035914153 -0.00084753905 0.00010257393 -0.00035956554 0.0001737972
0.00018372764 -0.00030384684 -0.000208229 0.000111377325 0.00018697014 0.00010216339 0.00010298597 1.2843357e-06
0.00010258196 0.00017459953 -0.00064925285 0.00018487875 -0.00013385907 0.00018903415 0.00015051053 0.00018752085
-0.00016898286 0.00018315318 -0.00074313994 -0.00010098027 0.00017335362 0.00012587811 0.00016020976 5.4464464e-05
0.00018687082 0.00014762211 -2.3415787e-05 -4.2493957e-05 0.00015468342 -4.4947763e-05 -0.00020817174 -0.00041865307
0.00018881986 0.00016947278 -0.00016585375 0.00014339265 1.8625324e-06 0.00018614139 8.040117e-05 0.00018767772
-7.124977e-05 0.00016860136 0.0001884076 -0.00084804534 -0.00020918559 -0.0002538994 -1.9736068e-05 9.2446026e-05
0.00017820881 0.00011969418 0.00018656164 -1.9734238e-05 2.0241994e-05 0.00018637718 0.00011854699 -1.9966306e-05
0.00018744853 0.00013958792 -0.00030473934 5.460177e-05 -0.0004213996 6.787822e-05 0.00016698193 0.00016768315
0.00017143184 0.0001001969 0.00017917342 0.00013583136 0.0001901773 0.00018565172 0.00018286298 0.00018336532
0.00017332583 -0.00035745872 0.0001562947 0.00013208759 0.0001372079 -0.00016852975 3.0712792e-05 2.5959585e-05
6.3761418e-06 2.5482937e-05 -0.00014640526 -0.00050840806 0.00036018592 0.000115433926 -0.0003301035 -0.00034035326
0.00035796486 -0.00047308765 -0.00012946784 -0.0003023546 -0.0005072192 0.00012652209 0.00039888767 -0.0006675563
-0.00016017976 -0.00037352962 -0.0004759698 0.0006572773 0.00038860028 -0.00055916014 -0.00015011636 -0.00022990027
0.0010206739 0.00056541595 -0.001290032 0.0012592279 -0.0028659296 0.0018355821 -0.00013755226 -0.00090228487
0.00026613992 0.001008069 0.0003712019 -0.0005628545 -0.00096490385 -0.00022072464 -0.00042072637 -7.063519e-05
0.00018141318 5.415114e-05 0.00018342814 0.0001511094 -4.40695e-05 -0.0008469246 0.00018830702 -0.00084823393

exp_avg_sq f4 [100, 41]
00000000: d5c8 0836 0562 a233 5992 aa33 55f4 7a34
00000010: 26f4 0235 96ca 5335 682d b835 3427 1336
00000020: 102e 4736 3135 7b36 bc27 9b36 d754 a436
00000030: 7d58 ba36 07eb bb36 66e4 de36 69a3 f336
00000040: 6207 0337 bf37 0437 0eae 0737 fcf3 1237
00000050: 391b 1737 1097 1637 f6e7 1137 0bae 2537
00000060: 6c77 1e37 763e 2937 c985 2837 fad9 2937
00000070: c8f2 2837 03f1 2d37 faac 3137 0dbc 3537
00000080: c104 2f37 59a5 3737 116d 3137 3c0c 4637
00000090: aa85 4237 6212 4237 1fc3 5437 6fb1 6f37
000000a0: f76f c737 81e9 0936 80c7 0136 91b9 0236
000000b0: c0da 0036 87c1 0536 f379 0236 3e6c 0236
000000c0: 6b91 fa35 afc0 f335 ccb3 f535 45c9 f635
000000d0: fc41 ed35 2345 e835 bf83 f235 574b ef35
000000e0: c6df f035 af24 0136 9f30 0036 8c31 0336
000000f0: bd5a 0636 2862 0536 d26f 0836 9469 0436
00000100: 8298 0736 e72d 0536 ac7a 0a36 ccdc 0736
00000110: dd66 0536 efba 0436 a0ec 0836 5b9e 0536
00000120: 3e3f 0a36 6ba8 0536 5ca7 0936 0630 0b36
00000130: 48f8 0436 78d9 0436 65f8 0936 db94 0b36
00000140: b0b1 0936 e630 1336 46c3 0536 b257 0536
00000150: 68be 0136 d9de 0636 f2a1 0736 49c1 0736
00000160: 0cbb 0436 38de 0536 93c2 0136 0c94 fe35
00000170: 1906 f935 d199 f635 29a6 f635 4a4b ef35
00000180: 46e8 f435 0d14 f635 7f36 f535 00a9 fc35
00000190: 8c17 fc35 b309 fa35 fa86 f835 884d fe35
000001a0: 0ac8 0536 6786 0436 217b 0236 6682 0736
000001b0: 8c3a 0736 1655 0736 4ae7 0636 66c3 0936
000001c0: 34e0 0836 a8ad 0536 8d63 0836 035a 0a36
000001d0: 78c2 0636 7078 0836 d6ab 0436 12cd 0636
000001e0: 3375 0736 2b8b 0b36 6116 1636 1945 0936
000001f0: 3bf8 0936 bce2 0636 5220 0936 f2ea 0436
00000200: d427 0436 94e2 0836 5f92 0836 5ca2 0636
00000210: 26a4 0336 0bb0 0636 deaf 0636 e9a1 0736
00000220: 46a8 0636 a9b5 0436 be7d 0936 bec2 0336
00000230: 6e2f 0836 1fe6 0236 6ecb 0536 997b 0336
00000240: 914c 0836 131d 0436 d082 0936 6f29 0836
00000250: 7ace 0436 4a1a 0636 c15f 0536 b51c 0736
00000260: b10a 0336 5fef 0536 59c9 0736 2ec5 0736
00000270: 9c99 0536 49fc 0736 9aa3 0836 778f 0936
00000280: e669 0436 6d83 0636 68d0 0a36 2be2 0b36
00000290: 51e4 0736 b1d8 0336 fd15 0736 be97 0336
000002a0: 7838 0836 a037 0536 af6d 0336 66ea 0936
000002b0: 3ca3 0836 d0b2 0836 a2cb 0736 3adc 0636
000002c0: 43a1 0436 cc81 0636 31b4 0336 26ce 0736
000002d0: 447a 0736 349d 0336 996d 0636 54c6 0736
000002e0: 2b8c 0336 2400 0636 29d0 0836 9231 0736
000002f0: 65ef 0836 a70d 0736 e0f6 0436 6c1a 0536
00000300: 8600 0536 7387 0636 8a92 0436 f5ff 0536
00000310: 2647 0336 f3bf 0336 f01b 0436 e749 0436
00000320: 636b 0536 5eee 0936 9d07 0736 7497 0836
00000330: 5f00 0c36 1ea3 0836 7e5b e033 be3d e733
00000340: 179f d934 b9ea 4635 d648 9835 7235 0036
00000350: b5ec 4536 8d48 8036 75ee 9e36 7e2f c236
00000360: efd4 ce36 f039 e636 1fb4 e936 8260 0937
00000370: 5a4b 1837 ebf2 2537 cf9e 2537 41ab 2a37
00000380: 9bc1 3537 2158 3a37 86e8 3b37 b42d 3537
00000390: 1cf0 4e37 939c 4537 4792 5137 83ea 4437
000003a0: a513 4237 f917 4337 e5e0 4937 01a1 4a37
000003b0: 424a 4b37 cd4c 4237 aaf4 4c37 d137 4837
000003c0: 19f2 5c37 b27a 5837 347e 5337 85bb 6737
000003d0: 6072 8737 fc04 d337 f967 0936 9530 0736
000003e0: 46ba 0236 cc80 0536 fea2 0136 acec 0136
000003f0: 8a87 0536 ed9a 0536 a6cb fe35 e25a 0136
2.0382479e-06 7.5615425e-08 7.9428624e-08 2.3371952e-07 4.8784057e-07 7.8898427e-07 1.3722283e-06 2.1927526e-06
2.9680123e-06 3.7432876e-06 4.6239857e-06 4.8974575e-06 5.5535334e-06 5.600395e-06 6.6427046e-06 7.260988e-06
7.809927e-06 7.8807925e-06 8.087152e-06 8.759085e-06 9.00664e-06 8.975869e-06 8.696681e-06 9.875289e-06
9.445339e-06 1.0087728e-05 1.004473e-05 1.0123937e-05 1.0070107e-05 1.03677185e-05 1.0590296e-05 1.0832225e-05
1.043192e-05 1.0946148e-05 1.0575416e-05 1.1804568e-05 1.1594422e-05 1.1567581e-05 1.2681615e-05 1.4286822e-05
2.3774786e-05 2.0550508e-06 1.9338622e-06 1.9479523e-06 1.9200816e-06 1.9931192e-06 1.9442493e-06 1.9434515e-06
1.8668774e-06 1.8160989e-06 1.830625e-06 1.8387005e-06 1.767708e-06 1.7305468e-06 1.8068748e-06 1.7828814e-06
1.794652e-06 1.924385e-06 1.9101788e-06 1.9549361e-06 2.0020373e-06 1.9875679e-06 2.0330667e-06 1.9730987e-06
2.0205339e-06 1.9845263e-06 2.0635007e-06 2.0245088e-06 1.9878419e-06 1.9778342e-06 2.0403313e-06 1.991072e-06
2.0600414e-06 1.9916577e-06 2.0512007e-06 2.0740567e-06 1.9814051e-06 1.9796116e-06 2.0559175e-06 2.079926e-06
2.0518019e-06 2.193317e-06 1.9932208e-06 1.986959e-06 1.933333e-06 2.009727e-06 2.0210832e-06 2.0229074e-06
1.9778408e-06 1.9947893e-06 1.9335755e-06 1.8967562e-06 1.855372e-06 1.8373195e-06 1.8376787e-06 1.78288e-06
1.8247017e-06 1.8334264e-06 1.8269783e-06 1.8824649e-06 1.8782316e-06 1.8629274e-06 1.8516723e-06 1.8947039e-06
1.9934982e-06 1.9747765e-06 1.944318e-06 2.019247e-06 2.0150646e-06 2.0166094e-06 2.0102184e-06 2.0528328e-06
2.0396083e-06 1.9919626e-06 2.0323525e-06 2.0615996e-06 2.0080752e-06 2.0335683e-06 1.9769554e-06 2.0086923e-06
2.0184787e-06 2.079362e-06 2.2364768e-06 2.045481e-06 2.055908e-06 2.0099533e-06 2.0433404e-06 1.980629e-06
1.9692716e-06 2.0397465e-06 2.0350778e-06 2.0062062e-06 1.9616068e-06 2.0070026e-06 2.0069924e-06 2.0210812e-06
2.0065504e-06 1.9775273e-06 2.0487782e-06 1.9633876e-06 2.0293187e-06 1.9505458e-06 1.9936956e-06 1.9592464e-06
2.0310147e-06 1.9686456e-06 2.0490734e-06 2.0289697e-06 1.9789718e-06 1.9982858e-06 1.987428e-06 2.0133277e-06
1.9526744e-06 1.9957877e-06 2.0233767e-06 2.0231341e-06 1.9907957e-06 2.0263417e-06 2.0360808e-06 2.0498098e-06
1.9731174e-06 2.0044056e-06 2.068491e-06 2.0844261e-06 2.0249465e-06 1.9646652e-06 2.0129366e-06 1.9608847e-06
2.0298448e-06 1.9850922e-06 1.9584365e-06 2.0551029e-06 2.0360594e-06 2.0369662e-06 2.0235098e-06 2.0095745e-06
1.97634e-06 2.0043108e-06 1.9625406e-06 2.0236562e-06 2.0187736e-06 1.9612025e-06 2.003135e-06 2.023201e-06
1.960211e-06 1.9967638e-06 2.0386744e-06 2.0145421e-06 2.0404925e-06 2.0124514e-06 1.9813233e-06 1.9833924e-06
1.981885e-06 2.0046398e-06 1.975483e-06 1.996753e-06 1.9561935e-06 1.963225e-06 1.9685795e-06 1.971255e-06
1.9881052e-06 2.0553339e-06 2.0121e-06 2.0353737e-06 2.0861842e-06 2.0360526e-06 1.0447455e-07 1.07680066e-07
4.0535153e-07 7.4102314e-07 1.134608e-06 1.9104596e-06 2.949307e-06 3.8231433e-06 4.736527e-06 5.7871794e-06
6.164067e-06 6.861279e-06 6.96491e-06 8.188306e-06 9.07745e-06 9.891325e-06 9.871742e-06 1.0172663e-05
1.0833518e-05 1.1106983e-05 1.1200207e-05 1.0799082e-05 1.2334462e-05 1.177857e-05 1.2491429e-05 1.1737112e-05
1.1567875e-05 1.1628487e-05 1.2032896e-05 1.2077625e-05 1.2117032e-05 1.1581183e-05 1.2216313e-05 1.1933925e-05
1.316939e-05 1.29031705e-05 1.2605964e-05 1.3812333e-05 1.6146514e-05 2.5155481e-05 2.047511e-06 2.0144846e-06
1.9479935e-06 1.9893514e-06 1.9317372e-06 1.936026e-06 1.9897439e-06 1.9908723e-06 1.8983744e-06 1.9275399e-06
