test/test_results/triplets/results/model/model_epoch0210.tar (torch, 64916 bytes, 3 tensors)

fc.weight f4 [100, 41]
0.0014802994 2.3082871 2.292579 2.0648777 1.911757 1.8326061 1.738056 1.6498663
1.5990876 1.5615284 1.4348657 1.3775661 1.281981 1.24308 1.1746013 1.1018354
1.0668294 1.0092511 0.9597635 0.9870257 0.9520174 0.9275079 0.96589017 0.9692022
0.9376792 0.9644954 0.93402886 0.97014266 0.91775703 0.8695429 0.90327644 0.7603747
0.72996396 0.6281559 0.5627476 0.40640706 0.46093705 0.15236548 0.077179804 0.014836888
0.00031710725 0.0006515746 0.80081546 0.69181204 0.8895642 0.9490999 0.9570276 0.933498
0.92522824 0.85897094 0.83016026 0.80428904 0.7614843 0.74582636 0.66557056 0.6190136
0.5866349 0.4882816 0.42001936 0.32528514 0.23800224 0.18255876 0.0878994 0.0027324
0.0032491598 0.0055421377 0.00032926744 0.0066926116 0.0026083398 0.005023748 0.0036206923 0.0015845479
0.00031918538 0.0026426327 0.0012325736 0.0015177637 0.0007112977 0.0019153433 0.0051609743 0.0010880049
0.16260117 7.214846e-05 0.0032276034 0.0018225573 0.009171139 0.26880023 0.4997695 0.77354264
0.8284613 0.8810914 0.8612245 0.8973859 0.84795725 0.7770573 0.7773886 0.7062586
0.6708985 0.6316034 0.6322001 0.5941597 0.5345006 0.5495897 0.49263054 0.46944156
0.36147815 0.3365568 0.29723933 0.2636347 0.21548778 0.10338891 0.07504626 0.0011740453
0.0060925903 0.00028756532 0.0069438457 0.0014698495 0.00062093 0.0040136017 0.0045507867 0.0050347424
0.0038720681 0.018137174 0.001179459 6.4413034e-06 -5.07823e-05 0.0033739787 0.0027540126 0.0017233717
0.0008004086 0.0035900965 0.0037576118 0.0026875467 -4.168786e-05 0.0027511008 0.0025866083 0.0031539819
0.0026454641 0.00041116096 0.0035865316 0.0019052799 0.0034590745 0.0033528786 0.0014349632 0.0029403036
0.0032599852 0.001426865 0.003681074 0.003291378 -6.985424e-05 0.0012794521 0.0002981639 0.002583896
0.0036897182 0.0015967388 0.0028714756 0.0029807244 0.0014145906 0.0036078033 0.0019071202 0.0019301153
0.0022122655 0.0036361834 0.0011671032 0.0014402847 0.0033500097 0.0008404163 0.0035505218 0.00030924805
0.003743972 0.0018295245 0.0005608936 0.002486575 0.0036773472 0.0037100443 0.003396337 0.0029873282
0.0004241105 0.0023305668 0.0010123784 0.0032874718 0.0031499874 0.0022892302 0.0023308548 0.0031524687
0.0025390396 0.0015150753 0.0035935517 0.0027984949 0.003600723 0.002321138 0.00014699715 0.0005436624
0.00044302698 0.0015425326 -4.122965e-06 0.0013530733 0.0034852126 0.0018850446 0.00040482916 0.002190371
0.0036317927 0.0037248614 0.003005139 0.003237268 0.001654707 0.0018688564 2.7914667 2.705908
2.2202067 2.0502923 1.9305116 1.8119432 1.6929615 1.5787843 1.5637983 1.472453
1.4313637 1.3414702 1.2993238 1.2521214 1.1793331 1.1683638 1.1076845 1.0932254
1.0804117 1.0589834 0.98963624 1.0531076 1.0188026 0.9442547 0.9125595 0.84409964
0.9317798 0.86357856 0.8567566 0.85248697 0.7459899 0.76438195 0.64629066 0.53003496
0.41613442 0.44434783 0.19246598 0.11697678 0.023816623 0.00081897416 0.0001446919 0.005847039
0.0029480082 0.000656162 0.012272971 0.34074444 0.581102 0.7153937 0.7338067 0.8469901
00000000: 9b06 c23a faba 1340 9db9 1240 f526 0440
00000010: 74b4 f43f d692 ea3f 9e78 de3f d22e d33f
00000020: e7ae cc3f 2ae0 c73f aea9 b73f 1654 b03f
00000030: f417 a43f 3f1d 9f3f 5659 963f f108 8d3f
00000040: de8d 883f 242f 813f 10b3 753f b7ad 7c3f
00000050: 6ab7 733f 2871 6d3f 9444 773f a31d 783f
00000060: be0b 703f 2ce9 763f 841c 6f3f 455b 783f
00000070: 20f2 6a3f 5d9a 5e3f 203d 673f eba7 423f
00000080: ebde 3a3f d3ce 203f 3a10 103f 9614 d03e
00000090: f1ff eb3e b205 1c3e 7210 9e3d 6b16 733c
000000a0: 6a41 a639 6ece 2a3a 3e02 4d3f 981a 313f
000000b0: 7bba 633f 36f8 723f c3ff 743f baf9 6e3f
000000c0: c2db 6c3f 85e5 5b3f 6285 543f e3e5 4d3f
000000d0: a3f0 423f 7aee 3e3f d562 2a3f ad77 1e3f
000000e0: b42d 163f 0c00 fa3e c70c d73e c68b a63e
000000f0: dcb6 733e aff0 3a3e 9a04 b43d 1112 333b
00000100: dbef 543b d29a b53b 87a1 ac39 b24d db3b
00000110: aef0 2a3b 419e a43b 2349 6d3b 9bb0 cf3a
00000120: 5658 a739 0530 2d3b 4f8e a13a b3ef c63a
00000130: 6176 3a3a 420c fb3a 641d a93b 639b 8e3a
00000140: ec80 263e 694e 9738 3386 533b e0e2 ee3a
00000150: 8c42 163c 2fa0 893e cae1 ff3e e406 463f
00000160: 0a16 543f 358f 613f 3579 5c3f 15bb 653f
00000170: ba13 593f 3aed 463f f002 473f 5dcd 343f
00000180: 01c0 2b3f c3b0 213f ded7 213f da1a 183f
00000190: 08d5 083f e9b1 0c3f 123a fc3e a55a f03e
000001a0: aa13 b93e 2c51 ac3e c12f 983e 21fb 863e
000001b0: d4a8 5c3e 91bd d33d dbb1 993d 6ce2 993a
000001c0: 5aa4 c73b 5dc4 9639 3389 e33b f7a7 c03a
000001d0: e8c5 223a 8884 833b c41e 953b 7bfa a43b
000001e0: 86c2 7d3b 6994 943c 1498 9a3a 6022 d836
000001f0: 14ff 54b8 f81d 5d3b aa7c 343b c2e2 e13a
00000200: 83d2 513a d347 6b3b 4442 763b 8d21 303b
00000210: 00da 2eb8 d04b 343b 1684 293b 09b3 4e3b
00000220: 865f 2d3b 1791 d739 040c 6b3b 96ba f93a
00000230: a4b1 623b f8bb 5b3b 6015 bc3a 1cb2 403b
00000240: 7aa5 553b a505 bb3a 2c3e 713b 29b4 573b
00000250: b67e 92b8 4ab3 a73a e252 9c39 9556 293b
00000260: 33cf 713b aa49 d13a 5e2f 3c3b 4258 433b
00000270: c969 b93a e570 6c3b 56f8 f93a ecfb fc3a
00000280: a8fb 103b 094d 6e3b 7cf9 983a efc7 bc3a
00000290: d68b 5b3b 624f 5c3a dfaf 683b 9222 a239
000002a0: 6d5d 753b a8cc ef3a ef08 133a cef5 223b
000002b0: a6ff 703b 3724 733b 1495 5e3b 0dc7 433b
000002c0: 265b de39 6cbc 183b c8b1 843a a072 573b
000002d0: 0570 4e3b e906 163b 41c1 183b a699 4e3b
000002e0: 0466 263b 7e95 c63a cb81 6b3b f466 373b
000002f0: 1cfa 6b3b 3c1e 183b 3f23 1a39 9184 0e3a
00000300: 1346 e839 ce2e ca3a 0058 8ab6 9b59 b13a
00000310: 2a68 643b 9a13 f73a 403f d439 548c 0f3b
00000320: 5f03 6e3b ce1c 743b def1 443b 5828 543b
00000330: c1e2 d83a 6af4 f43a 64a7 3240 992d 2d40
00000340: de17 0e40 fd37 0340 011b f73f c1ed e73f
00000350: f6b2 d83f 9b15 ca3f 8b2a c83f 5779 bc3f
00000360: ed36 b73f 4cb5 ab3f 3e50 a63f 8445 a03f
00000370: 63f4 963f f28c 953f 9bc8 8d3f cfee 8b3f
00000380: ee4a 8a3f c58c 873f cd58 7d3f 3bcc 863f
00000390: 2068 823f adba 713f 809d 693f ea16 583f
000003a0: 1f89 6e3f 7c13 5d3f 6754 5b3f 963c 5a3f
000003b0: 32f9 3e3f 89ae 433f 4e73 253f 5fb0 073f
000003c0: 920f d53e 8f81 e33e cd15 453e 8691 ef3d
000003d0: 141b c33c 6db0 563a 70b8 1739 8598 bf3b
000003e0: 5f33 413b 4902 2c3a 9214 493c 0e76 ae3e
000003f0: 1ac3 143f 0b24 373f c2da 3b3f 58d4 583f

exp_avg f4 [100, 41]
-0.0006496618 -6.595175e-05 -5.4558317e-05 0.00013459165 -1.9410487e-05 -0.00044294345 -5.474937e-05 -0.00047569745
0.0010917395 -0.0005292084 -5.53929e-05 -0.0002123327 -0.0010110791 0.00029860265 -0.0012403658 0.001074124
0.00058140204 -0.00056990795 -0.00024086148 0.00044408496 -0.00015114286 -0.0013115801 -5.7869584e-05 0.0009672947
-0.0009654649 -0.0007825644 0.00067569915 0.0003761142 -0.00088334706 -0.00025364026 2.0154155e-05 4.0144398e-05
0.00036530363 -0.0007812347 0.0010997024 -0.0007438599 0.0010315882 -0.0008282728 0.00070897007 -0.0013852945
0.00035245027 0.00018774562 4.6546673e-05 4.1009105e-05 0.000121420344 4.7265676e-05 -0.00010028007 7.019591e-05
-2.9906367e-05 0.0005716495 -0.00016138796 5.982982e-05 -3.418242e-05 -0.0003585327 0.00021464135 -0.00064575084
0.00070437824 0.00041823968 -0.000119339944 6.0312224e-05 0.00034146395 9.3168135e-05 -0.00033375327 8.576232e-05
0.0005364022 -6.891993e-05 -0.00016390784 0.0003700824 0.00028865517 -0.00015969838 -0.00014839496 0.0005002196
0.00020729817 0.00022766576 -5.9381615e-05 0.0005242221 -0.0002171888 0.0005688654 -0.00015423367 -0.00025064233
-0.0003492689 0.0002772629 0.00012024917 6.577629e-05 -4.6748555e-06 9.842009e-05 9.757659e-05 3.964868e-05
6.843602e-05 0.00011952307 0.000342338 -4.6165515e-05 8.8700144e-05 -4.007714e-05 -0.00021539899 0.00018432
-0.000771687 0.0007895398 0.00031348492 -8.4204934e-05 6.390063e-05 0.00022062362 6.824223e-05 -0.00020687463
0.00013173441 0.00017773811 -5.5324952e-05 -0.00020847746 0.0005436291 0.00040359425 -0.00035579383 5.224436e-06
0.0003101789 0.00018739756 5.7530553e-05 -0.00065680256 0.0004466024 -0.0007079501 0.0005434959 8.351497e-06
0.00021678762 -0.00066158175 -0.0003482398 0.00019028435 0.0001909793 0.000101504396 -0.00035856297 0.00017701017
0.0001859701 -0.00013157757 -4.435792e-05 0.00015204315 0.00019080228 0.00015133878 0.00015404707 0.00012742968
0.0001548576 0.00018720445 -9.8187666e-05 -0.0005645013 7.9273945e-05 -0.00020824894 0.00018102444 -0.00030482095
0.000109651424 -0.0006489727 -4.4320368e-05 0.000118934804 0.0001879219 0.00018426741 0.00018983637 0.00015606818
-6.97879e-05 0.00018021253 0.00013968916 0.0001402593 0.00017887309 5.658107e-05 -0.00056614523 0.00017521142
-0.0004899101 -3.989642e-05 0.00018428644 0.00018747257 -0.00020893614 0.00018590494 5.3658667e-05 0.00018935294
-1.9544914e-05 0.0001745076 -0.00084816077 -0.00042200115 -4.1195148e-05 -4.3685955e-05 9.246861e-05 0.00013961621
0.00018755285 0.00016318972 -0.0007463681 0.00012158559 0.00012146786 -0.0004918521 0.00016162681 0.0001289764
-0.0004217694 0.00017741832 3.719813e-05 0.00014552582 7.8264566e-05 0.00016290855 0.00019021273 0.00018771537
0.00018619049 0.00017993248 0.0001882228 0.00018137907 -0.00013221067 -0.0005673683 0.00019187835 0.00016676163
-3.948211e-05 -1.9765055e-05 -0.00029977388 -0.00020932837 0.0001824972 -0.00056518347 -9.9618e-05 -8.9752706e-05
0.00012131168 -4.4167275e-05 -0.0005281698 -4.8762176e-05 -0.0005914476 0.0012108897 -0.00059068005 -3.875197e-05
-0.00028215747 -0.0011289215 0.0003143826 -0.0012121263 0.0010719757 0.00058043 -0.0006177011 -0.0003164361
0.00051121344 -0.0001704974 -0.0014929579 -6.453412e-05 0.0010935403 -0.0011036359 -0.0008294969 0.0006545446
0.00043948763 -0.00084990705 -0.00025403476 0.00013796712 -1.7186685e-06 0.00031417303 -0.0007582877 0.0011525776
-0.0007241003 0.0011131004 -0.00092768564 0.00082105794 -0.0014770648 0.00034988436 0.00018974685 6.469515e-05
5.91908e-05 0.00012759565 -0.00016815556 0.0001032159 0.0001313218 0.00012829386 0.00023655576 -1.6983215e-05
00000000: 114e 2aba 934f 8ab8 8cd5 64b8 2c21 0d39
00000010: b4d3 a2b7 dd3a e8b9 b0a2 65b8 0867 f9b9
00000020: b318 8f3a 93ba 0aba ac55 68b8 a0a5 5eb9
00000030: 2f86 84ba c58d 9c39 c593 a2ba 9fc9 8c3a
00000040: 3b69 183a e065 15ba c38f 7cb9 13d4 e839
00000050: 1a7c 1eb9 53e9 abba feb8 72b8 0c92 7d3a
00000060: 4117 7dba 0225 4dba 6721 313a 3231 c539
00000070: 6b90 67ba 05fb 84b9 b810 a937 b860 2838
00000080: 3986 bf39 c6cb 4cba e423 903a 98ff 42ba
00000090: 5b36 873a 7220 59ba 2dda 393a c592 b5ba
000000a0: 13c9 b839 95dd 4439 1c3b 4338 3101 2c38
000000b0: 0da3 fe38 223f 4638 744d d2b8 2436 9338
000000c0: 6fdf fab7 c0da 153a 403a 29b9 c8f1 7a38
000000d0: 185f 0fb8 72f9 bbb9 5911 6139 9b47 29ba
000000e0: 06a6 383a 2e47 db39 2546 fab8 c2f7 7c38
000000f0: 8406 b339 4363 c338 9bfb aeb9 4cdb b338
00000100: 589d 0c3a 1b89 90b8 adde 2bb9 9e07 c239
00000110: a456 9739 b574 27b9 789a 1bb9 2b21 033a
00000120: 2e5e 5939 90b9 6e39 8610 79b8 f36b 093a
00000130: 2dbd 63b9 e91f 153a c9b9 21b9 a568 83b9
00000140: 141e b7b9 995d 9139 482e fc38 60f1 8938
00000150: b4dc 9cb6 e266 ce38 08a2 cc38 724c 2638
00000160: 4f85 8f38 76a8 fa38 d47b b339 d8a1 41b8
00000170: 8704 ba38 8018 28b8 badc 61b9 0646 4139
00000180: 0a4b 4aba 1ef9 4e3a 3c5b a439 2e97 b0b8
00000190: 6402 8638 3457 6739 451d 8f38 7cec 58b9
000001a0: 3022 0a39 365f 3a39 b70c 68b8 be9a 5ab9
000001b0: 5582 0e3a 8199 d339 d789 bab9 904d af36
000001c0: 829f a239 2680 4439 f64c 7138 462d 2cba
000001d0: f625 ea39 ba95 39ba 6479 0e3a 681d 0c37
000001e0: 7c51 6339 006e 2dba f493 b6b9 1187 4739
000001f0: 9e41 4839 c2de d438 82fd bbb9 ce9b 3939
00000200: f800 4339 16f8 09b9 f40c 3ab8 c66d 1f39
00000210: 1912 4839 b2b0 1e39 b287 2139 a59e 0539
00000220: 4561 2239 504c 4439 1aea cdb8 0afb 13ba
00000230: e03f a638 665d 5ab9 61d1 3d39 60d0 9fb9
00000240: a9f4 e538 d21f 2aba a2e4 39b8 a36c f938
00000250: e70c 4539 e837 4139 d00e 4739 3ca6 2339
00000260: 185b 92b8 6ff7 3c39 8679 1239 9212 1339
00000270: e18f 3b39 7651 6d38 5d69 14ba f5b8 3739
00000280: 4f6d 00ba 7456 27b8 043d 4139 4994 4439
00000290: de15 5bb9 7aef 4239 8e0f 6138 0b8d 4639
000002a0: 62f4 a3b7 07fc 3639 1b57 5eba 0940 ddb9
000002b0: f4c8 2cb8 703b 37b8 b5eb c138 f165 1239
000002c0: d6a9 4439 e81d 2b39 eaa7 43ba c4fb fe38
000002d0: 90bc fe38 a3ef 00ba 5e7a 2939 d73d 0739
000002e0: ee20 ddb9 5e09 3a39 3005 1c38 4a98 1839
000002f0: f821 a438 6ed2 2a39 d773 4739 76d5 4439
00000300: 213c 4339 42ac 3c39 ac5d 4539 9330 3e39
00000310: 08a2 0ab9 71bb 14ba f432 4939 bcdc 2e39
00000320: 9899 25b8 22cd a5b7 f82a 9db9 287f 5bb9
00000330: b85c 3f39 d228 14ba 02ea d0b8 9e39 bcb8
00000340: b668 fe38 4040 39b8 e074 0aba fd85 4cb8
00000350: 600b 1bba b7b6 9e3a ded7 1aba 9c89 22b8
00000360: 89ee 93b9 52f8 93ba b8d3 a439 36e0 9eba
00000370: 8981 8c3a ff27 183a 38ed 21ba 56e7 a5b9
00000380: f402 063a 8cc7 32b9 5baf c3ba 7e56 87b8
00000390: 2055 8f3a e0a7 90ba 9872 59ba bf95 2b3a
000003a0: 086b e639 4ccc 5eba f82f 85b9 44ab 1039
000003b0: 00ad e6b5 97b7 a439 d3c7 46ba 1612 973a
000003c0: 8cd1 3dba 74e5 913a ee2f 73ba 443c 573a
000003d0: 129a c1ba af70 b739 c8f6 4639 f2ac 8738
000003e0: a343 7838 32cb 0539 ea52 30b9 9d75 d838
000003f0: 6db3 0939 9f86 0639 f40b 7839 2d77 8eb7

exp_avg_sq f4 [100, 41]
2.0527946e-06 9.3958704e-08 1.0819622e-07 3.2749438e-07 6.97499e-07 1.3371337e-06 2.145905e-06 3.0932372e-06
3.4017617e-06 3.6212912e-06 3.794872e-06 3.94656e-06 4.765363e-06 5.102584e-06 5.5276237e-06 6.3652697e-06
5.9506265e-06 6.1706032e-06 6.9326707e-06 7.3860524e-06 7.0344418e-06 7.5738744e-06 7.637694e-06 7.5440453e-06
8.394102e-06 8.637692e-06 7.977385e-06 8.020596e-06 8.871133e-06 8.170707e-06 8.264616e-06 8.455332e-06
8.760255e-06 9.219631e-06 9.420278e-06 9.903704e-06 9.777211e-06 1.004823e-05 1.0348286e-05 1.2412619e-05
2.448391e-05 1.9652527e-06 3.7461174e-08 4.0625935e-08 8.39707e-08 1.6754751e-07 3.3754998e-07 5.6891867e-07
8.459069e-07 9.4431067e-07 9.992548e-07 1.107623e-06 1.1855702e-06 1.4649808e-06 1.5860542e-06 1.7042328e-06
1.956855e-06 1.8952375e-06 1.9038002e-06 2.0994128e-06 2.2021227e-06 2.0729933e-06 2.15768e-06 2.3221623e-06
2.8678626e-06 3.5130165e-06 3.7904779e-06 3.717429e-06 3.958583e-06 4.0513896e-06 3.7962755e-06 4.066975e-06
3.874241e-06 3.9108972e-06 3.594905e-06 3.8069772e-06 3.5065023e-06 3.5478047e-06 3.600995e-06 3.3495937e-06
2.4429967e-06 1.0307153e-05 2.0076516e-06 3.461929e-07 5.042154e-07 3.570305e-08 6.217708e-08 1.3703131e-07
2.7669577e-07 4.6708237e-07 5.616974e-07 6.446451e-07 8.3209545e-07 8.992607e-07 1.1961382e-06 1.2630575e-06
1.4016501e-06 1.574509e-06 1.578169e-06 1.568556e-06 1.7409021e-06 1.9227086e-06 1.8769917e-06 2.0261175e-06
2.1089372e-06 1.9423687e-06 2.0441107e-06 2.150684e-06 2.1511476e-06 2.1714884e-06 2.1898054e-06 2.302582e-06
2.090325e-06 2.7832411e-06 3.5000007e-06 3.4280183e-06 2.9206772e-06 2.9011421e-06 3.0466106e-06 2.9547152e-06
2.50264e-06 2.7667747e-06 1.077962e-05 1.9562208e-06 1.9516638e-06 2.0075076e-06 2.0390694e-06 1.9749132e-06
1.9611325e-06 2.0297598e-06 2.0226207e-06 1.988854e-06 1.9463987e-06 1.9895526e-06 1.9880088e-06 1.997358e-06
1.9901572e-06 1.9544118e-06 2.0251691e-06 2.0443786e-06 2.0083537e-06 2.0331283e-06 1.9676506e-06 2.0353912e-06
2.000799e-06 2.0468333e-06 2.0226626e-06 2.0016955e-06 1.94709e-06 1.9653864e-06 1.9519284e-06 1.988174e-06
2.023945e-06 1.9714041e-06 1.99534e-06 1.9942179e-06 1.9712713e-06 2.0148502e-06 2.052023e-06 1.990938e-06
2.063632e-06 2.0558189e-06 2.016668e-06 2.0886343e-06 2.0394987e-06 1.9635268e-06 2.0139826e-06 1.954706e-06
2.0222787e-06 1.9763982e-06 2.0499494e-06 2.0382074e-06 2.021425e-06 2.0210723e-06 2.0047717e-06 1.9952106e-06
1.9546544e-06 1.9830727e-06 2.047123e-06 2.0011967e-06 1.9995778e-06 2.042915e-06 1.984002e-06 1.997116e-06
2.0400453e-06 1.9700947e-06 2.013142e-06 1.9904348e-06 2.0071607e-06 1.9820468e-06 1.948769e-06 1.9556796e-06
1.9523848e-06 1.970832e-06 1.9472243e-06 1.9679057e-06 2.027489e-06 2.0439293e-06 1.9593476e-06 1.9901254e-06
2.0330817e-06 2.0433968e-06 2.0702985e-06 2.0802415e-06 2.0930095e-06 2.050757e-06 1.1478652e-07 1.322794e-07
4.4384566e-07 9.168795e-07 1.7029633e-06 2.6735277e-06 3.7883156e-06 4.1048997e-06 4.3251484e-06 4.4006383e-06
4.5917222e-06 5.4507354e-06 5.8631504e-06 6.3268653e-06 7.313388e-06 6.8843087e-06 7.205552e-06 8.124523e-06
8.651429e-06 8.186911e-06 8.903362e-06 8.93087e-06 8.957039e-06 9.957148e-06 1.0131948e-05 9.025109e-06
8.927297e-06 9.890826e-06 9.060072e-06 9.055128e-06 9.196064e-06 9.468768e-06 1.011992e-05 1.0415537e-05
1.0866728e-05 1.05909985e-05 1.0832542e-05 1.1303558e-05 1.3803797e-05 2.5336867e-05 1.9581917e-06 9.4757314e-07
9.285822e-07 5.838481e-07 2.3851462e-07 7.678155e-08 1.3486276e-07 2.3713845e-07 3.2517045e-07 3.973105e-07
00000000: bec2 0936 58c6 c933 8059 e833 7cd2 af34
00000010: c43b 3b35 9077 b335 5e02 1036 6995 4f36
00000020: d249 6436 4f05 7336 68ab 7e36 b16c 8436
00000030: 28e6 9f36 dd36 ab36 ed79 b936 4095 d536
00000040: 7eab c736 140d cf36 309f e836 b5d5 f736
00000050: 6509 ec36 1623 fe36 a523 0037 db22 fd36
00000060: 65d4 0c37 9bea 1037 9cd6 0537 3390 0637
00000070: 3ad5 1437 eb14 0937 41a8 0a37 60db 0d37
00000080: 02f9 1237 03ae 1a37 c90b 1e37 1628 2637
00000090: cd08 2437 d294 2837 8d9d 2d37 cb3f 5037
000000a0: cc62 cd37 c9e2 0336 ffe4 2033 b07c 2e33
000000b0: 6153 b433 1ce7 3334 8438 b534 cbb7 1835
000000c0: 4812 6335 897c 7d35 221e 8635 a3a9 9435
000000d0: e21f 9f35 5ba0 c435 68e0 d435 febc e435
000000e0: 8352 0336 dd5f fe35 1486 ff35 a3e3 0c36
000000f0: 2ec8 1336 c11d 0b36 a9cc 1036 72d6 1b36
00000100: 8175 4036 2ac1 6b36 ea5f 7e36 f278 7936
00000110: f8d3 8436 2cf1 8736 84c3 7e36 0d77 8836
00000120: 7aff 8136 5a3a 8336 ff3f 7136 5f7b 7f36
00000130: 4051 6b36 d216 6e36 9fa8 7136 95c9 6036
00000140: 5df2 2336 e3ec 2c37 31bb 0636 64dc b934
00000150: 6b59 0735 eb57 1933 3686 8533 e122 1334
00000160: c78c 9434 50c3 fa34 8dc7 1635 ad0b 2d35
00000170: 2a5d 5f35 ba64 7135 ff8a a035 5386 a935
00000180: 5520 bc35 b853 d335 79d1 d335 2c87 d235
00000190: f1a8 e935 e207 0136 f2ec fb35 6ff8 0736
000001a0: 4487 0d36 a459 0236 8e2d 0936 7854 1036
000001b0: 6f5c 1036 e3b9 1136 92f4 1236 0f86 1a36
000001c0: 8347 0c36 b8c7 3a36 8ee1 6a36 e80c 6636
000001d0: da00 4436 3eb1 4236 5f74 4c36 9f49 4636
000001e0: 07f3 2736 d4ac 3936 1eda 3437 9e47 0336
000001f0: 54f9 0236 b8b8 0636 f2d6 0836 c088 0436
00000200: 009c 0336 0237 0836 5cbc 0736 4078 0536
00000210: e09e 0236 4184 0536 bb69 0536 590a 0636
00000220: a48e 0536 8a28 0336 24e8 0736 2832 0936
00000230: 41c7 0636 e170 0836 fb0b 0436 c197 0836
00000240: 7745 0636 545c 0936 14bd 0736 de54 0636
00000250: c0aa 0236 15e5 0336 e0fd 0236 926c 0536
00000260: 1cd3 0736 774c 0436 aee7 0536 67d4 0536
00000270: 2f4a 0436 dd36 0736 7db5 0936 0e9c 0536
00000280: ee7c 0a36 b3f6 0936 1856 0736 772a 0c36
00000290: 52de 0836 22c5 0336 f527 0736 982d 0336
000002a0: 7cb6 0736 43a2 0436 dd91 0936 23c8 0836
000002b0: d1a7 0736 c2a1 0736 b789 0636 75e5 0536
000002c0: b52c 0336 ee14 0536 4e61 0936 4c4c 0636
000002d0: 7c30 0636 0319 0936 e524 0536 3106 0636
000002e0: b6e7 0836 f835 0436 8419 0736 6993 0536
000002f0: c2b2 0636 4e03 0536 99c7 0236 523e 0336
00000300: b705 0336 a342 0436 0fad 0236 5d10 0436
00000310: ff0f 0836 702a 0936 567d 0336 188e 0536
00000320: 1470 0836 4a21 0936 75ef 0a36 479a 0b36
00000330: a175 0c36 bd9f 0936 8f80 f633 af08 0e34
00000340: af49 ee34 7b1f 7635 6091 e435 db6a 3336
00000350: c43a 7e36 d2bc 8936 be20 9136 32a9 9336
00000360: 9812 9a36 76e5 b636 14bc c436 5c4b d436
00000370: 8665 f536 c3ff e636 38c7 f136 904e 0837
00000380: 9b25 1137 845a 0937 a65f 1537 cbd5 1537
00000390: 3146 1637 a00d 2737 63fc 2937 8c6a 1737
000003a0: 73c6 1537 c6f0 2537 b700 1837 7beb 1737
000003b0: cb48 1a37 0ddc 1e37 bac8 2937 64be 2e37
000003c0: 3e50 3637 feaf 3137 6abd 3537 69a4 3d37
000003d0: db96 6737 828a d437 7a69 0336 bb5c 7e35
000003e0: af43 7935 bcb9 1c35 330d 8034 1ae3 a433
000003f0: cbce 1034 1fa0 7e34 1693 ae34 f04d d534
