test/test_results/triplets/results/model/model_epoch0270.tar (torch, 68820 bytes, 3 tensors)

fc.weight f4 [100, 41]
0.0033065942 2.5239692 2.4600518 2.4408262 2.3091137 2.235218 2.1111166 1.9944646
1.9246794 1.8658732 1.7124801 1.6239827 1.5149841 1.4567846 1.3770486 1.2805929
1.2469759 1.1645494 1.1069738 1.1505983 1.106573 1.0804079 1.1096169 1.1136802
1.0682583 1.1128702 1.0647335 1.0950027 1.0456389 0.96935594 1.0435646 0.8657916
0.816103 0.71022344 0.6311502 0.4659906 0.50319946 0.18110387 0.09292474 0.05352606
0.0002656454 0.003687215 0.003840807 0.0025186385 0.0041030273 0.003151071 0.00077718927 0.0035344586
-0.00012826384 0.007583023 0.032344095 0.08969376 0.15687823 0.1830076 0.11148835 0.074581884
0.04793778 0.0011116171 0.0044180616 0.003116413 0.0016149573 0.0031207867 0.0018248643 0.0033824192
0.0007571808 0.0033434366 0.0032559405 0.0014742167 0.0032631247 0.0035206815 0.0020585037 0.003505199
0.0021098726 0.0034922063 0.0015695988 0.0036074754 0.003303202 0.0032537472 0.0035415157 9.360438e-05
0.00059397914 0.0010048889 0.0007034252 0.0013726676 0.0038860808 0.0027481741 0.0033023732 0.0037230288
0.0021356281 0.0037420583 0.000468301 0.00076705986 0.0034018387 -0.00035748084 0.06543813 0.0441711
0.049733084 0.07341905 0.041781936 0.00724146 0.002483233 0.00010184312 0.0056877513 0.004805516
0.0027065545 0.0014923905 0.004001257 0.0024174654 0.0013307893 0.0008270934 0.0006594275 0.0036810553
0.001120794 0.0025370053 0.0014627284 0.0032683571 -8.56526e-05 0.0027287577 0.0024013845 0.0026954429
0.0032797838 0.0024033443 0.0014812361 0.003592632 0.003661632 0.0016920483 0.0034143599 0.0010050694
0.0029722312 0.0032233363 0.0029119095 0.0012468596 0.0035520059 0.0012350837 0.0012291227 0.002090304
0.0011532337 0.002471574 0.003499577 0.0035541416 0.0025554767 0.0035549828 0.00033626897 0.0037332145
0.0026378017 0.003439725 0.0034136537 0.0024568217 0.0028543891 0.00051914377 0.0010730614 0.0015324276
0.0036302723 0.00031654205 0.002073322 0.0021229717 6.7666406e-08 0.002467508 0.0031310956 0.0036734138
0.00014490282 0.0029100112 0.001949821 0.0005925096 0.0026997917 0.0032760045 0.0018448931 0.0034932
0.00278261 0.0005534054 0.0035977159 0.0037173466 0.0029995774 0.003070233 0.002344762 0.0014713305
0.0025754103 0.001018038 0.0035889742 0.0021869252 0.0019618773 0.0036584171 0.000928097 0.0022378156
0.0036450967 0.0004495649 0.0030437072 0.0015955559 0.0030757098 0.0014675612 0.0022210274 0.0019299071
0.0014653177 0.0008331769 0.0027709496 0.00039503985 0.0036515645 0.0035868592 0.0033695742 0.0025899648
0.00063148804 0.0029467302 0.0032406978 0.0015423301 0.0008014669 0.0032215666 3.2979085 3.1297152
2.6794267 2.5135365 2.380637 2.2182791 2.0641515 1.9123613 1.8815494 1.7628174
1.6935236 1.592005 1.5280901 1.472971 1.3795902 1.3728889 1.2900523 1.2717531
1.2620053 1.2375003 1.1561228 1.2136996 1.1621542 1.0618855 1.0324869 0.93720704
1.0291708 0.96620744 0.94145876 0.9548686 0.8336964 0.8421638 0.72568077 0.58254546
0.46924278 0.45547423 0.22228041 0.13662288 0.080049664 1.9030718e-05 0.0036429262 0.0008844798
0.003180698 0.003798052 0.0037712592 0.0004076294 0.0023549905 0.0009682595 0.0038291095 0.004934782
00000000: 72b3 583b b688 2140 7d71 1d40 7f36 1c40
00000010: 85c8 1340 d00d 0f40 891c 0740 9e4a ff3f
00000020: e55b f63f efd4 ee3f 8c32 db3f aade cf3f
00000030: 00eb c13f eb77 ba3f 2143 b03f 78ea a33f
00000040: e89c 9f3f f40f 953f 51b1 8d3f ce46 933f
00000050: 2fa4 8d3f ce4a 8a3f ed07 8e3f 138d 8e3f
00000060: b0bc 883f 8872 8e3f 3049 883f 0c29 8c3f
00000070: 7fd7 853f b627 783f 8693 853f 85a4 5d3f
00000080: 20ec 503f 34d1 353f 0f93 213f 5296 ee3e
00000090: aed1 003f 4b73 393e 534f be3d 243e 5b3d
000000a0: 5246 8b39 34a5 713b 0cb6 7b3b be0f 253b
000000b0: b072 863b 3382 4e3b 4abc 4b3a 60a2 673b
000000c0: 907e 06b9 027b f83b 3e7b 043d 5db1 b73d
000000d0: b0a4 203e 5866 3b3e 0154 e43d 63be 983d
000000e0: 685a 443d aeb3 913a 63c5 903b bc3c 4c3b
000000f0: faac d33a 1d86 4c3b 4930 ef3a 94ab 5d3b
00000100: 8b7d 463a 8f1d 5b3b 9e61 553b 813a c13a
00000110: 26da 553b 3cbb 663b f6e7 063b 7bb7 653b
00000120: ca45 0a3b 80dd 643b ffba cd3a 656b 6c3b
00000130: 897a 583b d23c 553b c618 683b 784d c438
00000140: 44b5 1b3a 7ab6 833a 1166 383a 15eb b33a
00000150: 9ead 7e3b b61a 343b a16c 583b 0ffe 733b
00000160: e5f5 0b3b 523d 753b 4c86 f539 8414 493a
00000170: 62f1 5e3b 446c bbb9 6d04 863d c1ec 343d
00000180: ebb4 4b3d ba5c 963d 8923 2b3d c549 ed3b
00000190: bdbd 223b 9c94 d538 5160 ba3b 9777 9d3b
000001a0: 7360 313b 519c c33a fa1c 833b 576e 1e3b
000001b0: e16d ae3a 4cd1 583a 6edd 2c3a dc3d 713b
000001c0: 9be7 923a e343 263b 05b9 bf3a ef31 563b
000001d0: 64a0 b3b8 f5d4 323b 8c60 1d3b 07a6 303b
000001e0: a4f1 563b 6d81 1d3b 0926 c23a 5d72 6b3b
000001f0: fef7 6f3b b8c7 dd3a 74c3 5f3b 88bc 833a
00000200: c4c9 423b 9c3e 533b bcd5 3e3b aa6d a33a
00000210: c5c8 683b 88e2 a13a 841a a13a 7bfd 083b
00000220: 1a28 973a 21fa 213b 2959 653b 9aec 683b
00000230: c979 273b b7fa 683b 424d b039 f2a8 743b
00000240: f8de 2c3b 026d 613b 9bb7 5f3b a102 213b
00000250: b410 3b3b 2617 083a f7a5 8c3a bddb c83a
00000260: dde9 6d3b 8ef5 a539 92e0 073b 8e21 0b3b
00000270: 0050 9133 eab5 213b 1133 4d3b a8bd 703b
00000280: 0ef1 1739 e3b5 3e3b 2391 ff3a a552 1b3a
00000290: fdee 303b 3cb2 563b 57d0 f13a 2cee 643b
000002a0: 735c 363b 6812 113a a8c7 6b3b ba9e 733b
000002b0: 8f94 443b f635 493b 94aa 193b a9d9 c03a
000002c0: 37c8 283b b06f 853a ff34 6b3b 8452 0f3b
000002d0: d792 003b 0ec2 6f3b 894b 733a 51a8 123b
000002e0: 93e2 6e3b 94b3 eb39 ef78 473b f921 d13a
000002f0: d991 493b 2f5b c03a a88e 113b f0f4 fc3a
00000300: e70f c03a 8e69 5a3a d298 353b 5a1d cf39
00000310: 164f 6f3b 8311 6b3b 13d4 5c3b 66bc 293b
00000320: 728a 253a ee1d 413b e361 543b 0328 ca3a
00000330: 8819 523a eb20 533b ef10 5340 414d 4840
00000340: ba7b 2b40 c8dd 2040 5b5c 1840 49f8 0d40
00000350: 0f1b 0440 41c8 f43f 9cd6 f03f 00a4 e13f
00000360: 62c5 d83f d2c6 cb3f 7598 c33f 508a bc3f
00000370: 6996 b03f d3ba af3f 6f20 a53f cec8 a23f
00000380: 6489 a13f 6966 9e3f d5fb 933f 825a 9b3f
00000390: 78c1 943f ddeb 873f 8828 843f cdec 6f3f
000003a0: debb 833f 5f59 773f 7103 713f 4572 743f
000003b0: 216d 553f 0c98 573f 37c6 393f b321 153f
000003c0: 9740 f03e eb33 e93e 7a9d 633e dee6 0b3e
000003d0: 14f1 a33d 28a4 9f37 29be 6e3b 6fdc 673a
000003e0: 4273 503b bde8 783b 3b27 773b 18b7 d539
000003f0: 2f56 1a3b ccd2 7d3a ccf1 7a3b f4b3 a13b

exp_avg f4 [100, 41]
0.000102686565 3.5473047e-05 2.3701316e-05 -1.126962e-05 -4.6905014e-05 -0.00020269738 0.00017796218 -0.0005558118
0.00074255734 -0.0006010635 -0.00020462926 7.676592e-05 -0.00046899932 -0.00049026153 0.0009142247 -0.000782937
-0.00020509005 -0.0006311288 -0.00014202954 0.00057170907 0.00042963054 -0.00095322717 0.00056876976 -0.00040186333
0.00033903838 -0.0001229896 -0.00072297483 -0.00027324338 -6.583791e-05 0.0006939898 -0.000698234 0.00040593342
1.4418194e-05 0.00024705063 -0.0010005796 1.9416213e-05 0.0006272363 -8.1041275e-05 0.00027744487 -0.00034787157
0.0005437695 -1.9610738e-05 -0.00016719088 -0.00049706973 3.9947456e-05 0.00015032841 0.00018988978 0.00016092621
0.00019015423 5.088519e-05 0.00018911807 0.00020056168 0.00014517717 0.00013432083 0.00020337211 0.00022798628
0.00015703896 0.00018732132 -0.0001484842 -0.00028650684 0.00018972663 -0.0002562141 0.00015643582 7.026527e-05
0.00015554455 -0.00014996878 0.00010291777 0.00015865742 -0.00018620052 6.505302e-05 0.00019706719 -8.403967e-05
0.00018532605 -0.00010516135 0.00013157191 2.385555e-05 -0.00012201138 -0.00019915286 -1.2387058e-05 0.00019120607
0.00016358425 0.00020464796 0.00018692945 0.00018033486 -2.46628e-05 0.00015468647 0.00012513918 9.162026e-05
0.00017953526 0.000117166994 0.00018654883 0.00018574098 -0.0005670308 0.00017080069 0.000190189 0.0001977299
0.00018791856 0.00017734639 0.00018696323 0.00015735457 -0.0006487702 0.00021194869 -1.6689863e-05 -0.00010924599
0.00016999916 0.0001712968 -4.0143124e-05 0.00016593038 0.00017589105 0.00017711904 0.00018478569 7.8269375e-05
0.00016936011 -0.0003507186 0.00018713965 8.0997765e-05 0.00019746838 0.0001618393 -0.00041287977 0.00015029225
0.00010378546 0.00016754272 0.00017364073 6.832424e-05 1.7393068e-06 0.0001781614 0.000102945436 -0.0007434511
-0.0003044644 0.00011981248 0.00013857888 0.00018215795 -9.999978e-05 0.00018211786 0.00018164694 0.00016879465
0.0001838663 -0.00042035128 9.0599555e-05 -9.955895e-05 0.00015368665 5.4650918e-05 0.0001898667 1.2102173e-06
0.00015496238 -0.00016689402 9.100258e-05 0.00016010363 -0.00036057376 0.00018754002 -0.0007451937 0.00017983989
3.9202776e-05 0.0001876595 0.00017040921 0.00016837005 0.00019012998 0.00015776049 0.00012799255 -1.7746208e-05
0.00018973413 0.00013678822 0.00017685596 0.00019407926 0.00015091039 -0.00020926518 0.00017397206 -0.00013100725
0.00014602007 -0.0008486982 -6.951712e-05 3.7764847e-05 0.00013543732 0.00013340882 0.00016219109 0.00018029528
-0.00042150947 0.00018337228 -9.860928e-05 0.0001674776 0.00017393097 -7.156613e-05 0.00018474173 0.00016823798
-4.319594e-05 0.00018701781 0.00013563715 0.00017696798 0.0001328525 0.00017872527 -0.00049096317 -0.0005663994
-0.00064954994 0.0001862486 -0.00036019803 0.00018890336 2.0431493e-05 -9.87116e-05 -0.00021101972 -0.00042021053
0.0001889017 -0.00030370132 0.00011306109 -0.00064852345 0.00019081817 0.0001119301 6.8647737e-06 5.306133e-06
-5.709262e-08 -5.6193625e-05 -0.00025675035 0.0001835851 -0.0007007192 0.0008137187 -0.0006986104 -0.00016917885
8.082742e-05 -0.0005062626 -0.0006211525 0.0010164293 -0.0008538479 -0.00030280568 -0.00062727625 -0.00013514567
0.00057323463 0.00047773967 -0.0010403215 0.0005668331 -0.00037232874 0.00046424725 -0.00026652723 -0.00060989073
-0.00023459825 -4.1860898e-05 0.0007190274 -0.0007218335 0.00042385736 4.1299347e-05 0.00019647929 -0.0009187089
5.217438e-05 0.00061852165 -9.790616e-05 0.000335503 -0.00042444837 0.0008313408 5.423561e-05 0.00015377994
0.00012183733 0.0001270377 7.8721314e-05 0.00013506101 -0.00049485586 0.00015865144 -0.00027952276 7.4505224e-05
00000000: 6e59 d738 e5c8 1438 30d2 c637 a612 3db7
00000010: e0bb 44b8 2a8b 54b9 5c9b 3a39 e6b3 11ba
00000020: 2ea8 423a b090 1dba c091 56b9 64fd a038
00000030: 06e4 f5b9 e584 00ba 95a8 6f3a 033e 4dba
00000040: 710d 57b9 5672 25ba c4ed 14b9 bfde 153a
00000050: 0940 e139 fee1 79ba 7e19 153a 2fb1 d2b9
00000060: f6c0 b139 c5f6 00b9 0586 3dba 1b42 8fb9
00000070: 7512 8ab8 deec 353a b109 37ba 76d3 d439
00000080: ace5 7137 9386 8139 e125 83ba 00e0 a237
00000090: 1e6d 243a b4f4 a9b8 0576 9139 8862 b6b9
000000a0: c18b 0e3a bd81 a4b7 f64f 2fb9 c94d 02ba
000000b0: 418d 2738 7aa1 1d39 261d 4739 4dbe 2839
000000c0: 2364 4739 8f6d 5538 ff4d 4639 de4d 5239
000000d0: b33a 1839 79d8 0c39 4940 5539 9a0f 6f39
000000e0: d3aa 2439 af6b 4439 6db2 1bb9 4c36 96b9
000000f0: 5bf1 4639 7954 86b9 ec08 2439 615b 9338
00000100: ac19 2339 f040 1db9 8fd5 d738 475d 2639
00000110: d23e 43b9 136d 8838 d2a3 4e39 743e b0b8
00000120: 1554 4239 128a dcb8 91f6 0939 671d c837
00000130: 5ce0 ffb8 b0d3 50b9 02d2 4fb7 7d7e 4839
00000140: d087 2b39 c596 5639 7e02 4439 4518 3d39
00000150: f6e2 ceb7 5533 2239 cb37 0339 4124 c038
00000160: a141 3c39 8db7 f538 529c 4339 77c3 4239
00000170: cba4 14ba f618 3339 796d 4739 b755 4f39
00000180: 010c 4539 0ff6 3939 8f0b 4439 8cff 2439
00000190: 3b12 2aba 8b3e 5e39 3501 8cb7 ff1a e5b8
000001a0: cd41 3239 229e 3339 5a5f 28b8 99fd 2d39
000001b0: 656f 3839 08b9 3939 08c3 4139 8d24 a438
000001c0: 4296 3139 a7e0 b7b9 eb3a 4439 58dd a938
000001d0: 840f 4f39 68b3 2939 c977 d8b9 c597 1d39
000001e0: 65a7 d938 68ae 2f39 5413 3639 4c49 8f38
000001f0: 2072 e935 d6d0 3a39 69e4 d738 29e4 42ba
00000200: 85a0 9fb9 d643 fb38 7c4f 1139 a701 3f39
00000210: f9b6 d1b8 e4f6 3e39 7b78 3e39 78fe 3039
00000220: 3ccc 4039 9862 dcb9 4400 be38 4eca d0b8
00000230: f226 2139 fa38 6538 f416 4739 c06e a235
00000240: 667d 2239 4600 2fb9 a3d8 be38 7ee1 2739
00000250: 640b bdb9 64a6 4439 1a59 43ba 6793 3c39
00000260: a96d 2438 77c6 4439 e0af 3239 7e8c 3039
00000270: a15d 4739 826c 2539 bd35 0639 b1dd 94b7
00000280: 5ef3 4639 cf6e 0f39 6972 3939 c181 4b39
00000290: b33d 1e39 326e 5bb9 456c 3639 fe5e 09b9
000002a0: f71c 1939 2c7b 5eba b8c9 91b8 b265 1e38
000002b0: 2e04 0e39 a8e3 0b39 d711 2a39 a50d 3d39
000002c0: 0bfe dcb9 9f47 4039 74cc ceb8 ed9c 2f39
000002d0: 3d61 3639 c615 96b8 3bb7 4139 0a69 3039
000002e0: 4a2d 35b8 361a 4439 d239 0e39 7b90 3939
000002f0: 524e 0b39 3368 3b39 fbb3 00ba 6c7a 14ba
00000300: 8f46 2aba ba4b 4339 f6d8 bcb9 5c14 4639
00000310: 4c64 ab37 6303 cfb8 2d45 5db9 b44f dcb9
00000320: ea13 4639 1a3a 9fb9 361b ed38 ac01 2aba
00000330: 5d16 4839 04bc ea38 f557 e636 560b b236
00000340: 0036 75b3 72b1 6bb8 739c 86b9 c080 4039
00000350: 78b0 37ba bd4f 553a f322 37ba 9a65 31b9
00000360: e481 a938 b5b6 04ba d7d4 22ba b539 853a
00000370: c3d4 5fba e4c1 9eb9 cc6f 24ba e4b5 0db9
00000380: 2045 163a 2279 fa39 665b 88ba 8797 143a
00000390: 1e35 c3b9 3666 f339 aebc 8bb9 13e1 1fba
000003a0: 7dfe 75b9 cc93 2fb8 1d7d 3c3a 6d39 3dba
000003b0: 2c39 de39 d638 2d38 0206 4e39 83d5 70ba
000003c0: d0d5 5a38 4924 223a f852 cdb8 73e6 af39
000003d0: 7f88 deb9 56ee 593a 0b7b 6338 fd3f 2139
000003e0: eb82 ff38 6c35 0539 2f17 a538 2a9f 0d39
000003f0: 37b9 01ba ac5b 2639 e98c 92b9 b03f 9c38

exp_avg_sq f4 [100, 41]
2.010463e-06 7.528358e-08 7.464795e-08 2.3468452e-07 4.0476468e-07 8.28365e-07 1.7139077e-06 2.809145e-06
3.3673612e-06 3.8141045e-06 4.627848e-06 4.930864e-06 4.9608284e-06 5.5248684e-06 5.970289e-06 7.1548966e-06
7.85887e-06 7.4768977e-06 7.984238e-06 8.53634e-06 8.478351e-06 9.119222e-06 9.511482e-06 9.405393e-06
9.885171e-06 9.513257e-06 9.940401e-06 9.794645e-06 9.696067e-06 9.397546e-06 9.329186e-06 1.0168439e-05
1.0882063e-05 1.0425911e-05 1.0742553e-05 1.1414024e-05 1.0704505e-05 1.1566073e-05 1.1768122e-05 1.3600892e-05
2.3386849e-05 2.0270659e-06 1.6414821e-06 1.6977849e-06 1.6050542e-06 1.5669425e-06 1.3723461e-06 1.0129231e-06
5.943647e-07 4.7570893e-07 1.1808739e-07 1.5572155e-07 1.6441192e-07 2.163292e-07 2.3847804e-07 2.7303454e-07
3.1541018e-07 9.2854833e-07 1.3548075e-06 1.7762023e-06 1.9589554e-06 2.025344e-06 2.1242827e-06 2.2406325e-06
2.088913e-06 2.1450483e-06 2.1625413e-06 2.1444305e-06 2.1791302e-06 2.2809431e-06 2.1102196e-06 2.3934297e-06
2.3222997e-06 2.3027364e-06 2.196483e-06 2.3372095e-06 2.2107893e-06 2.1236547e-06 2.1095614e-06 2.1594424e-06
1.925234e-06 3.5804408e-06 1.966033e-06 1.7772209e-06 1.795769e-06 1.7947874e-06 1.8207948e-06 1.78742e-06
1.563678e-06 1.4831198e-06 1.2606689e-06 8.490458e-07 6.3279873e-07 1.9340584e-07 1.3442336e-07 1.5852484e-07
1.8721778e-07 2.2298845e-07 2.669676e-07 2.5488626e-07 8.07435e-07 5.626441e-07 8.2995575e-07 1.2262959e-06
1.5594862e-06 1.5806049e-06 1.7735532e-06 1.9003301e-06 1.9638912e-06 2.072498e-06 2.0543575e-06 2.0226612e-06
2.307687e-06 2.247444e-06 2.16913e-06 2.1396686e-06 2.195015e-06 2.0543523e-06 2.145151e-06 1.965205e-06
2.047508e-06 1.978083e-06 3.6612248e-06 2.0175917e-06 2.0233692e-06 1.9784488e-06 2.0089403e-06 2.0519817e-06
2.039685e-06 2.0041552e-06 1.9983727e-06 1.9693618e-06 2.0289133e-06 1.9696733e-06 1.9692357e-06 1.981804e-06
1.969228e-06 2.0414466e-06 2.0084924e-06 2.0259195e-06 1.9900097e-06 2.0138434e-06 1.9551771e-06 2.0202167e-06
1.9892266e-06 2.032441e-06 2.0080015e-06 1.9880654e-06 2.0392822e-06 1.957275e-06 2.047067e-06 1.9729305e-06
2.0129544e-06 1.9559582e-06 1.9795236e-06 1.981791e-06 1.9519396e-06 1.9890363e-06 2.0085026e-06 2.0309417e-06
1.9693832e-06 2.0219024e-06 2.021035e-06 2.0557613e-06 1.9973647e-06 2.0363498e-06 1.9817148e-06 2.0319421e-06
1.9958693e-06 2.0546006e-06 2.0268321e-06 2.0174655e-06 1.999946e-06 2.0003495e-06 1.986917e-06 1.9728764e-06
2.0419814e-06 1.96569e-06 2.0277823e-06 1.9840043e-06 1.9802746e-06 2.0257694e-06 1.9655351e-06 1.9834133e-06
2.0216573e-06 1.9570334e-06 1.9973518e-06 1.9745685e-06 1.9976599e-06 1.9713177e-06 2.0422867e-06 2.0459313e-06
2.045532e-06 1.96103e-06 2.039421e-06 1.9550837e-06 2.016284e-06 2.0279215e-06 2.0347413e-06 2.0478758e-06
1.969272e-06 2.05329e-06 2.0307118e-06 2.087639e-06 2.0574435e-06 2.0084037e-06 9.759326e-08 9.340715e-08
3.3501937e-07 5.526177e-07 1.1117836e-06 2.2300337e-06 3.6077925e-06 4.215736e-06 4.719579e-06 5.599511e-06
6.0407688e-06 5.996689e-06 6.6956936e-06 7.2262574e-06 8.583584e-06 9.518551e-06 9.0859785e-06 9.769912e-06
1.037694e-05 1.02387285e-05 1.1184448e-05 1.1585609e-05 1.1498096e-05 1.2082513e-05 1.1445805e-05 1.1424934e-05
1.1056299e-05 1.0904424e-05 1.06098905e-05 1.0517488e-05 1.1297275e-05 1.1905891e-05 1.1558259e-05 1.1940852e-05
1.2609422e-05 1.1784882e-05 1.2544232e-05 1.2882971e-05 1.5249672e-05 2.4736084e-05 2.0195837e-06 1.8075352e-06
1.766497e-06 1.7967404e-06 1.7778491e-06 1.7286388e-06 1.7228648e-06 1.5834725e-06 1.538141e-06 1.1451635e-06
00000000: 7eeb 0636 96ab a133 254e a033 97fd 7b34
00000010: 6f4e d934 cf5c 5e35 6c09 e635 be84 3c36
00000020: d3fa 6136 d1f5 7f36 e948 9b36 cd73 a536
00000030: 3175 a636 4262 b936 6454 c836 1814 f036
00000040: 97d9 0337 10e2 fa36 0bf4 0537 4d37 0f37
00000050: 3e3e 0e37 c3fe 1837 8193 1f37 dbcb 1d37
00000060: 7cd8 2537 219b 1f37 b2c5 2637 ae53 2437
00000070: 4aac 2237 27aa 1d37 8c84 1c37 1d99 2a37
00000080: 1b92 3637 f2ea 2e37 ea3a 3437 dc7e 3f37
00000090: 8097 3337 e80b 4237 b36f 4537 632f 6437
000000a0: e02e c437 ba08 0836 e550 dc35 72df e335
000000b0: 3e6d d735 bc4f d235 7431 b835 c6f3 8735
000000c0: 6e8c 1f35 f064 ff34 3b97 fd33 6a34 2734
000000d0: 3489 3034 1e48 6834 2c08 8034 9595 9234
000000e0: a555 a934 5b41 7935 d5d6 b535 d965 ee35
000000f0: 9976 0336 25eb 0736 e68e 0e36 c65d 1636
00000100: 412f 0c36 a6f3 0f36 2d20 1136 09e9 0f36
00000110: 2c3d 1236 4e12 1936 4c9d 0d36 cf9e 2036
00000120: ced8 1b36 b688 1a36 4a67 1336 f4d8 1c36
00000130: 125d 1436 1c84 0e36 fd91 0d36 f0ea 1036
00000140: 4533 0136 8147 7036 31f0 0336 d888 ee35
00000150: 2706 f135 6de4 f035 0862 f435 49e7 ef35
00000160: 91df d135 9c0f c735 4134 a935 fce9 6335
00000170: 99dd 2935 feaa 4f34 0356 1034 fa36 2a34
00000180: 0806 4934 996e 6f34 bf53 8f34 4dd7 8834
00000190: 83be 5835 9c08 1735 20ca 5e35 3597 a435
000001a0: 8a4f d135 2c25 d435 d30a ee35 d80e ff35
000001b0: 65cb 0336 3f15 0b36 98dd 0936 0ebd 0736
000001c0: c3dd 1a36 cbd2 1636 5f91 1136 3a97 0f36
000001d0: 124e 1336 81dd 0936 6af5 0f36 f7e1 0336
000001e0: eb67 0936 35bf 0436 5db3 7536 f665 0736
000001f0: 38c9 0736 7ec5 0436 55d1 0636 c7b4 0936
00000200: 85e1 0836 207f 0636 c81b 0636 6129 0436
00000210: 7728 0836 bb2e 0436 3627 0436 22ff 0436
00000220: 1427 0436 c9ff 0836 a3c9 0636 08f5 0736
00000230: 1b8c 0536 9125 0736 b035 0336 0f93 0736
00000240: a77e 0536 1265 0836 34c1 0636 b46a 0536
00000250: 9ada 0836 ba59 0336 5860 0936 b066 0436
00000260: 4b16 0736 1b43 0336 f5d7 0436 e9fe 0436
00000270: 11fe 0236 627b 0536 d0c9 0636 504b 0836
00000280: bf29 0436 05b0 0736 1ea1 0736 b6f5 0936
00000290: 770a 0636 39a8 0836 9afd 0436 805c 0836
000002a0: c6f0 0536 c5e1 0936 b604 0836 cb63 0736
000002b0: d036 0636 be3d 0636 f956 0536 c265 0436
000002c0: f908 0936 4cea 0336 0915 0836 ef24 0536
000002d0: dce4 0436 74f2 0736 a3e7 0336 c81a 0536
000002e0: cfab 0736 9455 0336 3e0a 0636 d482 0436
000002f0: 890f 0636 fb4a 0436 380e 0936 d54c 0936
00000300: f945 0936 3d9a 0336 fcdc 0836 1534 0336
00000310: 7f4f 0736 6d17 0836 978c 0836 3d6e 0936
00000320: d627 0436 41cb 0936 5d47 0836 5d19 0c36
00000330: 9c12 0a36 1dc8 0636 7694 d133 2097 c833
00000340: b6dc b334 9957 1435 9838 9535 b0a7 1536
00000350: 671d 7236 e674 8d36 e05c 9e36 6fe3 bb36
00000360: cfb1 ca36 2b37 c936 92ab e036 1479 f236
00000370: 3602 1037 deb1 1f37 fb6f 1837 74e9 2337
00000380: 9e18 2e37 01c7 2b37 d7a4 3b37 d05f 4237
00000390: f2e7 4037 00b6 4a37 5c07 4037 b8ad 3f37
000003a0: 717e 3937 25f2 3637 2201 3237 4474 3037
000003b0: 6d89 3d37 6abf 4737 58ea 4137 9255 4837
000003c0: 0e8d 5337 afb7 4537 1175 5237 f023 5837
000003d0: d8d8 7f37 5680 cf37 2f88 0736 709a f235
000003e0: 6018 ed35 8827 f135 6e9e ee35 9403 e835
000003f0: 2f3d e735 b387 d435 1f72 ce35 85b3 9935
