test/test_results/triplets/results/model/model_epoch0280.tar (torch, 69460 bytes, 3 tensors)

fc.weight f4 [100, 41]
000000 74 e5 45 3b 8e 34 22 40 f7 f2 1d 40 6d b0 1e 40
       0.003019658 2.5344577 2.4679544 2.4795182
000010 37 c7 16 40 64 56 13 40 38 2c 0b 40 d3 24 03 40
       2.355909 2.3021479 2.174574 2.0491226
000020 ae 9e fc 3f f5 8c f5 3f 40 63 e1 3f 81 40 d4 3f
       1.9735925 1.9183642 1.7608414 1.6582185
000030 dd 63 c6 3f 7d 2c be 3f ba e5 b3 3f d4 c6 a7 3f
       1.5499226 1.4857327 1.4054482 1.3107553
000040 41 62 a3 3f 9d 47 98 3f 11 02 91 3f 45 14 97 3f
       1.276436 1.1896855 1.1328756 1.1803061
000050 61 db 90 3f e2 50 8c 3f 2e a5 90 3f 23 d4 90 3f
       1.1316949 1.0962183 1.1300409 1.1314739
000060 ba 4e 8b 3f 5a ec 90 3f 75 f5 8a 3f 3b 2a 8f 3f
       1.08834 1.1322129 1.0856158 1.1184763
000070 d1 2a 88 3f 0d 19 7a 3f bf c0 87 3f 80 9c 60 3f
       1.0638067 0.97694474 1.0605696 0.877388
000080 0d 98 53 3f f1 93 37 3f fb db 22 3f 88 b8 f2 3e
       0.82653886 0.71710116 0.63616914 0.4740641
000090 fa c2 01 3f 4f ae 38 3e 5d de cb 3d fc 5a 5e 3d
       0.50688136 0.18035243 0.09954522 0.05428599
0000a0 90 de 55 b8 59 57 70 3b fe b8 6d 3b b2 d7 30 3b
       -5.0990435e-05 0.0036673157 0.0036273594 0.0026984033
0000b0 df 83 7e 3b c8 dc 31 3b 3a 53 b9 39 10 a9 3e 3b
       0.0038835926 0.0027139653 0.00035347958 0.0029092468
0000c0 f6 46 17 3a d4 16 99 3b 4a 87 8c 3a 51 6a 82 3b
       0.0005770767 0.004671911 0.0010721472 0.003979959
0000d0 9c db 8b b8 f7 84 b9 3b e5 98 12 3b fa 26 9a 3b
       -6.668942e-05 0.0056616026 0.0022368964 0.0047043534
0000e0 ea 7d 9e 3b 12 04 e3 3a 7f ce 7b 3b de a0 3a 3b
       0.0048367875 0.0017319939 0.0038422642 0.0028477232
0000f0 a9 0e 1a 3a 8b 1f cc 3a 61 aa d9 3a 3b c8 63 3b
       0.00058768183 0.0015573365 0.0016606563 0.0034756798
000100 1d 95 87 3a 95 17 4a 3b a4 43 53 3b d2 5c 7b 3a
       0.0010344122 0.003083681 0.0032236362 0.00095887214
000110 52 1f 4a 3b db 46 67 3b 05 91 15 3b dc d2 64 3b
       0.0030841422 0.0035290036 0.0022822034 0.003491572
000120 9f c0 10 3b 6e 57 64 3b 02 f5 22 3b 62 9e 42 3b
       0.0022087467 0.0034842151 0.0024865274 0.0029696454
000130 f8 87 5b 3b 53 1b 3e 3b 89 4f 6d 3b 1b a4 4b 3b
       0.0033497792 0.0029007986 0.0036210737 0.0031073156
000140 be b7 45 3b 15 57 96 3a fb ef 6d 39 0b e3 7c 3a
       0.0030169333 0.0011470044 0.00022691481 0.0009646869
000150 9a bb 74 3b d6 b6 23 3b b3 ba 40 3b 49 7f 56 3b
       0.0037343265 0.0024980805 0.0029408156 0.0032729676
000160 b4 83 da 3a c7 50 55 3b 21 64 17 39 5a 71 a6 39
       0.0016671331 0.0032549368 0.00014437783 0.0003174644
000170 aa ac 30 3b 60 f9 42 39 78 6e 31 3b c4 4c aa 3b
       0.0026958385 0.00018594181 0.00270739 0.0051971395
000180 51 ed 5b 3a 7f 22 29 3b 28 3b b6 39 0b f3 76 3b
       0.000838955 0.0025807915 0.0003475782 0.0037681486
000190 53 95 9f 3a f8 eb ee 3a 56 ed 8e 3b 2b 56 87 3b
       0.0012175239 0.0018228283 0.0043617887 0.004130145
0001a0 48 82 27 3b bd a3 95 3a dc e1 75 3b 8a 54 12 3b
       0.0025559831 0.0011416596 0.0037518656 0.0022328221
0001b0 2b 5c b8 3a 5e b1 4a 3a b1 dc e6 39 a5 e5 61 3b
       0.0014065554 0.0007732118 0.00044033446 0.0034469154
0001c0 61 58 8d 3a b6 72 52 3b f7 27 ba 3a ff bc 56 3b
       0.0010783785 0.003211183 0.0014202584 0.003276646
0001d0 a3 5a ba 3a 7b c9 1d 3b 1e 65 55 3b c6 c2 fe 3a
       0.0014217686 0.002407639 0.0032561491 0.0019436709
0001e0 bf 75 22 3b ee db 24 3a b3 ae 3c 3b 21 ba 59 3b
       0.002478942 0.00062888756 0.0028790652 0.0033222514
0001f0 65 68 6d 3b 6c 30 ae 3a ea 70 4e 3b 22 6c 10 3b
       0.0036225554 0.0013289577 0.0031500407 0.0022037108
000200 12 93 63 3b cf d3 41 3b 56 65 33 3b 2c d2 7d 3a
       0.0034725112 0.002957571 0.0027373633 0.0009682502
000210 97 15 6d 3b 4d bf 6b 3a 38 0e 78 3a 5a 11 fb 3a
       0.0036176199 0.00089930446 0.0009462568 0.0019154951
000220 8d 98 7c 3a 90 52 43 3b fa bf 5a 3b ca 70 70 3b
       0.0009635769 0.002980385 0.0033378587 0.0036688321
000230 a2 2e 1a 3b ef 32 67 3b c0 42 32 b7 0d c7 72 3b
       0.002352633 0.0035278162 -1.0625168e-05 0.0037044913
000240 45 f8 20 3b 64 fe 65 3b c6 fa 57 3b 09 2c 16 3b
       0.0024562043 0.0035094256 0.003295587 0.002291443
000250 fd 3b 45 3b ac 09 a4 39 2a 4e bc 3a 1e 2b ab 3a
       0.003009557 0.00031287724 0.0014366556 0.0013059115
000260 f0 43 6d 3b 2e a9 c3 38 06 0f fc 3a d9 77 fd 3a
       0.0036203824 9.329837e-05 0.0019230552 0.0019338086
000270 9f 57 f2 39 f0 6f 11 3b 85 21 35 3b 90 9e 6c 3b
       0.0004622312 0.0022191964 0.0027638387 0.0036105253
000280 c6 ff 11 3b 61 73 e6 3a a8 b3 f3 b8 bc 5d 3f 3b
       0.0022277697 0.0017581993 -0.000116206065 0.0029200157
000290 ef 1f 17 3b 43 69 73 3b 32 44 c8 3a 4d 09 6d 3b
       0.0023059805 0.0037141598 0.0015279113 0.0036168874
0002a0 af 3e 22 3b c9 b8 c6 3a 6d e6 73 3b ff a3 69 3b
       0.00247566 0.0015161271 0.0037216202 0.0035650728
0002b0 28 48 36 3b a1 da 38 3b f7 be 05 3b 46 71 90 3a
       0.0027814005 0.0028206485 0.0020408013 0.0011020086
0002c0 e4 ec 47 3b 51 18 3f 3a b1 32 75 3b c1 64 04 3b
       0.0030506188 0.0007289695 0.0037414248 0.0020201656
0002d0 f0 81 df 3a 54 13 75 3b ea 4c 3a 3a 24 82 06 3b
       0.0017052274 0.0037395554 0.0007106798 0.0020524347
0002e0 3d 31 71 3b b6 93 8b 39 72 fb 3c 3b 8d b0 b4 3a
       0.003680303 0.000266222 0.0028836397 0.0013785526
0002f0 5b cf 40 3b 67 36 a4 3a d6 8b 22 3b 36 82 11 3b
       0.0029420468 0.001252842 0.0024802587 0.0022202856
000300 42 39 2a 3b e4 ba 2a 3a 3c 37 51 3b 06 61 4d 39
       0.002597407 0.0006512834 0.0031923791 0.00019586468
000310 5c 16 6b 3b 26 a5 6c 3b 35 8f 5c 3b 20 5a 4f 3b
       0.0035871482 0.0036109178 0.0033654694 0.0031639412
000320 00 bf 3e b6 8e db 73 3b 89 35 16 3b ef ff 6d 3b
       -2.8423383e-06 0.0037209722 0.0022920093 0.0036315878
000330 39 8c 45 3b a6 fc 3e 3b 51 76 57 40 33 54 4c 40
       0.0030143394 0.002914229 3.3665965 3.192639
000340 a4 d6 2e 40 a1 8b 24 40 08 1e 1d 40 ec 7e 12 40
       2.7318506 2.5710223 2.454958 2.2889967
000350 43 05 08 40 ee 55 fb 3f 38 5f f8 3f 4d 30 e8 3f
       2.1253211 1.9635599 1.9404058 1.813974
000360 c8 b1 dd 3f 26 b8 d0 3f a3 a4 c7 3f 6e 96 c0 3f
       1.731988 1.6306198 1.5597118 1.5045907
000370 56 e5 b4 3f 8e f4 b3 3f c3 be a8 3f fd 8e a6 3f
       1.4132488 1.4059007 1.3183216 1.3012387
000380 bd 8e a5 3f 31 e2 a1 3f 70 2d 96 3f fc 4f 9e 3f
       1.2934185 1.2647153 1.1732616 1.2368159
000390 74 eb 96 3f 2b 26 8a 3f 0c 30 86 3f 09 7f 73 3f
       1.1790605 1.0792898 1.0483413 0.95115715
0003a0 b8 43 86 3f 95 f4 7a 3f e9 75 72 3f f1 c7 76 3f
       1.0489416 0.9802945 0.94711167 0.96398836
0003b0 22 55 57 3f 70 bb 59 3f 46 83 3b 3f 95 9d 15 3f
       0.8411428 0.8505163 0.7324718 0.58443576
0003c0 39 aa f3 3e 63 2c e8 3e 56 11 63 3e ed 21 12 3e
       0.47590807 0.45346364 0.22174582 0.14270754
0003d0 28 70 ad 3d 82 cb 9d 39 09 9e 5e 3b 07 15 0f 3b
       0.08468658 0.00030097 0.0033968708 0.0021832602
0003e0 7c 73 84 3b df c1 c0 3a 4e a0 5d 3b 25 26 19 3a
       0.004042087 0.0014706216 0.0033817473 0.0005842171
0003f0 22 9e ea 3a b6 29 20 3a c9 0d 49 3b 6d 78 89 3b
       0.001789991 0.0006109731 0.0030678383 0.004195264

exp_avg f4 [100, 41]
000000 e2 01 0d 39 80 e3 96 33 70 ea 58 38 a6 e5 b5 b8
       0.00013447509 7.026301e-08 5.171675e-05 -8.673528e-05
000010 29 0e 3a 38 af 2e 24 38 30 91 cc b8 04 12 e6 b9
       4.4359043e-05 3.9144124e-05 -9.754521e-05 -0.0004388244
000020 f7 02 88 39 8b 2d 98 39 b6 b5 2e ba f0 9b ec b9
       0.0002594215 0.0002902563 -0.000666465 -0.0004512961
000030 08 fa 68 b9 38 1e 4d 39 18 4d a2 39 c6 6d 84 ba
       -0.00022218388 0.00019561581 0.00030956487 -0.0010103516
000040 3a b1 09 3a 46 66 75 39 83 f4 93 ba 04 25 71 39
       0.0005252544 0.0002340312 -0.001128808 0.0002299734
000050 ea 4d d7 b8 10 f1 96 38 bb 98 4f 3a da 31 c3 ba
       -0.000102665115 7.197459e-05 0.0007919182 -0.0014892176
000060 e5 ed 5b 3a 59 2e 44 ba e3 d3 8c b9 79 dd 0f 3a
       0.0008389636 -0.0007483713 -0.0002686075 0.0005488019
000070 22 8c df b9 f0 fa 54 39 e8 1d 9f b9 3f 18 dc 39
       -0.00042638282 0.00020311377 -0.00030349125 0.00041979735
000080 56 13 a0 b9 94 c9 bb 38 a6 7b b1 ba 9d c6 8e 3a
       -0.00030531985 8.954402e-05 -0.0013540878 0.0010892932
000090 3f 99 37 39 b9 64 9d b9 c6 ef 77 39 24 d6 f1 b9
       0.00017509329 -0.00030020418 0.00023645078 -0.0004612665
0000a0 54 74 aa b8 24 3c 63 38 d8 7a 31 b9 ff 97 dc b9
       -8.1278995e-05 5.4177028e-05 -0.00016925798 -0.00042074916
0000b0 50 39 d3 35 35 69 22 39 4b b6 45 39 54 7d 27 39
       1.5737405e-06 0.00015488717 0.00018855293 0.0001597305
0000c0 0c 76 5e ba 88 b7 61 38 7b ec 43 39 00 ac 21 39
       -0.0008486218 5.3815107e-05 0.00018684745 0.00015418231
0000d0 56 c9 47 39 57 58 5c b9 12 c9 3e 39 8f b2 5b b9
       0.00019053122 -0.00021013744 0.00018194717 -0.00020951986
0000e0 24 60 0b b9 37 f7 3c 39 ac 15 32 b9 5e 4d bd b9
       -0.00013291888 0.00018021172 -0.00016983476 -0.00036106532
0000f0 ba c5 44 39 21 68 2a ba 1f 49 3a 39 d6 01 67 38
       0.00018765675 -0.0006500502 0.00017765582 5.50764e-05
000100 78 e4 3e 39 08 a2 84 b9 59 30 e9 38 76 50 40 39
       0.00018204923 -0.00025297725 0.00011119311 0.00018340521
000110 44 06 85 b9 64 92 5c 38 7b 00 2d 39 a1 8b b0 37
       -0.00025372405 5.2588424e-05 0.00016498745 2.1045855e-05
000120 4d 72 2e 39 a2 71 93 b8 11 9f 25 39 bc bb 08 39
       0.00016636513 -7.030672e-05 0.00015794883 0.00013039907
000130 63 17 2f b9 b5 ad 9e b9 67 8c 2a 38 c8 52 84 b9
       -0.00016698013 -0.0003026553 4.066192e-05 -0.0002523868
000140 e4 03 9f b9 82 32 43 39 2f f6 46 39 45 ca 41 39
       -0.00030329742 0.00018615465 0.00018974462 0.00018481266
000150 d5 1e 22 38 98 46 2b 39 0b 67 12 39 6e 1e fe 38
       3.8652524e-05 0.00016334129 0.00013962032 0.00012117332
000160 ee dc 3b 39 30 41 0c 39 67 6b 48 39 9f c9 46 39
       0.00017916012 0.00013375725 0.00019113497 0.00018957861
000170 24 77 00 ba e8 85 46 39 b6 58 36 39 20 f7 30 36
       -0.0004900566 0.00018932635 0.0001738992 2.636989e-06
000180 e8 51 44 39 c6 ab 37 39 36 6b 47 39 06 6a 19 39
       0.00018722529 0.0001751623 0.00019018058 0.00014630714
000190 c6 06 43 ba f5 da 2a ba a8 58 01 36 e1 12 92 b8
       -0.0007439669 -0.00065176125 1.9274103e-06 -6.965339e-05
0001a0 0c a3 2b 39 8e 12 3e 39 2f 25 90 b8 ff 77 2b 39
       0.0001636857 0.00018126724 -6.873381e-05 0.00016352533
0001b0 3c a4 3c 39 ae f7 43 39 2b 2c 45 39 33 40 ac 38
       0.00017990259 0.00018688917 0.00018803838 8.213557e-05
0001c0 f4 0e 3e 39 09 b3 59 b9 39 a8 3c 39 08 71 d5 38
       0.00018125382 -0.00020761428 0.00017991745 0.00010177685
0001d0 82 c8 2a ba 8a 38 2b 39 26 d4 5a b9 86 46 35 39
       -0.00065148633 0.00016328893 -0.00020869132 0.00017287777
0001e0 88 3d 2b 39 1f ce 46 39 e7 3e a0 38 6e 59 d7 38
       0.00016330753 0.00018959538 7.641111e-05 0.000102686565
0001f0 92 12 64 38 5d da 3d 39 54 0d fb 38 e9 55 00 ba
       5.437673e-05 0.00018105791 0.00011971095 -0.0004895614
000200 88 c4 30 b9 72 91 0c 39 3d 99 1c 39 b0 3d 41 39
       -0.00016857882 0.00013405623 0.00014934405 0.00018428895
000210 5c f8 35 b8 4e ae 41 39 5a 47 40 39 3e ba 35 39
       -4.3385066e-05 0.00018470848 0.00018337127 0.00017330886
000220 65 5a 43 39 1c fa 9e b9 2a 81 d5 38 d8 6b 34 b8
       0.00018630324 -0.00030322454 0.0001018069 -4.301578e-05
000230 d9 2f 2b 39 9b 45 a6 38 dd cf 46 39 1d 73 b3 37
       0.00016325655 7.928462e-05 0.00018960187 2.1392067e-05
000240 a9 3e 26 39 bc 90 09 b9 e2 07 e6 38 f2 aa 2e 39
       0.00015854336 -0.00013119256 0.00010968723 0.00016657615
000250 a2 c9 9f b9 26 1d 46 39 a6 1e 2a ba 00 ec 3e 39
       -0.0003047707 0.0001889361 -0.00064895523 0.00018207729
000260 55 92 91 38 30 3e 45 39 8c 7b 38 39 78 5b 36 39
       6.941395e-05 0.0001881055 0.00017593632 0.00017390947
000270 3a 6b 5e ba ca 20 2e 39 71 2d 1a 39 b9 d2 90 38
       -0.0008484606 0.00016606148 0.00014703513 6.905705e-05
000280 8e f4 ff b9 aa 89 3b 39 48 03 4a 39 c6 97 05 39
       -0.00048819598 0.00017884994 0.00019265444 0.00012740408
000290 d6 2b 2e 39 a7 e8 93 b8 8b 04 3c 39 68 f0 37 b8
       0.00016610263 -7.052841e-05 0.0001793077 -4.3854496e-05
0002a0 1e cb 27 39 57 73 2a ba 10 f1 ac 35 a0 09 62 38
       0.00016002028 -0.00065021723 1.2885157e-06 5.3891563e-05
0002b0 35 2a 1a 39 53 3b 19 39 f8 7c 33 39 06 8e 40 39
       0.00014702308 0.00014613317 0.00017117325 0.00018363455
0002c0 9d 74 9f b9 2d b3 44 39 16 85 37 b8 2d 28 32 39
       -0.00030413727 0.00018758765 -4.3754546e-05 0.0001699037
0002d0 a4 7c 3a 39 2a 94 aa b7 c3 51 41 39 f5 2e 34 39
       0.00017784775 -2.0334573e-05 0.00018436373 0.0001718363
0002e0 c0 a7 92 35 b5 e3 45 39 8d e0 19 39 7c 86 3c 39
       1.0926669e-06 0.00018872212 0.00014674869 0.00017979176
0002f0 1e f9 13 39 fc 3a 3f 39 7c 45 dd b9 d9 37 00 ba
       0.00014111816 0.00018237153 -0.00042204175 -0.00048911344
000300 fb 98 dd b9 1e 45 43 39 46 6e 85 b9 71 1a 48 39
       -0.00042266384 0.00018622397 -0.00025449897 0.00019083337
000310 c1 77 1e 38 c7 20 37 b8 bc 80 31 b9 b9 1b 84 b9
       3.7781665e-05 -4.3661126e-05 -0.00016927993 -0.00025197657
000320 21 a2 47 39 ed d8 9e b7 c4 4c 2e 39 b4 5b cd 37
       0.00019038517 -1.8936082e-05 0.0001662253 2.4480607e-05
000330 98 15 07 39 dc 5d 13 39 02 ed 78 b7 8f 1f d2 37
       0.00012882648 0.00014053978 -1.4837135e-05 2.5048646e-05
000340 e6 3f e0 b8 60 70 59 38 72 d5 09 38 58 70 f6 b8
       -0.00010693054 5.184149e-05 3.286213e-05 -0.0001175112
000350 a0 cb 05 ba a0 3d 63 39 9d 64 b5 39 b2 53 50 ba
       -0.000510389 0.00021671364 0.00034597973 -0.0007947042
000360 f9 36 ff b9 8b f2 60 b9 b6 19 e8 38 7b a2 c7 39
       -0.00048678348 -0.00021452659 0.00011067411 0.00038077295
000370 8b 6e 8a ba 9b f8 1a 3a 8f 3d 5e 39 e0 ec a0 ba
       -0.0010561509 0.0005911679 0.00021194502 -0.0012277626
000380 61 a2 37 39 c8 2d 6b b9 29 93 40 39 00 cd 68 3a
       0.00017512731 -0.00022428401 0.00018365368 0.0008880645
000390 55 6e e9 ba 4c ae 87 3a aa 04 4e ba 40 4b 8a b9
       -0.0017809371 0.0010351627 -0.00078589714 -0.00026377477
0003a0 fa 30 1b 3a 1d f5 e7 b9 be bf 9a 39 9e aa 97 b9
       0.0005920079 -0.00044242377 0.00029516028 -0.00028928084
0003b0 5f 0a d0 39 9e 79 96 b9 e0 b1 41 39 ca 3a c1 ba
       0.0003968058 -0.0002870084 0.00018472178 -0.0014742252
0003c0 c3 ea 97 3a f6 11 26 39 fa 3f aa b9 68 32 74 39
       0.001159035 0.00015837685 -0.00032472593 0.00023288431
0003d0 9a b9 17 ba e8 e1 46 39 72 cf c1 38 72 dc 2f 39
       -0.00057878497 0.00018966908 9.241597e-05 0.00016771423
0003e0 03 90 27 b8 0e 04 4a 39 22 41 26 39 f2 96 36 39
       -3.9950024e-05 0.00019265732 0.00015855258 0.00017413104
0003f0 ec 24 30 39 24 fc 62 ba 44 b6 34 39 19 3d cd 38
       0.00016798422 -0.00086587877 0.00017234037 9.786542e-05

exp_avg_sq f4 [100, 41]
000000 b0 71 06 36 93 10 a9 33 0d b9 a9 33 15 df 84 34
       2.003373e-06 7.8726906e-08 7.903336e-08 2.474923e-07
000010 70 84 e7 34 7b f9 47 35 7d 67 ce 35 9c 81 32 36
       4.3123464e-07 7.449632e-07 1.5378315e-06 2.659951e-06
000020 dd a5 60 36 23 0d 80 36 5b fa 9a 36 04 26 a9 36
       3.3475146e-06 3.8162266e-06 4.618703e-06 5.041018e-06
000030 18 41 a7 36 f3 55 c1 36 a4 25 d3 36 0c b4 ec 36
       4.9845657e-06 5.761854e-06 6.292672e-06 7.0543083e-06
000040 6d b7 05 37 2c de 01 37 c5 ce 0d 37 70 53 0f 37
       7.970125e-06 7.740728e-06 8.452397e-06 8.542891e-06
000050 75 32 14 37 ae 69 19 37 33 5e 1e 37 db 72 1c 37
       8.833235e-06 9.144116e-06 9.439466e-06 9.3250665e-06
000060 c7 9f 1d 37 c4 52 2c 37 86 8c 28 37 2e 02 27 37
       9.39513e-06 1.0271269e-05 1.00462985e-05 9.954483e-06
000070 de 2e 2b 37 9c f0 1a 37 35 9a 1a 37 43 24 2c 37
       1.0203306e-05 9.2351365e-06 9.215019e-06 1.0260442e-05
000080 99 6d 3d 37 53 54 38 37 71 3f 2c 37 9c a7 3f 37
       1.1290796e-05 1.0986888e-05 1.026677e-05 1.1423512e-05
000090 a4 7f 44 37 77 57 3f 37 77 7e 4d 37 7a e5 6d 37
       1.1712229e-05 1.1404852e-05 1.2248397e-05 1.417973e-05
0000a0 e9 ae bf 37 20 8f 07 36 2a 12 f6 35 99 d1 fa 35
       2.2850423e-05 2.0199877e-06 1.8333715e-06 1.8687452e-06
0000b0 c5 df f2 35 4d 66 ee 35 c4 15 df 35 59 bf c8 35
       1.809553e-06 1.7762155e-06 1.6621129e-06 1.4956851e-06
0000c0 3b 37 b8 35 0e 95 a6 35 3f 96 84 35 6d 6e 71 35
       1.3725142e-06 1.2411344e-06 9.878494e-07 8.9940187e-07
0000d0 f9 2f 3a 35 22 f2 33 35 56 86 58 35 cd 0d 83 35
       6.936021e-07 6.7035046e-07 8.0661755e-07 9.764277e-07
0000e0 9b 91 8d 35 a5 48 c2 35 b7 13 e3 35 1c 04 00 36
       1.0547695e-06 1.4475269e-06 1.6918556e-06 1.9075878e-06
0000f0 54 7b 03 36 8e 8b 08 36 a6 80 09 36 cb a5 0e 36
       1.9592308e-06 2.034681e-06 2.0489474e-06 2.1256153e-06
000100 c5 0c 08 36 c3 12 0c 36 ad 24 0c 36 3f ff 09 36
       2.0273012e-06 2.0872546e-06 2.0882974e-06 2.0563164e-06
000110 85 38 0d 36 3f 04 10 36 b4 51 09 36 e8 26 14 36
       2.1043536e-06 2.1460144e-06 2.0462148e-06 2.2076365e-06
000120 3d 9c 10 36 4b 3d 11 36 ab 3d 0c 36 84 b0 11 36
       2.1548615e-06 2.164236e-06 2.0897521e-06 2.170943e-06
000130 02 5b 0e 36 86 ac 0b 36 2a 95 0a 36 f2 a1 10 36
       2.1212622e-06 2.0813036e-06 2.0650427e-06 2.1551937e-06
000140 77 b8 08 36 19 0f 3f 36 c6 7c 03 36 43 e1 fa 35
       2.0372952e-06 2.8470006e-06 1.959315e-06 1.8692011e-06
000150 95 93 ff 35 bb 98 fd 35 d7 e6 ff 35 2a 31 fe 35
       1.9041933e-06 1.8894419e-06 1.9066164e-06 1.8938783e-06
000160 a7 27 ed 35 96 64 e9 35 26 47 d7 35 29 93 bb 35
       1.7669416e-06 1.7389127e-06 1.6039455e-06 1.3975415e-06
000170 0f 2a b3 35 af 70 8f 35 30 31 7d 35 f5 4b 8a 35
       1.334878e-06 1.0687125e-06 9.432142e-07 1.0303908e-06
000180 df e8 80 35 e7 f9 78 35 7a 17 86 35 58 3f 96 35
       9.604518e-07 9.2750855e-07 9.990611e-07 1.1194306e-06
000190 d4 32 bf 35 50 a8 b5 35 6e bf be 35 b7 f9 d9 35
       1.4245402e-06 1.3534536e-06 1.4211817e-06 1.6240436e-06
0001a0 7d 90 ed 35 47 d5 ed 35 aa cf fe 35 f6 20 02 36
       1.7699928e-06 1.7719948e-06 1.8984913e-06 1.9390695e-06
0001b0 c7 dc 03 36 f5 40 07 36 da 7d 06 36 ee 23 07 36
       1.964903e-06 2.0154378e-06 2.0040811e-06 2.0137481e-06
0001c0 75 72 0f 36 df 88 0f 36 de c8 0a 36 e3 f3 0a 36
       2.1375283e-06 2.138833e-06 2.0680523e-06 2.0705563e-06
0001d0 e1 d4 11 36 7e 83 07 36 99 23 0c 36 ad 68 04 36
       2.1730596e-06 2.0193106e-06 2.0882346e-06 1.9730462e-06
0001e0 88 90 07 36 3c 65 04 36 1a ce 42 36 30 ed 06 36
       2.0200696e-06 1.972846e-06 2.902822e-06 2.0105617e-06
0001f0 72 63 07 36 8a 69 04 36 3d 79 06 36 95 56 09 36
       2.0174452e-06 1.9730965e-06 2.0038126e-06 2.0464988e-06
000200 15 8c 08 36 01 30 06 36 d5 d0 05 36 60 ea 03 36
       2.0347118e-06 1.9995498e-06 1.99401e-06 1.9656945e-06
000210 1a db 07 36 bc e4 03 36 e9 e8 03 36 b2 c6 04 36
       2.0244102e-06 1.9653662e-06 1.9656093e-06 1.9785189e-06
000220 f6 df 03 36 f4 c8 08 36 d3 8b 06 36 2f cb 07 36
       1.9650884e-06 2.038255e-06 2.0048944e-06 2.0234836e-06
000230 cc 51 05 36 1f ea 06 36 5a fd 02 36 b1 60 07 36
       1.9866156e-06 2.0103832e-06 1.951898e-06 2.017285e-06
000240 b2 62 05 36 d7 2a 08 36 fa 80 06 36 6a 31 05 36
       1.9875993e-06 2.0290515e-06 2.004263e-06 1.9847307e-06
000250 6d a4 08 36 b2 2d 03 36 8f 40 09 36 79 2d 04 36
       2.0361288e-06 1.954712e-06 2.045217e-06 1.9696001e-06
000260 8e 01 07 36 b2 03 03 36 05 ba 04 36 65 c3 04 36
       2.0117473e-06 1.9522672e-06 1.977781e-06 1.9783267e-06
000270 d1 b7 09 36 09 3a 05 36 69 36 06 36 a8 a0 07 36
       2.0521586e-06 1.9852325e-06 1.9999227e-06 2.0210082e-06
000280 a3 22 0a 36 c5 60 06 36 22 88 05 36 1c 54 0c 36
       2.0583764e-06 2.0023883e-06 1.9897784e-06 2.0910584e-06
000290 4d 93 05 36 11 42 08 36 16 98 04 36 1c fb 07 36
       1.9904285e-06 2.0304035e-06 1.9758058e-06 2.0262733e-06
0002a0 9e 9f 05 36 c7 8b 09 36 78 b4 07 36 49 24 07 36
       1.9911454e-06 2.0495952e-06 2.0221614e-06 2.0137688e-06
0002b0 13 e9 05 36 1c ec 05 36 e7 0d 05 36 27 1f 04 36
       1.9954211e-06 1.9955978e-06 1.9826637e-06 1.9687666e-06
0002c0 92 d3 08 36 cb a9 03 36 ff d7 07 36 1c e6 04 36
       2.038873e-06 1.9619354e-06 2.0242294e-06 1.9803474e-06
0002d0 c3 a7 04 36 d3 bf 07 36 19 a2 03 36 7f ef 04 36
       1.9767183e-06 2.0228224e-06 1.9614874e-06 1.9808938e-06
0002e0 8d 7f 07 36 a7 1d 03 36 41 dd 05 36 1e 49 04 36
       2.0190812e-06 1.953778e-06 1.994733e-06 1.9712093e-06
0002f0 76 e4 05 36 b6 18 04 36 fe e3 08 36 45 11 09 36
       1.9951526e-06 1.9683916e-06 2.0398288e-06 2.0424643e-06
000300 5f 16 09 36 49 6b 03 36 9e a5 08 36 30 02 03 36
       2.0427613e-06 1.958297e-06 2.036198e-06 1.9521794e-06
000310 d8 25 07 36 35 d9 07 36 34 4f 08 36 8f ed 08 36
       2.0138596e-06 2.0242999e-06 2.0311682e-06 2.0403857e-06
000320 89 77 03 36 2f dd 08 36 ad d4 06 36 f6 0b 0a 36
       1.95901e-06 2.0394325e-06 2.009135e-06 2.0570565e-06
000330 eb 74 0c 36 25 4f 06 36 3c 39 e9 33 40 37 e5 33
       2.092968e-06 2.0013624e-06 1.0860319e-07 1.06736934e-07
000340 2a 1e c9 34 80 22 23 35 bb 00 87 35 99 4a 09 36
       3.7461115e-07 6.0772436e-07 1.0058496e-06 2.0458012e-06
000350 04 43 68 36 24 18 8e 36 50 31 9f 36 fa d4 bc 36
       3.4609702e-06 4.23474e-06 4.74431e-06 5.6276303e-06
000360 84 d2 d0 36 18 8e cb 36 d0 50 eb 36 06 81 ff 36
       6.2233903e-06 6.0664133e-06 7.0129536e-06 7.6146125e-06
000370 df ef 0f 37 15 01 24 37 39 3c 20 37 07 15 2f 37
       8.5793135e-06 9.775414e-06 9.550765e-06 1.0435709e-05
000380 66 6b 30 37 bf c9 33 37 42 e4 3c 37 d9 a5 41 37
       1.0515423e-05 1.0716204e-05 1.1258819e-05 1.1542311e-05
000390 26 0c 41 37 f1 2f 42 37 18 27 51 37 a4 1a 43 37
       1.1506525e-05 1.1574463e-05 1.2466473e-05 1.16291085e-05
0003a0 e5 11 3d 37 1c 44 42 37 47 07 30 37 9d 8f 2e 37
       1.1269444e-05 1.1579159e-05 1.0492112e-05 1.0404646e-05
0003b0 c2 ad 3f 37 7d 42 50 37 9c 04 4c 37 8a 04 40 37
       1.1424943e-05 1.2413247e-05 1.2160421e-05 1.1445149e-05
0003c0 97 68 53 37 cd 65 59 37 84 73 50 37 cd 49 5f 37
       1.2600932e-05 1.295791e-05 1.2424662e-05 1.3309019e-05
0003d0 c8 df 85 37 99 e7 cf 37 38 0f 07 36 cb 9e fe 35
       1.5959042e-05 2.4784169e-05 2.0125426e-06 1.897069e-06
0003e0 3c c1 fd 35 4a f4 f3 35 50 72 f4 35 62 fd ed 35
       1.8906208e-06 1.8176008e-06 1.8212686e-06 1.773162e-06
0003f0 18 d1 ef 35 09 01 f2 35 bf 54 e4 35 dd 48 c9 35
       1.7867742e-06 1.8030706e-06 1.7011988e-06 1.4996873e-06
