test/test_results/triplets/results/model/model_epoch0355.tar (torch, 74324 bytes, 3 tensors)

fc.weight f4 [100, 41]
00000000: 59e0 433b 980c 1940 b6a8 0e40 aa82 2740
00000010: 4a2c 2540 225f 2740 3141 2140 fe9c 1840
00000020: ad94 1340 6ec1 0f40 36aa 0440 5362 f53f
00000030: 90c2 e63f ce1a da3f b83b cd3f d563 bd3f
00000040: f997 b93f 0164 aa3f 3bb5 a13f f0c5 a93f
00000050: 8a43 a03f 052d 9d3f 64ee 9e3f ac0e a23f
00000060: bdba 9a3f 32d5 a23f 5f7f 9c3f cc7a 9c3f
00000070: d2a9 933f d4fd 833f 0ac1 923f cba3 683f
00000080: f81e 593f 59c7 393f 0724 2a3f f3d7 f63e
00000090: ebb4 073f 0863 223e 6762 a53d f0d2 d13d
000000a0: 6eb8 4d39 1d5a 6e3b e2f5 243b 6606 c63a
000000b0: 4dab 683b 0c2b 463b 1635 943a 6100 5b3b
000000c0: 1d0e 413a 9506 5f3b e869 df3a 64a0 623b
000000d0: 25cf 7f3a 76b1 0f39 6f19 333b 8ccb 8c3a
000000e0: 2e0a 903a 6fdb 3c3b 6b7e 053a 37cf 123a
000000f0: 4aa6 0a3b e811 b03a e852 4b3b 9aa9 423b
00000100: bb3c 273b 9161 b439 5e01 633b 2e60 223b
00000110: 7409 533a f5ff 403b 69b2 693b b19a 2a3b
00000120: 3337 6a3b 1dfa 6039 1597 6d3b 9c0f 6f3b
00000130: 7370 403b 1846 5f3b 12a1 d63a e7ad 0239
00000140: e64f 1a3b 858c 1a3b fb58 4d39 392e ab3a
00000150: 26c5 713b 8909 393b a141 563b b0f6 673b
00000160: f8bb 103b a9a0 6a3b 1bb7 b53a 6404 c63a
00000170: 91d0 d239 3512 bf3a 1b9d 503b 4cbd 143b
00000180: f5ab 103b 7f75 3e3b 4502 d23a 9e01 6e3b
00000190: b7ce ab3a e0cf b33a 9795 233b 2f9a c93a
000001a0: 788e 6b3b c7c4 293b 64c5 d638 9fcf 5e3b
000001b0: 81e2 493b af05 2e3b 0aef 123b 0bd9 5d3b
000001c0: 23dc 243b c27a f139 a677 433b 77fe 693b
000001d0: 1df7 9c3a 7194 3f3b ee94 723b 751d 283b
000001e0: 896f 583b 2d88 6b3b 88e2 603b 518e 5b3b
000001f0: 7837 6e3b b965 d93a 4902 653b 5054 49b7
00000200: 0259 233b 67fb 663b f176 613b b941 f73a
00000210: 5430 443b 33c3 0c3b f43e 0f3b 3ae5 413b
00000220: a02a 153b 9274 083a 8cee 713b decb bf3a
00000230: 3fcf 643b 7a75 653b fc0f ca3a 30a9 133b
00000240: 6fe4 703b ff80 093a 2eff 683b 3c68 643b
00000250: 204c 563a abd8 093b 26c1 ac3a e431 373b
00000260: 82f3 333b 650b dd3a 4f97 533b 0b2d 683b
00000270: e583 9e3a 09a5 4f3b 4d26 513b 65e2 583b
00000280: e230 503b 68de 453b 5075 4a3b d795 663b
00000290: 7a1b 153b 36f1 5b3b c363 f63a f1fc 5e3b
000002a0: dfcc 423b e72e 7239 2446 643b 66fb 693b
000002b0: 2545 653b 6e8e 653b a22e 443b 4a3a 0f3b
000002c0: f0d2 5439 9780 083b 00a6 143b a5f3 4e3b
000002d0: 8dc1 3d3b b18e 0e3b f16f 093b 8f30 473b
000002e0: ca31 163b 27f0 ec3a 81e0 6f3b 61e1 3d3b
000002f0: 264a 753b ab5e 3d3b 9236 603a c4eb a13a
00000300: 96be 2f3a 9304 1a3b 02d0 0c3a 6e2f f73a
00000310: 348b be3a 7609 873a c20f 013a 070e 103b
00000320: 2992 fa3a f8b1 fe3a 49f7 5c3b b22c 893a
00000330: 5ed4 623b adf7 3c3b 9e15 7340 5cc9 6040
00000340: 3fa3 4340 7b52 3a40 4234 3640 996e 2b40
00000350: 8bfc 1f40 397d 1440 62d5 1340 c723 0940
00000360: c893 0140 346c f33f 68a4 e53f 079b dd3f
00000370: b881 ce3f 7a4e cd3f 7fba be3f 7093 bb3f
00000380: ee5c ba3f 5381 b43f 7214 a73f bdd7 af3f
00000390: 0355 a73f 7518 973f 219f 933f 3d45 843f
000003a0: 9967 903f ba98 843f 10d5 7b3f 986f 7c3f
000003b0: 6f97 553f 8129 5a3f 52a7 3c3f 3778 163f
000003c0: af78 eb3e 4ef0 de3e f8f5 4b3e ccfb d23d
000003d0: 2c8f 2f3e 7672 f0b8 3cdf 603b 2f51 433b
000003e0: a3f8 0e3b aa50 1a3b 5d79 f53a 6c9f 7a3a
000003f0: 839e 413b 46a9 6f3b 7f33 4b3b eb60 743b
0.002988836 2.3913937 2.2290473 2.61735 2.5808282 2.6151814 2.519604 2.384582
2.3059494 2.246181 2.0728889 1.9170631 1.8028126 1.703943 1.603385 1.4796091
1.4499503 1.3311769 1.2633432 1.3263531 1.2520611 1.2279364 1.2416501 1.2660728
1.2088238 1.2721312 1.222637 1.2224975 1.15362 1.0311837 1.1465161 0.9087493
0.8481288 0.72569805 0.66461223 0.4821163 0.53010434 0.1585809 0.080754094 0.10245311
0.00019619029 0.003636963 0.0025170972 0.0015108108 0.0035502494 0.003023806 0.0011307325 0.0033416974
0.0007364469 0.0034031023 0.0017045112 0.0034580464 0.0009758345 0.00013703652 0.0027328392 0.0010741814
0.0010989362 0.0028817316 0.0005092385 0.00056003354 0.0021156245 0.0013433071 0.0031024758 0.0029703141
0.0025518376 0.00034404968 0.0034638266 0.0024776566 0.000805042 0.0029449437 0.003565932 0.0026032145
0.0035738468 0.00021455479 0.0036253382 0.003647781 0.00293639 0.0034068879 0.0016374907 0.0001246255
0.0023546158 0.0023582291 0.00019583471 0.001306004 0.0036891191 0.0028234443 0.0032692926 0.003539484
0.0022084694 0.0035801327 0.0013863774 0.001510751 0.00040209715 0.001457757 0.0031831923 0.0022695838
0.002207515 0.0029061732 0.0016022405 0.0036316882 0.001310787 0.0013718568 0.0024960989 0.0015381033
0.0035943072 0.0025904642 0.00010241082 0.0033998264 0.0030805173 0.002655368 0.002242031 0.0033851292
0.0025155626 0.00046058564 0.0029825955 0.0035704651 0.0011975501 0.0029232765 0.0037015039 0.0025652323
0.0033025465 0.0035939321 0.003431471 0.0033501575 0.003634898 0.0016586102 0.003494399 -1.2000164e-05
0.002492488 0.0035245062 0.003440317 0.0018864191 0.0029936032 0.0021478652 0.0021857591 0.0029586093
0.0022761002 0.00052053586 0.0036915867 0.0014632901 0.0034913567 0.0035012648 0.0015416141 0.0022531264
0.003675725 0.0005245357 0.003555249 0.0034852168 0.00081747957 0.0021033685 0.0013180121 0.002795332
0.0027458374 0.0016864358 0.0032286232 0.0035427238 0.0012093751 0.0031684062 0.0031913698 0.0033093926
0.0031767418 0.003019238 0.0030892678 0.0035184526 0.0022751973 0.003356052 0.0018798042 0.0034025277
0.0029724163 0.00023096391 0.0034831846 0.0035702824 0.003498384 0.0035027522 0.0029935022 0.0021854811
0.00020296476 0.0020828599 0.0022681952 0.003157833 0.0028954477 0.0021752531 0.0020971263 0.0030393933
0.002291786 0.0018076942 0.003660232 0.0028973448 0.003742823 0.0028895538 0.00085530535 0.0012353589
0.000670412 0.0023501262 0.0005371572 0.001885874 0.0014537335 0.0010302502 0.00049233076 0.0021981017
0.0019117045 0.0019431701 0.003371673 0.0010465591 0.0034611444 0.002883415 3.7981944 3.51229
3.0568388 2.9112842 2.8469396 2.6786253 2.499789 2.320143 2.3098989 2.1428087
2.0246449 1.9017396 1.7940798 1.7312936 1.6133337 1.6039574 1.4900664 1.4654369
1.455961 1.4101967 1.3053114 1.3737713 1.3072819 1.1804339 1.1532937 1.033363
1.1281615 1.0359108 0.9837198 0.9860778 0.83434194 0.8521958 0.7369281 0.58777183
0.45990512 0.43542713 0.19918048 0.10301933 0.1714446 -0.00011465412 0.0034312746 0.0029803028
0.002181568 0.0023546615 0.0018728186 0.0009560499 0.0029543943 0.00365694 0.0031006036 0.0037289213

exp_avg f4 [100, 41]
00000000: e201 0d39 ba31 07b8 7c07 a2b8 f5f5 7439
00000010: f9fd 0139 c16d 80b8 274e 95b9 afc4 5cb9
00000020: bd22 33b8 98ad 8039 019a 2fba 61b4 493a
00000030: 274f c8b9 8f93 e638 7b55 5b39 0546 8cba
00000040: 2c16 3a3a bb25 88ba 754f f437 c7fb 2d3a
00000050: 5aa6 c838 8875 b1b9 f648 2c3a 000a abba
00000060: cda3 0c3a a1e3 b9b9 5eff 3f3a b5a2 99b9
00000070: bc51 da39 5632 a3b8 4502 9aba 22ad e6b8
00000080: 8b1b 17ba 1271 f83a ee01 0e39 263d 9bb9
00000090: d5a8 513a bce6 20ba 257d 9db9 203a e1ba
000000a0: 562e 75ba 0b7b 6338 635b dcb9 af7d 2aba
000000b0: 9ef8 0ab9 480d 0e39 0616 4139 7482 ea38
000000c0: bb31 4339 d82a 30b9 16fa 3a39 9630 be38
000000d0: 3ffc 4239 18a7 4739 5213 1f39 91f8 42ba
000000e0: ea84 43ba 50a9 1439 0cd6 5eba ace7 4339
000000f0: e263 3239 8adf 3e39 4982 0639 bd61 9fb9
00000100: 4b3a 2639 8ccd 4539 a806 31b9 907f 2839
00000110: 7b23 4439 4028 9fb9 505a 6538 8b69 deb9
00000120: 684d 8d38 d3ec 4539 aecc 9238 5e20 37b8
00000130: d131 9fb9 5727 2fb9 5f1e 3a39 200a 4839
00000140: a8c6 2839 bcd4 2c39 c8f6 4639 bcb2 3e39
00000150: eea1 36b8 71e8 1839 11a1 ea38 fc62 8f38
00000160: ad29 2d39 ef8c 8e38 cba5 3d39 37c2 3c39
00000170: a70f 4439 7664 3c39 b83f 0539 e328 00ba
00000180: 78cd 2d39 8a85 1039 1332 3b39 8021 1b38
00000190: c124 4039 24c2 3d39 dc8f dcb9 358a 2aba
000001a0: f037 2738 ca66 2039 b97b 4839 f400 d238
000001b0: a28c 0d39 fa99 2139 f8dd 2d39 a81d 5cb9
000001c0: b829 2539 a98a 4439 170e 0c39 07ab 07b9
000001d0: c0c2 3e39 2343 1239 600d 8fb8 c34b ddb9
000001e0: b7a8 d938 f84d ba37 eadc b9b8 60a9 ea38
000001f0: c629 35b8 195f 3a39 75cd a938 584e 4639
00000200: f16f dcb9 b5e6 8c38 01b8 d638 79af 3539
00000210: 7f52 9fb9 4fa9 3039 7d64 3139 394f 1239
00000220: f528 2d39 6a5f 4539 950e 42b8 a25b 2aba
00000230: dd02 bd38 ee29 30b9 6fba 3b39 d416 00ba
00000240: ff39 1838 47c4 5dba 3049 0cb9 02d0 aa38
00000250: e60a 4239 b162 3139 1df0 3d39 65c3 1839
00000260: 977a bcb9 7eab 3839 03c9 fa38 f8c3 5d38
00000270: 3d87 4139 e56b f938 8ebf fc38 3cfc ec38
00000280: 8a0c f938 1c98 0d39 15a9 0739 20ed 7637
00000290: 142f 2e39 d358 5bb9 7885 3639 fa48 30b9
000002a0: fb16 0d39 e289 4739 5922 31b9 68cd d1b8
000002b0: ab36 c138 cdd1 a938 45d4 1139 f81b 2f39
000002c0: 3bca 4639 5322 3339 4a45 00ba 5f83 0439
000002d0: 7c73 1439 5911 01ba 2deb 3239 e6ca 0d39
000002e0: d949 00ba b900 3839 8060 7c35 453b 1139
000002f0: 42fd a4b7 6e55 1739 a391 4439 158f 3e39
00000300: 7ae2 4339 0e89 2a39 0ef0 4239 c159 3639
00000310: 787b 2aba b253 42ba 734f 5eba 8d87 00ba
00000320: 1de7 13ba e015 3439 e382 da38 ee9b 4239
00000330: a42f 3937 dc5d 1339 375f 46b9 4060 80b9
00000340: be2a 9239 da9b 2939 9920 97b8 8159 c6b9
00000350: 6b3f 3ab9 7e26 94b8 15bf 7b39 e078 3eba
00000360: 68c3 583a 99ac 00ba 5d4b 2639 00c7 4939
00000370: 9bf8 96ba e01c 3f3a a8f4 96ba c647 d737
00000380: c423 3e3a 5077 b538 c6f6 f3b9 daea 443a
00000390: bb60 cfba 012f 443a b27b e1b9 189b 453a
000003a0: 9e3e c5b9 3b3b 203a 8518 a3b9 43c7 8cba
000003b0: 60c6 aa37 d4a7 4eba 46a4 033b 56a2 6639
000003c0: 5909 94b9 976f 643a c265 36ba d021 a4b8
000003d0: 4dd7 f3ba a422 0fb9 b744 d738 7b4a 1339
000003e0: c07a 00ba 1f40 2b39 5129 14ba 28e6 4139
000003f0: 3c2a 1339 24cc 92b8 7bf2 84b9 0c7a 37b8
0.00013447509 -3.223282e-05 -7.726156e-05 0.0002336128 0.00012397011 -6.123959e-05 -0.00028477723 -0.00021054105
-4.270928e-05 0.000245434 -0.00066986686 0.000769442 -0.00038205946 0.000109947396 0.00020917311 -0.001070202
0.0007098641 -0.0010387221 2.9124067e-05 0.0006636944 9.5677286e-05 -0.00033847638 0.00065721513 -0.0013049245
0.00053649844 -0.00035455546 0.00073241245 -0.0002930366 0.00041641097 -7.7818215e-05 -0.0011749944 -0.00010999503
-0.0005764297 0.0018954596 0.00013542894 -0.00029609463 0.0007997875 -0.0006137898 -0.00030038613 -0.001718346
-0.0009352913 5.423561e-05 -0.00042029758 -0.00065037137 -0.00013253323 0.00013547123 0.00018414119 0.00011182288
0.00018615175 -0.00016800629 0.00017831507 9.068956e-05 0.00018595251 0.00019040366 0.00015170619 -0.0007437552
-0.00074584654 0.00014177454 -0.00085005234 0.00018682954 0.00017012612 0.00018203087 0.00012827771 -0.00030399664
0.0001585271 0.00018863956 -0.00016882515 0.00016069249 0.00018705234 -0.00030356832 5.4681965e-05 -0.00042421775
6.737822e-05 0.00018875608 6.999947e-05 -4.3660744e-05 -0.0003036396 -0.00016703956 0.00017749656 0.00019077258
0.00016095734 0.00016482448 0.00018974685 0.00018186396 -4.354299e-05 0.00014582441 0.000111879905 6.837209e-05
0.00016514091 6.7973386e-05 0.00018086207 0.00018001428 0.00018697848 0.00017966502 0.00012707605 -0.0004888905
0.00016575109 0.00013782657 0.00017852364 3.698608e-05 0.00018324239 0.00018096768 -0.00042068854 -0.000650558
3.9868e-05 0.00015297081 0.00019119577 0.00010013758 0.00013499198 0.00015411517 0.00016581255 -0.00020991883
0.00015751168 0.00018743672 0.0001335669 -0.00012938316 0.00018192362 0.00013948655 -6.821263e-05 -0.00042208852
0.00010378792 2.2209235e-05 -8.862636e-05 0.00011189538 -4.3192667e-05 0.00017773769 8.096817e-05 0.00018911937
-0.00042045073 6.718693e-05 0.000102385886 0.00017326874 -0.00030388308 0.0001684774 0.0001691747 0.00013953158
0.00016513823 0.00018822929 -4.6266785e-05 -0.00064986397 9.0127556e-05 -0.00016800288 0.00017903162 -0.0004886214
3.6293637e-05 -0.00084597286 -0.00013378705 8.144976e-05 0.00018505342 0.00016916801 0.00018113894 0.0001456864
-0.0003594949 0.00017611493 0.0001195837 5.2873016e-05 0.00018456294 0.00011893342 0.00012051976 0.00011300339
0.00011875581 0.00013503473 0.00012937591 1.4717953e-05 0.00016611471 -0.00020918557 0.00017406594 -0.00016811854
0.00013455369 0.00019029484 -0.00016892831 -0.000100041565 9.21314e-05 8.0976264e-05 0.00013907354 0.0001669972
0.00018958088 0.00017083557 -0.00048931374 0.0001263744 0.00014157401 -0.00049235445 0.00017063013 0.00013522393
-0.00048938167 0.00017547877 9.401774e-07 0.00013850357 -1.9668256e-05 0.00014432307 0.0001874627 0.00018173114
0.00018681018 0.0001626352 0.00018590709 0.00017390308 -0.00065033836 -0.0007412984 -0.0008480467 -0.0004903011
-0.00056420435 0.00017174287 0.000104194296 0.0001855937 1.10379515e-05 0.00014053978 -0.00018918222 -0.00024485774
0.00027879135 0.00016175155 -7.206313e-05 -0.00037832189 -0.00017761967 -7.06436e-05 0.00024008409 -0.00072659366
0.0008268864 -0.00049085316 0.00015859069 0.00019242987 -0.0011518182 0.00072903745 -0.0011517005 2.566342e-05
0.00072532543 8.652976e-05 -0.00046532432 0.0007511802 -0.0015821675 0.0007483811 -0.00043007504 0.00075380644
-0.00037621422 0.00061123417 -0.0003110805 -0.0010740537 2.0357955e-05 -0.00078832847 0.0020086928 0.00021994984
-0.00028235724 0.0008714138 -0.0006957912 -7.8264275e-05 -0.0018603593 -0.00013650447 0.00010264798 0.00014046759
-0.00049011037 0.00016331718 -0.00056519086 0.00018491654 0.00014034746 -6.999847e-05 -0.00025357664 -4.3744265e-05

exp_avg_sq f4 [100, 41]
00000000: a56a 0636 dad8 9f33 2e4a b033 6295 a434
00000010: fb87 1e35 3f42 6135 e2b1 c635 8db4 0d36
00000020: 89c3 3d36 4e26 6836 85b9 9136 413b 9e36
00000030: 6aa3 b436 3b7b bb36 7d80 d136 4473 e636
00000040: f75f f636 5142 f036 b155 f536 2218 0537
00000050: 53a7 1737 5fd4 1837 fc87 1737 b804 1c37
00000060: 2acf 2737 0c8c 2c37 1fd4 2d37 d787 3137
00000070: e628 2d37 e884 2337 5621 2b37 2fcd 3737
00000080: 27c2 3d37 56c2 4237 9349 2937 6d51 3d37
00000090: 5991 3e37 23a5 3837 3f8b 3537 b971 6c37
000000a0: 1170 bc37 6987 0736 d031 0936 a3ad 0936
000000b0: 586a 0836 764c 0636 341c 0436 d483 0636
000000c0: 0c89 0336 8336 0836 e366 0436 a283 0636
000000d0: 5d86 0336 03ab 0236 0c5f 0536 0555 0936
000000e0: df4c 0936 57d5 0536 ecab 0936 7d6c 0336
000000f0: 7516 0536 4544 0436 984c 0636 32d6 0836
00000100: 6d99 0536 c95f 0336 a268 0836 9294 0536
00000110: a9c3 0336 d2dc 0836 f92d 0736 5243 0936
00000120: 5017 0736 1e34 0336 2b13 0736 c3e9 0736
00000130: 47f7 0836 e3c7 0836 6e5e 0536 a36d 0436
00000140: f5ce 0736 29e6 0a36 db73 0336 9c72 0436
00000150: 080c 0836 ec0b 0636 a5b0 0636 c730 0736
00000160: b04b 0536 1322 0736 1542 0436 bc4f 0436
00000170: bf21 0336 2728 0436 a2ff 0536 7cde 0836
00000180: 5dc6 0436 469f 0536 7a4b 0436 f60b 0736
00000190: 17fb 0336 c806 0436 1dc8 0836 4e6b 0936
000001a0: af3a 0736 6b8a 0536 00f5 0236 c9b7 0636
000001b0: af27 0636 9e9b 0536 0b5d 0536 b993 0836
000001c0: ae8c 0536 4a59 0336 a71c 0636 8839 0836
000001d0: ac2d 0436 4338 0636 2878 0836 26e3 0936
000001e0: 890b 0836 698f 0936 3479 0d36 68e5 0636
000001f0: c908 0836 17cc 0436 3f20 0736 321f 0336
00000200: 7e43 0936 1f30 0736 99e1 0636 4eef 0436
00000210: f9f1 0836 e733 0536 f33a 0536 0329 0636
00000220: e441 0536 b86a 0336 ecf3 0736 2875 0936
00000230: 24f3 0636 5670 0836 268a 0436 0435 0936
00000240: 9c52 0736 a5cc 0936 ce3f 0836 f7f3 0636
00000250: c9b3 0336 6a0f 0536 6336 0436 fad7 0536
00000260: 19e3 0836 8da2 0436 2169 0636 35f1 0636
00000270: 792c 0436 ff66 0636 0199 0636 9ce8 0636
00000280: e51f 0736 fc72 0736 df7e 0836 f5ab 0c36
00000290: 558b 0536 3dcf 0836 0d0d 0536 158e 0836
000002a0: ea4c 0636 d25e 0336 c697 0836 c83a 0836
000002b0: 23f8 0636 8a02 0736 2d31 0636 2e41 0536
000002c0: 4a30 0336 ae17 0536 d951 0936 9561 0636
000002d0: 0012 0636 723a 0936 a30d 0536 7038 0636
000002e0: b147 0936 57ca 0436 e08e 0736 c905 0636
000002f0: 98cd 0736 87e6 0536 9bc9 0336 5d1e 0436
00000300: 8794 0336 4365 0536 3179 0336 04dc 0436
00000310: 7957 0936 5fad 0936 5ca7 0936 375c 0936
00000320: 37b8 0936 9ba7 0536 95f8 0736 0a39 0636
00000330: 74a5 0c36 a947 0636 8b51 2e34 3e55 2e34
00000340: c86c 3e35 b14f 9435 97c7 bd35 6bbf 1936
00000350: 69c1 5336 c74a 8536 3fab 9c36 d958 bf36
00000360: dff2 d036 1626 eb36 0765 f036 b7bf 0737
00000370: 3471 1737 3810 2337 030c 2137 4fa1 2437
00000380: b772 2e37 4a91 4437 2c12 4837 79eb 4337
00000390: 323c 4d37 689d 5d37 40d6 6037 32f7 4f37
000003a0: 63dc 4f37 d87e 5037 e9d4 4437 3e42 4837
000003b0: 93f9 5237 c6ff 5337 424d 5f37 f68e 4537
000003c0: 6a99 5937 1794 5637 ad03 4e37 1215 4a37
000003d0: de22 8537 15f5 cb37 7a07 0736 0d38 0636
000003e0: 724b 0936 d274 0536 1562 0936 a6ee 0336
000003f0: 1123 0636 4600 0836 e68e 0836 fbd5 0736
2.0029631e-06 7.4434595e-08 8.209132e-08 3.065607e-07 5.9057464e-07 8.391543e-07 1.480392e-06 2.1115732e-06
2.827701e-06 3.459299e-06 4.342934e-06 4.715665e-06 5.383442e-06 5.58738e-06 6.2436434e-06 6.867953e-06
7.342543e-06 7.1602776e-06 7.311545e-06 7.933037e-06 9.03926e-06 9.1093525e-06 9.031963e-06 9.299423e-06
1.000221e-05 1.0284606e-05 1.0360992e-05 1.058165e-05 1.0321126e-05 9.746502e-06 1.0200156e-05 1.0955423e-05
1.13104825e-05 1.1608548e-05 1.0090315e-05 1.1284236e-05 1.1358724e-05 1.10057035e-05 1.08208615e-05 1.4093174e-05
2.2463531e-05 2.0195387e-06 2.0443586e-06 2.051566e-06 2.032748e-06 2.0012062e-06 1.968595e-06 2.004429e-06
1.9600293e-06 2.029731e-06 1.972942e-06 2.0044176e-06 1.959873e-06 1.9471051e-06 1.987387e-06 2.0464079e-06
2.0459336e-06 1.9942725e-06 2.0514663e-06 1.958367e-06 1.9831616e-06 1.970927e-06 2.001214e-06 2.0390257e-06
1.990785e-06 1.9576275e-06 2.0326484e-06 1.9905024e-06 1.963441e-06 2.0394114e-06 2.0143327e-06 2.0453776e-06
2.0130137e-06 1.9550857e-06 2.0127725e-06 2.0252635e-06 2.0409514e-06 2.0381929e-06 1.987351e-06 1.973335e-06
2.0237032e-06 2.0697573e-06 1.9587958e-06 1.9736244e-06 2.0272582e-06 1.9974495e-06 2.0070377e-06 2.014496e-06
1.98626e-06 2.0136401e-06 1.9707998e-06 1.9715944e-06 1.9540164e-06 1.9692905e-06 1.9967342e-06 2.0395082e-06
1.9784995e-06 1.9911254e-06 1.9713466e-06 2.012353e-06 1.9666675e-06 1.967348e-06 2.038206e-06 2.047705e-06
2.0150726e-06 1.9899114e-06 1.9514118e-06 2.0074533e-06 1.9990655e-06 1.9909126e-06 1.9872703e-06 2.0351565e-06
1.990043e-06 1.9572494e-06 1.9984234e-06 2.0299067e-06 1.9696117e-06 2.0000305e-06 2.033552e-06 2.0546809e-06
2.0272294e-06 2.0498067e-06 2.1081187e-06 2.0101088e-06 2.0270693e-06 1.9788329e-06 2.0135337e-06 1.953868e-06
2.0453876e-06 2.0144578e-06 2.009887e-06 1.9808826e-06 2.0406426e-06 1.9848756e-06 1.9852857e-06 1.9991428e-06
1.9856898e-06 1.958264e-06 2.0258549e-06 2.0482785e-06 2.0109082e-06 2.0330967e-06 1.9749946e-06 2.044545e-06
2.0164653e-06 2.053371e-06 2.0302718e-06 2.0109562e-06 1.962517e-06 1.9827517e-06 1.970119e-06 1.994426e-06
2.0397767e-06 1.976415e-06 2.002875e-06 2.0107957e-06 1.969542e-06 2.0027508e-06 2.0056616e-06 2.0102952e-06
2.0135133e-06 2.0183497e-06 2.0339428e-06 2.0961718e-06 1.9899646e-06 2.0386208e-06 1.982614e-06 2.0348282e-06
2.0012326e-06 1.9575714e-06 2.0353923e-06 2.0299794e-06 2.011199e-06 2.0118046e-06 1.999618e-06 1.9856484e-06
1.954863e-06 1.9832328e-06 2.0462232e-06 2.0024356e-06 1.9978033e-06 2.044861e-06 1.9826482e-06 2.0000407e-06
2.045632e-06 1.978731e-06 2.0199732e-06 1.9970923e-06 2.023624e-06 1.995273e-06 1.963787e-06 1.9687207e-06
1.9606975e-06 1.9877486e-06 1.9591064e-06 1.9797599e-06 2.0465507e-06 2.0515506e-06 2.0512007e-06 2.0468267e-06
2.0521818e-06 1.9916104e-06 2.0261261e-06 2.0000757e-06 2.0957932e-06 2.0009268e-06 1.6234678e-07 1.6236024e-07
7.0938813e-07 1.1050053e-06 1.4139686e-06 2.2910197e-06 3.155403e-06 3.972414e-06 4.669098e-06 5.702587e-06
6.227157e-06 7.0079795e-06 7.1643185e-06 8.091264e-06 9.0266585e-06 9.719333e-06 9.5991445e-06 9.812719e-06
1.0397917e-05 1.1716338e-05 1.192516e-05 1.1677731e-05 1.22329675e-05 1.32092755e-05 1.3401324e-05 1.2395716e-05
1.2389474e-05 1.2427299e-05 1.1732082e-05 1.1936352e-05 1.2575084e-05 1.2636132e-05 1.3309824e-05 1.1775401e-05
1.2969927e-05 1.2789874e-05 1.2279413e-05 1.2045044e-05 1.5871072e-05 2.4313611e-05 2.012092e-06 2.0000182e-06
2.0458506e-06 1.9886543e-06 2.0471682e-06 1.9659433e-06 1.9987967e-06 2.0265738e-06 2.0348757e-06 2.024112e-06
