test/test_results/triplets/results/model/model_epoch0300.tar (torch, 70740 bytes, 3 tensors)

fc.weight f4 [100, 41]
00000000: a6d4 123b dacd 2240 1bc2 1c40 03aa 2240
00000010: b579 1b40 32e3 1940 7e80 1240 9016 0a40
00000020: 7bf8 0440 5c29 0140 d6a8 ec3f 88d8 de3f
00000030: 7219 d03f c554 c63f 5248 bb3f 26ea ad3f
00000040: 7c33 aa3f 3eba 9d3f 3964 963f d5ee 9c3f
00000050: bf70 953f a79a 913f a178 943f 6388 963f
00000060: 4bae 8f3f d378 963f dc8d 903f 1eef 933f
00000070: 71d8 8c3f 6c5d 803f de6f 8b3f 61ab 633f
00000080: da9c 563f f2de 393f 1e74 253f 8644 f43e
00000090: 4b90 043f 6d14 363e 308d d13d 1239 8e3d
000000a0: 9a87 0639 ebe6 4e3b 82ce 733b 7ffd 603b
000000b0: a959 663b fe62 023b a792 873a 8eb0 073b
000000c0: dc02 2b3b 4d09 683b 587d 3b39 8dc1 133b
000000d0: 17d9 033b d643 803b 38b3 7c3a 5b92 823b
000000e0: de9c 7d3b 432d a03a 4f8e 773b d60e 623b
000000f0: 944b e038 420f f03a d0ac a63a 174b 5c3b
00000100: fbd4 273a a9d5 623b 3bc1 443b e4a9 0c3a
00000110: 3212 683b 5fcb 5f3b 6401 003b ea9b 613b
00000120: 3e86 f83a 560e 743b cdb8 073b 5770 313b
00000130: 1b6c 6e3b 2575 6c3b 338d 243b dbe4 3f3b
00000140: 077c 163b ed74 793a 5bcd 123b 52c8 c638
00000150: 7855 583b fae8 db3a d850 173b 3d13 2a3b
00000160: 0f69 693a e3bc 2a3b 3067 883a cc53 8a3a
00000170: df2c 673b 683a d93a af5c cb3a 7f25 783b
00000180: 23e4 0b39 e613 b43a a831 003a 8e51 273b
00000190: bb40 1a3b fd47 423b d282 743b 6d03 793b
000001a0: 979a 093b 6ce9 273a a6e3 713b 32da e63a
000001b0: fabb 8f3a df11 0c3a 601b c438 6801 503b
000001c0: 813e 0d3a d303 683b 4000 7c3a daca 463b
000001d0: 58fb 443b fc7c df3a 0b96 6b3b e740 4839
000001e0: 12fe b238 3f70 5e3b f3b2 0a3b d8a8 2d3b
000001f0: c8c6 543b 38cf f339 fa3d 2b3b 19b9 643b
00000200: a4b1 6e3b a9b0 1f3b 48cf 0e3b a654 b239
00000210: 889c 693b 90a5 cf39 043f c939 2e06 b03a
00000220: 8e37 ad39 aa85 5f3b ff8e 443b fbc4 6e3b
00000230: cf39 f63a e8f8 543b e865 003b e17d 693b
00000240: 087b 053b 7e65 733b ccf7 493b c593 f23a
00000250: 048c 653b 1c86 b1b8 99c7 293b 6c19 653a
00000260: 563b 5b3b 42f8 843a f5a5 ca3a 629e c33a
00000270: fd13 143b 7323 d23a d09c 0f3b e43e 353b
00000280: a893 6b3b 1d49 103b ea20 2f3b f7c0 df3a
00000290: 9bf8 b93a 30ef 6f3b fe1a 373a a771 6a3b
000002a0: 4d62 f03a 602e 413b 8ec4 663b 330b 563b
000002b0: 34ab 153b 74ed 183b b40a c23a e5aa 153a
000002c0: d3b5 643b c221 5539 3493 703b e57d cc3a
000002d0: 4562 9e3a a3e5 6b3b 58af e838 7831 c03a
000002e0: c818 6a3b d00a 8d3a 7e0c 233b cf38 733a
000002f0: 92e8 2d3b d12d 543a 00c7 4d3b 6731 433b
00000300: c07a 503b a6f9 a139 236c 653b 0662 fd39
00000310: 73f4 683b 62e0 6e3b 0047 733b f9f4 6e3b
00000320: 27eb 503b 3580 333b ff49 ff39 2f47 363a
00000330: 11bb e83a 2394 0a3b d088 5f40 f24a 5240
00000340: 8180 3540 88ca 2a40 58b5 2440 838d 1a40
00000350: 4f9f 0f40 50b8 0440 034f 0340 1f21 f43f
00000360: 3e6e e93f 2d57 db3f 216b d03f 4310 c93f
00000370: 7110 bc3f 458e bb3f 9ef7 ae3f 5fec ac3f
00000380: fcc5 ab3f bb24 a73f 997c 9b3f c7ec a23f
00000390: c261 9c3f 79ed 8d3f abbd 8a3f e731 7b3f
000003a0: c21d 8a3f 15e5 803f 1dc8 773f 000e 7a3f
000003b0: 77eb 573f 7fd2 5b3f 35b1 3d3f 539d 163f
000003c0: 705e f33e d5f0 e73e 5fa1 613e 0204 133e
000003d0: 4234 dd3d 761b 8c39 41cd 343b 4c67 d63a
000003e0: cd8e 733b 5d67 913a f62e 7c3b be31 bf3a
000003f0: 128b de3a 8f0e 563b a0f4 693b 946e 573b
0.002240458 2.5438142 2.4493473 2.5416267 2.4293034 2.404492 2.2890925 2.157627
2.077666 2.0181494 1.8489025 1.740983 1.6257765 1.549462 1.4631445 1.3587081
1.3296962 1.2322462 1.1749336 1.2260386 1.1675032 1.1375321 1.1599313 1.1760372
1.1225065 1.1755623 1.1293292 1.1557348 1.1003553 1.002851 1.0893514 0.8893338
0.83833086 0.7260581 0.64630306 0.4770853 0.51782674 0.1778123 0.102320075 0.06944479
0.00012829751 0.0031570743 0.0037201946 0.0034330783 0.0035148656 0.001989543 0.0010343388 0.00207046
0.0026094234 0.0035405934 0.00017880404 0.0022545785 0.002011841 0.0039143367 0.0009639743 0.003984732
0.0038698236 0.001222052 0.0037774032 0.0034493706 0.0001069523 0.0018315094 0.0012716297 0.0033614093
0.0006402281 0.0034612215 0.00300224 0.0005365892 0.0035411236 0.0034148318 0.001953208 0.0034425207
0.0018960906 0.003723999 0.0020709515 0.0027075016 0.0036380354 0.0036080566 0.0025108575 0.0029280696
0.002296211 0.00095160195 0.0022400233 9.478688e-05 0.0033009928 0.0016777806 0.0023088958 0.0025951408
0.00089038996 0.0026052527 0.0010406729 0.0010553538 0.0035274548 0.0016573193 0.0015515293 0.0037864146
0.0001334106 0.001373884 0.0004890212 0.0025530788 0.0023537118 0.002964496 0.003730942 0.0037996427
0.0020996684 0.0006405327 0.003690937 0.0017612635 0.0010966056 0.0005343239 9.351107e-05 0.003173912
0.0005388037 0.003540267 0.00096130744 0.0030333311 0.003005704 0.0017050798 0.0035947587 0.00019097664
8.535026e-05 0.0033941416 0.002116379 0.0026498344 0.0032467116 0.00046502962 0.002612947 0.0034900366
0.00364218 0.0024366772 0.002179103 0.00034013874 0.0035646278 0.0003960547 0.00038384658 0.0013429576
0.00033038523 0.003410677 0.002999246 0.0036433327 0.0018785539 0.0032496992 0.001959199 0.0035628008
0.0020367522 0.0037139351 0.0030817864 0.0018507174 0.0035026083 -8.4649975e-05 0.0025906323 0.0008739445
0.0033452115 0.0010144787 0.0015460836 0.0014924521 0.0022594922 0.0016032293 0.0021913536 0.0027655894
0.0035946164 0.0022016235 0.00267225 0.0017071058 0.001418847 0.0036611073 0.0006984918 0.0035773308
0.0018339843 0.0029477105 0.003521237 0.0032660484 0.002283764 0.0023334892 0.0014804215 0.0005709364
0.0034898415 0.00020325839 0.0036708834 0.0015601484 0.001208373 0.0035995028 0.000110952824 0.001466318
0.0035720337 0.0010760669 0.0024879272 0.00092781795 0.0026536328 0.00080939854 0.003139913 0.0029784085
0.0031811446 0.00030894316 0.0035007081 0.00048328954 0.0035546094 0.003644966 0.0037121177 0.0036461933
0.0031878443 0.002738965 0.00048692522 0.0006953356 0.0017755945 0.0021145425 3.4927254 3.2858243
2.8359683 2.6686115 2.5735683 2.4148872 2.2440984 2.0737495 2.0516975 1.9072608
1.8236768 1.7135979 1.6282693 1.5708088 1.4692518 1.4652792 1.3669317 1.3509635
1.3419795 1.3058084 1.2147399 1.2728509 1.2217333 1.1088096 1.0839132 0.9812302
1.0790331 1.006991 0.96789724 0.9767761 0.84343666 0.85868067 0.7409852 0.5883381
0.47532988 0.45300928 0.22034214 0.14356998 0.10800983 0.0002672334 0.0027588161 0.0016357689
0.0037163973 0.0011093427 0.003848014 0.0014586968 0.0016978702 0.0032662486 0.0035698786 0.0032872306

exp_avg f4 [100, 41]
00000000: 162f 2e39 9c08 00b9 7805 e0b8 9e19 6339
00000010: a623 9ab8 87af 2e39 6965 55b9 42df 0939
00000020: 4aa1 7837 368b 91b9 a299 cbba 223f 443a
00000030: 2de9 133a 56f7 96b8 1358 feb8 a646 80b9
00000040: 20f9 e2b9 56ba 44ba 8017 4b39 7fe8 2aba
00000050: adb4 0e3a 5ab9 b2b9 edad ce39 5e0a 6339
00000060: 3a4b bab9 310b 3c39 827a bbb9 27da 8239
00000070: fc51 96b9 122d beb9 244b 09b9 a266 153a
00000080: 24b3 20b9 360d 36ba 110d cc39 a40d c3b8
00000090: 56b3 d339 3a63 c3b8 c0a1 9539 0abd 4dba
000000a0: 6884 333a 78e9 0539 ac50 a9b7 adc9 30b9
000000b0: a180 ab38 09ee 3339 0206 43ba 8563 3339
000000c0: adab dcb9 7d0f d738 96cc 4539 3418 3039
000000d0: 1b0e 14ba 381e cfb8 d174 4239 3c9c 39b8
000000e0: 517f acb7 6c77 3f39 269c 38b8 6156 32b9
000000f0: 183a 4739 491f 14ba dd35 3e39 e6a9 d538
00000100: d6b7 4439 5c09 0bb9 c858 0c39 fb9a 4439
00000110: c4db 0bb9 6420 d538 f40d 3339 693b 8e38
00000120: 64ad 3739 803d 0234 9ae7 3139 c058 1939
00000130: 7e8e 2338 e0a3 34b8 319d 2639 7f1f 0f39
00000140: 1b28 2c39 276e 40ba 7f3a 00ba 475c 4639
00000150: 96da eb38 2f59 3a39 95fa 2d39 a171 2239
00000160: e00b 4239 191b 2739 29fb 42ba 9b4e 43ba
00000170: 2aa7 5bb9 ae60 2aba ba3b 3e39 b7be 8e38
00000180: 2f5a 4739 acce 3e39 4058 5eba c0e0 2939
00000190: d46a 00ba 82f0 bcb9 f5d0 a838 a045 2f35
000001a0: edb7 3039 8e17 4539 3fe9 a3b7 ec01 3839
000001b0: daff 3e39 49e3 4539 70fb 4539 5896 0539
000001c0: c00b 4339 126a cdb8 a430 4239 8e54 0b39
000001d0: 4d2c 9fb9 c42b 3839 fb85 b337 3d1c 4739
000001e0: 70b1 4a39 3121 b038 90ab 2f39 b33d 1e39
000001f0: 0268 fc38 b737 4639 c48d 2239 bab5 30b9
00000200: d6aa a8b7 0aac 2639 08b0 3039 24dd 4539
00000210: 33b3 6438 fcbe 4339 28b2 4739 ea39 3e39
00000220: b1e2 4639 6752 31b9 4c50 0c39 bc77 1a38
00000230: a0df 3539 d902 e838 105c 14ba 5728 6538
00000240: 7f7c 3339 fa23 aab7 9a4d 0d39 84f1 3539
00000250: 2054 30b9 2280 4739 20a7 dcb9 f874 4239
00000260: 0936 d538 053f 43ba d2b6 3d39 7a64 3a39
00000270: 2f9a 00ba d6db 3b39 d5df 2f39 174c 1939
00000280: 2f94 bc37 00cd feb9 77d3 1939 caae 4039
00000290: ce0b 3e39 9462 1f38 03c6 4339 03be 9038
000002a0: 540b 3839 361f 9fb9 187b a838 6c43 fc38
000002b0: ed26 2e39 07e6 2c39 41b2 3939 89fa 4439
000002c0: f2f2 09b9 0917 4739 16a6 6138 0848 3d39
000002d0: 615d 3f39 92ab 6038 843f 4639 0ce9 3a39
000002e0: 4742 6138 0958 43ba cc1b 2839 391d 4339
000002f0: fa75 2139 065a 4239 4265 85b9 6591 9fb9
00000300: e85b 85b9 84e0 4439 f8d5 0ab9 bf35 5eba
00000310: ab1a a838 2b1c a437 384e 0136 1627 3eb8
00000320: 66e4 84b9 381f 1939 378c 5dba 8153 4639
00000330: eff9 3b39 be39 3139 a974 3ab9 1cdc 1db9
00000340: c51d 9139 dd5f beb8 5e8f 2a39 3ff4 86b9
00000350: ba92 1239 a8e8 51b7 5e02 bdb9 8cb5 f3ba
00000360: b1c3 5e3a 6868 3a3a 80ba f2b8 3d8e 74b9
00000370: dea1 87b9 e7aa 1bba d609 42ba c887 8939
00000380: 0e8b 54ba 1ea3 203a 558a a1b9 3f24 be39
00000390: 9a68 7439 83a6 a8b9 ffa4 6039 c0b1 c3b9
000003a0: 5ca4 4439 b4cf a2b9 18f7 b1b9 328d 8cb8
000003b0: 6a97 133a 80d3 8db8 3ac8 36ba 92b0 8239
000003c0: 001a 1c36 e531 ca39 80e9 1cb5 287f a939
000003d0: 4cd7 74ba 837b 1a3a 0a17 1939 4531 3839
000003e0: 44f3 37b8 358b 4439 a495 abb7 2d4c 2aba
000003f0: 9bab 3539 ac73 f938 700a c438 f859 0039
0.00016611474 -0.00012210238 -0.00010682171 0.0002165795 -7.349932e-05 0.00016659322 -0.00020351041 0.00013148508
1.4819505e-05 -0.00027760275 -0.0015533457 0.0007486214 0.0005642351 -7.198627e-05 -0.00012128069 -0.000244667
-0.00043291692 -0.0007504573 0.00019368343 -0.000651963 0.0005443793 -0.00034088903 0.00039420967 0.00021652269
-0.00035532733 0.00017933246 -0.00035758695 0.00024958068 -0.00028671313 -0.00036273204 -0.0001309333 0.00056991924
-0.00015325524 -0.00069447176 0.00038919647 -9.300865e-05 0.00040378672 -9.316807e-05 0.00028540008 -0.00078482984
0.0006848038 0.00012770842 -2.0183936e-05 -0.00016859798 8.1778744e-05 0.00017159445 -0.0007439555 0.00017107844
-0.00042089578 0.00010254884 0.00018863598 0.00016793684 -0.0005647854 -9.876158e-05 0.00018544799 -4.425294e-05
-2.0563284e-05 0.00018259668 -4.4014443e-05 -0.00017007581 0.0001899976 -0.0005650414 0.00018139878 0.000101882775
0.00018760501 -0.0001325956 0.00013384514 0.00018749751 -0.00013337942 0.00010162665 0.00017075968 6.782154e-05
0.00017516833 1.2129567e-07 0.00016966314 0.00014624279 3.8994935e-05 -4.3067965e-05 0.00015889552 0.00013649276
0.00016418139 -0.0007340633 -0.0004891529 0.00018917127 0.00011246388 0.00017771566 0.00016591915 0.00015491854
0.00018505706 0.00015936456 -0.00074379385 -0.0007450373 -0.00020947741 -0.0006499392 0.00018142062 6.806611e-05
0.00019011715 0.00018196803 -0.0008481778 0.00016200822 -0.0004898731 -0.00036037347 8.0497855e-05 6.52939e-07
0.00016853186 0.00018796159 -1.9539728e-05 0.00017548323 0.00018215124 0.00018872054 0.00018881052 0.00012739876
0.00018601026 -9.794919e-05 0.00018519402 0.00013287572 -0.0003035985 0.00017563911 2.1400852e-05 0.00018988638
0.00019330322 8.3985164e-05 0.00016753213 0.00015091039 0.00012035669 0.00018903507 0.00015502336 -0.00016852366
-2.0106712e-05 0.00015895083 0.00016850245 0.00018869765 5.452633e-05 0.00018667796 0.00019044487 0.00018141387
0.000189672 -0.00016910733 0.00013381353 3.6827973e-05 0.00017344812 0.000110631525 -0.00056594703 5.4635424e-05
0.00017117149 -2.0282332e-05 0.00013475717 0.00017351477 -0.00016816007 0.00019025852 -0.00042086188 0.00018544856
0.00010166696 -0.00074480503 0.0001809255 0.00017775773 -0.00049057876 0.00017915605 0.00016772684 0.00014619563
2.248035e-05 -0.00048599392 0.00014669994 0.00018375661 0.0001812421 3.8000362e-05 0.00018670414 6.9018475e-05
0.00017551827 -0.00030350097 8.033792e-05 0.00012028855 0.00016608434 0.0001648889 0.0001770938 0.00018785348
-0.00013155842 0.000189867 5.379886e-05 0.00018051278 0.00018249966 5.356555e-05 0.00018906413 0.00017825159
5.3705906e-05 -0.0007451778 0.00016032084 0.00018607535 0.00015398106 0.00018534818 -0.0002544318 -0.0003043517
-0.00025436212 0.00018775655 -0.00013240415 -0.0008476637 8.0158316e-05 1.956344e-05 1.9268027e-06 -4.533593e-05
-0.00025347172 0.00014602847 -0.00084513746 0.00018913859 0.00017926817 0.00016901546 -0.00017781802 -0.00015054684
0.00027678735 -9.077762e-05 0.00016265872 -0.0002574045 0.00013978305 -1.251154e-05 -0.00036050653 -0.0018593534
0.0008497788 0.00071108947 -0.000115741976 -0.00023322641 -0.00025869807 -0.0005938247 -0.00074019784 0.0002623184
-0.0008107879 0.0006127822 -0.00030811378 0.0003626663 0.0002330862 -0.00032167518 0.0002142377 -0.00037325732
0.00018753245 -0.000310538 -0.0003394417 -6.70202e-05 0.00056301674 -6.762799e-05 -0.0006972585 0.00024927087
2.3260945e-06 0.00038565617 -5.8454316e-07 0.0003232893 -0.0009339943 0.00058930385 0.000145998 0.00017565962
-4.385716e-05 0.00018743875 -2.045447e-05 -0.00064963364 0.00017325433 0.00011894791 9.3479524e-05 0.00012240547

exp_avg_sq f4 [100, 41]
00000000: 1283 0536 fcaa a333 e071 ac33 7a23 8134
00000010: b04a 0135 9404 4935 ec8c b935 c15f 1936
00000020: 2497 4736 9de4 7436 51f3 9c36 06f3 a836
00000030: f9fc b936 6aba be36 418e d936 c7f9 fc36
00000040: b46d 0437 e4c1 0637 f6dd 0637 2e76 1737
00000050: 3a92 1437 fd33 1237 6391 0e37 591a 1c37
00000060: 9f18 1f37 4440 2c37 ff44 2937 0470 2837
00000070: 2604 2b37 169a 2937 d95f 3137 767d 2c37
00000080: aec3 3537 ce2d 3b37 b1c5 3337 8f80 4937
00000090: 5579 4137 833f 3d37 e3c1 5137 3425 7c37
000000a0: efb3 c337 f79d 0636 ef73 0436 468b 0536
000000b0: b26f 0336 8461 0136 2bb9 0436 c553 f935
000000c0: 7f39 fb35 aa46 f335 5c7f e535 6d53 e535
000000d0: 343f e835 e305 e235 c75f e035 4524 ec35
000000e0: 847e ee35 7960 f635 4c1f 0236 b126 0636
000000f0: 9808 0336 4be9 0836 b160 0536 e189 0836
00000100: 7b97 0436 f602 0936 3075 0736 cffa 0436
00000110: 5054 0936 04fd 0836 67d8 0536 971c 0a36
00000120: c6ac 0736 09df 0936 f3c4 0636 159d 0836
00000130: f10d 0936 52c1 0836 7d14 0736 9036 0936
00000140: e8ec 0636 79b9 1c36 e983 0936 789c 0136
00000150: ccd2 0436 a015 0336 83da 0336 13e3 0336
00000160: 716a 0036 6535 0136 77b0 0336 0537 0036
00000170: d755 f935 5d37 f535 12b4 e535 afc7 ec35
00000180: 596a e435 adfd e435 aa2a f335 cc4b ed35
00000190: a031 fd35 f777 fa35 13d2 f935 8fc4 0036
000001a0: 3347 0136 743d 0036 5c6c 0536 85ea 0336
000001b0: 49cd 0336 0437 0436 03c8 0336 0a5c 0636
000001c0: 0f65 0636 87cb 0936 d581 0536 833d 0736
000001d0: 8e02 0b36 0157 0536 49a1 0836 fab0 0336
000001e0: ccac 0436 50d0 0836 8bbc 1836 08ff 0536
000001f0: 129f 0636 e3a1 0336 97c7 0536 4c97 0836
00000200: e6d0 0736 6b8b 0536 173c 0536 c558 0336
00000210: ba42 0736 0462 0336 0560 0336 d54b 0436
00000220: f359 0336 5b52 0836 f418 0636 f057 0736
00000230: add0 0436 ad81 0636 4d70 0936 1310 0736
00000240: 31e7 0436 cab7 0736 8311 0636 e9c9 0436
00000250: 125f 0836 49c6 0236 e8ff 0836 f3b8 0336
00000260: 6297 0636 b090 0936 a96a 0436 fb64 0436
00000270: 0132 0936 c29f 0436 d25a 0536 9f59 0636
00000280: 275a 0836 7ca9 0a36 a953 0836 6594 0a36
00000290: f3a4 0436 e47f 0736 75d3 0336 ef3d 0736
000002a0: 4ce8 0436 4ce5 0836 1f0d 0736 ba8b 0636
000002b0: fd4a 0536 6a58 0536 a371 0436 168c 0336
000002c0: 0849 0836 f12a 0336 3854 0736 417a 0436
000002d0: ee22 0436 4d3b 0736 4d22 0336 1b70 0436
000002e0: 9316 0736 e7a6 0936 b16a 0536 f9cf 0336
000002f0: 6782 0536 abb1 0336 5887 0836 95b6 0836
00000300: 179a 0836 1523 0336 d03a 0836 9ba5 0936
00000310: f7cb 0636 2259 0736 42b2 0736 1bf3 0736
00000320: cc36 0936 93e7 0636 662c 0b36 d416 0636
00000330: bb9e 0a36 bf5e 0536 52e0 e233 384c ea33
00000340: 30f3 d934 7e19 4135 32bd 8e35 fcd9 ff35
00000350: 8b27 4d36 5508 8136 5630 9b36 dc9a c236
00000360: a3bd d236 8f30 e736 1007 ec36 0e7e 0537
00000370: b94f 1d37 feaf 2637 0258 2937 45be 2837
00000380: cd38 3b37 334d 3637 2ae9 3537 4e80 3037
00000390: 50d0 4237 81e7 4637 4224 5437 ae05 4537
000003a0: 0db6 3f37 f2e9 4437 5c2f 4537 18f9 4837
000003b0: d501 4137 4b44 4937 b5da 5037 6f39 4a37
000003c0: c6b2 5f37 0e56 5737 fdd4 4d37 dfda 6337
000003d0: bdf6 8e37 6606 d637 3621 0636 6185 0336
000003e0: a4a7 0536 9484 0136 8948 0436 d100 0436
000003f0: 4e2b 0136 1771 0036 e874 0136 630a f535
1.9894837e-06 7.621381e-08 8.030088e-08 2.4053935e-07 4.816493e-07 7.4884997e-07 1.3824588e-06 2.2854513e-06
2.9741286e-06 3.6491904e-06 4.677488e-06 5.035082e-06 5.5428795e-06 5.6841427e-06 6.4836645e-06 7.539263e-06
7.893355e-06 8.032166e-06 8.038702e-06 9.027817e-06 8.855533e-06 8.714383e-06 8.49771e-06 9.304459e-06
9.482871e-06 1.0266962e-05 1.0089249e-05 1.0039661e-05 1.019336e-05 1.0109061e-05 1.0572338e-05 1.028121e-05
1.0834001e-05 1.1156733e-05 1.071526e-05 1.2010466e-05 1.1531946e-05 1.1280065e-05 1.25025135e-05 1.50290325e-05
2.33296e-05 2.0059504e-06 1.9737015e-06 1.9899612e-06 1.9585536e-06 1.927926e-06 1.9777315e-06 1.8576326e-06
1.8717691e-06 1.8125477e-06 1.7098896e-06 1.708611e-06 1.7303742e-06 1.6840025e-06 1.6717175e-06 1.7593926e-06
1.7769203e-06 1.8356506e-06 1.9389727e-06 1.9990077e-06 1.9525523e-06 2.0401374e-06 1.9874826e-06 2.0345835e-06
1.9757706e-06 2.0416314e-06 2.018478e-06 1.9815523e-06 2.0463667e-06 2.0412854e-06 1.9944507e-06 2.0580244e-06
2.0217135e-06 2.0544414e-06 2.0082196e-06 2.0357013e-06 2.0422706e-06 2.0378106e-06 2.0128493e-06 2.044635e-06
2.0105454e-06 2.335377e-06 2.0491373e-06 1.9313575e-06 1.9792233e-06 1.9533109e-06 1.9647712e-06 1.9652696e-06
1.9135443e-06 1.9253578e-06 1.9623237e-06 1.9105512e-06 1.8576928e-06 1.8270035e-06 1.7114237e-06 1.7641486e-06
1.7018275e-06 1.7061153e-06 1.8117328e-06 1.7679936e-06 1.8864412e-06 1.8661366e-06 1.8613085e-06 1.9187898e-06
1.9263941e-06 1.9109257e-06 1.9881618e-06 1.965703e-06 1.9640013e-06 1.9701556e-06 1.9636943e-06 2.002113e-06
2.002638e-06 2.053306e-06 1.9894117e-06 2.0152372e-06 2.07141e-06 1.9869187e-06 2.035946e-06 1.9623535e-06
1.9770114e-06 2.0386833e-06 2.2759511e-06 1.9966992e-06 2.0060147e-06 1.9614752e-06 1.993472e-06 2.0353646e-06
2.0238163e-06 1.9899696e-06 1.9853521e-06 1.9572192e-06 2.0155408e-06 1.9577574e-06 1.9576412e-06 1.9713673e-06
1.9572879e-06 2.0313516e-06 1.998208e-06 2.0167754e-06 1.9790998e-06 2.0043037e-06 2.0479958e-06 2.0125924e-06
1.9804104e-06 2.0223547e-06 1.997775e-06 1.978706e-06 2.0320917e-06 1.9486927e-06 2.0414536e-06 1.9628176e-06
2.0055672e-06 2.049881e-06 1.9731617e-06 1.9728311e-06 2.0443697e-06 1.9762524e-06 1.9871409e-06 2.0019722e-06
2.0318055e-06 2.0662255e-06 2.0314276e-06 2.064998e-06 1.9765546e-06 2.019101e-06 1.9643605e-06 2.0152618e-06
1.9804747e-06 2.0399048e-06 2.0124205e-06 2.0048888e-06 1.9862193e-06 1.9870008e-06 1.9735678e-06 1.9602062e-06
2.030809e-06 1.9545516e-06 2.016559e-06 1.9740694e-06 1.9689865e-06 2.0151085e-06 1.9540487e-06 1.9734787e-06
2.0129708e-06 2.051174e-06 1.9880647e-06 1.9641577e-06 1.9894449e-06 1.9623938e-06 2.034436e-06 2.0371856e-06
2.0355271e-06 1.9540942e-06 2.0299813e-06 2.0510986e-06 2.008628e-06 2.016845e-06 2.0220327e-06 2.0258074e-06
2.0446487e-06 2.010235e-06 2.0738457e-06 1.9980844e-06 2.0655996e-06 1.9873694e-06 1.0564749e-07 1.0910338e-07
4.0596342e-07 7.19352e-07 1.0634888e-06 1.9062422e-06 3.0570397e-06 3.8454696e-06 4.624987e-06 5.7996785e-06
6.2805643e-06 6.8899894e-06 7.0341703e-06 7.956767e-06 9.376491e-06 9.935347e-06 1.0093676e-05 1.0057881e-05
1.11592935e-05 1.086602e-05 1.0842728e-05 1.0520291e-05 1.1611803e-05 1.1855621e-05 1.2644627e-05 1.1743437e-05
1.1426874e-05 1.173698e-05 1.1753142e-05 1.1978926e-05 1.1504123e-05 1.1996434e-05 1.2448688e-05 1.20535105e-05
1.333346e-05 1.2835035e-05 1.2268542e-05 1.3581214e-05 1.7042616e-05 2.5513767e-05 1.9986887e-06 1.9598158e-06
1.9916124e-06 1.9299669e-06 1.9711754e-06 1.9670008e-06 1.9247705e-06 1.9139313e-06 1.9290546e-06 1.8256945e-06
