test/test_results/triplets/results/model/model_epoch0395.tar (torch, 76948 bytes, 3 tensors)

fc.weight f4 [100, 41]
00000000: d148 ad3a ccd4 0f40 66cc 0240 582f 2440
00000010: b405 2640 15b6 2b40 bd6a 2740 a6ea 1f40
00000020: 601d 1c40 56cd 1840 a61d 0d40 2122 0240
00000030: 8b10 f33f ca8a e53f 6f2b d73f deb2 c53f
00000040: efb3 c23f 1c0f b23f c12c a83f 3588 b13f
00000050: 3b3d a63f d4c8 a43f 5a24 a33f 6a90 a83f
00000060: 38f7 a03f 45cf a93f 6487 a13f 4d41 9f3f
00000070: a69f 943f dba3 843f dfa8 953f 5893 693f
00000080: a707 593f 549f 363f 8814 2b3f 2127 f83e
00000090: 3ee6 083f 1704 183e 7c4b 823d 6811 003e
000000a0: 8e53 8b39 4753 1b3b ef0a 723b f4fd 743b
000000b0: 8462 5b3b 22bd d63a d211 ca3a f8d7 093b
000000c0: b231 283b 2728 683b aef8 5a39 4626 1a3b
000000d0: 2212 833a d800 533b a6ba cf3a 3a94 633b
000000e0: 3444 5f3b 2459 f53a 3522 5a3b 207e f03a
000000f0: cc69 7d3a c654 5f39 ac9c 133b 42a2 6f3b
00000100: 668c b13a 4845 f73a 2c51 6f3b c17e d43a
00000110: 90cd 803a 6ea4 743b 5ff6 483b 74c0 713b
00000120: 0f8e 4f3b 20a7 133b d7dc 443b 075d 693b
00000130: 3af2 6b3b 72fd 573b 27d4 573b 1937 2d3b
00000140: c7d6 1a3b 92a9 e73a 5c94 643b 7236 8b3a
00000150: a67d 493b a789 b13a 29c1 f93a 7a4a 263b
00000160: 1fd6 553a 48c2 2d3b 3761 0a3a f872 5f38
00000170: 4d67 393b 40b4 adb6 e2dc ff3a 949b 743b
00000180: d495 983a 81d0 f03a c767 c639 8dc6 413b
00000190: 1cc8 7738 cf20 7e39 2d80 6c3b 067b 603b
000001a0: deba 443b f675 d03a 0c99 423b d2ac 283b
000001b0: e1ea ff3a f3c0 dc3a 2ee2 9f3a 71e1 723b
000001c0: 8f06 ce3a 548a f23a e61e 1e3b b60a 743b
000001d0: 2820 c6b7 b44a ef3a e9a8 443b a207 4c3b
000001e0: 7305 133b fa86 6b3b 2e7d 653b 8c92 eb3a
000001f0: e329 463b b4b4 0839 a39b 193b 6c8f 673b
00000200: 67c7 6e3b fa9f 213b e7bf 163b dfc2 073a
00000210: ef83 723b e46b 683a 7354 633a d879 e73a
00000220: 29e6 9d3a 6728 263b a8bb 5f3b a596 6f3b
00000230: 980d 2c3b a481 6f3b 2c92 9139 b885 6e3b
00000240: 5da8 483b 32c0 633b c993 6d3b 0bb3 2f3b
00000250: ec31 833a 19c8 773a b734 5f39 2cd1 e33a
00000260: ef2e 713b 3c61 133a bc2a 2a3b f367 473b
00000270: 7c65 e439 8158 113b 0218 023b 2efb f03a
00000280: 5a39 343a b896 583b 9d95 563b aaf4 503b
00000290: 364a ea39 56cf 673b ceb1 3b39 2f8f 5d3b
000002a0: 8f50 c03a 2181 4d3b a5a5 603b 80a0 5b3b
000002b0: 926d 253b 6177 243b 2263 dc3a 00a1 693a
000002c0: d9c0 333b bb22 563a 930c 733b a3bd 113b
000002d0: fa27 dd3a 8806 703b 7cfa 773a 2cd6 063b
000002e0: 842c 6e3b 9e45 523a 7dbd 4e3b 484f e93a
000002f0: 82ea 5e3b 9255 f33a 52bf f0b8 9efa 9739
00000300: a610 c63a a32f 9b3a 5086 163b 2cb8 8e3a
00000310: 368d 653b a4dd 313b d621 593b a538 6f3b
00000320: 1be7 733b 7ae7 0e3b 3c47 f63a d4c1 873a
00000330: 50e2 543b ab71 9b3a e956 8240 e807 6f40
00000340: e8bd 4e40 f350 4340 a921 3e40 b1db 3240
00000350: 0f32 2740 ac0a 1c40 3192 1d40 2713 1240
00000360: f592 0940 e54e 0140 e12a f23f 292c ea3f
00000370: 1b21 d93f 1050 d83f a788 c83f f7b2 c43f
00000380: 56f0 c23f 9843 bd3f e120 ae3f 9c7d b73f
00000390: d379 ae3f a408 9d3f 12a6 973f 3b08 853f
000003a0: 1d38 923f c7e3 823f 54d0 793f 19d5 773f
000003b0: 2621 513f 141c 563f 89cd 383f d9ea 113f
000003c0: 286e e03e 5f34 d83e a834 323e d5be 793d
000003d0: 9c8d 6a3e 465a edb8 f140 fc3a d831 be3a
000003e0: 356b 723b aea5 5e3a 92ea 753b 2f2a f53a
000003f0: 52b0 cd3a 35ca 553b 4fc7 6c3b 5fa6 513b
0.0013220554 2.247363 2.0437255 2.5653896 2.594098 2.6829884 2.6158898 2.4986968
2.439293 2.3875327 2.2049346 2.033333 1.8989424 1.793298 1.681013 1.5445211
1.5211161 1.3910861 1.3138658 1.3869692 1.2987436 1.2873788 1.2745469 1.3169072
1.2575445 1.3266379 1.2619443 1.2441803 1.1611221 1.0362505 1.169216 0.91240454
0.847773 0.71336865 0.66828203 0.48467353 0.5347632 0.1484531 0.06362054 0.1250664
0.000265744 0.002370076 0.0036932786 0.0037382813 0.0033475468 0.001638327 0.0015416688 0.0021033268
0.0025664386 0.0035424323 0.0002088274 0.0023521348 0.0009999911 0.0032196548 0.0015848472 0.00347258
0.0034067752 0.0018718583 0.003328455 0.0018348135 0.0009666949 0.00021298518 0.0022523804 0.003656522
0.001354587 0.0018865252 0.0036516888 0.0016212092 0.0009826887 0.0037329453 0.0030664427 0.0036888393
0.0031670367 0.0022530034 0.0030038857 0.0035608427 0.0036002533 0.0032957462 0.003293285 0.0026430546
0.0023626552 0.0017674437 0.0034878468 0.0010621084 0.0030745058 0.0013545052 0.0019054759 0.0025373981
0.00081572117 0.0026513506 0.00052787684 5.3274416e-05 0.0028290332 -5.1767856e-06 0.0019520784 0.0037324177
0.0011641332 0.0018372686 0.00037842823 0.0029567808 5.9075755e-05 0.0002423555 0.003608714 0.0034253015
0.0030018608 0.0015904296 0.0029693274 0.0025737775 0.0019524955 0.0016842171 0.0012198144 0.0037060643
0.0015718507 0.001850436 0.0024127304 0.003723783 -2.3618413e-05 0.0018256516 0.0030007905 0.003113248
0.0022433668 0.0035938607 0.003501724 0.0017972752 0.0030237369 0.00013037288 0.0023438714 0.0035333289
0.003643477 0.0024662004 0.0023002566 0.00051788794 0.0037004908 0.00088661746 0.00086719467 0.0017660214
0.0012046742 0.0025353672 0.0034138951 0.0036558297 0.002625322 0.0036545778 0.00027765462 0.003639562
0.003061793 0.0034752009 0.0036251417 0.0026809599 0.0010009385 0.0009452119 0.00021286575 0.0017381064
0.0036801656 0.0005622094 0.0025965413 0.0030426949 0.0004356316 0.0022177997 0.0019850736 0.0018385404
0.0006875001 0.003304882 0.0032742985 0.0031884112 0.0004468725 0.0035371385 0.00017899947 0.0033807268
0.0014672446 0.0031357484 0.003427842 0.0033512414 0.002524231 0.002509557 0.0016814212 0.00089122355
0.0027428179 0.00081686274 0.0037086352 0.0022238276 0.0016872876 0.0036624987 0.00094596273 0.0020574434
0.0036342451 0.0008021238 0.003154605 0.0017800117 0.003401429 0.0018564931 -0.00011479728 0.0002898769
0.0015111163 0.0011839758 0.002296824 0.0010888628 0.0035026795 0.0027140165 0.003313174 0.0036502269
0.0037216607 0.0021805451 0.001878954 0.0010357448 0.0032483526 0.0011859437 4.073109 3.7348576
3.230341 3.0518157 2.9708045 2.794659 2.6124303 2.4381514 2.4620478 2.282419
2.1495945 2.0204403 1.8919336 1.8294727 1.6963228 1.6899433 1.5666703 1.5367116
1.5229595 1.4786253 1.3603784 1.4335208 1.3630928 1.2268262 1.1847556 1.0393137
1.1423374 1.0225762 0.9758351 0.96809536 0.81691206 0.83636594 0.7218862 0.56998974
0.43834043 0.42227456 0.174029 0.060973007 0.22905582 -0.000113178554 0.0019245428 0.0014510704
0.003699017 0.0008493316 0.0037523848 0.0018704588 0.0015692806 0.0032621745 0.003612954 0.0031990034

exp_avg f4 [100, 41]
00000000: 5b0d 3e39 fed1 2638 0940 9138 354e 0439
00000010: fa2a 0638 e452 65b9 179b 09b9 d27f 86b9
00000020: bffb 8b38 8c16 1939 785e dab9 102a 6339
00000030: 082a e4b9 ec5c e7b9 c4b6 403a 96a2 ebb9
00000040: 7860 b938 f0c9 f739 97f2 01ba 2c7c 67b9
00000050: 89f7 6a3a 3146 4fba e011 c638 5cef b939
00000060: 4e6b 86ba 0e52 073a 6a81 143a b04b 24ba
00000070: fc55 1139 c11b 133a 23c4 7cb9 823f a3ba
00000080: 3679 a339 034e 413a 2ba9 71b9 c362 403a
00000090: c521 7039 0d68 88ba 0096 d339 6ccf 23ba
000000a0: 2271 6739 eacd 2a39 f102 b137 c301 aab7
000000b0: a4ff e938 66e2 3a39 9754 2aba 86eb 3039
000000c0: d880 dcb9 2576 aa38 c15b 4739 5b7f 2a39
000000d0: 8ac3 42ba 25be 85b9 b121 3a39 e0ed 30b9
000000e0: 86ce 32b9 a30d 3739 d2fe 5ab9 9960 14ba
000000f0: 429a 4139 f8f9 4639 0a5e 2d39 e087 3136
00000100: a2bb 3e39 747f 14ba 08a0 1e38 bbcb 3b39
00000110: 92f3 42ba c3f7 a637 3ad5 0639 122d b2b7
00000120: ebfb f438 0400 00ba e0ac 0e39 a14f a538
00000130: a877 6938 7e4d eb38 08c5 5bb9 89d5 1f39
00000140: 4701 2a39 39dc 3b39 a895 0ab9 9d03 43ba
00000150: 9d79 0739 c241 3e39 973e 3639 7748 2739
00000160: eeb4 4139 0019 2239 f34a 5eba 07f9 4739
00000170: 99a0 bcb9 50c5 4639 9623 3339 527e 38b8
00000180: 1278 4039 a8ed 3539 96e2 4639 10f5 0d39
00000190: 3bfe 4539 bc1b 4739 5efb 32b8 0dcc 31b9
000001a0: b8d6 0d39 becd 3a39 5125 a0b9 8cae 2339
000001b0: 7395 3639 5f57 3939 cd97 3f39 c8d6 b337
000001c0: 34ec 3c39 780f 15ba 9547 2839 c439 b937
000001d0: e050 4639 dd2f 3839 cea5 0d39 8a36 0439
000001e0: 21b6 feb9 340e 9e36 5e10 7b38 e1a4 3839
000001f0: 0986 0c39 e0a2 4739 aded 2a39 1cfb 0ab9
00000200: 41d1 ad37 0812 2639 3ec7 2a39 60c6 4439
00000210: 0a2e 2138 b642 4239 4b6a 4339 0649 3839
00000220: 659e 3f39 af94 dcb9 a913 d638 01c3 d3b8
00000230: a620 2339 22c1 1e38 2c3f 4539 94f3 94b8
00000240: 2d1c 0c39 d7cb 30b9 3e0f 1d38 2b2c 1c39
00000250: 28a4 42ba b2ae 4339 3d53 4639 799d 3839
00000260: 3237 34b8 57bb 4439 c06b 1f39 f764 0639
00000270: cf3c 4739 186e 3039 5624 3539 230e 3639
00000280: 42a8 4339 4eef 57b9 ed9e d938 22da e638
00000290: 55a4 4539 9ef9 a838 7cf5 4639 be26 d738
000002a0: f0e1 3c39 3ea4 85b9 75c0 aa38 f081 d638
000002b0: 73d8 2639 16bf 2639 fcc4 3939 1e93 4339
000002c0: dbbf bcb9 abed 4239 c569 91b8 bef1 2d39
000002d0: bad8 3a39 0116 93b8 296f 4139 8ea9 3339
000002e0: 6071 d1b8 de87 4239 6ecc 0639 f54f 3739
000002f0: e488 bf38 da1f 3739 2e92 4839 caed 4539
00000300: 6b58 2aba 27a1 3f39 a609 00ba 0e17 3d39
00000310: 0355 30b9 3768 bbb9 2858 5bb9 0842 5e36
00000320: 4f01 b037 7b81 00ba 28af 13ba eb09 4239
00000330: 4eb2 cd38 c981 3f39 30e9 89b5 3340 9138
00000340: 7bc4 f438 ce13 c0b7 88ec b9b9 863e 60b9
00000350: 98d2 8ab9 b33a 77b8 3890 3e39 5200 d8b9
00000360: a43d 9d39 1586 f5b9 d95d 09ba 3239 463a
00000370: f5c7 1eba f01d 3b38 d453 293a 88cf 17ba
00000380: 307b 0eba 86e5 9f3a aad7 72ba 5cc7 4839
00000390: e7ed f139 4f04 a5ba 2cce c639 e304 4f3a
000003a0: 87a1 10ba c8c1 96b8 47ee 5d3a c68e 0cb9
000003b0: 010e a6ba 7091 9c39 53e6 3f3a 3ea7 08b9
000003c0: ff7b 493a 91d0 8b39 b7e1 8eba 4dff 0a3a
000003d0: 14c9 7dba 96b7 023a 3d6d 3639 c681 3c39
000003e0: ac4b ad37 4cb0 4239 e8c9 1636 7cff 13ba
000003f0: 5305 3a39 3f1c eb38 22a8 1f38 f5c1 fc38
0.00018124787 3.9773055e-05 6.926066e-05 0.00012617635 3.1988115e-05 -0.00021870021 -0.00013123114 -0.00025653705
6.674928e-05 0.00014599616 -0.00041650585 0.00021664076 -0.00043518865 -0.00044128986 0.0007351453 -0.0004494383
8.839456e-05 0.00047261966 -0.0004957108 -0.00022076134 0.0008963277 -0.00079068827 9.444705e-05 0.00035464286
-0.0010255368 0.00051620684 0.0005665036 -0.0006267382 0.00013860309 0.00056117406 -0.0002410566 -0.001245484
0.00031180092 0.00073739904 -0.00023046571 0.00073389354 0.00022900764 -0.0010406986 0.00040356815 -0.0006248865
0.00022072022 0.00016289172 2.1101414e-05 -2.02664e-05 0.000111579226 0.00017822682 -0.000649759 0.00016872407
-0.00042057666 8.128238e-05 0.000190123 0.00016259907 -0.000742965 -0.00025509406 0.00017750893 -0.00016873283
-0.00017052339 0.0001745732 -0.00020885028 -0.0005660146 0.0001846338 0.00018975872 0.00016533598 2.6454145e-06
0.0001818971 -0.0005664744 3.7819176e-05 0.00017909605 -0.00074368075 1.9904115e-05 0.00012858669 -2.1240241e-05
0.0001168175 -0.0004882815 0.00013606576 7.882645e-05 5.5662967e-05 0.00011220107 -0.00020958867 0.0001524297
0.00016212939 0.00017915749 -0.00013216457 -0.0007439198 0.00012919908 0.00018144309 0.00017380189 0.00015953356
0.00018473316 0.00015458837 -0.0008479796 0.00019070889 -0.0003597781 0.00018956256 0.00017084027 -4.3986664e-05
0.00018355277 0.00017350039 0.00018967161 0.00013538101 0.00018882092 0.00018988451 -4.267261e-05 -0.0001695605
0.00013526797 0.00017814987 -0.0003054538 0.00015609915 0.00017412547 0.00017675523 0.0001827173 2.1438478e-05
0.0001801707 -0.0005686204 0.00016048395 2.2080618e-05 0.0001891288 0.00017565438 0.00013508575 0.00012608818
-0.00048582352 4.7104204e-06 5.9858306e-05 0.0001760903 0.00013401372 0.00019038795 0.00016301005 -0.00013254251
2.0720649e-05 0.00015837711 0.00016286687 0.00018765917 3.842827e-05 0.00018526133 0.00018636246 0.00017574811
0.00018274186 -0.00042072448 0.00010207977 -0.00010097586 0.00015557054 3.7850004e-05 0.00018810917 -7.10256e-05
0.00013361937 -0.00016860604 3.7445912e-05 0.00014893773 -0.0007424974 0.00018661728 0.0001891376 0.0001760627
-4.296675e-05 0.00018761806 0.00015203562 0.00012816848 0.00019000772 0.00016825681 0.00017275041 0.00017362139
0.0001865933 -0.00020593146 0.000103769686 0.00011007885 0.00018848602 8.057359e-05 0.00018974202 0.00010259215
0.00018013245 -0.00025490107 8.1420796e-05 0.00010228518 0.00015911627 0.00015902179 0.00017716357 0.00018651455
-0.00036001098 0.0001858982 -6.93384e-05 0.00016588622 0.00017819079 -7.013605e-05 0.00018447325 0.00017133934
-9.987014e-05 0.00018551896 0.00012855392 0.00017482026 9.1330876e-05 0.00017464106 0.00019127943 0.00018875967
-0.00064981607 0.00018275213 -0.000488425 0.00018033033 -0.00016816337 -0.00035745066 -0.00020918308 3.3119013e-06
2.0981444e-05 -0.00049021066 -0.00056337053 0.00018504976 9.8083736e-05 0.00018263528 -1.0275162e-06 6.926097e-05
0.00011671424 -2.2897406e-05 -0.0003546218 -0.00021385596 -0.00026478316 -5.8944057e-05 0.00018173538 -0.0004119897
0.000299913 -0.0004682994 -0.00052401196 0.00075616234 -0.00060570176 4.4612156e-05 0.000645933 -0.00057911174
-0.00054352265 0.0012199141 -0.0009263704 0.00019147753 0.00046144353 -0.0012589785 0.00037919113 0.00078971515
-0.00055172335 -7.188652e-05 0.0008465987 -0.00013404628 -0.0012668968 0.00029862998 0.0007320393 -0.00013032273
0.00076860184 0.0002666754 -0.0010901008 0.0005302325 -0.0009681147 0.0004986463 0.00017397567 0.00017977422
2.0658445e-05 0.00018566957 2.2469267e-06 -0.0005645675 0.00017740326 0.000112109345 3.806514e-05 0.00012052424

exp_avg_sq f4 [100, 41]
00000000: 328f 0436 947e cb33 d91b d833 209f 6c34
00000010: a12e 2a35 8e45 b935 e070 0036 d9f1 2336
00000020: 73ee 3136 5b32 4e36 bee2 8036 cda1 8f36
00000030: 48da ae36 5bab c436 f9d3 d436 3f5e d736
00000040: eecb e936 f49e e136 6af8 e336 9696 fa36
00000050: 0374 0f37 18e3 1337 2027 0d37 8889 0d37
00000060: 2a1f 1337 e5eb 1c37 366b 2337 ce23 2d37
00000070: 0620 2e37 a00a 2137 2bff 2837 f01d 3337
00000080: 63f2 3837 ba9f 2f37 df39 2a37 c19a 3237
00000090: aa17 3437 9ffb 3c37 6a2b 3537 7988 5637
000000a0: ac3f b337 46a7 0536 a6ad 0736 4c02 0836
000000b0: aed4 0636 57cc 0436 12b2 0936 673e 0536
000000c0: 9039 0936 6c13 0736 9f4a 0336 e77e 0536
000000d0: a6a8 0936 39ca 0836 2e95 0436 f978 0836
000000e0: c76b 0836 26eb 0436 969c 0836 0f5b 0936
000000f0: 6af3 0336 422e 0336 6a3e 0536 b3a0 0736
00000100: eb5b 0436 c843 0936 eb54 0736 8c8a 0436
00000110: a7a5 0936 6790 0736 183a 0636 5ce2 0736
00000120: 6e3b 0636 cc38 0936 5f19 0636 1fe8 0636
00000130: 4a5d 0736 08ce 0636 0e47 0936 5ce6 0636
00000140: 6397 0736 a2aa 0936 0f88 0836 cde1 0936
00000150: 2575 0636 5877 0436 260e 0536 ffb5 0536
00000160: 0fe6 0336 cfd3 0536 62ee 0936 c52e 0336
00000170: a50e 0936 5023 0336 2e00 0536 e9f5 0736
00000180: 900d 0436 48cd 0436 8366 0336 9b2b 0636
00000190: 260d 0336 1930 0336 0fe9 0736 136c 0836
000001a0: 8127 0636 f88f 0436 83dc 0836 6f9f 0536
000001b0: 6aff 0436 568b 0436 4031 0436 1490 0736
000001c0: 8178 0436 184f 0936 f149 0536 fd80 0736
000001d0: f8fb 0236 b0d8 0436 1d76 0636 3cf3 0636
000001e0: 4168 0a36 e4ab 0936 cf1e 0c36 2607 0536
000001f0: 4d5e 0636 8645 0336 fc8d 0536 aa7b 0836
00000200: 98a1 0736 b6a0 0536 1670 0536 7b9b 0336
00000210: 538b 0736 6ee3 0336 2af0 0336 79cb 0436
00000220: 852e 0436 cb35 0936 bec9 0636 b744 0836
00000230: d8ae 0536 af5f 0736 0d50 0336 7d04 0836
00000240: 203d 0636 039d 0836 7941 0736 04d6 0536
00000250: e99f 0936 0bf9 0336 b32f 0336 99bd 0436
00000260: a5d8 0736 4d87 0336 5b89 0536 f123 0636
00000270: a35c 0336 0f3d 0536 2613 0536 9916 0536
00000280: b23b 0436 bad1 0936 df91 0836 f989 0b36
00000290: 62b2 0336 7929 0736 7e5b 0336 59e7 0636
000002a0: b4a4 0436 1cd3 0836 a317 0736 d6cf 0636
000002b0: 2fa3 0536 2fa6 0536 9cc7 0436 71e6 0336
000002c0: 5c08 0936 88d2 0336 b81c 0836 3c37 0536
000002d0: 0ac2 0436 7a09 0836 03ef 0336 e813 0536
000002e0: 813b 0836 6bbc 0336 6065 0636 09d8 0436
000002f0: 0ece 0636 b9ca 0436 11de 0236 f63e 0336
00000300: 9b8b 0936 7632 0436 0959 0936 07f4 0336
00000310: e167 0836 31cf 0836 8792 0836 e6c8 0736
00000320: 97c8 0736 5dd5 0936 c97f 0a36 1918 0636
00000330: 3294 0b36 c66c 0436 004d 4834 e93f 4b34
00000340: fcfc 3f35 fc44 d635 b15d 3a36 a506 6c36
00000350: d43f 8c36 829a 8a36 2cdc 9336 ba22 b436
00000360: 273c c436 078a e536 9c88 0137 1ed8 0e37
00000370: e035 1837 2ee1 2537 3ac0 2137 396a 2137
00000380: 5553 2a37 cb12 4637 79d3 4e37 491b 4237
00000390: 7ba9 4437 9682 4b37 856c 5437 ad7f 4a37
000003a0: a43c 5037 c359 5237 e72b 4437 7329 4937
000003b0: 43f7 5237 ab08 5637 3f28 4d37 adcb 4b37
000003c0: 33b5 4f37 94e6 4e37 2baf 5837 8251 4a37
000003d0: 90de 7637 debc c037 bc28 0536 2ea2 0436
000003e0: 50b8 0736 67f2 0336 b1da 0736 3781 0936
000003f0: dab4 0436 83a4 0636 2b5e 0736 8299 0636
1.9752883e-06 9.4759486e-08 1.0063349e-07 2.2037102e-07 6.339779e-07 1.3803817e-06 1.9139188e-06 2.4429667e-06
2.651385e-06 3.0725703e-06 3.8410935e-06 4.280568e-06 5.2110154e-06 5.8612036e-06 6.342769e-06 6.418471e-06
6.9676817e-06 6.724027e-06 6.7940464e-06 7.468111e-06 8.550475e-06 8.814757e-06 8.413364e-06 8.436276e-06
8.769139e-06 9.353248e-06 9.740519e-06 1.031994e-05 1.0378664e-05 9.598822e-06 1.0072991e-05 1.0676202e-05
1.102369e-05 1.0468002e-05 1.0146264e-05 1.0645658e-05 1.0734346e-05 1.1264258e-05 1.0798549e-05 1.2787169e-05
2.1368112e-05 1.991591e-06 2.0217644e-06 2.0266916e-06 2.0091352e-06 1.9788474e-06 2.0518241e-06 1.9854867e-06
2.0448097e-06 2.0127873e-06 1.9563956e-06 1.9892411e-06 2.0512757e-06 2.0383288e-06 1.9756367e-06 2.0335995e-06
2.0328314e-06 1.9806407e-06 2.0356724e-06 2.0467594e-06 1.9662207e-06 1.9547447e-06 1.9854874e-06 2.0210107e-06
1.9723036e-06 2.0454045e-06 2.0165996e-06 1.9750178e-06 2.0511013e-06 2.020062e-06 2.000137e-06 2.0248326e-06
2.0002149e-06 2.044765e-06 1.9982324e-06 2.0102668e-06 2.017087e-06 2.0087482e-06 2.045595e-06 2.0101643e-06
2.0204686e-06 2.0513912e-06 2.0344776e-06 2.0546024e-06 2.0035743e-06 1.9739e-06 1.982678e-06 1.992448e-06
1.9654433e-06 1.9941833e-06 2.0553348e-06 1.9547745e-06 2.0423115e-06 1.9541076e-06 1.981865e-06 2.0259706e-06
1.9677427e-06 1.9789022e-06 1.958019e-06 1.9992938e-06 1.9528175e-06 1.9548518e-06 2.0252226e-06 2.0328487e-06
1.999055e-06 1.9753334e-06 2.0393934e-06 1.9911347e-06 1.9818203e-06 1.9750637e-06 1.96982e-06 2.0200432e-06
1.9739675e-06 2.046063e-06 1.9861584e-06 2.0191649e-06 1.9518175e-06 1.9795662e-06 2.0036307e-06 2.0109137e-06
2.0624286e-06 2.0514644e-06 2.0879559e-06 1.9822705e-06 2.0022446e-06 1.956099e-06 1.990119e-06 2.0337561e-06
2.0210628e-06 1.991209e-06 1.9883787e-06 1.9611023e-06 2.0197665e-06 1.9652903e-06 1.9660315e-06 1.978797e-06
1.969661e-06 2.0445902e-06 2.0084985e-06 2.0305577e-06 1.9920317e-06 2.0172263e-06 1.9567117e-06 2.0268192e-06
2.0003135e-06 2.0356972e-06 2.0154678e-06 1.9943118e-06 2.050767e-06 1.9665483e-06 1.9548286e-06 1.9779893e-06
2.0242671e-06 1.9599277e-06 1.9898496e-06 1.9988477e-06 1.9574443e-06 1.9854085e-06 1.982969e-06 1.9831698e-06
1.970428e-06 2.0536668e-06 2.0350487e-06 2.0792925e-06 1.9624354e-06 2.0140708e-06 1.9573777e-06 2.0102218e-06
1.9765403e-06 2.038846e-06 2.0130326e-06 2.0088532e-06 1.991353e-06 1.9915276e-06 1.978572e-06 1.9654656e-06
2.0419457e-06 1.9643066e-06 2.0282296e-06 1.9850695e-06 1.9782478e-06 2.0271095e-06 1.9659644e-06 1.9830131e-06
2.0300215e-06 1.9630195e-06 2.0026564e-06 1.9795282e-06 2.0087496e-06 1.9787533e-06 1.950077e-06 1.955717e-06
2.0495852e-06 1.9698905e-06 2.0466416e-06 1.9662564e-06 2.0326045e-06 2.038618e-06 2.035087e-06 2.0233506e-06
2.0233326e-06 2.0538785e-06 2.0637983e-06 1.9981583e-06 2.0798875e-06 1.9732847e-06 1.8654464e-07 1.8929099e-07
7.1521185e-07 1.596432e-06 2.7770695e-06 3.5170608e-06 4.1797557e-06 4.1307076e-06 4.4065728e-06 5.3684607e-06
5.848258e-06 6.8408003e-06 7.720806e-06 8.514178e-06 9.07245e-06 9.887195e-06 9.641104e-06 9.62108e-06
1.0152192e-05 1.1806095e-05 1.2327794e-05 1.1569654e-05 1.1721971e-05 1.2130147e-05 1.2661451e-05 1.2069865e-05
1.2411885e-05 1.2537875e-05 1.1692732e-05 1.1990184e-05 1.25745455e-05 1.2757412e-05 1.2228323e-05 1.2147165e-05
1.238035e-05 1.23322425e-05 1.2915388e-05 1.2059116e-05 1.4714562e-05 2.2976132e-05 1.9842255e-06 1.9763934e-06
2.0223852e-06 1.9661618e-06 2.0243863e-06 2.0489804e-06 1.9774802e-06 2.0063314e-06 2.017138e-06 2.005691e-06
