test/test_results/triplets/results/model/model_epoch0470.tar (torch, 81812 bytes, 3 tensors)

fc.weight f4 [100, 41]
00000000: 2d61 aa3a 9808 ed3f 4a31 c33f 50fd 1140
00000010: 1676 1f40 c556 2f40 c2d4 2d40 1a30 2740
00000020: ccf2 2440 23ab 2340 cb6c 1a40 2f8e 0d40
00000030: 9d43 0540 7ca9 fa3f 2c18 e93f c029 d53f
00000040: c467 d03f 9d0c bd3f 0afc ae3f dbb7 ba3f
00000050: 8204 ae3f 0a63 ad3f 23d6 a53f 19a7 af3f
00000060: 312e a63f 5b2b b03f 978f a83f d3c9 9f3f
00000070: a4f7 933f 61a8 883f cd19 963f 13eb 673f
00000080: 9701 573f 0e9f 313f 6590 293f f61a fa3e
00000090: bb36 053f 36e6 1a3e 7db4 b23c a627 0d3e
000000a0: 1e3f aeb9 e94c 193b a751 723b c87e 673b
000000b0: 1c9a 6d3b bc4f 0b3b ccbe 7c38 d08d 2c3b
000000c0: aeb1 803a 2003 743b 6072 893a e37d 4b3b
000000d0: b406 043a 1c7d 073a 4fd6 1d3b 6d39 ca3a
000000e0: f202 803a e23f 3c3b 986e 823a 1e81 033a
000000f0: b281 093b 6764 c83a 6af1 523b 70aa 583b
00000100: b191 1d3b b293 243a d768 583b 3ff0 333b
00000110: cabb 693a 6c59 523b 9bae 733b b269 213b
00000120: 4c60 713b 6d48 a33a 2341 743b 1fa2 4f3b
00000130: 02a6 643b 1bd5 5c3b 0b4a 683b fa44 603b
00000140: 9068 b239 89a8 133a 4690 623b d422 f638
00000150: 57fb 5b3b 85cd e13a cec4 123b f0fc 433b
00000160: 1a13 c33a 1bc9 513b 84c4 2c3a b396 463a
00000170: 2a7c 903a 1df2 683a bbd1 353b 4d39 473b
00000180: 86d0 0e3b 075a 3f3b 4d82 d83a b65a 6e3b
00000190: 770b 7f3a 1177 c73a aa9c 473b 5ef8 ba3a
000001a0: 3fc0 703b 9512 2c3b a0b7 95b6 664e 563b
000001b0: 0687 453b 5179 353b fdbf 213b f680 243b
000001c0: 714a 353b 39bd a03a d481 6c3b eecf 213b
000001d0: 146c c53a 60df 243b a258 453b dd50 e73a
000001e0: ac73 1f3b 2d3d 2c3b dac2 2a3b 2784 e73a
000001f0: bde0 513b 4cd0 203a 093e 333b c48a 433b
00000200: 1713 6f3b 01f5 383b ad21 483b 9244 b93a
00000210: 0db0 643b 98e6 c83a 31f7 de3a bb97 2e3b
00000220: 459f 083b a092 2e39 cb74 753b 1d25 c63a
00000230: aa08 5f3b 9a3e 633b db06 a93a 5fbc 243b
00000240: cb09 6c3b d80b 8a3a 8bcc 4e3b d302 613b
00000250: 9e25 493a f9ac 0b3b 892a d13a dc43 383b
00000260: 8577 163b 3bd1 ed3a 655c 6f3b bda5 693b
00000270: a7b2 e93a 0c0e 683b b2d8 383b 2258 e63a
00000280: 94eb 363b 7162 d63a 0554 d73a dff8 0b3b
00000290: 5dfe d939 d003 6f3b 249a 1c3a f29c 6b3b
000002a0: f8e6 043b 5277 ef3a df74 6c3b c82b 733b
000002b0: d1a8 503b 5ff3 493b 823b 233b 4cb4 e53a
000002c0: 962a 9d38 e4a3 cf3a 3eb1 253b 3963 503b
000002d0: 068b 2e3b cecc 0f3b 266e 0f3b 7e09 453b
000002e0: cf10 f63a f047 003b d497 703b 67c0 363b
000002f0: 9234 733b f992 473b 3b0a 963a b99d db3a
00000300: 26fb 293a d7bc 263b 2a53 233a 0ff8 383b
00000310: 614b a639 1c1d 373a d616 3839 9ce5 453b
00000320: 206e 713b a82f 723b e291 f93a 0084 103b
00000330: bc9e 123b 056c 983a 9b61 9140 ad56 7e40
00000340: a112 6640 870b 5940 99b1 5540 20ea 4340
00000350: 8f64 3440 8ebd 2540 aae6 2840 402c 1d40
00000360: 9a89 1240 6fff 0d40 c868 0340 b137 0040
00000370: e2f2 ec3f 0f80 ec3f 0c0d db3f b5cf d33f
00000380: 5a16 d03f 2024 cb3f 41b6 b63f de8e c23f
00000390: 3cb1 b43f cec5 9e3f 832d 973f 440c 803f
000003a0: b51d 8e3f 94f5 793f 9004 703f 149c 6e3f
000003b0: c720 453f 9b0a 4a3f 5fda 303f 2631 033f
000003c0: de3d c13e f299 c13e 61c8 ca3d 0835 283b
000003d0: 1773 b53e f9e7 f9b9 ef32 f83a fb6b f13a
000003e0: 6980 6f3b 63a1 953a f2c2 6e3b 9031 74b7
000003f0: 8adb 143b 761c 6e3b 39f7 643b e5a4 6b3b
0.0012998931 1.8518248 1.5249417 2.281086 2.4915824 2.739671 2.7161107 2.612311
2.5773191 2.5573204 2.4128902 2.2118032 2.0822518 1.9582973 1.8210502 1.6653366
1.6281667 1.4769474 1.3670666 1.4587358 1.3595126 1.3545849 1.2955974 1.3722869
1.2982846 1.3763231 1.316882 1.2483467 1.1559949 1.0676385 1.1726624 0.9059307
0.839868 0.69383323 0.66235954 0.48848695 0.5203664 0.15126881 0.02181458 0.13784656
-0.00033234892 0.002339179 0.0036974938 0.003532337 0.0036255186 0.0021257242 6.0259175e-05 0.0026329644
0.0009818578 0.0037233308 0.0010486357 0.0031050376 0.0005036399 0.0005168484 0.0024084037 0.0015428491
0.0009766503 0.00287246 0.0009951172 0.00050164934 0.0020981845 0.0015288711 0.003218735 0.0033060573
0.0024043138 0.0006278112 0.0033021474 0.002745643 0.00089162274 0.0032096757 0.003718293 0.002462965
0.003683108 0.0012457498 0.003727027 0.0031682325 0.0034888987 0.0033696357 0.0035444524 0.00342208
0.0003402871 0.00056327187 0.0034570857 0.00011736681 0.0033566558 0.0017227387 0.0022395137 0.0029905401
0.0014883012 0.0032010737 0.00065905624 0.00075755565 0.0011023332 0.00088861753 0.0027743417 0.0030399144
0.002179177 0.0029197948 0.0016518325 0.0036369986 0.00097291864 0.001521798 0.003045837 0.0014264693
0.0036735681 0.0026256193 -4.461923e-06 0.0032700538 0.0030140295 0.0027690718 0.0024681084 0.002510128
0.0027662779 0.0012263424 0.0036088126 0.0024690586 0.0015062117 0.0025157556 0.0030112644 0.0017648
0.002433042 0.002628158 0.0026056082 0.0017663286 0.0032024824 0.0006134554 0.0027350208 0.002983735
0.0036479884 0.0028222206 0.003053765 0.0014134815 0.0034894974 0.0015327511 0.0017010925 0.0026640731
0.0020846885 0.00016648555 0.0037453647 0.0015117262 0.0034032264 0.0034674765 0.001289572 0.0025136692
0.003601658 0.0010532094 0.0031555023 0.0034333959 0.0007673147 0.0021312817 0.0015958111 0.002811662
0.0022959423 0.001814402 0.0036523577 0.0035651766 0.0017829732 0.0035408763 0.0028205332 0.0017573873
0.0027911412 0.0016356242 0.0016428238 0.0021358056 0.0004157898 0.0036470778 0.00059738965 0.00359517
0.002027927 0.0018269813 0.0036080403 0.0037104953 0.0031838904 0.0030815226 0.0024907296 0.0017525046
7.4942756e-05 0.001584169 0.0025282647 0.0031797423 0.0026633157 0.0021942141 0.0021885722 0.0030065472
0.001877332 0.0019574128 0.003671159 0.0027885677 0.0037110192 0.0030452593 0.0011447141 0.0016755379
0.00064842624 0.0025442147 0.0006230349 0.0028224026 0.0003171815 0.00069852336 0.00017556114 0.0030196672
0.0036839321 0.0036954675 0.0019040669 0.0022051334 0.0022372445 0.0011628872 4.5431647 3.9740403
3.594887 3.3913286 3.3389647 3.0611649 2.8186376 2.5896945 2.6390786 2.4558258
2.2896485 2.2187154 2.0532703 2.0033991 1.8511622 1.847658 1.7113357 1.6547762
1.6256821 1.58704 1.427437 1.519985 1.4116588 1.2404115 1.1810764 1.0003743
1.1102816 0.9764035 0.9375696 0.93206906 0.7700314 0.7892243 0.6908321 0.5124687
0.37742513 0.37812763 0.099015005 0.0025666375 0.3543937 -0.00047665814 0.0018936078 0.0018419022
0.0036545044 0.0011415895 0.0036432114 -1.4555073e-05 0.0022713863 0.0036332882 0.0034937395 0.003595644

exp_avg f4 [100, 41]
00000000: 6480 3f39 c2e3 a4b7 de8e 7837 4d95 8938
00000010: cdf7 3bb9 621e ea39 a15d 8e38 9a93 88b9
00000020: a9f6 b338 3c24 0ab8 2a08 52b9 92fd 5739
00000030: aef7 ecb8 5019 44b7 7e78 1439 305d 97b9
00000040: 402d 0a37 3bd0 c1b8 720c dcb9 948b 6c39
00000050: f2ca e5b9 731e e939 3d9e 1cba 8e41 903a
00000060: 4325 88ba 325e 553a 3421 25b9 d38d 44ba
00000070: 2cb2 c1b9 e630 203a bab6 3bba 6f72 9cb8
00000080: fd96 1c3a 113d 11ba eee3 793a 00a3 193a
00000090: e697 4dba 5786 20ba ea92 c639 11f6 11bb
000000a0: e6ed 663a eacd 2a39 5cb5 36b8 cbab cfb8
000000b0: 7a57 8f38 2f9f 3039 c6f6 4739 941a 2339
000000c0: 4822 43ba b1e2 a5b7 a878 4239 52fb 0539
000000d0: 547c 4539 c059 5eba 98a7 2a39 7c70 2aba
000000e0: 0e0f 43ba 39aa 1939 1604 43ba f242 4439
000000f0: 1b7b 3139 4f77 3c39 a195 fa38 22eb 5ab9
00000100: 79b4 2c39 f851 4239 e415 5ab9 b0d5 1d39
00000110: 9973 4039 f24d 85b9 88b4 2536 e483 ddb9
00000120: 7af2 93b8 fc75 3f39 e234 37b8 42f3 84b9
00000130: 0e0c 0bb9 cd96 bf38 3d30 9138 8c39 2fb9
00000140: 9704 4539 ee8e 4b39 a895 0ab9 9b51 4739
00000150: 81f5 e938 0625 3939 a4cf 2d39 efeb 0c39
00000160: df50 3c39 f228 fa38 594c 4439 c255 4339
00000170: fbe8 42ba c9db 4239 0a5f 1e39 eb44 9fb9
00000180: 517a 3039 e5d0 1239 16e6 3a39 ae2e 6138
00000190: 3b07 4139 b75d 3c39 251b a0b9 cf1a 2aba
000001a0: 3905 1e38 66a4 2339 9e50 4639 1a8b ea38
000001b0: abe5 0b39 3691 1c39 ba11 2539 268a dcb9
000001c0: 2a14 1d39 ba7f 3e39 0242 2238 ba35 ddb9
000001d0: ec8d 3c39 e614 2839 55e6 0c39 bc19 3839
000001e0: 8ec8 2939 2899 2139 9c40 2939 e2a4 3839
000001f0: b940 fc38 4eaa 4439 8ab3 1d39 137f 9fb9
00000200: 5089 90b8 9a92 1839 52be 0c39 19b1 3d39
00000210: 6e55 0bb9 b142 3b39 7a72 3939 3dd4 2239
00000220: 8fb2 3039 b48c 4639 6ad7 3ab8 5583 2aba
00000230: 480e d738 3416 31b9 38c7 3f39 c24f ddb9
00000240: 9c34 2338 9736 43ba 6883 84b9 f80e a838
00000250: 0df4 4339 d802 3139 3420 3b39 8bf2 1739
00000260: 1730 00ba 7f4f 3739 de27 2238 2b7c d2b8
00000270: 41d4 3739 58fd ab38 97ec 1939 9d72 3739
00000280: e65f bcb9 7c27 3d39 2738 3b39 4986 3739
00000290: 55a4 4539 deec ab37 69a1 4439 6978 8f38
000002a0: cd06 3339 2c15 14ba 0a9b 2238 3299 1e38
000002b0: d32b 0539 1b5d 0639 b1b5 2639 0ead 3839
000002c0: 613e 4739 d641 3c39 7ca4 dcb9 33b2 fa38
000002d0: 603c 1d39 8037 00ba c022 3039 404f 0d39
000002e0: 3444 14ba c9f8 3539 7b9a 5f38 b038 1b39
000002f0: e8e4 b1b7 ec29 0e39 e6fb 3f39 36e1 3839
00000300: d6f2 4339 94ef 2339 5ace 4239 0147 1939
00000310: 3f36 4639 b4d6 4239 52de 4739 24e5 9eb9
00000320: 640b a8b7 803f f735 e243 3539 bbd2 feb9
00000330: 70e2 3139 b7cf 4039 ec2f e4b8 f5d6 07b8
00000340: 73fb abb7 5bab dcb9 0d47 143a a1e1 b438
00000350: 314c 30ba 1465 25b8 31a7 9437 ebd8 a7b9
00000360: c6cb 4739 f240 e238 fdb2 9638 4281 7937
00000370: bce5 37ba b2da 8839 0c0c 33b9 bce9 33ba
00000380: d60c a339 5eb5 3bba dbc7 223a ca8d 4fba
00000390: f308 b73a a47b 9eba 97a4 5c3a b8d2 bc38
000003a0: d6d1 71ba dace bdb9 483a 353a 6d65 4cba
000003b0: 005d 29b6 fceb 643a d5ed 66ba ee9e 993a
000003c0: 6331 3d3a 2ae5 58ba 34ab 21ba b6bc 133a
000003d0: 449c 1ebb 847f 8eb8 3e6d 3639 1154 3639
000003e0: fee9 35b8 6c23 4139 021b d1b8 1073 4839
000003f0: b382 2d39 f604 8e38 8cde 09b9 60ce 8f38
0.00018263009 -1.9656381e-05 1.4815216e-05 6.5604785e-05 -0.00017926023 0.00044654595 6.7885274e-05 -0.00026049913
8.581329e-05 -3.293551e-05 -0.00020030202 0.0002059846 -0.00011299491 -1.1688404e-05 0.00014159267 -0.00028870394
8.235977e-06 -9.241743e-05 -0.00041970942 0.00022558711 -0.0004382949 0.0004446391 -0.0005974507 0.0011005865
-0.0010387081 0.00081393414 -0.00015747995 -0.000749794 -0.00036944577 0.0006110802 -0.0007160712 -7.4599746e-05
0.0005973427 -0.00055404106 0.00095325604 0.0005860776 -0.0007842764 -0.0006123534 0.00037874962 -0.002227191
0.00088092533 0.00016289172 -4.3561085e-05 -9.902528e-05 6.835065e-05 0.00016843968 0.00019070049 0.00015554792
-0.0007443768 -1.9775094e-05 0.0001854623 0.00012777493 0.000188337 -0.0008482002 0.00016274897 -0.0006501747
-0.0007440903 0.0001465463 -0.00074392685 0.00018716956 0.00016925896 0.00017973523 0.000119487995 -0.00020877694
0.0001647043 0.00018531817 -0.00020798255 0.00015052292 0.0001835361 -0.0002542581 2.4692e-06 -0.0004225067
-7.054671e-05 0.00018259132 -4.367985e-05 -0.00025358243 -0.00013260564 9.1356786e-05 6.923124e-05 -0.00016710738
0.00018789094 0.00019412834 -0.00013216457 0.0001900852 0.000111560345 0.00017656767 0.00016575918 0.00013439333
0.00017959204 0.000119285556 0.00018720458 0.00018628596 -0.00074352295 0.00018583158 0.00015103459 -0.0003037819
0.00016830234 0.00014001464 0.00017824056 5.3687654e-05 0.00018408608 0.00017963989 -0.00030537802 -0.000648898
3.7675e-05 0.00015606135 0.00018912784 0.00011183899 0.00013341631 0.00014931415 0.0001574223 -0.00042064599
0.00014980198 0.00018167394 3.8685284e-05 -0.00042192434 0.00017981947 0.00016029514 0.00013437246 0.00017557194
0.00016191808 0.00015411212 0.00016141165 0.00017609031 0.00012028352 0.0001875546 0.0001503957 -0.0003042152
-6.8920315e-05 0.00014550463 0.0001342234 0.00018090419 -0.00013287898 0.00017858554 0.0001768562 0.00015528589
0.00016851186 0.00018935167 -4.4546476e-05 -0.00065045553 0.00010254659 -0.00016888307 0.00018289394 -0.0004221183
3.8911225e-05 -0.0007446794 -0.00025274907 8.0136524e-05 0.00018687565 0.00016881095 0.00017845706 0.00014490836
-0.00048899784 0.00017481855 3.866094e-05 -0.000100367084 0.00017531311 8.201104e-05 0.00014679354 0.00017494937
-0.00035929604 0.00018039154 0.00017854628 0.00017502265 0.00018848602 2.0495088e-05 0.00018752147 6.8411995e-05
0.00017073304 -0.0005648907 3.87682e-05 3.781281e-05 0.00012700194 0.0001281392 0.00015898679 0.00017612075
0.00019001357 0.00017953603 -0.0004208422 0.00011954121 0.00014995178 -0.00048910826 0.00016797613 0.00013476331
-0.0005655915 0.00017354185 5.3311214e-05 0.0001480307 -2.1206637e-05 0.00013557792 0.00018309019 0.00017631505
0.00018687113 0.00015634141 0.00018578154 0.00014617668 0.0001890296 0.00018581265 0.0001906094 -0.00030306831
-2.0032465e-05 1.8421415e-06 0.00017286793 -0.00048603662 0.0001696439 0.00018387927 -0.00010880813 -3.2386703e-05
-2.0501879e-05 -0.0004208934 0.00056563393 8.6250955e-05 -0.00067252206 -3.9433202e-05 1.772083e-05 -0.0003201434
0.0001905403 0.00010788617 7.1858965e-05 1.4871652e-05 -0.0007015129 0.00026102882 -0.00017075258 -0.0006863137
0.00031099346 -0.00071605097 0.00062095904 -0.00079175516 0.0013964459 -0.0012091291 0.000841686 9.003788e-05
-0.00092246884 -0.00036203006 0.00069132866 -0.0007797096 -2.5237096e-06 0.0008732674 -0.00088092434 0.0011720338
0.0007217137 -0.0008273894 -0.0006167174 0.0005635725 -0.0024202028 -6.794839e-05 0.00017397568 0.0001738819
-4.3371685e-05 0.0001841911 -9.970927e-05 0.0001911635 0.00016547255 6.772012e-05 -0.00013148243 6.857212e-05

exp_avg_sq f4 [100, 41]
00000000: 6c87 0436 ea6d 9033 c995 8633 94d7 aa33
00000010: 3cc6 4634 4f26 1235 e243 a835 6027 1936
00000020: 6c28 4536 3d92 4e36 c7a9 5536 99d5 6236
00000030: 5fc0 9936 0b14 9a36 acc6 b836 2105 d536
00000040: 167e e036 7fde c936 8fea d836 f7fa ec36
00000050: d7f7 fe36 fc2c 0337 d368 0637 ee0b 1337
00000060: 1e2f 1037 fdfa 0f37 dc85 1c37 cefc 2237
00000070: b549 2037 0ccd 1a37 b4d5 2537 1411 3137
00000080: d438 2937 07d7 2937 8e6d 2037 d982 2c37
00000090: 8bc0 2f37 1854 3237 6cc1 2637 5ed1 4f37
000000a0: 433a aa37 95a0 0536 b014 0836 d258 0836
000000b0: a14e 0736 2a57 0536 bd3c 0336 e2d2 0536
000000c0: adcb 0936 25e5 0736 e11d 0436 595e 0636
000000d0: e597 0336 11df 0936 4f7e 0536 4aa4 0936
000000e0: 60a4 0936 d802 0636 fba7 0936 cb96 0336
000000f0: bb21 0536 ac81 0436 777d 0636 efac 0836
00000100: 777f 0536 85a3 0336 e297 0836 fbc9 0536
00000110: 22e3 0336 8cd3 0836 d0a8 0736 a117 0936
00000120: d90c 0836 6b21 0436 d2e9 0736 be94 0836
00000130: 6d5a 0836 d804 0736 6ba5 0736 1172 0936
00000140: a352 0536 9004 0836 af80 0836 ea40 0336
00000150: 05d3 0636 7bdb 0436 4b6c 0536 1158 0636
00000160: cc97 0436 6593 0636 5bb9 0336 e6d1 0336
00000170: c7dc 0936 9bed 0336 f0e9 0536 90fc 0836
00000180: c644 0536 2312 0636 43a0 0436 b446 0736
00000190: ba00 0436 b77b 0436 51f9 0836 5d91 0936
000001a0: 2e72 0736 aec3 0536 ec10 0336 1aa8 0636
000001b0: 152e 0636 e7e5 0536 c48a 0536 340d 0936
000001c0: cdd4 0536 4019 0436 652f 0736 8106 0936
000001d0: f774 0436 f093 0536 2474 0636 4b43 0536
000001e0: 1d70 0636 8f99 0736 4a26 0a36 5800 0536
000001f0: 86ae 0636 e0bc 0336 1702 0636 8504 0936
00000200: 4e2e 0836 9017 0636 0749 0636 1481 0436
00000210: 5058 0836 0d94 0436 84c7 0436 48bf 0536
00000220: 1a38 0536 813a 0336 9007 0836 e381 0936
00000230: 12cc 0636 c492 0836 3d5b 0436 032b 0936
00000240: 2d75 0736 cbb6 0936 55b8 0836 e3fa 0636
00000250: a4c6 0336 f023 0536 ff8c 0436 66f4 0536
00000260: e246 0936 fee0 0436 b352 0736 ca1c 0836
00000270: bfcd 0436 1efa 0636 7bfc 0536 17fb 0436
00000280: 367e 0936 89c4 0536 aaa6 0636 f0a1 0936
00000290: 93ab 0336 1ba2 0736 20c3 0336 9256 0736
000002a0: 052f 0536 5570 0936 f57f 0736 0095 0736
000002b0: 967a 0636 b262 0636 7e97 0536 59d5 0436
000002c0: b91f 0336 46b1 0436 7a2b 0936 7270 0636
000002d0: dacc 0536 f33e 0936 943c 0536 992f 0636
000002e0: 846d 0936 4ff5 0436 a85d 0736 92e5 0536
000002f0: 2bdf 0736 6941 0636 4f22 0436 949a 0436
00000300: feaa 0336 b58b 0536 f1a8 0336 24d6 0536
00000310: 943b 0336 df99 0336 662e 0336 ced9 0836
00000320: f805 0836 1c2d 0836 8feb 0536 e314 0b36
00000330: 7bc9 0936 c164 0436 e483 0134 9e21 f633
00000340: 7093 9434 c585 3335 2cb6 cf35 cdbd 4836
00000350: 7cbe a436 32d9 bd36 95e8 c636 2f8a c536
00000360: ab69 c836 9fbb fa36 2123 f536 7931 0e37
00000370: 1b26 2837 1668 3737 7f3e 2b37 1dce 3937
00000380: 4727 3e37 4469 5337 9ab7 5837 a488 5937
00000390: 6621 6e37 faae 6437 9e0d 5537 4054 4e37
000003a0: 8c41 4e37 aae7 4d37 0d8d 4137 4937 4b37
000003b0: a07a 5c37 ad0a 4f37 10f8 5137 82c7 4f37
000003c0: 8d3d 5837 4899 5d37 1d85 5637 f993 4d37
000003d0: fffc 7937 9133 b937 f321 0536 9202 0536
000003e0: 1e1a 0836 f951 0436 4168 0836 551d 0336
000003f0: 4668 0536 2546 0736 3f52 0836 c544 0736
1.9748359e-06 6.725516e-08 6.267107e-08 7.955455e-08 1.8512304e-07 5.4444985e-07 1.2536732e-06 2.2821696e-06
2.9378816e-06 3.0781514e-06 3.1838297e-06 3.3800954e-06 4.5821503e-06 4.591891e-06 5.5067558e-06 6.3484918e-06
6.6903985e-06 6.0161688e-06 6.464608e-06 7.0625642e-06 7.5986422e-06 7.818682e-06 8.011429e-06 8.76466e-06
8.594039e-06 8.581902e-06 9.329491e-06 9.714813e-06 9.553904e-06 9.2268565e-06 9.884523e-06 1.0553998e-05
1.0086416e-05 1.012325e-05 9.562251e-06 1.0282464e-05 1.0475643e-05 1.0629206e-05 9.939406e-06 1.2386909e-05
2.029271e-05 1.9912015e-06 2.027762e-06 2.031728e-06 2.0162336e-06 1.986928e-06 1.9555875e-06 1.9941294e-06
2.0533146e-06 2.0249947e-06 1.9686925e-06 2.0022474e-06 1.9608935e-06 2.0544433e-06 1.9892066e-06 2.051022e-06
2.051027e-06 1.9969211e-06 2.0512368e-06 1.9608294e-06 1.9838178e-06 1.9745012e-06 2.0040586e-06 2.036624e-06
1.9892739e-06 1.9615702e-06 2.0353987e-06 1.9936112e-06 1.965273e-06 2.0388716e-06 2.021483e-06 2.0428345e-06
2.0273058e-06 1.9688985e-06 2.025267e-06 2.0352159e-06 2.0318214e-06 2.0119387e-06 2.0212854e-06 2.0480986e-06
1.9866645e-06 2.0268235e-06 2.0340483e-06 1.9558306e-06 2.0090386e-06 1.9797287e-06 1.988158e-06 2.0018817e-06
1.975789e-06 2.005335e-06 1.9628412e-06 1.9642698e-06 2.05431e-06 1.9658826e-06 1.9954714e-06 2.041259e-06
1.9858576e-06 1.9978113e-06 1.9762817e-06 2.0157722e-06 1.9669956e-06 1.9741544e-06 2.04107e-06 2.0499203e-06
2.018303e-06 1.9932445e-06 1.953037e-06 2.0065404e-06 1.999438e-06 1.9952365e-06 1.9899317e-06 2.0422276e-06
1.994241e-06 1.968423e-06 2.0144155e-06 2.0418377e-06 1.9737615e-06 1.9904655e-06 2.0035159e-06 1.9857714e-06
2.0032815e-06 2.020595e-06 2.058589e-06 1.9818744e-06 2.0069142e-06 1.963046e-06 1.9968772e-06 2.0417222e-06
2.0292532e-06 1.9981271e-06 2.0010064e-06 1.9744666e-06 2.0316984e-06 1.975571e-06 1.9785666e-06 1.9929885e-06
1.98512e-06 1.9554575e-06 2.0269981e-06 2.0490195e-06 2.008634e-06 2.0351008e-06 1.972264e-06 2.0439627e-06
2.0184773e-06 2.052099e-06 2.0372875e-06 2.0113591e-06 1.9636145e-06 1.9839463e-06 1.9751603e-06 1.9960803e-06
2.045585e-06 1.9800495e-06 2.0164705e-06 2.0282337e-06 1.9789293e-06 2.0113143e-06 1.9965507e-06 1.9815686e-06
2.0488055e-06 1.9932943e-06 2.0064567e-06 2.050885e-06 1.962039e-06 2.0210925e-06 1.9634099e-06 2.0166958e-06
1.9845913e-06 2.0479977e-06 2.0191048e-06 2.0203297e-06 2.003891e-06 2.0025004e-06 1.9906724e-06 1.9793717e-06
1.9538986e-06 1.977272e-06 2.0439898e-06 2.0033008e-06 1.9937784e-06 2.0451232e-06 1.9853805e-06 1.9995261e-06
2.0478337e-06 1.9812321e-06 2.0171083e-06 1.9952172e-06 2.0246468e-06 2.000563e-06 1.9689503e-06 1.975951e-06
1.9620052e-06 1.9899865e-06 1.9618858e-06 1.994319e-06 1.95552e-06 1.9610086e-06 1.9547529e-06 2.0392358e-06
2.0269053e-06 2.0291836e-06 1.9955658e-06 2.0724772e-06 2.0531868e-06 1.972818e-06 1.2062043e-07 1.14613826e-07
2.7674423e-07 6.6877357e-07 1.5475721e-06 2.99128e-06 4.909756e-06 5.657924e-06 5.927936e-06 5.887144e-06
5.972766e-06 7.4724226e-06 7.3056585e-06 8.475378e-06 1.0022452e-05 1.0931884e-05 1.0206945e-05 1.1074849e-05
1.13340275e-05 1.2601089e-05 1.2917351e-05 1.2966022e-05 1.4193682e-05 1.3630599e-05 1.269896e-05 1.2298173e-05
1.2293818e-05 1.2272891e-05 1.1536537e-05 1.2112615e-05 1.3141573e-05 1.2340647e-05 1.2515127e-05 1.2384613e-05
1.2888934e-05 1.3208315e-05 1.2786387e-05 1.2253405e-05 1.4900462e-05 2.2077731e-05 1.9838305e-06 1.982004e-06
2.0280781e-06 1.9717247e-06 2.0326263e-06 1.9537595e-06 1.987924e-06 2.0157397e-06 2.0313453e-06 2.0156597e-06
