test/test_results/triplets/results/model/model_epoch0365.tar (torch, 74964 bytes, 3 tensors)

fc.weight f4 [100, 41]
000000 aa 78 2c 3b 58 a2 16 40 9e fc 0b 40 77 c3 26 40
       0.0026317039 2.3536587 2.1872935 2.6056802
000010 2e c4 25 40 d3 c1 28 40 41 25 23 40 01 06 1b 40
       2.5900989 2.63683 2.5491488 2.4222414
000020 25 e9 15 40 29 2c 12 40 2b b5 06 40 37 e0 f8 3f
       2.342355 2.2839453 2.1048076 1.9443425
000030 2d b0 e9 3f 7a 35 dd 3f 8f 77 cf 3f ed ee bf 3f
       1.825689 1.7281945 1.6208361 1.4994789
000040 11 47 bc 3f 13 79 ac 3f 6c da a3 3f 5e bb ab 3f
       1.4709188 1.3474449 1.2801032 1.3416555
000050 3b ba a1 3f cc 6c 9f 3f 59 b3 9f 3f 28 c9 a3 3f
       1.2634958 1.2455077 1.2476608 1.2795763
000060 dd 5a 9c 3f ca e2 a4 3f 1b c3 9d 3f 15 9e 9d 3f
       1.2215229 1.288171 1.2325166 1.2313868
000070 76 b4 93 3f c3 38 84 3f d6 ec 93 3f c8 8c 69 3f
       1.1539447 1.0329822 1.1556652 0.9123044
000080 71 44 59 3f 33 df 37 3f 57 54 2a 3f cd ec f8 3e
       0.8487006 0.7182495 0.6653494 0.48618165
000090 9f e8 07 3f 98 e2 1f 3e 10 db 95 3d b4 2a de 3d
       0.53089327 0.15613782 0.073171735 0.10847989
0000a0 1a 58 b1 b9 9d 39 5e 3b f6 e8 4c 3b 9c 88 26 3b
       -0.00033825712 0.0033908852 0.0031266785 0.0025411015
0000b0 51 b8 72 3b 84 d9 35 3b b8 10 46 3a 72 fc 4c 3b
       0.003703613 0.0027748058 0.0007555592 0.0031278399
0000c0 b1 4b a3 39 30 b3 73 3b a1 7b ac 3a 33 cd 56 3b
       0.00031146177 0.0037185661 0.0013159403 0.0032776117
0000d0 dc 1b 2d 3a 4e 9b 10 3a 9f 03 21 3b ba a7 fb 3a
       0.00066035776 0.0005516306 0.0024568809 0.0019199767
0000e0 86 da ff 3a 99 3d 30 3b 90 f3 bd 3a 66 cd 71 39
       0.0019520081 0.0026892184 0.0014492143 0.00023060068
0000f0 6d b0 f8 3a 52 2a 83 3a ed 50 3e 3b b8 53 5b 3b
       0.0018973477 0.0010007119 0.0029039935 0.0033466648
000100 91 fe 13 3b 90 0c 75 38 6b d9 69 3b 9d f0 16 3b
       0.0022582153 5.842425e-05 0.003568257 0.00230316
000110 a5 0d 06 3a aa b3 61 3b f2 e7 68 3b 73 88 42 3b
       0.00051137275 0.0034439364 0.003553864 0.002968338
000120 65 be 65 3b 1a 1a 8d b8 53 1a 64 3b 4e fa 74 3b
       0.003505611 -6.728266e-05 0.003480573 0.0037380639
000130 0f 59 6a 3b a8 a0 74 3b 50 38 6f 3a 14 40 35 3b
       0.003575865 0.0037327204 0.00091255177 0.0027656602
000140 c6 d0 3b 3a 6e 3c 4d 3b 7c 4a 8f 3a b9 51 70 3a
       0.00071645936 0.0031316536 0.0010932232 0.0009167451
000150 a4 d5 70 3b 44 9c 24 3b 39 9f 42 3b 8a a7 5e 3b
       0.0036748433 0.0025117556 0.0029696955 0.0033974373
000160 1a fd f8 3a 0d 25 60 3b a5 4c 85 3a 87 10 9e 3a
       0.0018996329 0.0034201771 0.0010169937 0.0012059369
000170 94 f8 47 38 e2 a1 93 3a 9f 33 3c 3b 24 2a 33 3b
       4.7676804e-05 0.0011263455 0.0028717292 0.002733835
000180 68 2e fb 3a 42 3b 2f 3b 87 b1 aa 3a af 88 66 3b
       0.001916361 0.0026738201 0.0013022878 0.0035176685
000190 f0 dc 85 3a e1 de 86 3a 03 c0 44 3b 41 07 13 3b
       0.0010212939 0.0010289812 0.0030021674 0.0022434744
0001a0 68 99 68 3b a4 ef 18 3b 0a 71 90 3a 07 7a 53 3b
       0.0035491828 0.0023336196 0.0011020016 0.003226878
0001b0 40 b7 38 3b ba a9 1f 3b dd be 00 3b 06 00 64 3b
       0.0028185397 0.002436264 0.0019645013 0.0034790053
0001c0 b1 6a 10 3b 0d f6 66 39 bc d8 3b 3b ea 71 6d 3b
       0.002203625 0.0002202617 0.002866312 0.0036231228
0001d0 86 e3 70 3a e9 15 2e 3b e3 7a 73 3b 8f 5e 5c 3b
       0.0009189177 0.0026563352 0.0037152104 0.0033625697
0001e0 8e c5 1a 3b 0e 39 2a 3b 38 3c b3 3a 3f e6 44 3b
       0.0023616287 0.0025973949 0.0013674563 0.0030044464
0001f0 62 16 6e 3b 78 6f ad 3a b5 ef 57 3b 86 01 c9 3a
       0.003632926 0.0013232073 0.0032949273 0.0015335537
000200 ea 5c 4d 3b 45 12 58 3b dd d2 4d 3b 76 7c cc 3a
       0.0031335899 0.0032969874 0.0031406202 0.0015601057
000210 14 8b 57 3b f3 fe ef 3a c0 5b ef 3a 8e 19 2c 3b
       0.0032889294 0.0018310234 0.0018261597 0.002626035
000220 1d 4e 07 3b c2 d2 85 39 79 6d 6e 3b 31 f5 10 3b
       0.0020645924 0.00025524764 0.0036381169 0.0022118802
000230 74 30 57 3b 81 48 63 3b 8c d7 99 3a ae 7d 37 3b
       0.0032835277 0.0034680667 0.0011737212 0.0027998495
000240 44 62 6c 3b 8e b0 bf 3a 18 29 73 3b a3 53 5b 3b
       0.0036069313 0.0014624761 0.0037103351 0.00334666
000250 85 e4 07 3a ac c9 ea 3a ef 08 89 3a 36 75 28 3b
       0.00051838934 0.0017912886 0.0010454933 0.0025704629
000260 f8 50 50 3b 6d 5b bb 3a 7d f8 4a 3b fa b7 64 3b
       0.0031786542 0.0014294215 0.0030970864 0.0034899698
000270 53 e4 8a 3a 74 a7 42 3b df e0 3d 3b 93 c7 42 3b
       0.001059661 0.002970186 0.0028973145 0.0029721006
000280 42 a0 2e 3b ca ef 04 3b a4 67 cc 3a a9 c8 4f 3a
       0.0026645814 0.0020284527 0.0015594852 0.0007926324
000290 67 5c f0 3a 84 61 6e 3b f0 74 c0 3a 7b dc 73 3b
       0.0018338085 0.0036374042 0.0014683288 0.0037210274
0002a0 22 d6 2e 3b 3b 36 04 b9 dd 82 6a 3b bd 34 75 3b
       0.0026677926 -0.00012608703 0.0035783567 0.0037415468
0002b0 bd 9f 5a 3b 98 93 5a 3b 12 a1 2f 3b 02 28 fb 3a
       0.0033359372 0.0033352133 0.0026798886 0.0019161704
0002c0 a2 62 9f b8 97 95 e1 3a 57 29 37 3b 00 86 42 3b
       -7.6000826e-05 0.0017210719 0.0027948224 0.002968192
0002d0 b7 63 2e 3b 9a 9b 41 3b 87 15 eb 3a 5d 06 3a 3b
       0.0026609728 0.0029542209 0.0017935493 0.002838514
0002e0 a8 ff 21 3b bf 97 cf 3a ec e1 6b 3b 2e 1f 31 3b
       0.0024719033 0.001583807 0.0035992814 0.0027026641
0002f0 06 3e 6f 3b 8d 24 2a 3b 77 2d 28 3a 24 77 83 3a
       0.0036505475 0.0025961727 0.0006415466 0.0010030014
000300 ed 88 ea 39 21 af 0b 3b 9d ee 33 39 f6 08 e7 3a
       0.00044733976 0.0021314102 0.0001715966 0.0017626572
000310 62 91 29 3b f2 26 c3 3a 38 83 ff 3a 57 6c 53 3b
       0.0025874008 0.0014888926 0.0019494062 0.003226062
000320 82 12 34 3b 7e f0 a7 3a c2 70 28 3b 21 2d 0c 3b
       0.0027476852 0.0012812761 0.0025701975 0.0021389204
000330 77 84 50 3a 92 ad 24 3b ef 7c 77 40 a1 dc 64 40
       0.0007954309 0.002512787 3.8670003 3.5759661
000340 f5 cd 45 40 84 33 3c 40 36 45 38 40 74 8f 2d 40
       3.0906956 2.9406443 2.8792243 2.7118807
000350 44 7b 22 40 8d c2 16 40 bd 99 16 40 d4 56 0b 40
       2.5387735 2.3556244 2.3531334 2.1771746
000360 70 a8 03 40 15 df f6 3f 3a e8 e8 3f 10 63 e0 3f
       2.0571556 1.9286829 1.819587 1.7530231
000370 6d 8b d1 3f 58 67 d0 3f a0 40 c1 3f 0c 62 be 3f
       1.6370674 1.6281538 1.5097847 1.4873672
000380 3c a7 bc 3f d9 81 b6 3f a3 31 a9 3f bd 4a b1 3f
       1.4738536 1.4258376 1.3218273 1.3850933
000390 37 45 a9 3f 32 88 98 3f a5 15 95 3f ec 91 84 3f
       1.3224248 1.1916564 1.164723 1.0357032
0003a0 5d 59 91 3f 86 f0 83 3f b9 ca 7b 3f a8 ea 7b 3f
       1.1355397 1.0307777 0.98356205 0.9840493
0003b0 78 fd 54 3f c4 83 59 3f 4a bf 3a 3f 1f 50 15 3f
       0.8319926 0.84966683 0.72948134 0.5832538
0003c0 d4 a0 ea 3e ff 66 dd 3e 0f ea 46 3e 68 a4 b7 3d
       0.45825827 0.43242642 0.19425224 0.08966905
0003d0 cf e4 3c 3e ed 5c 2e b9 59 44 4b 3b bb 43 2a 3b
       0.18446659 -0.0001662855 0.003101608 0.0025980312
0003e0 df fb 3f 3b 02 bc 04 3b c2 c9 47 3b 80 95 19 3a
       0.0029294414 0.0020253663 0.0030485247 0.0005858764
0003f0 c5 38 2e 3b 04 dd 72 3b 20 ca 68 3b 53 f9 6e 3b
       0.002658413 0.0037058005 0.0035520867 0.0036464527

exp_avg f4 [100, 41]
000000 7b e0 22 39 b8 e3 6c 37 4e 84 0b 36 84 9a 68 38
       0.0001553315 1.4119716e-05 2.0789626e-06 5.5457014e-05
000010 14 3f 7a 38 5c ac d1 b8 de 5e c2 b8 5e a5 90 38
       5.966339e-05 -9.998001e-05 -9.268311e-05 6.897257e-05
000020 7b 80 3b b9 64 fb 75 b9 68 09 62 ba 6c 4e 40 3a
       -0.00017881572 -0.00023458671 -0.00086226175 0.00073359045
000030 36 3f 84 b9 b7 bb a8 b7 ef 46 57 ba ea 97 e1 b9
       -0.00025224098 -2.0114572e-05 -0.0008212169 -0.0004302853
000040 83 36 69 3a f9 8c 7c 39 c6 b0 52 39 95 90 c9 39
       0.00088963675 0.00024085109 0.00020093014 0.0003844543
000050 cf 98 69 ba 36 26 51 b7 15 30 10 ba 8d 94 e9 39
       -0.0008911015 -1.2466267e-05 -0.0005500329 0.00044551902
000060 14 dc d7 b9 5f 17 b9 39 e8 2f 15 3a e4 f7 63 ba
       -0.00041171967 0.00035303363 0.00056910375 -0.00086963014
000070 1f dc 28 3a 56 fa 19 ba 3c f4 9e b8 bf ae 31 3a
       0.0006441492 -0.000587379 -7.579519e-05 0.00067780534
000080 7c e4 8d 38 e0 b1 23 ba 5c 3f 45 ba 00 f8 a8 3a
       6.7659625e-05 -0.0006244462 -0.0007524395 0.0012891293
000090 16 1f 9e b9 8b 25 ae b9 4b 75 a8 39 aa 2c ad ba
       -0.0003015927 -0.00033215838 0.00032130847 -0.0013212163
0000a0 fa 96 47 3a 72 cf c1 38 a4 12 85 b9 e3 b7 dc b9
       0.0007613745 9.241597e-05 -0.00025381625 -0.00042098676
0000b0 6e a5 37 b8 d6 63 1e 39 68 d2 43 39 0e 12 06 39
       -4.378467e-05 0.00015105246 0.00018675032 0.00012785962
0000c0 4c f2 45 39 36 ea 94 b8 59 a9 3f 39 06 65 f9 38
       0.00018877647 -7.100815e-05 0.00018278266 0.00011892062
0000d0 1f 8f 45 39 4a 34 5e ba b0 c8 25 39 66 53 14 ba
       0.00018840701 -0.00084764196 0.00015810388 -0.0005658179
0000e0 cd 3f 14 ba 08 f6 22 39 c6 68 2a ba e2 d4 47 39
       -0.0005655259 0.00015541178 -0.0006500598 0.00019057424
0000f0 bf a2 36 39 34 01 41 39 22 35 13 39 87 fb 5a b9
       0.000174175 0.00018406363 0.00014038806 -0.00020883801
000100 e8 0c 2e 39 bb 2b 46 39 ce 82 d0 b8 8a f8 2e 39
       0.00016598741 0.00018899042 -9.942577e-05 0.00016686521
000110 6d 46 45 39 84 27 31 b9 ef 6b a9 38 2a 67 9f b9
       0.0001881362 -0.00016894756 8.078652e-05 -0.00030403706
000120 e8 9a a9 38 c8 2e 47 39 be 89 be 38 00 81 fb 35
       8.0874015e-05 0.00018995546 9.0855625e-05 1.8738501e-06
000130 82 ee 08 b9 70 17 3b b8 0c 69 41 39 f7 c4 bb b9
       -0.00013058822 -4.4606102e-05 0.00018445047 -0.0003581417
000140 5e 2d 44 39 0c 84 81 b9 86 03 43 ba 70 23 42 39
       0.00018708917 -0.0002470318 -0.00074391847 0.00018514483
000150 cb b7 b1 37 07 a0 27 39 bd 66 13 39 02 0c d7 38
       2.118563e-05 0.00015985976 0.00014057285 0.000102542355
000160 d8 f7 35 39 5c 4b c2 38 44 b2 41 39 5a dd 3f 39
       0.00017353834 9.264678e-05 0.00018472323 0.0001829764
000170 dc 40 47 39 ab c2 40 39 dc fa 11 39 d8 78 bc b9
       0.00019002281 0.00018383066 0.0001392173 -0.0003594819
000180 f9 ba 34 39 ff e3 21 39 b4 65 40 39 d9 19 aa 38
       0.0001723579 0.00015439092 0.00018348434 8.111046e-05
000190 0a 9d 41 39 ff d0 41 39 f6 1c a0 b9 36 71 00 ba
       0.00018464416 0.00018483771 -0.00030539156 -0.0004899682
0001a0 44 0d a9 38 5a 68 2b 39 72 3b 43 ba b5 d6 fc 38
       8.061019e-05 0.00016346705 -0.0007447518 0.00012056289
0001b0 f2 7c 19 39 72 27 29 39 e2 19 34 39 b6 3e 31 b9
       0.00014637763 0.0001613179 0.0001717578 -0.00016903397
0001c0 89 9e 2b 39 56 dd 47 39 1c 3b 13 39 68 7c d4 b8
       0.0001636689 0.00019060573 0.00014041032 -0.0001013212
0001d0 c7 f7 40 39 fe bc 23 39 b4 51 ad 37 44 44 30 b9
       0.00018402851 0.00015615296 2.0661253e-05 -0.00016810099
0001e0 7d 15 2a 39 4b 29 23 39 53 9e 45 39 e2 01 0d 39
       0.00016220468 0.00015560274 0.00018846364 0.00013447509
0001f0 16 00 ab 37 04 56 3f 39 ca 4a ea 38 3b 41 2a ba
       2.0384829e-05 0.00018247223 0.0001117192 -0.00064947054
000200 3d 96 84 b9 a6 cc e8 38 60 b4 fb 38 3c 6a 3c 39
       -0.00025288938 0.00011100741 0.0001200221 0.00017968653
000210 04 ed 5a b9 7e 5a 37 39 4f 64 37 39 38 03 22 39
       -0.00020878395 0.00017485951 0.00017489608 0.00015450723
000220 db 5f 34 39 e5 ee 45 39 e0 91 da 35 3c 78 00 ba
       0.00017201847 0.00018876379 1.6284721e-06 -0.0004900729
000230 8e ee eb 38 3a 58 0a b9 26 6f 41 39 dd 93 bc b9
       0.000112501075 -0.00013193573 0.0001844732 -0.0003596832
000240 fe 04 8f 38 42 d6 2a ba d9 90 93 b8 ad bd d6 38
       6.819701e-05 -0.0006516912 -7.036486e-05 0.00010239645
000250 4d 04 45 39 9c 6a 39 39 09 e2 40 39 e6 9e 23 39
       0.00018788986 0.0001768269 0.00018394752 0.00015604086
000260 79 0f 86 b9 f6 5d 3d 39 33 58 06 39 70 c6 a6 38
       -0.0002557 0.00018059448 0.00012812093 7.952459e-05
000270 f2 94 40 39 a2 5a 11 39 52 6f 1a 39 4b 38 0c 39
       0.00018366033 0.00013862041 0.00014728055 0.00013372411
000280 15 2e 1e 39 af 0f 34 39 aa b3 3a 39 fb 9a 4c 39
       0.00015085221 0.0001717198 0.00017805272 0.00019512691
000290 3e 6d 36 39 b0 e3 d1 b8 b5 da 3c 39 64 e6 34 b8
       0.00017397568 -0.00010008307 0.00018010552 -4.3129912e-05
0002a0 1e 8f 1e 39 82 65 47 39 3d 4a d3 b8 d9 4d a8 b7
       0.0001512137 0.00019015934 -0.00010075092 -2.0063411e-05
0002b0 22 6b ea 38 80 7c e9 38 94 2e 1d 39 0b 7a 37 39
       0.000111779445 0.00011133496 0.00014990038 0.00017497705
0002c0 78 49 47 39 34 0c 38 39 15 ba bc b9 22 84 12 39
       0.00019005488 0.00017552153 -0.00035996796 0.00013972868
0002d0 3c c2 23 39 37 56 9f b9 5e 6b 39 39 22 33 19 39
       0.0001561725 -0.00030391078 0.00017682972 0.00014610265
0002e0 ea 7a dd b9 8f 23 3d 39 f5 1f 22 38 19 df 1d 39
       -0.00042243983 0.00018037691 3.8653572e-05 0.00015055797
0002f0 00 fa e4 b3 2d 1a 23 39 52 9d 45 39 d4 97 41 39
       -1.0662552e-07 0.00015554643 0.0001884599 0.00018462475
000300 42 ae 45 39 39 6d 2e 39 b9 58 46 39 de 8f 38 39
       0.000188523 0.00016634622 0.00018915803 0.00017601202
000310 3b 61 dc b9 f2 98 2a ba f2 87 14 ba c1 35 84 b9
       -0.00042034112 -0.0006507776 -0.00056660094 -0.00025217052
000320 7b 54 bc b9 2a b7 3e 39 84 f9 24 39 57 bb ff b9
       -0.00035921097 0.00018188046 0.0001573321 -0.0004877697
000330 90 f9 49 39 99 0c 27 39 02 65 10 b8 ff 3a 61 b8
       0.00019261823 0.00015931054 -3.4426346e-05 -5.3699125e-05
000340 d1 62 96 37 68 d7 d1 37 78 9c 39 b9 64 a7 85 b8
       1.7927408e-05 2.5015048e-05 -0.00017701264 -6.373113e-05
000350 aa b7 7a 38 58 d8 5e b9 24 2e 96 b9 48 40 87 ba
       5.9775695e-05 -0.00021252164 -0.00028644607 -0.001031884
000360 42 5b 65 3a 1b 23 af b9 9b c6 0b b9 25 f0 61 ba
       0.0008749255 -0.00033404757 -0.0001333006 -0.0008618853
000370 6d af 19 ba 66 f1 82 3a d1 7b 80 39 7e cf 8d 39
       -0.00058626273 0.0009990155 0.00024506313 0.0002704821
000380 28 f3 e4 39 cd b5 81 ba 1f 7d cc b8 fc f8 11 ba
       0.00043668714 -0.00098961 -9.750784e-05 -0.00055684126
000390 1f 11 fc 39 c9 14 1d ba 50 b3 03 3a 6b e8 22 3a
       0.00048077942 -0.0005992172 0.0005023973 0.00062144425
0003a0 dc 0f 57 ba 70 88 13 3a c4 80 22 ba 90 b3 ab b7
       -0.00082039624 0.0005627936 -0.0006198997 -2.0468404e-05
0003b0 4b e2 43 3a b0 c7 2f 37 7e 55 07 ba 17 b6 74 ba
       0.000747238 1.0477306e-05 -0.00051625806 -0.0009334995
0003c0 5a 7c ae 3a 9a 8e 2c b9 c2 ef b5 b9 47 01 fe 39
       0.0013312206 -0.00016456321 -0.00034701644 0.00048447607
0003d0 d4 e9 d4 ba e0 f4 14 38 05 f1 05 39 64 50 23 39
       -0.0016244003 3.5514007e-05 0.00012773655 0.00015574839
0003e0 ad 6d 9f b9 b5 07 34 39 b0 6e 9f b9 52 7b 44 39
       -0.00030408558 0.00017169009 -0.00030409312 0.00018737957
0003f0 af 34 23 39 d0 c6 c4 35 03 2d 0b b9 c0 cb ea 35
       0.00015564518 1.4661e-06 -0.00013272841 1.7493658e-06

exp_avg_sq f4 [100, 41]
000000 bd f1 05 36 cc fd a5 33 23 92 c8 33 2a ec 9e 34
       1.9959255e-06 7.7295766e-08 9.339808e-08 2.9601625e-07
000010 10 be 2a 35 79 7a 7d 35 c8 c5 cf 35 7d 97 0b 36
       6.360651e-07 9.4428066e-07 1.5480264e-06 2.0800792e-06
000020 9e 5e 34 36 65 a3 5f 36 69 77 8d 36 a6 2b 9b 36
       2.6877165e-06 3.3324698e-06 4.2160286e-06 4.6244413e-06
000030 dd ce b2 36 e6 2a c7 36 e3 f1 d2 36 db e2 d9 36
       5.3288954e-06 5.935656e-06 6.286647e-06 6.4935134e-06
000040 e0 89 00 37 5c 49 f1 36 09 51 f6 36 45 eb 07 37
       7.661496e-06 7.1909e-06 7.340805e-06 8.101405e-06
000050 7f 02 11 37 bd 05 0d 37 da cd 16 37 22 58 1d 37
       8.643255e-06 8.405591e-06 8.988625e-06 9.378449e-06
000060 be 9f 21 37 7f 5e 2c 37 d1 2b 2a 37 5f 9c 2b 37
       9.633541e-06 1.02740005e-05 1.0142991e-05 1.0228802e-05
000070 ca 37 30 37 93 8d 23 37 52 0c 1f 37 51 9f 3a 37
       1.0503407e-05 9.74852e-06 9.480007e-06 1.1123558e-05
000080 1c 62 3c 37 4f f4 3c 37 b8 4b 27 37 fd df 3c 37
       1.1228516e-05 1.1262556e-05 9.971605e-06 1.1257825e-05
000090 f7 90 34 37 67 46 40 37 20 28 3a 37 9b 53 64 37
       1.0762588e-05 1.1460484e-05 1.1095806e-05 1.3609325e-05
0000a0 8c 57 b9 37 ce 0e 07 36 92 d5 08 36 07 43 09 36
       2.2094486e-05 2.0125185e-06 2.0389894e-06 2.0453606e-06
0000b0 8e 0e 08 36 3d f0 05 36 ee c7 03 36 38 49 06 36
       2.0274051e-06 1.9958381e-06 1.9636896e-06 2.0010175e-06
0000c0 b0 4e 03 36 5a 02 08 36 16 3a 04 36 cd 67 06 36
       1.9566323e-06 2.0266948e-06 1.9703343e-06 2.0027976e-06
0000d0 fe 71 03 36 fe 99 09 36 30 48 05 36 be 39 09 36
       1.9586873e-06 2.0504226e-06 1.9860563e-06 2.0448201e-06
0000e0 dd 3b 09 36 93 a7 05 36 bf 72 09 36 cf 39 03 36
       2.0449436e-06 1.9916085e-06 2.0481382e-06 1.955417e-06
0000f0 d1 e1 04 36 e0 fa 03 36 69 03 06 36 99 91 08 36
       1.9800975e-06 1.966655e-06 1.996954e-06 2.0350328e-06
000100 a8 43 05 36 53 16 03 36 41 26 08 36 88 46 05 36
       1.9857926e-06 1.9533516e-06 2.0287846e-06 1.98596e-06
000110 3e 78 03 36 31 7f 08 36 01 f5 06 36 09 f3 08 36
       1.9590511e-06 2.0339614e-06 2.0110167e-06 2.0407044e-06
000120 76 d6 06 36 61 f6 02 36 35 dd 06 36 9f 98 07 36
       2.0092389e-06 1.951492e-06 2.0096315e-06 2.0205405e-06
000130 b5 89 08 36 b4 45 08 36 d7 99 04 36 9f 44 0a 36
       2.0345735e-06 2.0306152e-06 1.975908e-06 2.0603545e-06
000140 51 e7 05 36 cc ee 0d 36 28 f8 09 36 cd 10 04 36
       1.9953188e-06 2.1149635e-06 2.0559037e-06 1.9679312e-06
000150 b3 a9 07 36 55 b1 05 36 72 4a 06 36 8c d7 06 36
       2.0215346e-06 1.9921765e-06 2.001089e-06 2.009302e-06
000160 2e f6 04 36 e5 d8 06 36 40 00 04 36 28 19 04 36
       1.9812828e-06 2.0093805e-06 1.9669678e-06 1.9684176e-06
000170 00 f9 02 36 cc fa 03 36 b0 e2 05 36 9c c3 08 36
       1.9516447e-06 1.9666504e-06 1.9950494e-06 2.037944e-06
000180 fe b6 04 36 7c 80 05 36 0b 1e 04 36 0d e6 06 36
       1.9776048e-06 1.9893332e-06 1.968702e-06 2.0101463e-06
000190 4f d4 03 36 23 e4 03 36 29 a9 08 36 8c 22 09 36
       1.96441e-06 1.9653314e-06 2.0364043e-06 2.04347e-06
0001a0 a0 f9 06 36 a9 5e 05 36 bc b7 09 36 0a 6f 06 36
       2.0112857e-06 1.9873644e-06 2.0521538e-06 2.003219e-06
0001b0 12 f0 05 36 83 5d 05 36 a1 17 05 36 0d 5a 08 36
       1.9958284e-06 1.9872975e-06 1.9832298e-06 2.0317996e-06
0001c0 27 49 05 36 3e 2d 03 36 cd e5 05 36 9a 0c 08 36
       1.9861125e-06 1.9546856e-06 1.9952306e-06 2.0272914e-06
0001d0 9f e6 03 36 11 d2 05 36 cf ec 07 36 10 1e 09 36
       1.965476e-06 1.994082e-06 2.0254408e-06 2.043209e-06
0001e0 85 d3 06 36 ac d5 07 36 85 9a 09 36 7a 6d 06 36
       2.0090677e-06 2.024094e-06 2.0504533e-06 2.003128e-06
0001f0 96 a4 07 36 39 6b 04 36 49 ba 06 36 89 b3 09 36
       2.021237e-06 1.9731945e-06 2.0075988e-06 2.0519094e-06
000200 e1 db 08 36 72 cb 06 36 d8 85 06 36 f7 9b 04 36
       2.0393566e-06 2.0085977e-06 2.0045463e-06 1.9760316e-06
000210 e7 9d 08 36 fa e1 04 36 e7 e7 04 36 25 c8 05 36
       2.035749e-06 1.9801068e-06 1.9804518e-06 1.9935044e-06
000220 eb 03 05 36 a6 34 03 36 20 a1 07 36 91 30 09 36
       1.9820825e-06 1.9551167e-06 2.0210355e-06 2.044286e-06
000230 64 a4 06 36 a3 33 08 36 43 3f 04 36 de ee 08 36
       2.0063244e-06 2.0295636e-06 1.9706356e-06 2.0404618e-06
000240 12 17 07 36 02 83 09 36 35 03 08 36 06 b6 06 36
       2.0129996e-06 2.0490847e-06 2.0267446e-06 2.0073508e-06
000250 e1 6f 03 36 76 c7 04 36 a5 fc 03 36 69 99 05 36
       1.9585643e-06 1.9785634e-06 1.966758e-06 1.990784e-06
000260 ea a0 08 36 bd 5f 04 36 50 3b 06 36 63 c5 06 36
       2.0359244e-06 1.972526e-06 2.000208e-06 2.008245e-06
000270 38 eb 03 36 1a 1d 06 36 e7 33 06 36 c7 64 06 36
       1.9657436e-06 1.9984495e-06 1.9997767e-06 2.0026216e-06
000280 80 5f 06 36 a7 51 06 36 55 c4 06 36 e8 e8 08 36
       2.0023144e-06 2.0015084e-06 2.0081836e-06 2.0401149e-06
000290 11 15 05 36 a6 64 08 36 2e a5 04 36 1e 28 08 36
       1.9830807e-06 2.0324164e-06 1.976568e-06 2.028893e-06
0002a0 6c e9 05 36 11 00 03 36 6f 3b 08 36 76 e1 07 36
       1.9954414e-06 1.952056e-06 2.0300174e-06 2.0247803e-06
0002b0 82 a5 06 36 69 b2 06 36 0c dc 05 36 8b f1 04 36
       2.0063894e-06 2.0071404e-06 1.9946629e-06 1.981013e-06
0002c0 7c eb 02 36 bc c9 04 36 58 fb 08 36 b5 1b 06 36
       1.950858e-06 1.9786958e-06 2.041188e-06 1.9983684e-06
0002d0 e4 c5 05 36 ea e7 08 36 a6 c5 04 36 bc ee 05 36
       1.9933732e-06 2.040057e-06 1.978458e-06 1.9957506e-06
0002e0 4f fe 08 36 d2 81 04 36 b2 4d 07 36 f6 b1 05 36
       2.0413606e-06 1.9745098e-06 2.0161792e-06 1.9922131e-06
0002f0 cc 90 07 36 38 aa 05 36 87 8e 03 36 6b e7 03 36
       2.020085e-06 1.9917625e-06 1.9603483e-06 1.9655224e-06
000300 98 5c 03 36 fb 13 05 36 af 38 03 36 62 a5 04 36
       1.9574418e-06 1.9830175e-06 1.9553515e-06 1.9765798e-06
000310 ed 0e 09 36 73 6a 09 36 51 66 09 36 7f fc 08 36
       2.0423279e-06 2.0476552e-06 2.0474147e-06 2.0412551e-06
000320 73 38 09 36 91 e6 04 36 50 dd 06 36 4c 60 0b 36
       2.0447449e-06 1.980374e-06 2.0096377e-06 2.0768666e-06
000330 f1 dd 08 36 81 cf 05 36 44 0c 3b 34 2b fd 48 34
       2.0394766e-06 1.9939328e-06 1.7420194e-07 1.8718553e-07
000340 eb c6 50 35 aa 34 aa 35 26 95 e1 35 dd 62 26 36
       7.77755e-07 1.2681314e-06 1.6807214e-06 2.4793474e-06
000350 7d a4 55 36 56 1d 81 36 20 3b 99 36 2a 0e bc 36
       3.1835218e-06 3.8479147e-06 4.5666384e-06 5.6044855e-06
000360 56 f0 ce 36 07 fb e9 36 22 3b 01 37 fb 8a 0a 37
       6.167257e-06 6.9731645e-06 7.702767e-06 8.2578e-06
000370 8b e9 11 37 fb 21 2d 37 6a f3 23 37 ed b6 25 37
       8.697049e-06 1.0319515e-05 9.772231e-06 9.877357e-06
000380 e8 a3 33 37 dd 32 3e 37 af 5e 3b 37 72 c4 44 37
       1.0707394e-05 1.1336725e-05 1.1168114e-05 1.1728249e-05
000390 91 0c 50 37 43 38 57 37 f5 7e 63 37 44 98 4e 37
       1.2400692e-05 1.2828098e-05 1.3559814e-05 1.2314009e-05
0003a0 ea 71 4a 37 d4 ae 54 37 f4 fa 46 37 ec f0 3d 37
       1.2066661e-05 1.267689e-05 1.1860149e-05 1.1321372e-05
0003b0 6b 6f 55 37 f5 8c 52 37 67 fa 58 37 6b 0a 47 37
       1.2721731e-05 1.25497945e-05 1.2932905e-05 1.186375e-05
0003c0 4a ca 59 37 45 2b 50 37 fe c8 59 37 af 86 50 37
       1.2981307e-05 1.2407841e-05 1.2981005e-05 1.2429125e-05
0003d0 58 c6 81 37 0f 85 c4 37 7e 90 06 36 b5 d4 05 36
       1.547036e-05 2.3426981e-05 2.0051662e-06 1.9942356e-06
0003e0 9d ea 08 36 74 1e 05 36 5d 04 09 36 b8 9f 03 36
       2.0402142e-06 1.983627e-06 2.041713e-06 1.961349e-06
0003f0 db ca 05 36 2a b2 07 36 35 4e 08 36 fc 99 07 36
       1.9936622e-06 2.0220273e-06 2.0311102e-06 2.0206198e-06
