test/test_results/triplets/results/model/model_epoch0030.tar (torch, 53844 bytes, 3 tensors)

fc.weight f4 [100, 41]
00000000: 5910 983a 75e6 013f aff3 043f b457 063f
00000010: 47d7 fd3e 93e4 fa3e bf09 f53e d247 f03e
00000020: 63f7 eb3e bcf3 ee3e 9175 e03e 286f da3e
00000030: a0b4 d83e 3b60 cd3e b84a c83e 5f0a c03e
00000040: 2e69 b53e 6eb6 b83e 5122 a73e c1c9 a73e
00000050: e06e a03e 2c41 9e3e b7a3 9a3e dcbc 953e
00000060: b329 933e 3798 8e3e 15ae 833e 408d 7f3e
00000070: 3ba2 7d3e 33b6 603e b6a9 503e 0ed8 3b3e
00000080: 8b09 103e a8a9 1d3e 1da7 ef3d 24d9 863d
00000090: 5d10 8c3d 8c7c d13c d804 123c ffca 253b
000000a0: 83d8 943a 853f 113b 55d9 053f e7b5 053f
000000b0: d0d6 043f 1a4c 043f 2042 f73e e714 f33e
000000c0: a24e f13e 377d ec3e fe13 de3e 5437 df3e
000000d0: 1af4 db3e 3a91 cf3e 8f43 cd3e f0c3 ca3e
000000e0: 92ae c33e 8a81 be3e bae1 ae3e 3970 ab3e
000000f0: 144e a93e d187 a03e 1395 9b3e 4bf4 983e
00000100: a82e 953e 384f 8b3e 359e 833e fdc6 653e
00000110: 47ed 543e f2c0 4b3e 34a8 383e e360 3b3e
00000120: bf43 1c3e 164c 1c3e a995 043e b58c b93d
00000130: f6b7 913d 4d57 733d 51bd 1a3d 0602 693c
00000140: 5fad 193b 1a2a 863a d66e 733b 9234 053f
00000150: 5c52 073f 7a9b 033f 1103 f63e fa50 ff3e
00000160: acca f43e 862e f83e 8745 ea3e 5b70 e23e
00000170: 092b d83e a993 cf3e 31ed d33e c8b9 ca3e
00000180: f22e c13e cf68 ba3e 0759 ba3e 49ba b63e
00000190: 1264 b13e 9a95 a53e 8cb6 a63e 2b00 a13e
000001a0: ebbb 9a3e e8fc 8f3e 96ca 8d3e 6ab0 833e
000001b0: 24be 793e 86e7 683e e60e 5d3e adbf 473e
000001c0: ca48 433e 75d4 323e 454c 033e 7576 d63d
000001d0: d2ff e73d de25 a33d 22b9 863d 537b e03c
000001e0: d8d7 463c 1689 f739 3a37 4638 a6f8 d53a
000001f0: 67fc 0a3f b30f 0a3f 92f5 013f c340 003f
00000200: efb7 fb3e 0b2a f63e a6b6 f93e ddb7 ef3e
00000210: c069 e33e f3d3 d73e 785f d63e 255b d23e
00000220: bf21 cd3e 4fa6 c13e a74a b23e 2c52 af3e
00000230: 97ab a53e 5e36 a53e 4978 9d3e f6c4 883e
00000240: 63d4 843e 4020 823e 4b46 5d3e dd96 603e
00000250: 46e3 5e3e 63e0 423e 91f0 263e 1fff 2e3e
00000260: f1bc 1a3e 9d8f 113e 0ecb 033e 498a ec3d
00000270: 1541 9b3d 0360 973d 7e6a a63d d09d 3c3d
00000280: 37a0 103d b032 a53c fcfe 063b 835a 8b3a
00000290: 3846 8d39 73b3 0b3f 70f6 083f 59c4 053f
000002a0: 4887 043f 7e9f f83e 35fe f33e c54c e63e
000002b0: 1434 f23e 3165 e43e 8ec7 db3e db9b df3e
000002c0: b6e5 d43e d78e c63e 8e58 ba3e 0de0 c13e
000002d0: eaf2 aa3e d6bb a83e 10dc 9c3e 1705 983e
000002e0: fbcf 853e 7c71 873e 50b7 823e 4305 673e
000002f0: cde5 583e ab96 523e 503d 4b3e 18a3 313e
00000300: 8aa0 2a3e e562 053e cc6c 003e 296c ea3d
00000310: 694c c73d 5781 e83d f9f3 9c3d 03d2 783d
00000320: 7569 323d d0a9 1f3d 6294 bf3c bc76 d43a
00000330: 3780 6339 17f0 853a 5f5c 073f 2199 073f
00000340: e395 023f 9d48 013f 6008 fd3e aae4 fb3e
00000350: e9c0 ee3e 1a84 e23e b5bc e83e 262d e13e
00000360: 0eb0 e23e 140e d53e e222 cc3e ca54 cc3e
00000370: ee35 bf3e ec61 bf3e 6cc3 b63e fd7b af3e
00000380: 845d b13e 3afa ae3e e110 a23e 0ede 9d3e
00000390: 5bbf 9d3e edf5 933e 1dc3 883e f46d 7c3e
000003a0: 334b 7d3e 71aa 613e a96e 5e3e ebe0 513e
000003b0: 9faf 343e bd71 303e 5daa 0e3e 5c53 d73d
000003c0: c851 983d 3c33 ab3d 2151 cf3c 8e69 003c
000003d0: c3d5 7b3b 9c41 153a ece5 e63a a206 083f
000003e0: 4c57 083f 0a70 fd3e dc1b 033f b68b f63e
000003f0: 1252 f23e 05d7 e23e 7c8f e63e 6479 e43e
0.0011601552 0.50742275 0.5193433 0.52477574 0.49578306 0.49002513 0.47858998 0.46929795
0.4608718 0.4667033 0.43839696 0.4266293 0.42325306 0.4011248 0.39119506 0.37507913
0.35431808 0.36076683 0.3264337 0.32771114 0.3133459 0.30909097 0.3020303 0.2924565
0.2874275 0.27850506 0.25718752 0.24956226 0.24768917 0.21944503 0.2037724 0.18344137
0.1406614 0.1539675 0.11701796 0.06584385 0.068390585 0.025572084 0.008912288 0.0025297997
0.001135603 0.0022163105 0.5228475 0.52230686 0.5189028 0.5167862 0.48292637 0.47476885
0.47130305 0.4618928 0.43374628 0.435969 0.42959672 0.40540487 0.40090606 0.39602613
0.38219124 0.37208205 0.3415659 0.33484057 0.3306738 0.3135362 0.30387172 0.2987388
0.29137158 0.27208877 0.2570664 0.2243919 0.20793639 0.19897822 0.18032914 0.18298678
0.15260218 0.152634 0.12947716 0.09060041 0.07115166 0.05940943 0.037778202 0.014221674
0.0023449284 0.0010235936 0.003714492 0.5203334 0.52860045 0.51409113 0.48049214 0.49866468
0.47810876 0.48472995 0.4575617 0.44226345 0.42220333 0.40542343 0.413919 0.39594865
0.3773113 0.36408088 0.36396047 0.35689 0.3464666 0.323407 0.32561147 0.3144544
0.30221495 0.2812264 0.27693623 0.2572053 0.24388939 0.22744569 0.21587715 0.19506712
0.19070736 0.17463858 0.12822063 0.10471813 0.11328091 0.07966207 0.0657828 0.027402556
0.012136422 0.00047213648 4.7258312e-05 0.0016324713 0.54291385 0.53930205 0.50765336 0.5009882
0.49163768 0.4807895 0.48772162 0.46819964 0.44416618 0.42153892 0.41869712 0.41085163
0.4006481 0.37822196 0.3482258 0.3424238 0.32357475 0.3226804 0.30755833 0.2671277
0.25943288 0.2541523 0.21608846 0.2193255 0.21766385 0.19030909 0.16302706 0.17089508
0.15111138 0.1421494 0.12870428 0.11549813 0.07580773 0.0739136 0.081257805 0.04604894
0.035309043 0.020165771 0.002059876 0.0010631833 0.00026945933 0.5457069 0.53501034 0.5225273
0.5176892 0.48559183 0.47654882 0.44980446 0.47305357 0.44608453 0.42925686 0.43673596
0.41581506 0.38780853 0.36395687 0.3786625 0.33388454 0.32955807 0.30636644 0.29691383
0.2613524 0.2645377 0.2553048 0.22560601 0.21181412 0.20565288 0.19847608 0.17347372
0.16662803 0.13026007 0.12541503 0.11446411 0.09731371 0.113527946 0.076637216 0.060747158
0.043557603 0.038980305 0.023386184 0.0016209702 0.00021696171 0.0010218647 0.5287532 0.5296803
0.5100996 0.50501424 0.49420452 0.49197894 0.46631554 0.4424141 0.45456472 0.43979758
0.44274944 0.41612303 0.39870363 0.3990844 0.37345833 0.37379396 0.3569597 0.34274283
0.3464166 0.34175283 0.31653503 0.30833477 0.30810055 0.28898564 0.2671136 0.24651319
0.24735717 0.22037674 0.21721901 0.20495956 0.17645119 0.17230888 0.13932176 0.105139464
0.074374735 0.083593816 0.02530724 0.007837666 0.0038426972 0.00056936755 0.001761613 0.5313512
0.53258204 0.49499542 0.51214385 0.48153466 0.4732824 0.44304672 0.45031345 0.44623864

exp_avg f4 [100, 41]
00000000: b7cf 4039 2204 b5b8 b9c1 0cb8 c49d d338
00000010: cadb 10b9 3a41 ad39 88d4 d736 3e74 d8b9
00000020: f0a2 7338 66a2 e438 1075 2d39 3382 47b9
00000030: be55 18b9 8f4e 1dba a5df 3139 545f 1239
00000040: 34f7 9eb8 9ae6 5539 f2f0 95b8 f80e fcb8
00000050: bda7 28b9 59c9 8238 e747 e0b7 6ab5 7c39
00000060: 0fc9 ff38 4415 af38 0010 dcb9 440d 9639
00000070: 60d4 e336 9442 5fb8 5217 9cb7 5122 87b9
00000080: 4503 8039 aa52 f3b8 c6a1 dcb9 f55d d739
00000090: 1647 8239 7e87 deb8 8da4 123a 5e99 0eb8
000000a0: 4fdf 9cb8 162f 2e39 b537 c4b8 10fd 2cb8
000000b0: 829a de38 16c8 22b9 b6f2 a939 1711 2d37
000000c0: 255f d6b9 08bc 4f38 1c65 d638 4fae 3d39
000000d0: 6aeb 33b9 ee66 31b9 99b7 1aba 7c9f 2f39
000000e0: 48c7 1f39 d0f3 5fb8 e312 4139 b420 74b8
000000f0: 8065 e4b8 fcfb 1db9 d6d4 9b38 5d34 80b7
00000100: 591e 8339 fe48 1839 8ce5 bd38 e34d c4b9
00000110: 8647 9f39 b4bb 2538 cff3 5bb7 fc8d 77b7
00000120: 1e7c 72b9 ace5 8b39 101c d9b8 2892 d9b9
00000130: 18c6 cd39 234a 8f39 b217 f0b8 e005 093a
00000140: 802a 0db5 bb8b 99b9 b4fd 92b8 5e06 aeb8
00000150: e94b d1b7 dd48 d638 b8c1 22b9 34cc a839
00000160: 7d64 9936 ea7f dab9 1427 7f38 e44e db38
00000170: 829e 3539 e44a 2cb9 0898 0cb9 3a41 1cba
00000180: 893b 2739 6cd0 2339 21aa 82b8 86af 3c39
00000190: 662d a5b8 6414 edb8 b1b8 32b9 0cf2 8938
000001a0: 3d93 a2b7 85e3 7c39 6158 0339 2917 bb38
000001b0: f25c c2b9 60f4 9a39 742a 0338 caa1 27b8
000001c0: a4ed 86b6 1ebe 7eb9 396a 8739 06fd e1b8
000001d0: 205c d3b9 d633 ce39 81a2 8939 50d4 beb8
000001e0: 95c3 0d3a 366f d538 54ee 11ba c2a3 3a39
000001f0: ac59 d3b8 f1f8 34b8 e17f d038 5f1f 46b9
00000200: 9d27 aa39 6cb8 6a36 9509 dab9 f4b2 3d38
00000210: 5d34 de38 ff78 3a39 b037 35b9 12c6 18b9
00000220: a249 1cba 5068 3239 cef3 2b39 aee8 27b8
00000230: def4 5239 64c2 58b8 0814 7bb8 eb8c 0fb9
00000240: 4e59 a538 1fd1 0038 fb6b 8139 55ce 5639
00000250: 70f2 fc38 fd9b 9ab9 ff7d 9c39 7fa8 c138
00000260: 3397 f837 60cb f737 ea79 4db9 7442 a239
00000270: 77e5 cbb8 d0c6 b5b9 62f6 c839 a8c0 8d39
00000280: b207 ebb8 0766 fd39 a0a7 a5b5 0c51 4cba
00000290: 7756 4639 e2f2 e1b8 8a4a 4db8 2ec7 de38
000002a0: 00ad 43b9 c72d af39 a9fc ac37 5c45 d8b9
000002b0: 94b4 2038 741e e538 33ff 3539 f8fd 46b9
000002c0: 2fe8 29b9 ae49 1dba 1047 4539 8c81 1d39
000002d0: fcdf 4cb8 20de 5f39 189f 05b8 1c39 8bb8
000002e0: 766e e1b8 f5dd be38 f331 fd37 8b35 8639
000002f0: ecc1 6539 6076 0239 28e6 9db9 ea16 9e39
00000300: b37f a338 dc84 1c38 ce54 1538 971a 43b9
00000310: a6bd 9f39 7b05 d1b8 36ef b1b9 7c42 cc39
00000320: 726a 9239 d396 07b9 0d65 f939 8ae7 2038
00000330: 389b a0ba 82fd 4139 a0d2 b1b8 428e 38b8
00000340: a901 d638 4bd0 0eb9 263e ab39 ec66 c836
00000350: e764 d8b9 fa45 8338 f737 db38 c502 3439
00000360: 5292 2cb9 70c1 24b9 4035 1eba 4717 2239
00000370: 3c61 1f39 f2de 90b8 bed0 4339 b88d 9fb8
00000380: 4cdf 05b9 3563 2eb9 2eaa 8238 38ab b5b7
00000390: ec20 8339 ef27 f338 340f 9838 8bd1 d9b9
000003a0: 6a84 9e39 60e8 ef36 37f5 32b8 6540 f9b7
000003b0: e15b 85b9 2ca1 8239 6cc5 f3b8 d61d e9b9
000003c0: 6cc8 d739 4871 8739 756b cdb8 0797 113a
000003d0: b67d 0438 ce63 3eba e1a4 3839 921e cfb8
000003e0: 8842 2cb8 aabe e238 6494 1fb9 1caf b039
000003f0: 5007 c337 127a cdb9 2c22 5538 c95f f438
0.00018387927 -8.631522e-05 -3.355902e-05 0.0001009065 -0.00013814788 0.0003304573 6.432241e-06 -0.00041285338
5.8087462e-05 0.00010902136 0.00016542175 -0.00019026622 -0.00014527791 -0.0006000781 0.0001696335 0.00013959158
-7.580072e-05 0.00020399169 -7.149753e-05 -0.000120190845 -0.00016084216 6.236387e-05 -2.6736363e-05 0.00024100175
0.000121967976 8.348611e-05 -0.0004197359 0.00028620113 6.789851e-06 -5.322935e-05 -1.8607509e-05 -0.00025774774
0.00024416498 -0.0001160254 -0.000420822 0.00041078 0.00024848495 -0.00010611022 0.0005593978 -3.3998273e-05
-7.480254e-05 0.00016611474 -9.3563845e-05 -4.124368e-05 0.00010614564 -0.00015524062 0.00032415026 1.0315583e-05
-0.0004088815 4.9527764e-05 0.00010223148 0.0001808938 -0.00017158469 -0.0001691838 -0.0005901992 0.00016748713
0.0001523766 -5.339441e-05 0.0001841295 -5.820459e-05 -0.00010890793 -0.00015066558 7.43062e-05 -1.5283173e-05
0.00025008878 0.00014523041 9.054979e-05 -0.00037442063 0.00030380132 3.9513878e-05 -1.3110183e-05 -1.4755406e-05
-0.00023125156 0.00026683265 -0.000103525934 -0.0004149836 0.00039248238 0.00027330322 -0.000114485054 0.00052270107
-5.258844e-07 -0.0002928654 -7.0090784e-05 -8.2981525e-05 -2.495009e-05 0.00010217887 -0.0001552169 0.000321956
4.5714537e-06 -0.00041675504 6.0833132e-05 0.00010457428 0.00017320554 -0.00016431097 -0.00013408076 -0.0005960647
0.0001594854 0.00015622535 -6.230572e-05 0.00017994465 -7.876269e-05 -0.00011304839 -0.00017044206 6.577754e-05
-1.9380468e-05 0.0002411735 0.00012526057 8.921169e-05 -0.00037071813 0.00029555243 3.127237e-05 -3.996658e-05
-4.021176e-06 -0.00024294152 0.0002582835 -0.00010775965 -0.00040313695 0.00039330003 0.0002625175 -9.099452e-05
0.0005407867 0.00010177346 -0.00055668247 0.00017799347 -0.00010077967 -4.314719e-05 9.942032e-05 -0.00018894438
0.0003245444 3.4976065e-06 -0.0004158734 4.5227775e-05 0.00010595538 0.00017783417 -0.0001728225 -0.00014569637
-0.00059619 0.00017014262 0.00016398655 -4.0032603e-05 0.00020118381 -5.1679453e-05 -5.986172e-05 -0.00013690039
7.8844474e-05 3.0712337e-05 0.0002468525 0.00020485495 0.00012061454 -0.0002948939 0.00029848513 9.234342e-05
2.9634311e-05 2.9539398e-05 -0.0001959574 0.0003094856 -9.7225355e-05 -0.00034671137 0.00038330542 0.00027037156
-0.000112071066 0.00048331937 -1.2342243e-06 -0.00077940593 0.00018914962 -0.000107740765 -4.894523e-05 0.00010622885
-0.00018661097 0.00033412708 2.0621652e-05 -0.00041250407 3.831515e-05 0.00010925243 0.00017356574 -0.00018977362
-0.00016203591 -0.0006000054 0.00018813857 0.00015020947 -4.8845992e-05 0.00021349685 -3.185784e-05 -6.638674e-05
-0.00010749411 9.101249e-05 3.018321e-05 0.00025598364 0.00021911383 0.00012441864 -0.00030116853 0.0003015318
7.7962315e-05 3.7317033e-05 3.560335e-05 -0.00018606555 0.00030468142 -9.9669174e-05 -0.00033938297 0.00038959447
0.00027926598 -0.0001293079 0.0004756827 3.836261e-05 -0.001225329 0.00018500353 -8.47925e-05 -4.4001506e-05
0.000102046244 -0.0001361977 0.00032661966 5.972446e-06 -0.0004127391 6.259601e-05 0.00010453158 0.0001716717
-0.00016457707 -0.0001571232 -0.00060351565 0.00015458195 0.00015199644 -6.907982e-05 0.00018674412 -7.608108e-05
-0.00012767053 -0.0001663089 6.2305815e-05 -2.1656611e-05 0.00025010796 0.00011594581 7.2507566e-05 -0.00041545587
0.00030234765 7.149807e-06 -4.266688e-05 -2.97131e-05 -0.00025436192 0.00024915615 -0.000116239156 -0.00044463453
0.00041157322 0.00025833608 -9.795177e-05 0.0005553816 3.158833e-05 -0.0007262797 0.0001760903 -9.876223e-05
-4.1069958e-05 0.00010812034 -0.00015218701 0.00033699803 2.3249217e-05 -0.00039191596 5.0814982e-05 0.00011652668

exp_avg_sq f4 [100, 41]
00000000: b9c9 e535 a15d 8b34 f8a6 8f34 fbf1 b434
00000010: 9040 d434 b861 1a35 03ff 1935 7bdd 4235
00000020: 50cc 3f35 a48d 5335 30d0 6c35 1650 5c35
00000030: 8a91 7935 46f4 8735 d8eb 9035 4af8 9b35
00000040: 21fc 9c35 fe72 aa35 ed91 9935 f162 a735
00000050: ce1d a735 2163 a535 fe5a a335 9d80 a635
00000060: f5c0 af35 2f72 a935 6f05 ac35 bd00 ae35
00000070: ff55 bd35 6df8 ae35 aa81 bc35 39cd ba35
00000080: bdcd c435 8ae7 c635 a5cb dd35 5a23 f435
00000090: 1dbf fd35 d5fa 1736 dd47 4436 f0f4 f136
000000a0: 729a 7337 449d e735 c193 8a34 e075 8f34
000000b0: e63d b834 cad2 d234 8870 1b35 cdbb 1935
000000c0: 4d93 4235 60f4 3e35 1313 5535 c49a 6935
000000d0: b3c6 5835 6020 7635 adac 8435 338e 8e35
000000e0: 6442 9a35 3c13 9c35 1404 aa35 3585 9935
000000f0: 220b a735 5e75 a635 feed a535 0050 a235
00000100: 85d5 a535 16fc af35 c93c a935 bab0 a935
00000110: b19d ab35 b740 b935 b07d a935 5284 b335
00000120: 09ce b235 d1e7 ba35 fea1 c035 eaf6 d335
00000130: e7ba e135 c86a f035 6bf4 1036 a1cc 4636
00000140: bc74 ec36 a7e4 6d37 fba3 ec35 05ab 8834
00000150: c77c 8d34 0b1f b734 caba d634 1c65 1835
00000160: df4d 1835 cbd5 4035 7c41 4135 a2ac 5535
00000170: 3787 6b35 6b32 5a35 6bc1 7435 ccca 8435
00000180: d22c 8e35 4765 9835 92cf 9835 5442 a735
00000190: 22cf 9635 fb76 a535 a5d9 a435 16dd a335
000001a0: 5a33 a235 76df a635 dc31 af35 b77f a735
000001b0: dcb5 a835 82c7 aa35 539c b835 7d0f aa35
000001c0: 3319 b635 e3f5 b435 bd54 be35 cee2 bf35
000001d0: eebb d235 201a e435 42c9 ec35 322d 1536
000001e0: 7f85 4136 a77b e936 5757 6837 c899 e635
000001f0: 6385 8934 7fa9 9034 ae1b bf34 84dc d734
00000200: 6861 1c35 c20e 1b35 b295 4335 543a 4335
00000210: 01b4 5835 ed9f 6e35 0bf2 5c35 4527 7735
00000220: 348c 8635 b61d 9035 5ec8 9b35 cefd 9a35
00000230: 2c41 a935 9a53 9735 2904 a435 3054 a435
00000240: 2a77 a035 f958 9d35 a8fa 9f35 d8d5 a735
00000250: dc6a 9d35 47ad 9d35 9267 9f35 3d0c aa35
00000260: b03a 9c35 7088 a435 dde6 a435 e285 ac35
00000270: 1361 b035 e3f3 be35 5f67 cd35 1b3c dc35
00000280: b493 0536 e37d 3b36 d90e dd36 dbb2 6837
00000290: 763f e435 d066 8b34 c4bb 9534 92b8 be34
000002a0: 40c2 d934 942d 2035 5273 1e35 2066 4835
000002b0: 134d 4135 8557 5635 9455 6c35 7638 5c35
000002c0: db1b 7835 cffa 8735 27d4 9035 fbec 9a35
000002d0: a029 9c35 6ae3 a835 3ffa 9735 6bf1 a235
000002e0: 9f9d a335 fa49 a035 8e0c 9d35 ae53 9f35
000002f0: 29d7 a735 89e6 9d35 82a4 9d35 53a3 9f35
00000300: f3d5 ab35 69f7 9b35 361a a335 c04a a335
00000310: 6a5d aa35 4c2b ae35 d445 be35 f350 cf35
00000320: 407f df35 aa34 0636 b030 3536 100d df36
00000330: a47b 6837 0590 e535 1a69 8e34 0c1e 9034
00000340: 3a4e bc34 ea2a d534 d5a3 1b35 7d23 1b35
00000350: b7dc 4535 7ab0 4235 b94b 5535 292d 6d35
00000360: d772 5b35 2cfa 7a35 fa98 8735 438c 9035
00000370: e86d 9c35 9179 9e35 1c93 ab35 6920 9b35
00000380: b7e8 a835 9ddb a835 6cc1 a935 2b8a a635
00000390: 6972 aa35 7936 b435 ae0e ae35 e9d6 ae35
000003a0: 8c49 b035 837a c035 0f33 b035 aff3 bc35
000003b0: 775d bb35 08e9 c435 efe6 ca35 71c1 df35
000003c0: 055a ee35 1142 f535 e94f 1936 f4d6 4a36
000003d0: 6198 f436 62ca 7837 c5d3 e635 d0e8 8c34
000003e0: bae0 8e34 0615 c134 50b8 d134 40b3 1c35
000003f0: de8b 1a35 ad44 4435 13a4 3d35 ca03 5135
1.7120539e-06 2.5958892e-07 2.675731e-07 3.3703677e-07 3.9535053e-07 5.751167e-07 5.736803e-07 7.259293e-07
7.145036e-07 7.880974e-07 8.8219804e-07 8.2072927e-07 9.2971516e-07 1.0129377e-06 1.0797476e-06 1.1620662e-06
1.1696285e-06 1.2699454e-06 1.1441858e-06 1.2471265e-06 1.2451144e-06 1.2322308e-06 1.2170929e-06 1.2405395e-06
1.3094674e-06 1.2624713e-06 1.281658e-06 1.2964225e-06 1.4106625e-06 1.3036312e-06 1.4044829e-06 1.3917808e-06
1.4663016e-06 1.4819536e-06 1.6525051e-06 1.8189705e-06 1.890559e-06 2.2646757e-06 2.9248106e-06 7.210874e-06
1.4519888e-05 1.7256611e-06 2.5812008e-07 2.672159e-07 3.4317708e-07 3.9268917e-07 5.7905754e-07 5.727023e-07
7.248498e-07 7.113613e-07 7.937644e-07 8.702448e-07 8.0755416e-07 9.1689253e-07 9.885022e-07 1.062121e-06
1.1493216e-06 1.1628504e-06 1.2667174e-06 1.1438157e-06 1.244571e-06 1.2402122e-06 1.2362723e-06 1.2093224e-06
1.23556e-06 1.3111883e-06 1.2609172e-06 1.2642915e-06 1.2786387e-06 1.3802409e-06 1.2628061e-06 1.337505e-06
1.3321998e-06 1.3925547e-06 1.4352261e-06 1.5792587e-06 1.6818202e-06 1.7912471e-06 2.1599942e-06 2.962341e-06
7.0469378e-06 1.4179538e-05 1.7631095e-06 2.5456407e-07 2.6354084e-07 3.4108993e-07 3.9996513e-07 5.6771546e-07
5.673773e-07 7.1836683e-07 7.1993395e-07 7.95999e-07 8.7741086e-07 8.1284696e-07 9.1178543e-07 9.893788e-07
1.0592869e-06 1.1354358e-06 1.1385293e-06 1.2461774e-06 1.1236154e-06 1.2328086e-06 1.2282295e-06 1.2208791e-06
1.2084886e-06 1.2433e-06 1.3053027e-06 1.247964e-06 1.2569903e-06 1.2724051e-06 1.3754565e-06 1.2670495e-06
1.3567391e-06 1.3482608e-06 1.4180765e-06 1.4296618e-06 1.5700914e-06 1.6994927e-06 1.7641944e-06 2.2229037e-06
2.8836946e-06 6.958336e-06 1.3848613e-05 1.7181092e-06 2.561529e-07 2.6945415e-07 3.5596662e-07 4.0207317e-07
5.8256273e-07 5.7763475e-07 7.2860996e-07 7.272804e-07 8.072821e-07 8.889463e-07 8.2308605e-07 9.2071815e-07
1.0024582e-06 1.0737483e-06 1.1606714e-06 1.1547761e-06 1.2610449e-06 1.1274708e-06 1.2220163e-06 1.2243454e-06
1.195561e-06 1.1723306e-06 1.1919374e-06 1.2504706e-06 1.1728512e-06 1.1747842e-06 1.1876566e-06 1.2669549e-06
1.1639986e-06 1.2258661e-06 1.2286142e-06 1.2853964e-06 1.3141274e-06 1.4227084e-06 1.5303775e-06 1.640877e-06
1.990452e-06 2.7938447e-06 6.5880417e-06 1.3869921e-05 1.7005793e-06 2.5965574e-07 2.789003e-07 3.552455e-07
4.0560735e-07 5.967097e-07 5.90274e-07 7.465442e-07 7.201026e-07 7.984857e-07 8.8041384e-07 8.203855e-07
9.2427734e-07 1.0131279e-06 1.079058e-06 1.1542865e-06 1.163502e-06 1.2583162e-06 1.1323208e-06 1.2140202e-06
1.219032e-06 1.1942459e-06 1.1701065e-06 1.1870777e-06 1.250509e-06 1.1764506e-06 1.174529e-06 1.1893957e-06
1.280276e-06 1.1620406e-06 1.2152075e-06 1.2166201e-06 1.2693174e-06 1.2976611e-06 1.4176426e-06 1.5446261e-06
1.6651829e-06 1.999821e-06 2.6999442e-06 6.6474386e-06 1.3857065e-05 1.7103745e-06 2.6526033e-07 2.6843952e-07
3.5074646e-07 3.9705566e-07 5.7980407e-07 5.779364e-07 7.37094e-07 7.252744e-07 7.9458874e-07 8.8355097e-07
8.175097e-07 9.3496305e-07 1.0102806e-06 1.0769658e-06 1.1654893e-06 1.1807298e-06 1.2783307e-06 1.1557833e-06
1.2584704e-06 1.2580891e-06 1.2647774e-06 1.2408176e-06 1.2699285e-06 1.3426899e-06 1.2968283e-06 1.3026557e-06
1.3134427e-06 1.434077e-06 1.3127882e-06 1.4078013e-06 1.3959788e-06 1.4670959e-06 1.5117383e-06 1.6671094e-06
1.7758581e-06 1.827315e-06 2.284529e-06 3.0225465e-06 7.289506e-06 1.4829073e-05 1.7197968e-06 2.6246425e-07
2.661307e-07 3.5964348e-07 3.906339e-07 5.837537e-07 5.7573004e-07 7.3115626e-07 7.0646746e-07 7.786408e-07
