test/test_results/triplets/results/model/model_epoch0115.tar (torch, 59028 bytes, 3 tensors)

fc.weight f4 [100, 41]
000000 cb 86 04 3a c0 56 af 3f 26 07 b1 3f aa fd 9a 3f
       0.0005055486 1.3698349 1.3830307 1.2108662
000010 30 f8 90 3f 1f 2c 88 3f e7 f0 82 3f 20 b7 78 3f
       1.1325741 1.0638465 1.0229768 0.97154427
000020 59 e4 6f 3f eb 28 72 3f 97 46 60 3f 5a 62 5a 3f
       0.93707806 0.94593686 0.8760771 0.8530632
000030 a3 56 4e 3f 16 51 49 3f 65 23 41 3f 4e 0a 38 3f
       0.8060095 0.7863935 0.7544463 0.71890724
000040 d2 e4 32 3f 67 b5 2a 3f 1c cc 23 3f 36 44 2a 3f
       0.698804 0.6668305 0.6398332 0.6651033
000050 16 a3 23 3f ff 60 20 3f 10 26 27 3f b3 31 29 3f
       0.63920724 0.62648004 0.65292454 0.6609146
000060 e5 cf 22 3f 6e 54 24 3f 37 f1 1e 3f 30 24 21 3f
       0.6359847 0.6419133 0.62086815 0.6294584
000070 c0 63 1a 3f ae 93 11 3f 8b 42 13 3f 63 fa fb 3e
       0.60308456 0.56865966 0.5752341 0.49214467
000080 e6 8b e5 3e 68 aa c9 3e 02 97 b1 3e 60 f3 75 3e
       0.44833297 0.39387822 0.34685522 0.24018621
000090 1e ef 8c 3e 35 dc 9c 3d d1 81 38 3d ef 0b 88 3b
       0.27526182 0.07659189 0.045045678 0.004151813
0000a0 c0 b2 b2 38 60 a8 d2 3a 29 d4 89 3f 44 f2 88 3f
       8.520996e-05 0.0016071908 1.0767871 1.0698934
0000b0 a3 13 76 3f 63 6e 68 3f 8f 67 50 3f 93 42 4a 3f
       0.96123713 0.90793437 0.8140802 0.79007834
0000c0 cd 1a 43 3f 5e e9 35 3f 5a c9 2b 3f 3f 40 29 3f
       0.7621277 0.71059215 0.67104113 0.66113657
0000d0 bc 2c 25 3f d2 64 1e 3f 01 fc 19 3f 85 70 15 3f
       0.64521384 0.6187259 0.6015015 0.58374816
0000e0 5f 4e 11 3f af 4b 08 3f 6b de f8 3e 05 05 f3 3e
       0.5676021 0.53240484 0.4860719 0.47464767
0000f0 ac de e5 3e 6e e7 db 3e f2 63 d3 3e 3e a4 cd 3e
       0.44896448 0.42950004 0.4128719 0.4016437
000100 46 47 c2 3e 8c c5 af 3e f4 f1 a0 3e e7 25 81 3e
       0.37945002 0.34330404 0.31434596 0.2522423
000110 20 d4 80 3e f5 e1 5f 3e ba c1 41 3e a1 cf 52 3e
       0.2516184 0.2186354 0.18921557 0.20587017
000120 0e 81 2b 3e d2 10 36 3e 7b c6 19 3e 73 80 93 3d
       0.16748449 0.17779854 0.1501712 0.07202234
000130 35 70 bc 3d 14 a1 41 3d 1f 19 c5 3d 49 14 2d 3d
       0.09201089 0.047272757 0.09623932 0.042255674
000140 85 d2 a7 3b bc 91 89 38 eb 5c 6c 3b e9 78 7b 3f
       0.0051215314 6.559814e-05 0.0036066126 0.9823137
000150 40 20 7a 3f 22 12 70 3f 91 b9 65 3f 6d 30 60 3f
       0.9770546 0.9377767 0.89736277 0.8757389
000160 9e e9 4e 3f 37 11 4a 3f 31 8f 40 3f 02 09 38 3f
       0.8082522 0.7893252 0.7521849 0.71888745
000170 0f 6f 2a 3f 3f 3d 24 3f 6a 78 21 3f 42 65 1c 3f
       0.6657571 0.64155954 0.6307436 0.6109201
000180 d8 0c 17 3f e0 73 12 3f 65 f2 11 3f de 4d 0f 3f
       0.59003973 0.5720806 0.5701049 0.5597819
000190 ca bd 0b 3f 0c 64 08 3f 87 ed 05 3f ea f0 ff 3e
       0.5458647 0.5327766 0.5231556 0.4998849
0001a0 9f f7 01 3f 59 d8 f0 3e b6 86 e6 3e b6 ab df 3e
       0.50768465 0.4704006 0.4502465 0.43685693
0001b0 52 33 cc 3e 3e 65 c3 3e 1b 8c ba 3e 50 11 a8 3e
       0.39882904 0.3816318 0.36435017 0.32825708
0001c0 ec e4 b1 3e 9f d1 96 3e 8c 14 83 3e 66 9f 47 3e
       0.34744966 0.29456803 0.25601614 0.194944
0001d0 23 f3 49 3e 6d 2b 2c 3e 07 dc 02 3e 71 28 44 3d
       0.19721656 0.1681344 0.12779246 0.04789013
0001e0 dc e1 14 3d a9 a1 87 3b 8b 9a a3 38 25 28 82 3a
       0.03634821 0.0041391444 7.8012315e-05 0.0009930177
0001f0 27 57 99 3b e5 bc 78 3b 23 5f df 3b 3a 83 50 3a
       0.004679579 0.0037954387 0.006816761 0.00079541246
000200 7e 9d 24 3c ba 81 70 3c 39 90 b1 3d 8c c0 90 3d
       0.010047315 0.014679367 0.086700864 0.070679754
000210 47 fd 73 3d a4 71 af 3c a3 3d 91 3a 1a ca 95 3a
       0.059567716 0.021416493 0.0011080991 0.0011428029
000220 84 a9 25 b9 73 17 a6 3b fc 00 5f 3b 41 30 88 3b
       -0.00015798776 0.0050687133 0.0034027686 0.004156143
000230 9c 3d eb 3a 65 9e 57 3b 69 c8 88 3b 01 70 41 3b
       0.0017947438 0.0032900807 0.0041742814 0.0029516222
000240 5b 7d 07 3a 80 63 64 3b ba ad 12 3b 36 5b 47 3a
       0.0005168521 0.0034849346 0.002238138 0.0007604839
000250 bb 39 4c 3b a0 03 7a 3b b9 a9 4c 3b c5 59 fc 39
       0.003116234 0.0038149133 0.0031229092 0.0004813207
000260 dc 4f dc 3a 4a 77 66 3b 28 4f d4 39 51 45 8c 39
       0.0016808468 0.0035166317 0.00040494767 0.00026754526
000270 88 7f f5 39 00 05 42 3b 97 6f b5 3a d8 69 bf 3a
       0.0004682506 0.002960503 0.001384246 0.0014603687
000280 52 99 9b 3a a3 5f 78 3b 96 5f 25 3b fd 31 90 3a
       0.0011871255 0.00378988 0.0025233976 0.0011001226
000290 01 21 81 3a d9 5b c0 3b 34 c8 8a 3b 5c 05 1c 3c
       0.0009851755 0.005870324 0.004235292 0.009522762
0002a0 65 8a 06 3c 71 c4 67 3d ed 40 93 3d 0b ad dc 3d
       0.008211707 0.056583825 0.07190118 0.10775193
0002b0 06 99 f8 3d dd e3 bd 3d 53 84 7f 3d ee 33 1d 3d
       0.12138562 0.09271977 0.062382054 0.038379602
0002c0 06 9e 02 3c 66 7c cf 3b 75 b6 88 3b de 9c 48 3a
       0.007972246 0.006331968 0.004172141 0.00076527696
0002d0 b8 c9 5b 3a 51 8d 5b 3b c6 fd 90 38 29 82 23 3a
       0.00083842454 0.003350098 6.913724e-05 0.0006237352
0002e0 3c a7 55 3b 2f 42 74 3b 04 b2 e9 3a a1 27 11 3a
       0.00326009 0.0037270894 0.0017829542 0.0005537216
0002f0 1a fb 96 3a f3 d5 56 3b 9a b4 38 3b 0c de 41 3b
       0.0011518926 0.0032781332 0.0028183819 0.0029581813
000300 d6 1f 5f 3b a6 2f 60 3b a6 fb 7b 3b 46 6f 50 3b
       0.0034046075 0.0034208088 0.0038449555 0.0031804605
000310 f1 3e 11 3b 97 e0 42 3b 2c f2 36 3b 78 27 6a 3b
       0.002216276 0.0029735917 0.0027915342 0.0035729092
000320 91 8f ea 3a 62 7d 8e 3a f4 25 5c 3b 44 a4 33 3b
       0.0017895569 0.0010871107 0.0033591958 0.0027411142
000330 14 90 ff 3a 9f 09 bf 39 93 e4 c7 3f 98 a5 c5 3f
       0.0019497895 0.00036437527 1.561663 1.544116
000340 23 5a a3 3f fe f8 98 3f cb 4d 8e 3f 31 7e 88 3f
       1.2761883 1.1950986 1.111749 1.066351
000350 ac ec 7c 3f 3b 51 69 3f a5 09 71 3f 4a 9a 65 3f
       0.9879863 0.9113957 0.9415534 0.8968855
000360 bb ac 61 3f 74 e1 54 3f 75 f6 4f 3f 40 b7 4b 3f
       0.8815419 0.83156514 0.8123544 0.7957649
000370 da a8 41 3f 26 06 43 3f 02 c2 37 3f 90 85 37 3f
       0.7564827 0.76181257 0.7178041 0.71688175
000380 01 13 3a 3f 84 46 35 3f 8b 70 2a 3f 2f dd 33 3f
       0.7268525 0.70810723 0.66577977 0.70259374
000390 81 bb 34 3f 68 ad 27 3f 74 a5 1f 3f 48 67 15 3f
       0.7059861 0.6549897 0.62361836 0.5836072
0003a0 8b 79 1f 3f 11 06 14 3f d9 2a 13 3f 0d 82 11 3f
       0.62294835 0.57821757 0.57487255 0.56839067
0003b0 ed 66 fd 3e 64 22 fa 3e b7 ec cd 3e 51 1d aa 3e
       0.4949259 0.48854363 0.40219662 0.33225492
0003c0 3d 57 81 3e 3f 7e 94 3e c2 c4 c8 3d ac 6e 7c 3d
       0.2526187 0.29002568 0.098031536 0.061628982
0003d0 41 18 6c 3b a0 9c 9e 36 b8 b8 93 3a dc 91 71 3f
       0.0036025199 4.7270005e-06 0.001127026 0.9436319
0003e0 9e 98 74 3f 82 50 64 3f 35 5f 5e 3f 47 05 50 3f
       0.95545375 0.89185345 0.86864024 0.8125805
0003f0 df 4c 45 3f 41 a6 3b 3f a6 63 36 3f 38 1e 2f 3f
       0.7707042 0.7330056 0.712458 0.68405485

exp_avg f4 [100, 41]
000000 97 a3 45 39 b6 c0 2c b8 87 4f a1 b9 25 c4 21 b9
       0.00018848326 -4.118747e-05 -0.00030767565 -0.00015427226
000010 0c fb d0 36 2f e2 c6 b9 ab b5 2a b8 e8 b4 23 b7
       6.2281088e-06 -0.00037934023 -4.070035e-05 -9.757678e-06
000020 5b 07 8d 38 e9 f2 d6 b9 38 03 99 b9 38 7b c8 b9
       6.724774e-05 -0.00040998243 -0.00029184832 -0.00038238778
000030 80 1d c2 39 02 9a 01 ba 6a e9 12 39 00 4b ca b5
       0.00037024543 -0.00049439084 0.00014010599 -1.5072001e-06
000040 e3 71 3a ba b6 0b 5f ba 5e 05 9f 3a 9e 77 5d b9
       -0.00071123074 -0.000850852 0.0012132337 -0.00021120763
000050 bd ec d7 b9 5b bf ae 39 99 a1 4a 39 b8 84 ad b8
       -0.0004118438 0.00033330437 0.00019324421 -8.2740036e-05
000060 3e 7c f8 b9 5b 75 cd b9 7f c8 47 ba 11 7c 87 3a
       -0.00047394814 -0.00039188084 -0.0007621124 0.0010336657
000070 ee 85 2c ba c0 c4 b0 b6 71 41 36 39 9d a2 b8 b8
       -0.00065812364 -5.2681135e-06 0.00017381251 -8.804093e-05
000080 e8 59 52 b9 02 18 51 b9 dc 9d e6 38 18 8e e5 b9
       -0.00020060653 -0.00019940737 0.00010996658 -0.00043784152
000090 8a d0 ac 39 d0 8b 4b 39 0e 8b 23 ba 5c e8 ca 39
       0.0003296177 0.00019411673 -0.00062386773 0.00038701564
0000a0 bc 98 47 ba c2 a3 3a 39 e7 30 86 b7 36 78 6d b9
       -0.0007614007 0.00017799347 -1.5996817e-05 -0.00022646863
0000b0 ba 6e af b8 26 62 4a 38 ea 5b 6a b9 78 2a 89 37
       -8.365275e-05 4.825196e-05 -0.0002235022 1.6351449e-05
0000c0 b6 56 27 38 05 d1 ca 38 78 7d 91 b9 60 bb 16 b9
       3.989666e-05 9.6710435e-05 -0.00027750037 -0.00014374917
0000d0 9e af 86 b9 ba cf a6 39 cd 7d 9f b9 7c 9c 1a 39
       -0.00025689317 0.00031816756 -0.00030420572 0.0001474488
0000e0 a8 66 54 38 44 90 f3 b9 40 eb 1a ba c3 88 8b 3a
       5.0640345e-05 -0.00046456058 -0.0005909689 0.0010645617
0000f0 a7 a4 c4 b8 ae 43 86 b9 1b 67 a4 39 fd 5e 7d 39
       -9.376677e-05 -0.00025608897 0.00031357337 0.00024163346
000100 60 8e f5 37 67 c3 75 b9 fa bd 44 b9 cc af bf b9
       2.9272574e-05 -0.00023437814 -0.00018762788 -0.00036561338
000110 fc 8c 6f 3a 0a e9 b1 b9 30 3c 5e 39 d1 82 75 39
       0.0009138135 -0.00033933698 0.00021193991 0.00023413754
000120 a9 93 cc 38 10 9d 68 38 e0 8c 88 38 c2 ab 4f 39
       9.754982e-05 5.5459386e-05 6.5112254e-05 0.00019805043
000130 4a d2 9d b9 40 78 dc 39 00 9d 9e b7 d6 83 b7 b9
       -0.0003010205 0.00042051263 -1.8908177e-05 -0.00035002705
000140 58 b4 82 39 3d 31 16 3a e7 bd b1 37 f5 31 96 37
       0.000249299 0.0005729383 2.1188474e-05 1.7904656e-05
000150 d4 a9 4a b9 f7 a7 a3 b8 ea 1d 1b 38 5b e6 77 b9
       -0.00019327487 -7.8037316e-05 3.698274e-05 -0.0002364157
000160 6b 6e f3 36 16 b8 95 38 92 c1 b5 38 bb af 8a b9
       7.2548187e-06 7.139162e-05 8.666808e-05 -0.0002645234
000170 6f b6 4e b9 1b 64 8b b9 87 c3 ae 39 60 3e ad b9
       -0.00019713653 -0.0002658673 0.00033333545 -0.00033043604
000180 ca 16 26 39 d8 26 f5 37 2e 6e 00 ba 80 02 28 ba
       0.00015839483 2.9224364e-05 -0.00048992306 -0.0006409064
000190 92 9d 82 3a ba 2b fc b8 98 a4 8f b9 d5 a8 9a 39
       0.0009965173 -0.00012024441 -0.00027397717 0.0002949896
0001a0 f9 84 59 39 70 00 65 b7 b7 c1 9d b9 f2 21 83 b9
       0.00020744269 -1.36495655e-05 -0.00030089702 -0.00025011558
0001b0 6a 81 04 ba 22 c0 6d 3a 72 20 dd b9 e5 20 d9 38
       -0.00050546846 0.00090694625 -0.00042176578 0.000103534934
0001c0 c6 6b 57 39 82 f8 a6 37 66 48 28 b8 88 f1 bb b6
       0.00020544147 1.9904463e-05 -4.0121748e-05 -5.601152e-06
0001d0 a4 34 02 39 9b 52 a4 b9 d2 18 c0 39 36 55 cd 38
       0.00012417376 -0.00031342063 0.00036639586 9.7910335e-05
0001e0 da 22 df b9 31 92 a5 39 46 f2 36 39 a4 fe 41 39
       -0.0004255984 0.00031580174 0.00017447126 0.00018500775
0001f0 19 4b a3 b9 4a db 1d 39 87 26 8e 38 c9 58 47 39
       -0.00031145735 0.00015054378 6.778264e-05 0.00019011194
000200 fa 60 84 b9 51 c9 4f 39 36 7d 52 39 7d 9c 4d 39
       -0.00025249255 0.00019816055 0.00020073805 0.0001960862
000210 ec 06 43 39 0f cc 38 39 44 ae 62 ba 03 f8 52 39
       0.00018599228 0.00017623625 -0.00086471834 0.00020119552
000220 e9 63 2a 39 5c 07 1e 37 03 b4 27 39 0c e0 9c 38
       0.00016249683 9.419247e-06 0.0001599342 7.480392e-05
000230 da 7a 3a 39 2e 05 17 39 2a 39 e9 b8 4e ab 1d 39
       0.00017784108 0.00014402412 -0.000111209534 0.00015036503
000240 21 89 43 39 7b b7 c0 38 d8 e9 26 39 b8 73 3d 39
       0.00018647734 9.189449e-05 0.00015918107 0.00018067553
000250 78 e0 01 39 9e 42 fa 36 ae 63 0a 39 9b 30 61 ba
       0.0001238602 7.458336e-06 0.00013197839 -0.00085903116
000260 d8 50 25 39 67 4e 1d b9 e9 12 45 39 96 0b 40 39
       0.00015765743 -0.00015001894 0.00018794429 0.00018314863
000270 9f 89 5a ba 22 61 18 39 c6 46 30 39 4b 22 29 ba
       -0.0008336547 0.00014532034 0.00016811033 -0.00064519484
000280 fd 79 38 39 ac 7b e1 b8 25 c6 38 39 e6 46 47 39
       0.00017593052 -0.00010751872 0.00017621422 0.0001900453
000290 3b e9 42 ba 09 ac 8b b9 d7 75 24 39 81 7a b1 b7
       -0.0007435267 -0.00026640322 0.00015684158 -2.115709e-05
0002a0 96 34 29 39 02 26 34 39 af 6c 40 39 84 f8 5e 39
       0.00016136686 0.00017180297 0.00018351035 0.00021264149
0002b0 4f 2d 47 39 50 b0 33 39 8e 28 1a 39 7e 13 28 39
       0.00018994998 0.00017136452 0.00014701692 0.0001602899
0002c0 49 45 b1 38 27 1d 64 b9 8c 6b 1e 39 66 c2 39 39
       8.452923e-05 -0.00021754635 0.00015108119 0.00017715394
0002d0 67 7c 32 39 4f 48 e9 38 1c b1 6d 39 e7 e7 64 ba
       0.00017021746 0.00011123774 0.0002266806 -0.0008732066
0002e0 a3 29 09 39 46 03 85 b8 ba e1 3e 39 06 6b 62 ba
       0.00013080849 -6.342544e-05 0.00018203902 -0.00086371636
0002f0 dd 81 39 39 1c 8d 57 b9 3d 64 cd 38 1e d4 42 38
       0.00017691353 -0.00020556565 9.7938326e-05 4.6450754e-05
000300 7b 20 27 38 26 51 d5 b8 91 00 c7 38 84 42 52 b9
       3.9846153e-05 -0.000101717465 9.489165e-05 -0.0002005194
000310 6f 48 20 39 ef b4 47 b9 7f 26 c7 b9 b0 00 bf 38
       0.00015285773 -0.00019045522 -0.0003798492 9.107718e-05
000320 e3 c9 4a 39 08 08 47 ba 54 c1 a2 b9 a4 d2 d5 b9
       0.0001933943 -0.00075924443 -0.00031043089 -0.00040783465
000330 fc a4 a5 38 cc 55 46 39 5b c7 8a b8 b6 99 b9 b9
       7.898544e-05 0.00018914713 -6.6174856e-05 -0.00035400473
000340 c0 ea 32 b9 a8 25 d3 36 66 d2 cb b9 f7 ef 45 b8
       -0.00017062854 6.292674e-06 -0.00038875936 -4.7191945e-05
000350 56 77 6a b8 fd 80 ac 38 c4 45 e9 b9 df 69 97 b9
       -5.5901088e-05 8.225625e-05 -0.00044493203 -0.00028879844
000360 52 44 d1 b9 f2 a5 b4 39 96 c8 01 ba 9c 04 0a 39
       -0.0003991449 0.00034455914 -0.0004950849 0.00013162423
000370 60 9c b8 36 a6 4b 49 ba 4f c0 74 ba 0d 87 a9 3a
       5.5018318e-06 -0.0007678814 -0.00093365175 0.0012933925
000380 78 e6 7a b9 54 75 fd b9 a1 a4 b8 39 c2 52 51 39
       -0.00023927714 -0.00048343337 0.00035217873 0.00019962623
000390 0f cc ad b8 2d 06 04 ba e1 37 d1 b9 2e 44 43 ba
       -8.287292e-05 -0.00050363207 -0.0003990522 -0.0007448819
0003a0 34 aa 8c 3a 04 68 32 ba 00 1d b3 b6 7c 7d 25 39
       0.0010731877 -0.00068056607 -5.3379918e-06 0.00015782373
0003b0 82 e1 d5 b8 c0 9b 4c b9 e6 fd 7c b9 ca 6f 24 39
       -0.000101986356 -0.00019512977 -0.00024127177 0.00015681903
0003c0 0e 6f f6 b9 c4 1a ba 39 74 8c 33 39 62 f2 2a ba
       -0.0004700352 0.00035496627 0.00017123093 -0.0006521103
0003d0 82 36 cf 39 bc db 52 3a f9 d0 40 39 74 d8 b1 37
       0.00039522728 0.0008043607 0.00018388395 2.1200838e-05
0003e0 0a 64 3c b9 71 55 8b b8 9a dc 37 38 ef ee 64 b9
       -0.00017966345 -6.643951e-05 4.383605e-05 -0.00021832784
0003f0 24 1c 65 37 d3 69 84 38 35 f5 97 38 93 6f 87 b9
       1.3656016e-05 6.313962e-05 7.2459145e-05 -0.00025832336

exp_avg_sq f4 [100, 41]
000000 60 b4 03 36 ee 2b de 33 e3 f4 df 33 8d 93 9e 34
       1.9625513e-06 1.0345671e-07 1.0428791e-07 2.953715e-07
000010 ec 2d e0 34 0d c7 32 35 58 fc 75 35 6a 50 98 35
       4.1756664e-07 6.6599824e-07 9.163682e-07 1.1348286e-06
000020 5c 8a c5 35 2b 16 da 35 8e e3 f0 35 2b 35 03 36
       1.4717912e-06 1.6248717e-06 1.794762e-06 1.955147e-06
000030 fa 18 15 36 ab 47 29 36 f8 f0 3b 36 1c d5 5c 36
       2.2217268e-06 2.5224679e-06 2.8005434e-06 3.29066e-06
000040 f6 a7 66 36 f2 7e 65 36 13 5f 69 36 81 4d 6b 36
       3.4370437e-06 3.419755e-06 3.4775046e-06 3.5062842e-06
000050 ce 11 70 36 83 44 78 36 3a 39 74 36 3a 63 81 36
       3.577315e-06 3.6994759e-06 3.6392144e-06 3.856051e-06
000060 61 b1 84 36 12 59 8a 36 d7 78 8d 36 62 8f 85 36
       3.954556e-06 4.1230896e-06 4.216195e-06 3.980401e-06
000070 1c f3 93 36 b6 83 8b 36 bf 2b 88 36 f3 ac 9e 36
       4.409243e-06 4.157856e-06 4.0582086e-06 4.728901e-06
000080 b9 06 a1 36 df d5 a2 36 e8 73 9e 36 7e e2 b5 36
       4.7989565e-06 4.852874e-06 4.72226e-06 5.4205875e-06
000090 1b 31 b7 36 e5 2d c9 36 b9 4b cf 36 b8 0a 15 37
       5.4595416e-06 5.9956096e-06 6.177896e-06 8.883588e-06
0000a0 c4 86 b9 37 a7 cb 04 36 f1 3f 93 33 70 fa 97 33
       2.2116474e-05 1.9788074e-06 6.856852e-08 7.07704e-08
0000b0 24 ec 58 34 88 38 9a 34 92 92 fa 34 70 7d 25 35
       2.0202475e-07 2.8725867e-07 4.6672773e-07 6.1649826e-07
0000c0 0c f1 50 35 f5 f6 85 35 7d 31 91 35 9e 2c 9c 35
       7.783681e-07 9.981146e-07 1.0817745e-06 1.1635891e-06
0000d0 25 3c a9 35 e5 2f bf 35 e3 f6 d9 35 30 66 f2 35
       1.2608986e-06 1.4244548e-06 1.6239613e-06 1.8060146e-06
0000e0 58 9f 0e 36 96 24 16 36 a7 12 15 36 97 47 18 36
       2.12524e-06 2.2373038e-06 2.2213587e-06 2.2691436e-06
0000f0 c5 2c 19 36 9c 52 19 36 9f 2c 1f 36 4b af 1a 36
       2.2824836e-06 2.2846862e-06 2.371882e-06 2.3049822e-06
000100 d7 9f 23 36 ae 8f 25 36 7f aa 27 36 2b 2b 24 36
       2.4381932e-06 2.4670549e-06 2.498418e-06 2.4463031e-06
000110 1e f5 1b 36 83 4f 24 36 77 d9 17 36 95 0b 0f 36
       2.3239477e-06 2.4484186e-06 2.2627335e-06 2.1315402e-06
000120 2f ff 20 36 56 52 21 36 df b8 21 36 bc 54 1e 36
       2.3990394e-06 2.4038795e-06 2.4098479e-06 2.3593157e-06
000130 9f 13 31 36 3c 65 30 36 39 dd 3c 36 e4 59 51 36
       2.6386476e-06 2.628497e-06 2.8142952e-06 3.119575e-06
000140 94 5c 9d 36 ad b5 8b 37 4b a8 07 36 e0 df 81 33
       4.689742e-06 1.665469e-05 2.0214527e-06 6.047753e-08
000150 10 e3 86 33 e0 25 3a 34 15 c3 87 34 ce 74 df 34
       6.281164e-08 1.7336379e-07 2.528765e-07 4.1621973e-07
000160 48 91 1c 35 23 29 46 35 f6 34 80 35 6a 90 8c 35
       5.832594e-07 7.382061e-07 9.552157e-07 1.0472843e-06
000170 1e e9 9a 35 9c 65 a6 35 25 82 bb 35 f5 ae d4 35
       1.154174e-06 1.2397536e-06 1.3970463e-06 1.584615e-06
000180 c4 7b eb 35 6e 4f 09 36 7d fc 0f 36 f4 0c 11 36
       1.7544885e-06 2.0460825e-06 2.1455628e-06 2.1614223e-06
000190 69 05 16 36 a7 77 1a 36 ac 10 1d 36 fb b6 23 36
       2.235489e-06 2.3017435e-06 2.3404527e-06 2.4395401e-06
0001a0 ee 42 22 36 b1 51 2b 36 a7 2e 2f 36 fc bb 33 36
       2.417884e-06 2.5528536e-06 2.6104187e-06 2.67825e-06
0001b0 47 fb 35 36 e6 75 2c 36 76 9a 38 36 39 ff 2c 36
       2.7117364e-06 2.5698623e-06 2.7508045e-06 2.5778556e-06
0001c0 e7 a4 25 36 35 3d 3f 36 a0 bd 40 36 2d 7d 40 36
       2.4682902e-06 2.8496845e-06 2.8720606e-06 2.8683091e-06
0001d0 dd c3 38 36 91 f6 52 36 2d 15 56 36 69 3d 66 36
       2.7532144e-06 3.143596e-06 3.190081e-06 3.4308416e-06
0001e0 e3 36 74 36 e5 cc b3 36 4b 1c 92 37 b8 2c 04 36
       3.6390782e-06 5.3584686e-06 1.7417731e-05 1.9695563e-06
0001f0 5f e4 60 35 c4 2b 5b 35 f1 de 1d 35 e2 cc e8 34
       8.3778826e-07 8.1647545e-07 5.881148e-07 4.336244e-07
000200 76 40 61 34 96 d9 0d 34 43 2d 3e 34 5d 74 5d 34
       2.0978209e-07 1.3210806e-07 1.7711595e-07 2.0624562e-07
000210 b2 4b 6c 34 d8 dc 8d 34 b6 01 f8 34 40 54 1b 35
       2.200675e-07 2.6423982e-07 4.6194845e-07 5.78646e-07
000220 83 a0 49 35 3f 0b 8e 35 e4 2c a5 35 68 e9 be 35
       7.511191e-07 1.0583097e-06 1.2306523e-06 1.4224033e-06
000230 77 82 c6 35 49 d8 db 35 45 da da 35 76 b1 fb 35
       1.479012e-06 1.6379719e-06 1.630579e-06 1.8752605e-06
000240 10 b5 ea 35 9c eb 06 36 c3 ba 06 36 55 97 0a 36
       1.7487055e-06 2.0104699e-06 2.0076266e-06 2.065169e-06
000250 04 31 00 36 db 00 06 36 f4 d0 0e 36 f1 c4 10 36
       1.9102017e-06 1.9968054e-06 2.1281276e-06 2.1572307e-06
000260 11 ea 0e 36 f1 a0 05 36 4e ef 0b 36 49 50 07 36
       2.1295893e-06 1.9912225e-06 2.0851908e-06 2.01633e-06
000270 ef a5 0e 36 c4 10 02 36 b0 25 fd 35 76 f3 08 36
       2.1256235e-06 1.9381268e-06 1.8860937e-06 2.0407292e-06
000280 29 d1 fd 35 20 e0 ee 35 ef 42 e9 35 35 f1 a2 36
       1.8910843e-06 1.7797611e-06 1.7379333e-06 4.8560564e-06
000290 60 d1 09 36 c3 c8 2b 35 43 77 27 35 4f 0c bc 34
       2.0536463e-06 6.399461e-07 6.2385897e-07 3.5026684e-07
0002a0 3d c7 3f 34 6f 44 03 34 e8 a2 20 34 46 81 54 34
       1.7860744e-07 1.2225222e-07 1.4960426e-07 1.9791068e-07
0002b0 b2 a4 70 34 65 ab 81 34 bf b7 97 34 c6 de 98 34
       2.2411658e-07 2.4152828e-07 2.8259635e-07 2.8474295e-07
0002c0 e2 a9 e6 34 2a 43 42 35 f6 d6 88 35 ee 30 88 35
       4.2964444e-07 7.236837e-07 1.0195351e-06 1.014703e-06
0002d0 1d c7 b9 35 c1 66 d1 35 37 b1 dd 35 6a 88 ef 35
       1.3841524e-06 1.5601619e-06 1.6517359e-06 1.7846589e-06
0002e0 d3 2a fd 35 e1 88 fe 35 76 6d 06 36 12 a0 0e 36
       1.8862432e-06 1.8964312e-06 2.003127e-06 2.1252822e-06
0002f0 38 06 13 36 fd d6 04 36 9e 5f 08 36 91 0c 14 36
       2.1908327e-06 1.9794672e-06 2.0321236e-06 2.2061033e-06
000300 75 01 12 36 6f 9c 1c 36 c8 e9 03 36 f9 59 15 36
       2.1756543e-06 2.3336868e-06 1.96566e-06 2.2255101e-06
000310 78 09 0b 36 5b 84 0d 36 68 10 08 36 39 6d 01 36
       2.0718126e-06 2.1087678e-06 2.027513e-06 1.9286074e-06
000320 f3 97 06 36 fe a8 03 36 6f 3d e7 35 18 fb e7 35
       2.0056002e-06 1.9618888e-06 1.7228721e-06 1.7283919e-06
000330 59 9a ac 36 53 92 03 36 88 89 06 34 ac 7a 09 34
       5.143968e-06 1.9605693e-06 1.2529756e-07 1.2803747e-07
000340 48 a7 c7 34 41 34 09 35 3d 5a 58 35 2d 4a 92 35
       3.7188352e-07 5.1112517e-07 8.0597584e-07 1.0899436e-06
000350 df dd b3 35 ca d6 e4 35 ad d2 f8 35 73 c8 06 36
       1.3401112e-06 1.7049836e-06 1.8538755e-06 2.0084233e-06
000360 63 a6 12 36 ea 45 26 36 fd 87 3c 36 9d 86 51 36
       2.1852545e-06 2.4776623e-06 2.8093339e-06 3.1221782e-06
000370 4e 06 77 36 81 72 81 36 e2 c1 80 36 26 c7 83 36
       3.6809538e-06 3.8578296e-06 3.837268e-06 3.927288e-06
000380 c9 75 85 36 35 a1 86 36 92 27 8d 36 76 d7 8a 36
       3.977421e-06 4.012278e-06 4.206734e-06 4.1378034e-06
000390 7b f7 93 36 98 ee 97 36 2b be 9c 36 92 fe 9c 36
       4.409752e-06 4.5279266e-06 4.6713008e-06 4.678798e-06
0003a0 4e 3b 92 36 32 8e a1 36 ef 0f 98 36 91 87 93 36
       4.358043e-06 4.8147276e-06 4.531808e-06 4.3967234e-06
0003b0 73 21 ab 36 8d 18 ad 36 5b 71 b1 36 11 71 ac 36
       5.100091e-06 5.15866e-06 5.2882074e-06 5.139162e-06
0003c0 ba 31 c3 36 16 d4 c4 36 1b 10 da 36 bf 49 e2 36
       5.817242e-06 5.8659452e-06 6.498781e-06 6.74391e-06
0003d0 9b bf 21 37 99 15 be 37 f3 4d 04 36 02 cd 75 33
       9.640959e-06 2.2659822e-05 1.9714905e-06 5.722996e-08
0003e0 0b 8b 7a 33 5d 56 33 34 e0 0d 80 34 81 a8 d2 34
       5.833412e-08 1.6702093e-07 2.3851953e-07 3.923815e-07
0003f0 5e 3f 10 35 51 58 36 35 f1 22 68 35 72 d4 7d 35
       5.373639e-07 6.79288e-07 8.647758e-07 9.4558993e-07
