test/test_results/triplets/results/model/model_epoch0400.tar (torch, 77268 bytes, 3 tensors)

fc.weight f4 [100, 41]
00000000: aacb 723b c7c1 0e40 ca26 0140 d597 2340
00000010: 6541 2640 b01c 2c40 9810 2840 889f 2040
00000020: 7ef1 1c40 92c3 1940 ec27 0e40 12f1 0240
00000030: 13b9 f43f 30e6 e63f 4ef1 d73f a6b8 c63f
00000040: e76e c33f 3ad7 b23f a2f6 a83f 7805 b23f
00000050: a6f7 a63f c7bc a53f 94a7 a33f 983a a93f
00000060: 55b0 a13f 640b aa3f a68b a23f b2af 9f3f
00000070: 4e6d 943f c4f9 843f 6e97 953f d265 683f
00000080: 4967 593f 9c98 363f b4ae 2b3f 5d32 f73e
00000090: b0f5 073f 909c 183e 6886 7d3d 7dfd 043e
000000a0: 1c10 f9b8 9b6c 4c3b bc88 663a dd73 9a3a
000000b0: 702e 26b8 ead8 703b a316 353b b8cc 5e3b
000000c0: 8251 1f3b ac54 cd39 5da9 543b 0254 4e3b
000000d0: 98d3 353b 063a 0a3b e1e9 6e3b 7fc4 f33a
000000e0: 893c ef3a f67d 6b3b c548 fe3a d735 293b
000000f0: 3236 6e3b 30c3 523b 159a 593b b80c 863a
00000100: a29a 733b 2ae2 2c3b 87c6 4c3a 447e 6f3b
00000110: 5a50 3b3b 3431 7a3a 307e 8b3a e6b8 963a
00000120: 59cb 103a d40b 2e3b 0d3d cc3a 0d0d ef39
00000130: 6d5c 203a f8ca 4eb8 7ca9 e83a 15ee 4e3b
00000140: bcb0 6f3b d4f8 4b3b 6ae1 cd3a 0727 3a3b
00000150: daa9 ca3a eaf1 6d3b b634 6a3b 0fd3 463b
00000160: 6fe2 643b ec1d 3a3b 0731 403b 9095 4b3b
00000170: 70a8 183b 7d5e 4a3b d1a8 703b f801 b13a
00000180: 975e 733b 02e7 693b 178d 593b c81f 003b
00000190: 6185 4f3b 56d5 553b 4798 9d3a 8b08 eb3a
000001a0: 298a cb3a d26b 723b f717 103b 7547 363b
000001b0: 98dc 653b 6385 6f3b 2efb 6e3b 7321 873a
000001c0: 2342 6f3b b857 2b3b fb81 333b b5e2 7f3a
000001d0: e8b4 473b 9b86 6a3b b248 bb3a 6070 c03a
000001e0: 91f0 103b 1620 8d39 c7c2 2e3b a9ea 6d3b
000001f0: 0b32 c23a b5e9 4f3b 0409 4d3b 6ef0 d93a
00000200: 03c5 553a 8821 433b 67de 4b3b 09d4 5e3b
00000210: ca53 513a f23a 6a3b a212 6b3b 6b9d 6e3b
00000220: 6700 703b 407c 203b 087f 2539 76de d03a
00000230: f0a5 383b 9437 523a c9aa 563b e807 c03a
00000240: c438 cb3a 8385 f73a 06f5 4e3a 0b63 273b
00000250: bc14 353b cdaf 6c3b 6015 563b 7b3e 6e3b
00000260: 462d ad3a 02c9 5d3b 17f8 223b 1ec8 823a
00000270: 7fdd 5c3b 2464 5b3b bbb6 6f3b d0c6 723b
00000280: 5f68 603b 2385 cc3a 7b17 ee3a b551 633b
00000290: 33f4 583b 62eb b739 e5dd 4e3b d884 ab38
000002a0: 6240 6f3b 4e09 063b 69e4 6139 1120 0539
000002b0: 115c 463b 79a4 443b 13c5 753b 8e09 6b3b
000002c0: ccdf 133b cc3e 673b 99d5 bc3a 1af7 5b3b
000002d0: c404 713b d071 ba3a 6719 6c3b f176 6b3b
000002e0: 6cfe cf3a 5f6d 683b 8e96 f539 de8c 713b
000002f0: 1ce4 3139 826b 6d3b 66bd 473b b855 5b3b
00000300: 3e05 333b f88f 713b 01db 273b 1316 733b
00000310: af30 fe3a 865e 153b 2c57 013b d7f0 863a
00000320: cea2 6e3a bf82 163b 5fc1 133b 2edd 563b
00000330: c9bc 4d3b 729e 703b 5475 8340 3a82 7040
00000340: 223f 5040 5e08 4540 e074 3f40 07b1 3340
00000350: 63d2 2740 e9a3 1c40 4886 1e40 e80c 1340
00000360: 6455 0a40 c15c 0240 919c f33f 5b62 eb3f
00000370: c480 da3f c36b d93f 1c88 c93f 1200 c63f
00000380: 6ea5 c33f 5954 be3f d6fc ae3f ae8a b83f
00000390: 102b af3f 0fc0 9d3f e181 973f 3d73 853f
000003a0: 5c78 923f 666f 823f 12a5 793f 8b82 763f
000003b0: d71d 4f3f 910c 563f 2bb8 383f 6e8d 113f
000003c0: 33dc dd3e 061b d53e 07d6 2f3e 10f4 5f3d
000003d0: 6519 773e 9fd8 123a 5cd6 6a3b 1779 743b
000003e0: 3db0 643a f4b5 673b 402e 8c3a 7bb7 293b
000003f0: 4a9a 6c3b 3134 173a 284d 3e3a a1a3 043a
0.0037047663 2.2305772 2.0179925 2.556142 2.5977414 2.689251 2.6260128 2.509737
2.4522395 2.4025617 2.2211866 2.0459638 1.911898 1.8038998 1.6870515 1.55251
1.526822 1.3971932 1.3200266 1.3907919 1.3044326 1.2948235 1.2785516 1.3221006
1.2631937 1.3284726 1.2698867 1.2475493 1.1595857 1.0388722 1.1686838 0.90780365
0.84923226 0.71326613 0.6706345 0.48280612 0.53109264 0.14903474 0.061895758 0.12987323
-0.00011876246 0.0031192664 0.0008794179 0.0011783798 -3.9620732e-05 0.0036750385 0.00276319 0.0033996534
0.0024310057 0.00039163732 0.0032449581 0.0031483178 0.0027744528 0.0021091714 0.003645532 0.0018597989
0.0018252294 0.0035933233 0.0019400349 0.0025819445 0.003634822 0.0032159798 0.0033203412 0.0010227179
0.0037171026 0.0026379921 0.00078115653 0.0036543766 0.0028581829 0.0009544075 0.0010642465 0.0011499196
0.0005523465 0.0026557343 0.0015582159 0.00045595356 0.0006117288 -4.9303257e-05 0.0017750706 0.0031575013
0.0036573848 0.0031123655 0.0015707437 0.002840461 0.0015461997 0.0036307522 0.0035736985 0.0030338203
0.0034925004 0.0028399182 0.0029326098 0.0031064488 0.0023293756 0.0030879073 0.0036721716 0.0013504615
0.0037135237 0.003569067 0.0033195668 0.0019550193 0.0031665193 0.0032628379 0.0012023532 0.0017931623
0.0015528846 0.0036990535 0.002198694 0.0027813588 0.003507411 0.003654801 0.0036465633 0.0010309651
0.0036507926 0.0026144814 0.0027390707 0.000976126 0.0030472819 0.0035785798 0.0014288633 0.0014681928
0.0022116045 0.00026917522 0.002666639 0.0036303198 0.0014815939 0.0031724994 0.0031285891 0.001662744
0.0008154662 0.0029774625 0.0031107904 0.0034000895 0.0007985203 0.00357407 0.003586926 0.0036409746
0.0036621334 0.0024488121 0.00015782949 0.0015935439 0.0028175078 0.0008019146 0.0032755604 0.0014650794
0.0015504588 0.0018884394 0.00078947877 0.0025541212 0.0027630767 0.0036115528 0.003266655 0.003635316
0.0013212345 0.0033841734 0.0024867111 0.0009977852 0.0033701358 0.0033476437 0.0036577422 0.003704477
0.0034241898 0.0015603643 0.0018164957 0.0034686152 0.0033104538 0.00035079854 0.0031565365 8.1786595e-05
0.003650688 0.0020452323 0.00021542762 0.00012695814 0.0030267278 0.003000526 0.0037501499 0.003586385
0.0022563813 0.0035285233 0.0014406919 0.0033564032 0.0036776522 0.0014224593 0.0036025883 0.003592905
0.001586867 0.003546558 0.00046842213 0.0036857645 0.00016965013 0.003622741 0.003047788 0.003346784
0.0027316357 0.0036859494 0.0025612714 0.0037092015 0.0019393171 0.0022791936 0.0019735796 0.0010295165
0.0009103239 0.0022966114 0.0022545678 0.0032785642 0.0031393042 0.0036715535 4.1080723 3.7579484
3.2538533 3.0786357 2.9915085 2.80768 2.622216 2.4475043 2.4769459 2.2976627
2.1614618 2.0369112 1.9032155 1.8389391 1.7070546 1.6986011 1.5744662 1.5468771
1.528486 1.4869491 1.367091 1.4417322 1.3685017 1.2324237 1.1836511 1.0425793
1.1442981 1.0190246 0.975175 0.9629294 0.80904907 0.83612925 0.7215602 0.5685643
0.4333206 0.4162218 0.17171489 0.054676116 0.24130781 0.0005601737 0.0035833335 0.003730362
0.00087237713 0.0035356255 0.0010694936 0.0025896716 0.0036102706 0.000576797 0.0007259422 0.0005059783

exp_avg f4 [100, 41]
00000000: 4ebd b137 0733 7138 986d 9638 d52d b238
00000010: e4fa be38 ee44 0cb9 6a74 0bb9 4c96 07ba
00000020: 290a 8439 5f30 4839 6d80 77b9 f192 c7b8
00000030: 69ed ceb9 de74 273a 7621 8dba 304d 9b39
00000040: cd5d a638 df22 8fb9 9a4e 533a afc0 91ba
00000050: 8412 863a 44eb 0cba ea4e 2339 8edc 78b9
00000060: 7686 56b9 082e 13b9 086b e039 f2bd cf39
00000070: 2199 84b9 4c81 fdb9 9a34 17ba 662b d739
00000080: 219a 21ba ae5e 03ba 28f0 e43a b7b7 a0ba
00000090: 857e bf39 3672 0fb9 406b a4b9 e1e0 fb39
000000a0: f28e 6d3a 9714 85b9 1714 4339 9d49 4139
000000b0: 2684 4739 de32 37b8 b6d4 1d39 af7f 30b9
000000c0: 3e57 2939 4d45 4739 b675 fd38 af70 85b9
000000d0: f628 1839 46bf 3039 ca80 34b8 64ec 3339
000000e0: 85ca 3639 aa78 d1b8 5fe8 3639 f833 2339
000000f0: 7944 5b38 a1a4 ed38 c672 5bb9 aee2 4139
00000100: 30cc e035 3b7f 2239 cf2e 4439 ee0e 36b8
00000110: 8c28 1a39 ad1a 4139 0b67 43ba 437e 3f39
00000120: c535 5eba 0b80 2039 f4b5 2aba b042 4839
00000130: 2e1b 4339 7718 4739 bf59 3939 1665 83b9
00000140: e8e2 8ab8 f9cd f838 c2a3 3a39 2119 1939
00000150: da58 2aba 20b9 c835 7b40 d0b8 716c 9fb9
00000160: d228 9138 98ea bcb9 f4b7 1339 c821 0539
00000170: 55a3 2939 8e84 0539 48c5 d4b8 2782 3e39
00000180: 5b3f 1a38 7069 cfb8 cf49 d738 5d84 14ba
00000190: a522 0739 fdba f838 0acc 4039 1f96 3739
000001a0: c97a 2aba 2b33 38b8 a996 3139 454d bcb9
000001b0: 03a9 0ab9 119c 92b8 4e7f 9e37 d279 4039
000001c0: 561e 37b8 7b18 2239 1c41 bdb9 5a51 4139
000001d0: ade8 0839 52b9 d7b8 beb4 29ba 3076 2aba
000001e0: 87bc 2d39 10cb 4839 6aea b8b9 4cc2 92b8
000001f0: 1266 2aba 13a9 0539 152e 85b9 0ba0 3a39
00000200: 32d3 4239 8d64 9fb9 8e85 85b9 a98b c138
00000210: d981 4239 bd35 8f38 36cf 8d38 1b0d 94b8
00000220: 129a b737 fe81 2639 5fe7 4639 982c 3b39
00000230: ba0b bcb9 b2cc 4439 a6f2 e838 fbd0 3e39
00000240: c77f 2aba 88f4 3639 9b9d 4339 eeee dcb9
00000250: 0de8 1739 dd55 6538 0c16 fb38 c0a8 92b8
00000260: cc0f 3d39 591b bf38 33b1 dcb9 de3e 43ba
00000270: a2a7 d338 c70d 59b9 d8a5 d5b8 988a 8fb8
00000280: ce1a d738 7257 3a39 ef12 13ba c494 03b9
00000290: 6e59 d738 80b7 4639 a1ff fc38 485c 4739
000002a0: 0752 a6b7 8f80 3339 7192 4739 2603 4739
000002b0: 3240 9fb9 c15f 9fb9 73a9 38b8 5161 8e38
000002c0: 5f2b 2d39 cd37 9038 e04e 3d39 f856 5bb9
000002d0: cc82 37b8 d36d 3d39 cfb7 6338 4df9 0bb9
000002e0: 934a 3d39 5fec 8c38 4446 5eba 2af3 93b8
000002f0: 9868 4639 38eb d1b8 ecb3 0c39 e417 eb38
00000300: 556f 1d39 e6d1 9f37 1a28 2639 88f1 2238
00000310: e549 3439 6a72 2c39 4e3d 3939 8896 3d39
00000320: aa43 4339 8696 2e39 fc38 3039 31f1 db38
00000330: ebb2 51b9 a6d2 2138 6288 cc37 bbc3 9738
00000340: 8ffb d738 d9f5 4138 4d3c 57b9 d2a2 38b9
00000350: 85a1 39ba c43d 1639 ba36 bf39 cc1c d8b9
00000360: 29fa 1639 d143 d3b9 ed0a 253a 5ecc 97ba
00000370: fef5 ae39 7094 2a38 abe1 1eba 9adf 913a
00000380: 4aea 9dba 950a 933a d43a 2aba 9f79 3a39
00000390: 4bd6 deb9 7419 50b9 806f 64b8 0f16 eb39
000003a0: 20ef 083a a16f 6fb9 1aba 0aba 2301 31ba
000003b0: b88d 0f3a fcfe 3aba fd65 03ba e836 f53a
000003c0: 67b7 adba 5cd8 9039 60e3 c0b7 3c1e 04ba
000003d0: c2c1 3f3a 4444 2ab9 4088 d0b8 20b6 2f36
000003e0: 633c 4339 e71f 9038 e5e6 3f39 c4c2 2239
000003f0: cce6 35b8 fbc4 5eba 2de1 4339 205d 5eba
2.1188196e-05 5.75064e-05 7.172971e-05 8.496238e-05 9.106638e-05 -0.00013377119 -0.0001329944 -0.0005172237
0.00025184572 0.00019091506 -0.00023603598 -9.5164294e-05 -0.00039468266 0.0006387959 -0.0010767418 0.00029621413
7.9329686e-05 -0.00027301066 0.0008060724 -0.0011120046 0.0010228907 -0.00053756335 0.00015574289 -0.00023733286
-0.00020458721 -0.0001403616 0.00042804354 0.00039623637 -0.00025291092 -0.00048352254 -0.0005768031 0.0004104033
-0.00061646296 -0.0005011362 0.0017466592 -0.0012261783 0.00036524623 -0.0001368009 -0.00031360425 0.00048041999
0.0009062133 -0.00025383077 0.00018604133 0.00018433337 0.00019027348 -4.3677974e-05 0.00015051928 -0.00016832234
0.00016149596 0.00019003935 0.000120859055 -0.00025451693 0.00014511109 0.00016855923 -4.303529e-05 0.00017158833
0.00017432317 -9.988372e-05 0.00017443438 0.00015564251 5.227744e-05 0.00011331705 -0.00020928224 0.00018490359
1.6748727e-06 0.00015496921 0.00018709454 -4.3406086e-05 0.0001470169 0.00018415852 -0.0007454014 0.00018262216
-0.000847664 0.00015306489 -0.00065120985 0.0001909833 0.00018606774 0.00018987233 0.00017676408 -0.00025061582
-6.6226174e-05 0.00011863927 0.00017799347 0.00014600578 -0.0006498225 1.495504e-06 -9.930223e-05 -0.00030407638
6.921742e-05 -0.0003603294 0.0001408754 0.00012696453 0.00016177942 0.00012733249 -0.00010145694 0.00018168298
3.6775466e-05 -9.8901684e-05 0.00010265747 -0.00056654756 0.0001288751 0.00011860391 0.00018386557 0.00017508164
-0.0006503282 -4.3916672e-05 0.0001693616 -0.00035915725 -0.00013223667 -6.990892e-05 1.8894349e-05 0.00018355928
-4.3658853e-05 0.00015458644 -0.000360974 0.0001843622 0.00013056649 -0.000102865175 -0.0006473771 -0.00065025967
0.00016568798 0.00019149133 -0.00035269867 -6.998013e-05 -0.0006500195 0.00012746853 -0.0002540207 0.00017797963
0.00018579958 -0.0003040176 -0.00025467243 9.228971e-05 0.00018549654 6.828781e-05 6.762e-05 -7.059631e-05
2.1887045e-05 0.0001587942 0.00018968944 0.00017850322 -0.0003586689 0.00018768272 0.00011107819 0.00018197663
-0.00065040257 0.00017447968 0.00018655362 -0.00042139686 0.00014486928 5.467782e-05 0.00011972719 -6.993255e-05
0.0001803033 9.1126836e-05 -0.00042093694 -0.00074480276 0.00010092488 -0.00020699865 -0.00010187522 -6.8445865e-05
0.00010256992 0.00017770918 -0.00056104263 -0.00012548553 0.000102686565 0.0001895111 0.00012063911 0.00019012496
-1.9826939e-05 0.00017118662 0.00019032673 0.00018979292 -0.00030374672 -0.00030398185 -4.402683e-05 6.789214e-05
0.00016514723 6.876849e-05 0.00018053828 -0.00020917866 -4.3752414e-05 0.00018065357 5.4292203e-05 -0.00013348945
0.00018052226 6.719748e-05 -0.00084790983 -7.054799e-05 0.00018921716 -0.000100097095 0.00013418467 0.00011210123
0.00015014161 1.9052019e-05 0.00015845933 3.8848753e-05 0.00017193666 0.00016445821 0.00017665813 0.00018080522
0.00018621856 0.00016650007 0.00016805896 0.00010487659 -0.00019998445 3.8581573e-05 2.4382203e-05 7.236699e-05
0.00010298855 4.624375e-05 -0.00020526462 -0.00017608263 -0.0007081258 0.00014328124 0.00036471133 -0.00041220186
0.00014398307 -0.00040295583 0.00062958786 -0.0011581292 0.00033371145 4.06694e-05 -0.0006060849 0.001112926
-0.0012047973 0.0011218364 -0.00064937514 0.0001778365 -0.000425028 -0.00019845908 -5.446328e-05 0.00044839128
0.00052236207 -0.00022834401 -0.00052920135 -0.00067521835 0.0005476135 -0.00071333325 -0.0005012451 0.001870838
-0.0013253511 0.0002762702 -2.2994063e-05 -0.00050399057 0.0007314944 -0.00016237894 -9.9435914e-05 2.6183043e-06
0.00018619145 6.872397e-05 0.00018301194 0.0001552208 -4.336871e-05 -0.00084979803 0.00018680534 -0.00084825046

exp_avg_sq f4 [100, 41]
00000000: f4cb 0736 08a5 c933 8f37 d133 4a98 5e34
00000010: cb31 1c35 f97b bc35 7a9f 0636 3111 2536
00000020: 1391 3436 d9ed 4d36 2f67 8136 3ed8 8e36
00000030: f81d ae36 dd70 c236 8275 ca36 4c96 d036
00000040: d47c e836 c664 e036 b7dc dd36 b7d5 f036
00000050: 2b6a 0c37 e2a6 1137 0beb 0b37 1d43 1137
00000060: f83e 1937 787d 1537 6acd 2937 9bf7 3037
00000070: 74b1 3237 e3c5 2737 fd0a 2a37 b52e 2e37
00000080: c797 3637 7fe9 3437 8fd8 2c37 d239 3237
00000090: c2ff 3237 8ca5 3a37 e15f 3337 6e7b 5337
000000a0: 1635 b337 17ed 0836 0703 0436 c957 0436
000000b0: 482b 0336 0415 0836 8aff 0536 678e 0836
000000c0: 7d88 0536 f073 0336 ee8f 0636 decd 0836
000000d0: b6f7 0536 d125 0536 1ae9 0736 8dda 0436
000000e0: eac6 0436 8e42 0836 f2f4 0436 20aa 0536
000000f0: 7b42 0736 0c7d 0636 8396 0836 5d00 0436
00000100: feac 0736 9e9f 0536 6ebd 0336 2ce6 0736
00000110: dcf6 0536 f6f5 0336 189d 0936 9f38 0436
00000120: 44ad 0936 fe8e 0536 2c7d 0936 2154 0336
00000130: efb4 0336 b220 0336 725e 0536 4fd6 0936
00000140: d130 0a36 c645 0b36 e3cf 0436 2d25 0636
00000150: 86c3 0936 fdbf 0736 cf59 0836 2504 0936
00000160: c331 0736 2f25 0936 1e35 0636 4471 0636
00000170: 6d64 0536 7764 0636 d755 0836 2055 0436
00000180: f160 0736 ff26 0836 e6b2 0636 6284 0936
00000190: f555 0636 ed7e 0636 1a41 0436 b9c4 0436
000001a0: cd95 0936 ece8 0736 ab36 0536 1cfe 0836
000001b0: 6656 0836 daeb 0736 8182 0736 fbf0 0336
000001c0: 0dd5 0736 89a8 0536 6bc0 0836 36e4 0336
000001d0: 714b 0636 622a 0836 3eba 0936 5522 0a36
000001e0: a15a 0636 c655 0536 82c9 0d36 1048 0836
000001f0: 64b0 0936 4183 0636 04dd 0836 aacc 0436
00000200: 73f5 0336 b1f3 0836 4ac6 0836 bfe2 0636
00000210: cbe3 0336 0e33 0736 4b3a 0736 a91e 0836
00000220: e47d 0736 d68c 0536 dc2e 0336 4a9e 0436
00000230: 590a 0936 36c4 0336 7d9d 0636 7768 0436
00000240: 4e9d 0936 f1f3 0436 d9ab 0336 b82c 0936
00000250: eeef 0536 8046 0736 aa80 0636 6c13 0836
00000260: 0640 0436 9fd6 0636 ebf3 0836 e78f 0936
00000270: 9fb1 0636 6198 0836 c55a 0836 7956 0836
00000280: 0c5b 0736 24ba 0536 9648 0b36 fd39 0d36
00000290: 01ec 0636 db81 0336 de99 0636 a240 0336
000002a0: 64ea 0736 8a1f 0536 a06e 0336 1031 0336
000002b0: c1f8 0836 72f9 0836 be13 0836 8534 0736
000002c0: 845d 0536 3420 0736 a67b 0436 c594 0836
000002d0: c408 0836 1c63 0436 5938 0736 7671 0836
000002e0: 8099 0436 9212 0736 08cc 0936 b72d 0836
000002f0: bb39 0336 1a23 0836 0232 0636 5d99 0636
00000300: 11e3 0536 1b82 0736 9baf 0536 e650 0736
00000310: 33c9 0436 6937 0536 e8ea 0436 731a 0436
00000320: 1922 0436 abf5 0536 566e 0636 aab4 0836
00000330: 7347 0d36 06a9 0736 3274 4334 ec3b 4034
00000340: bba3 3135 96e5 ca35 d885 4336 0d89 7d36
00000350: 32f2 8f36 7c9f 8f36 fa1e 9436 dbc3 b636
00000360: 224e c336 25e0 e436 72cc 0137 e464 0a37
00000370: dcb5 1337 4740 2537 0da6 2237 06fc 1e37
00000380: ea46 2537 f6be 4437 e5d1 4c37 d7dc 4037
00000390: 9e32 4e37 384c 5637 21a8 4c37 f8da 5037
000003a0: cac4 5537 b0d3 5637 239f 4c37 3530 4937
000003b0: 8d9a 4e37 3970 5537 fb7e 5437 0180 4f37
000003c0: 9a6d 4f37 5454 4e37 c565 5537 60b3 4737
000003d0: 9c70 7337 71d6 bf37 f56b 0836 18e3 0736
000003e0: 570b 0436 bf39 0736 c52f 0436 83c9 0536
000003f0: 0600 0836 cb00 0a36 eabf 0336 e7ed 0936
2.0235284e-06 9.389811e-08 9.742427e-08 2.0730764e-07 5.8186987e-07 1.4043172e-06 2.0060384e-06 2.4596923e-06
2.6906534e-06 3.0685826e-06 3.8565117e-06 4.2571037e-06 5.189093e-06 5.7947896e-06 6.033749e-06 6.21638e-06
6.9286707e-06 6.687452e-06 6.612008e-06 7.177437e-06 8.369369e-06 8.681529e-06 8.339771e-06 8.6582995e-06
9.134172e-06 8.910305e-06 1.0121012e-05 1.0548068e-05 1.0650943e-05 1.000005e-05 1.0135348e-05 1.0382083e-05
1.0883384e-05 1.0783201e-05 1.030242e-05 1.0623089e-05 1.0669175e-05 1.1125008e-05 1.0691555e-05 1.2605318e-05
2.1363183e-05 2.0403584e-06 1.9671295e-06 1.972063e-06 1.9545714e-06 2.0277812e-06 1.9967288e-06 2.0348468e-06
1.989799e-06 1.9588006e-06 2.0051334e-06 2.038541e-06 1.996273e-06 1.9840556e-06 2.025225e-06 1.9796746e-06
1.9785316e-06 2.030432e-06 1.981211e-06 1.991757e-06 2.0155264e-06 2.0040343e-06 2.0353189e-06 1.9669744e-06
2.0217262e-06 1.9911454e-06 1.9630784e-06 2.0250545e-06 1.9962235e-06 1.966369e-06 2.0506031e-06 1.970249e-06
2.0515445e-06 1.9901777e-06 2.048745e-06 1.956949e-06 1.9625838e-06 1.9539552e-06 1.9873519e-06 2.0539335e-06
2.0592017e-06 2.0753228e-06 1.9790539e-06 1.9989195e-06 2.05284e-06 2.022832e-06 2.0317855e-06 2.0417003e-06
2.0145533e-06 2.0436235e-06 1.9998474e-06 2.0033485e-06 1.9877e-06 2.0026034e-06 2.0315545e-06 1.9719082e-06
2.0172995e-06 2.0288278e-06 2.0071689e-06 2.0491648e-06 2.001759e-06 2.0041437e-06 1.9707427e-06 1.978404e-06
2.0501786e-06 2.0252146e-06 1.9850365e-06 2.041349e-06 2.031587e-06 2.0253851e-06 2.019253e-06 1.966079e-06
2.024058e-06 1.9916645e-06 2.0377581e-06 1.9653357e-06 2.0011469e-06 2.029025e-06 2.0522998e-06 2.0583586e-06
2.002031e-06 1.986847e-06 2.112793e-06 2.0307525e-06 2.0517264e-06 2.0043956e-06 2.0394227e-06 1.9788663e-06
1.9663391e-06 2.0407426e-06 2.0380999e-06 2.009954e-06 1.9653114e-06 2.0146285e-06 2.0150499e-06 2.0283426e-06
2.0189846e-06 1.9900522e-06 1.9547797e-06 1.976167e-06 2.0420614e-06 1.963473e-06 2.0059226e-06 1.973034e-06
2.0506154e-06 1.9811525e-06 1.962055e-06 2.044062e-06 1.9958202e-06 2.0157604e-06 2.0042448e-06 2.0276884e-06
1.97068e-06 2.0092482e-06 2.0407558e-06 2.0498353e-06 2.0070945e-06 2.0354275e-06 2.0318414e-06 2.0315913e-06
2.0169564e-06 1.9926892e-06 2.0754865e-06 2.104439e-06 2.0104928e-06 1.9596107e-06 2.0057118e-06 1.9558142e-06
2.0253e-06 1.9836903e-06 1.9584913e-06 1.954908e-06 2.0410373e-06 2.0410776e-06 2.027707e-06 2.0147138e-06
1.9872978e-06 2.0135312e-06 1.9741506e-06 2.0352174e-06 2.0270681e-06 1.9727222e-06 2.0149366e-06 2.0331622e-06
1.9758882e-06 2.0127377e-06 2.0533353e-06 2.0292189e-06 1.9554125e-06 2.028601e-06 1.9996664e-06 2.0056825e-06
1.9950714e-06 2.01923e-06 1.992076e-06 2.0163657e-06 1.9786646e-06 1.9850797e-06 1.9806266e-06 1.9684928e-06
1.968938e-06 1.9961542e-06 2.003178e-06 2.037074e-06 2.1052226e-06 2.0214952e-06 1.8203062e-07 1.7903193e-07
6.61759e-07 1.5116991e-06 2.9135172e-06 3.7779712e-06 4.2899273e-06 4.2802985e-06 4.41435e-06 5.4468233e-06
5.8205487e-06 6.8210234e-06 7.7366e-06 8.248931e-06 8.804225e-06 9.849732e-06 9.694614e-06 9.476213e-06
9.851277e-06 1.1726972e-05 1.2208217e-05 1.149551e-05 1.2290342e-05 1.277314e-05 1.2198493e-05 1.2448749e-05
1.2741608e-05 1.2804681e-05 1.2196399e-05 1.1991758e-05 1.2314541e-05 1.2721918e-05 1.266575e-05 1.2367965e-05
1.236368e-05 1.2298191e-05 1.2719484e-05 1.1903088e-05 1.4510148e-05 2.2868831e-05 2.0328418e-06 2.0248754e-06
1.9676133e-06 2.015018e-06 1.9697338e-06 1.993584e-06 2.0265593e-06 2.0564064e-06 1.963223e-06 2.0553068e-06
