test/test_results/triplets/results/model/model_epoch0445.tar (torch, 80148 bytes, 3 tensors)

fc.weight f4 [100, 41]
000000 02 04 33 3b 9a a2 01 40 de b0 dc 3f 21 68 1c 40
       0.0027315621 2.0255494 1.7241476 2.4438555
000010 6c ee 24 40 cb a3 2e 40 f9 fb 2b 40 0b fa 24 40
       2.577052 2.7287471 2.6872542 2.5777614
000020 a5 99 22 40 22 e6 20 40 13 77 16 40 04 70 0a 40
       2.5406277 2.5140462 2.3510177 2.163087
000030 c5 71 01 40 31 22 f4 3f 7b ba e2 3f 32 1f d0 3f
       2.022569 1.9072934 1.7713159 1.625952
000040 dd ba cb 3f 8d 71 b9 3f f8 e3 ac 3f 2c 83 b8 3f
       1.5916401 1.4487778 1.350707 1.441503
000050 8a 56 ab 3f 29 5c ab 3f 62 69 a5 3f 86 3f ae 3f
       1.3385785 1.33875 1.2922785 1.3613136
000060 31 65 a5 3f 97 d1 ae 3f bd 86 a6 3f 90 2f a0 3f
       1.2921506 1.3657712 1.3009869 1.2514515
000070 47 52 94 3f 6e e4 86 3f 10 6d 96 3f 10 a0 68 3f
       1.1587609 1.0538461 1.1752033 0.90869236
000080 ee d4 57 3f 19 d1 33 3f 57 d6 2a 3f cc d8 f8 3e
       0.8430928 0.7024093 0.66733307 0.48602903
000090 b5 e3 06 3f 3b b1 19 3e f1 8c 26 3d 4f c0 0c 3e
       0.52691203 0.15009014 0.040661756 0.13745235
0000a0 f4 8e 46 3a c2 78 a7 38 ab 5c 1e 3b c1 24 2e 3b
       0.0007574402 7.9856734e-05 0.002416412 0.00265722
0000b0 ec 03 da 3a 94 8d 8b 3a db 2b 70 3b ab 45 5e 39
       0.0016633249 0.0010647052 0.0036647234 0.00021197523
0000c0 a1 f6 68 3b 24 5c 10 3b ef f2 67 3b 74 ff 3c 3a
       0.0035547393 0.0022027576 0.0035392602 0.00072096963
0000d0 c8 3e 6e 3b 62 2a 6d 3b 20 00 11 3a 26 11 63 3b
       0.0036353339 0.0036188592 0.00055313297 0.0034647672
0000e0 54 a7 65 3b d4 5a 8f 39 a7 8c 62 3b 2d c9 75 3b
       0.0035042362 0.00027342758 0.0034568699 0.0037503943
0000f0 65 23 fc 3a 82 fb 51 3b 2e 82 46 3a 60 a0 3b 3b
       0.0019236623 0.003204078 0.0007572499 0.0028629526
000100 6d 3d 14 3a 06 57 6f 3b 89 28 36 3b 80 6a 5f b7
       0.0005654905 0.0036520376 0.0027795157 -1.3316632e-05
000110 25 9c 6a 3b ad 1d 3f 3b 31 8d fb 3a 35 58 4c 3b
       0.0035798636 0.0029161975 0.0019191859 0.0031180505
000120 b0 c4 11 3b 0f ea 61 3b d4 b2 0c 3b 98 6f 2e 3b
       0.002224248 0.0034471785 0.0021468895 0.0026616808
000130 7b d1 28 3b 59 5c bc 3a 16 78 11 3b 6f f1 6d 3b
       0.0025759626 0.0014370783 0.002219682 0.0036307236
000140 05 5c 7b 3a 6f d4 5a 3b c3 1f 38 3b f7 24 71 3b
       0.0009588602 0.003339078 0.0028095103 0.0036795714
000150 17 53 9e 3a 3e 80 11 3b d4 2c 07 3a e9 c0 40 3a
       0.0012079206 0.0022201682 0.0005156521 0.00073529646
000160 e3 9e 45 3b 3c 1f 7c 3a 31 e4 6c 3b 40 28 6a 3b
       0.0030154518 0.00096176914 0.0036146755 0.0035729557
000170 42 2e 6d 3b 77 4b 6c 3b f6 a8 39 39 1b a4 48 3b
       0.0036190902 0.0036055723 0.00017705918 0.0030615393
000180 22 61 c8 3a fe 7e c1 39 de ba 46 3b 9a b8 cd 3a
       0.0015287737 0.00036906445 0.0030323784 0.0015695274
000190 c4 a4 64 3b 2e 8c 4e 3b f9 ad 47 3b 75 77 60 3b
       0.0034888247 0.003151666 0.0030468686 0.003425089
0001a0 0e 99 de 3a 40 ab e4 b6 d8 6c 70 3b 56 bb 7d 3a
       0.001698287 -6.8148656e-06 0.003668597 0.00096790993
0001b0 cd 0f e3 39 d6 b8 31 39 79 9c 17 3a 02 25 46 3b
       0.00043308586 0.00016948892 0.0005783509 0.003023446
0001c0 86 1e f9 38 a2 44 65 3b 45 82 bc 3a 70 05 48 3b
       0.00011878931 0.0034983535 0.0014382085 0.003052082
0001d0 cc da 4b 3b e0 e6 71 b8 fc 25 84 3a 4c 31 13 3a
       0.0031105755 -5.7673897e-05 0.0010082121 0.0005614951
0001e0 e7 d9 a8 3a 9d a3 42 3b e9 e6 39 3a 9d 89 fd 3a
       0.0012882323 0.0029699572 0.0007091598 0.001934338
0001f0 82 7e 92 3a 73 2d 6c 3b 1a 18 d7 39 cb 14 4b 3b
       0.0011176618 0.0036037832 0.00041025953 0.0030987735
000200 6d c9 22 3b 36 99 04 3a a4 89 27 3a c1 d6 53 3b
       0.0024839297 0.00050582306 0.00063910545 0.0032324048
000210 92 3d 29 3b 22 c7 44 3b e7 13 22 3b b8 12 fa 37
       0.0025824052 0.003002592 0.00247311 2.9811039e-05
000220 9d ee c6 3a ee 81 71 3b 0f 9f 13 3b 0c c9 5b 3b
       0.0015177313 0.0036851126 0.0022525226 0.0033536581
000230 c7 9f 94 3a e4 f0 34 3b df fd 5a 3b eb c5 52 3b
       0.0011339121 0.0027609402 0.003341548 0.0032161425
000240 aa 29 e7 3a 4e 38 61 3b 46 72 3e 3b 32 de aa 3a
       0.0017636318 0.0034365836 0.0029059811 0.001303619
000250 17 66 6d 3b d8 31 fa 3a b8 b1 4f 3b e9 5e 97 39
       0.003622418 0.0019088341 0.0031691622 0.00028871678
000260 b1 89 50 3b 11 69 28 3b fe 40 c3 3a 69 28 0f 3b
       0.0031820352 0.002569739 0.0014896689 0.0021844155
000270 89 15 38 3b a8 6c 99 3a e6 74 9a 39 ae 3c fc 3a
       0.0028089008 0.0011705356 0.00029460265 0.0019244158
000280 ad 34 64 3b ea 55 3a 3a ba 8f 15 3b aa 59 b5 38
       0.0034821436 0.0007108139 0.0022821263 8.647454e-05
000290 ed 28 6f 3b 4c ab 04 3b 89 d5 72 3b 6f b1 e0 3a
       0.00364929 0.0020243702 0.0037053546 0.0017142723
0002a0 71 a4 c4 3a e2 35 5a 3b 7d 88 f4 3a 69 20 ff 3a
       0.0015002621 0.0033296277 0.0018656399 0.0019464615
0002b0 58 01 4b 3a 90 d4 43 3a b8 ba b7 b8 1c e1 28 3b
       0.00077440357 0.0007470334 -8.760899e-05 0.0025768941
0002c0 1f 2c 6e 3b c5 a0 37 3b 7f eb 4d 3b 26 d9 3d 3a
       0.0036342216 0.002801941 0.0031420884 0.00072421355
0002d0 2e 34 e2 38 e6 26 50 3b 74 4c c1 3a a6 d7 08 3a
       0.00010786239 0.0031761467 0.0014747516 0.00052201224
0002e0 a2 16 5c 3b 7e 75 11 3b ae e6 dc 3a 8b 9a 68 39
       0.0033582826 0.0022195275 0.0016853416 0.00022182816
0002f0 bc 55 0e 3b 01 02 01 3a fb 33 5e 3b 6d 55 32 3b
       0.0021718582 0.0004921258 0.0033905494 0.0027211562
000300 9b 4f 75 3b a4 d5 13 3a 9d 72 76 3b 50 ea 02 b7
       0.0037431482 0.000563944 0.0037604936 -7.803159e-06
000310 22 c2 70 3b c3 6f 70 3b 2d ba 71 3b 2f db 3d 3b
       0.0036736806 0.003668771 0.003688465 0.0028969755
000320 61 d0 18 3b 3c dd 30 3b 25 ed 75 3a 2a 8c 19 3a
       0.0023317563 0.0026987335 0.00093813456 0.0005857373
000330 34 b0 9a 39 2e 8b 40 3b e4 04 8d 40 57 75 7a 40
       0.0002950445 0.0029379833 4.406847 3.9134119
000340 c7 6a 5f 40 27 fd 52 40 cd ae 4d 40 3b 1b 3d 40
       3.4908922 3.2967012 3.213794 2.954787
000350 a5 bd 2e 40 d8 6a 21 40 86 de 24 40 ce 12 1a 40
       2.730325 2.5221462 2.5760818 2.4073977
000360 10 f7 0f 40 d4 a0 0a 40 5e 5e 00 40 d7 35 f9 3f
       2.2494545 2.1660662 2.0057597 1.9469556
000370 54 e3 e6 3f d8 85 e5 3f 08 c7 d4 3f 9e 0e cf 3f
       1.8038125 1.7931471 1.662324 1.6176336
000380 74 b2 cb 3f e5 c9 c6 3f 85 06 b4 3f 5f e2 bf 3f
       1.5913835 1.5530363 1.406449 1.4990958
000390 ec e7 b3 3f 35 cf 9f 3f 89 ac 97 3f d5 99 82 3f
       1.4055152 1.248511 1.1849529 1.0203196
0003a0 9a 2e 90 3f 8a 97 7e 3f 9d 4d 74 3f 4a 56 71 3f
       1.1264222 0.9944998 0.9543093 0.9427229
0003b0 a8 fb 48 3f a1 72 4e 3f 7a 62 34 3f ea 49 09 3f
       0.78508997 0.8064366 0.70462763 0.5362841
0003c0 96 96 cc 3e 33 76 c9 3e 77 e1 04 3e 74 a3 04 3c
       0.39958638 0.3934799 0.12976633 0.008095611
0003d0 19 27 a1 3e 0f 82 0e b9 c2 13 ca 3a a1 4d f7 3a
       0.31475142 -0.00013590626 0.0015417265 0.001886774
0003e0 f5 b8 1f 3b f4 7a 4d 3b 32 3d 31 3b d0 ed 6c 3b
       0.0024371718 0.0031353803 0.0027044532 0.003615249
0003f0 3a f5 90 3a 0c c5 d4 3a 25 91 24 3b 5e 85 cf 3a
       0.0011059411 0.0016233041 0.0025110927 0.0015832593

exp_avg f4 [100, 41]
000000 0c 4b bc b9 d6 68 01 38 3f 16 5d b8 44 a4 04 39
       -0.0003591407 3.0853633e-05 -5.2711224e-05 0.00012649695
000010 c5 68 b6 38 a6 30 68 b9 0e 1c c4 b8 7e 2a 5c 39
       8.697951e-05 -0.00022143367 -9.351234e-05 0.00020996665
000020 1d 79 1b b9 ca f9 4a 39 dd 81 e1 b8 6f 6a 89 b7
       -0.0001482707 0.00019357275 -0.00010753025 -1.6381235e-05
000030 ee f7 87 b9 e2 08 3c 39 4e 2e 34 ba 86 f8 83 39
       -0.0002593393 0.00017932386 -0.0006873355 0.00025171431
000040 8f 77 2b ba 38 7b fc 39 0b 1a 8a 38 91 6f 0f 39
       -0.0006540948 0.0004815699 6.585204e-05 0.00013679104
000050 a6 86 7e b9 4a 43 2b ba 1a e7 34 3a e8 61 db ba
       -0.00024273488 -0.0006533159 0.0006900892 -0.0016737552
000060 26 17 86 3a ba 54 85 38 6d e2 5f ba be f8 01 3b
       0.0010230287 6.357716e-05 -0.0008540515 0.00198321
000070 80 c1 62 ba 36 75 64 ba 58 a2 56 38 1b 41 51 39
       -0.00086500496 -0.00087149756 5.117277e-05 0.00019956047
000080 95 27 8c 3a a7 09 5c b9 40 ba 8b b9 23 ee d6 b9
       0.0010692949 -0.00020984431 -0.00026650913 -0.00040994686
000090 bd 1c fe 39 55 a7 da 39 3c 93 26 ba c5 38 3d b9
       0.00048468067 0.00041704872 -0.0006354337 -0.00018045593
0000a0 92 17 ff b9 11 87 47 39 14 9c 2a 39 48 76 22 39
       -0.0004865495 0.00019028435 0.00016270607 0.00015493587
0000b0 7d 2f 3b 39 46 00 43 ba 4e 43 b2 37 90 05 47 39
       0.000178514 -0.00074387004 2.1250595e-05 0.00018980191
0000c0 7d 9b 91 38 37 e4 31 39 fc 05 0b b9 de 4d 44 39
       6.943101e-05 0.00016965052 -0.00013258302 0.00018721024
0000d0 22 87 3b b8 a9 8e 8f 38 31 46 5e ba 1c 94 bf 38
       -4.4710127e-05 6.845344e-05 -0.0008479087 9.135177e-05
0000e0 07 06 c3 38 ac 3b 45 39 a7 d4 c0 38 d8 2c a2 b7
       9.299447e-05 0.00018809614 9.194883e-05 -1.9332787e-05
0000f0 04 5a 14 ba 00 96 85 b9 3c 47 43 39 bd db 14 39
       -0.00056591653 -0.00025479496 0.00018623186 0.00014196239
000100 2e 06 5f ba e4 4c 32 b8 cf 6c 1d 39 f1 b5 45 39
       -0.0008507696 -4.2510117e-05 0.00015013221 0.00018855162
000110 da 9a cb b8 e0 1a 11 39 d7 a1 33 39 58 76 05 39
       -9.708638e-05 0.0001383829 0.0001713106 0.00012727955
000120 aa 61 32 39 73 6e 09 b9 ef 5c 30 39 b6 da 21 39
       0.00017011786 -0.00013106484 0.00016819288 0.00015435633
000130 55 6a 21 39 1e 8d 3d 39 f2 66 2e 39 b1 40 ba 37
       0.00015393768 0.00018077015 0.00016632283 2.2203052e-05
000140 ce 16 43 39 d3 da 28 b9 0a 17 19 39 7c 3c b3 37
       0.00018605145 -0.00016103247 0.000145998 2.1366628e-05
000150 d8 31 3f 39 f4 3d 00 ba 22 5a 5e ba 9d c4 43 39
       0.00018233748 -0.0004892044 -0.0008482059 0.00018669893
000160 cc ea 9e b9 2a 02 42 39 ca 47 93 b8 bf 66 d1 b8
       -0.00030311046 0.00018502088 -7.022878e-05 -9.9850346e-05
000170 69 0e 8f 38 1b 0e d0 b8 a3 83 46 39 5d 97 06 39
       6.8214555e-05 -9.92084e-05 0.0001893179 0.00012835623
000180 84 8b 2a ba bc 9a 46 39 7a 2a a0 b9 39 70 3a 39
       -0.0006505775 0.00018940395 -0.00030549226 0.00017780148
000190 8d 8d 0a b9 2a 8e 85 b9 df b1 0c 39 1e 25 bf 38
       -0.00013213437 -0.00025473657 0.00013417703 9.114503e-05
0001a0 ce e1 39 39 f0 01 46 39 d0 58 65 38 06 70 41 39
       0.00017727094 0.00018883473 5.4680568e-05 0.00018447646
0001b0 be 58 45 39 24 60 48 39 b2 a4 5e ba 74 cf 0b 39
       0.00018820443 0.00019109302 -0.00084931694 0.00013333355
0001c0 4d 3c 47 39 b6 fe 09 b9 f9 bb 3e 39 32 b7 0c 39
       0.00019000583 -0.00013160225 0.00018189837 0.00013419686
0001d0 22 6d 85 b9 a1 80 47 39 09 42 41 39 1e 2c 5e ba
       -0.00025449047 0.00019026037 0.00018430514 -0.0008475202
0001e0 58 c1 40 39 c3 87 08 39 30 e1 49 39 1e 3e 14 ba
       0.00018382573 0.00013020546 0.00019252743 -0.0005655008
0001f0 78 8e 40 39 98 16 94 b8 de cc 45 39 3b ce 05 39
       0.0001836362 -7.061398e-05 0.00018863703 0.00012760695
000200 f2 7d 26 39 94 34 45 39 b7 26 44 39 74 f5 84 b9
       0.00015877912 0.00018806971 0.00018706439 -0.0002535988
000210 10 4d 23 39 53 2a 9f b9 62 c2 dc b9 62 e1 46 39
       0.000155736 -0.00030358377 -0.00042106496 0.00018966713
000220 4e 4f 2a ba dc 27 1f 38 57 34 2e 39 ac a7 d6 38
       -0.00064968027 3.7945676e-05 0.00016613431 0.000102355465
000230 bb c9 40 39 b9 1f 1d 39 3b 67 5c b9 1a 83 fd 38
       0.00018385697 0.00014984504 -0.00021019291 0.000120884
000240 24 ec 37 39 1e 65 c0 38 89 5c 11 39 c3 e9 3f 39
       0.00017540209 9.174108e-05 0.0001386275 0.00018302262
000250 c5 72 93 b8 56 2b 14 ba b3 90 84 b9 d7 5f 45 39
       -7.030884e-05 -0.00056522095 -0.0002528481 0.00018823087
000260 41 c7 f9 38 1f f3 dc b9 2f d2 3c 39 d7 6f 2f 39
       0.00011910359 -0.0004214281 0.00018007377 0.00016730964
000270 88 39 bc b9 76 6c 3f 39 6d d3 45 39 e0 42 14 ba
       -0.00035901018 0.00018255584 0.00018866146 -0.0005655717
000280 31 5b 8e 38 22 84 45 39 8f aa 29 39 a7 ea 4e 39
       6.7880734e-05 0.00018836607 0.00016180634 0.00019733106
000290 4c c2 92 b8 a7 b6 33 39 4f 16 93 b8 29 e6 38 39
       -6.998013e-05 0.00017138814 -7.0136615e-05 0.00017633349
0002a0 9e 1d 2a ba e0 64 d6 38 bb 73 36 39 cf 5a 34 39
       -0.00064893987 0.000102231046 0.00017399986 0.00017199967
0002b0 12 e5 43 39 60 c5 43 39 43 49 47 39 19 15 dd b9
       0.00018681985 0.00018670177 0.00019005411 -0.00042168124
0002c0 4e 93 22 38 20 a9 bc b9 8a a0 f9 38 5c c4 44 39
       3.8760998e-05 -0.00035984162 0.00011903148 0.00018765166
0002d0 96 ff 46 39 71 cf fb 38 1b 70 2a ba a8 51 46 39
       0.00018977965 0.00012007252 -0.00065016904 0.00018913171
0002e0 71 2b d4 38 54 2a 00 ba 32 20 39 39 30 a0 44 39
       0.00010117039 -0.000488912 0.00017654969 0.00018751691
0002f0 30 43 33 39 02 8c 44 39 8c 80 31 b9 45 b6 bb b9
       0.000170958 0.00018744174 -0.00016927923 -0.0003580322
000300 04 a4 b8 b7 3c 91 5e ba 57 09 b3 b7 ac 80 49 39
       -2.2010885e-05 -0.00084902695 -2.1342812e-05 0.00019216788
000310 06 73 23 38 92 9c a6 b7 fc 2a 5b 38 cc cb 10 39
       3.8969352e-05 -1.986165e-05 5.22537e-05 0.0001380883
000320 9f 35 2d 39 1f 18 1e 39 25 31 43 39 c0 4d 5e ba
       0.00016518541 0.0001507704 0.00018614957 -0.00084802136
000330 7d 18 4c 39 dc 3b 9f b9 f1 af 36 b8 67 52 37 b9
       0.00019464079 -0.00030371442 -4.355604e-05 -0.00017482937
000340 dc 0f 04 39 90 1d 75 38 61 ac 0b ba 4c c5 87 36
       0.00012594409 5.8440084e-05 -0.00053281157 4.046282e-06
000350 88 fb 6f b8 34 f7 fd 37 10 53 25 39 6a 8c 52 b8
       -5.7216297e-05 3.0275063e-05 0.0001576657 -5.0198672e-05
000360 5d 4c 97 38 4e b1 9a b9 18 ab 26 b8 8b 38 68 ba
       7.214465e-05 -0.0002950527 -3.9736828e-05 -0.0008858523
000370 3b fb 0e 3a aa c0 30 ba 1a c4 b5 39 6d 63 15 39
       0.00054543064 -0.00067425764 0.00034669117 0.00014246786
000380 72 70 e6 38 32 1d 78 b9 37 04 6f ba fc c6 6c 3a
       0.00010988199 -0.00023661999 -0.00091177545 0.00090323365
000390 06 f2 07 bb cf e2 9d 3a aa 1d 0a b8 6d d5 25 ba
       -0.0020743622 0.0012045744 -3.292939e-05 -0.00063260534
0003a0 7a f4 08 3b 39 17 67 ba 9e 3e 88 ba 5c b8 e2 39
       0.0020897673 -0.0008815411 -0.0010394638 0.00043243438
0003b0 54 3a 51 b9 75 9c 9a 3a 37 99 ba b9 04 b7 61 38
       -0.00019953522 0.0011795895 -0.00035590839 5.3814627e-05
0003c0 e9 15 b1 b9 a6 1f 00 3a 3b 69 aa 39 1f ad 39 ba
       -0.00033776395 0.00048875285 0.0003250333 -0.0007082987
0003d0 08 69 5f b9 a0 3c cd 38 bb 65 2a ba 8f 24 14 ba
       -0.00021306064 9.786454e-05 -0.00065001444 -0.00056511996
0003e0 ab 8f 26 39 fb 24 85 b9 99 ce 1e 39 97 3e 20 38
       0.00015884514 -0.0002539529 0.00015145018 3.8205264e-05
0003f0 cd fb 42 ba 6b 6d 3a 39 5a 40 27 39 e7 36 3a 39
       -0.0007438034 0.00017779104 0.00015950334 0.00017758795

exp_avg_sq f4 [100, 41]
000000 32 32 09 36 65 6d a6 33 15 c2 97 33 36 55 fc 33
       2.0443808e-06 7.749876e-08 7.066789e-08 1.1750164e-07
000010 72 a1 98 34 29 4e 4b 35 93 d9 e4 35 71 cc 36 36
       2.8429673e-07 7.573713e-07 1.7050646e-06 2.7239114e-06
000020 71 07 4f 36 14 1a 50 36 3c 93 5e 36 c2 b7 76 36
       3.0849735e-06 3.1009595e-06 3.316628e-06 3.6763818e-06
000030 fb 5c a4 36 3e 23 a5 36 d3 ec c1 36 cb 6a d9 36
       4.898405e-06 4.921486e-06 5.779418e-06 6.4795363e-06
000040 cb 59 de 36 0f f8 d2 36 ac 71 d9 36 03 de f5 36
       6.626569e-06 6.2873655e-06 6.480337e-06 7.3274146e-06
000050 45 58 f5 36 f6 1f 02 37 59 60 08 37 b3 39 10 37
       7.311845e-06 7.756045e-06 8.128664e-06 8.596503e-06
000060 5a a5 14 37 2c 16 12 37 45 20 1c 37 cf 79 27 37
       8.859986e-06 8.70744e-06 9.305838e-06 9.982336e-06
000070 11 8d 24 37 23 aa 1d 37 5a 38 26 37 ed 17 31 37
       9.808006e-06 9.397542e-06 9.907491e-06 1.0555593e-05
000080 8f bd 3c 37 1d f0 30 37 87 02 26 37 f6 b8 31 37
       1.1249808e-05 1.0546323e-05 9.8949595e-06 1.0593087e-05
000090 18 43 29 37 d4 b2 28 37 60 45 2f 37 d1 aa 59 37
       1.0088806e-05 1.0055217e-05 1.04469655e-05 1.2973979e-05
0000a0 39 ab b2 37 85 57 03 36 4c 9e 05 36 6c f0 05 36
       2.1298985e-05 1.9571464e-06 1.9910685e-06 1.9958488e-06
0000b0 b0 ca 04 36 e1 d8 09 36 00 a9 07 36 db 60 03 36
       1.9787512e-06 2.054083e-06 2.0214939e-06 1.9576898e-06
0000c0 0c 45 07 36 db 54 05 36 04 73 08 36 ac c6 03 36
       2.0156758e-06 1.9867937e-06 2.0332527e-06 1.9636163e-06
0000d0 d1 f6 07 36 4f 33 07 36 a4 e9 09 36 d8 e2 06 36
       2.0260234e-06 2.0146433e-06 2.0550588e-06 2.0099596e-06
0000e0 ba eb 06 36 30 5c 03 36 43 f4 06 36 bd e3 07 36
       2.0104767e-06 1.9574181e-06 2.0109735e-06 2.0249129e-06
0000f0 5d 73 09 36 2f bc 08 36 81 c6 03 36 79 0c 06 36
       2.048174e-06 2.0375116e-06 1.9636066e-06 1.9974816e-06
000100 82 e7 09 36 7a db 07 36 0a dd 05 36 8f 0c 03 36
       2.0549346e-06 2.024432e-06 1.9947206e-06 1.9527831e-06
000110 46 2b 08 36 30 0b 06 36 0b e3 04 36 cb 5c 06 36
       2.0290768e-06 1.9974068e-06 1.980169e-06 2.0021569e-06
000120 50 35 05 36 7a 1e 08 36 a9 fa 04 36 21 be 05 36
       1.9849576e-06 2.028332e-06 1.9815436e-06 1.9929214e-06
000130 46 aa 05 36 ad 9f 04 36 45 c0 05 36 77 94 08 36
       1.9917657e-06 1.9762476e-06 1.993046e-06 2.0351997e-06
000140 7b f8 05 36 9a e6 0c 36 e0 2c 06 36 ca b5 07 36
       1.996318e-06 2.0995853e-06 1.9993677e-06 2.0222383e-06
000150 8d 5e 04 36 2f 69 09 36 99 f9 09 36 88 db 03 36
       1.9724569e-06 2.0475816e-06 2.0559876e-06 1.9648305e-06
000160 7e f7 08 36 c1 0b 04 36 ed 18 08 36 a0 45 08 36
       2.0409639e-06 1.9676374e-06 2.0280088e-06 2.0306106e-06
000170 77 46 07 36 b9 43 08 36 4d 3f 03 36 f9 56 06 36
       2.0157584e-06 2.0305e-06 1.9557367e-06 2.001818e-06
000180 0a a7 09 36 aa 62 03 36 c7 e3 08 36 c8 95 04 36
       2.051182e-06 1.9577951e-06 2.0398163e-06 1.9756717e-06
000190 ec 5a 08 36 2f b3 08 36 a8 46 06 36 93 e2 06 36
       2.0318503e-06 2.0369878e-06 2.0008683e-06 2.009944e-06
0001a0 d0 b8 04 36 38 15 03 36 0c 51 07 36 05 ff 03 36
       1.9777108e-06 1.9532872e-06 2.0163743e-06 1.9668962e-06
0001b0 91 77 03 36 21 3b 03 36 ad d0 09 36 b5 2b 06 36
       1.9590118e-06 1.9554939e-06 2.0536056e-06 1.9992997e-06
0001c0 42 19 03 36 af 21 08 36 f1 5d 04 36 4e 2f 06 36
       1.9535223e-06 2.0285186e-06 1.9724214e-06 1.999509e-06
0001d0 39 8e 08 36 c1 0d 03 36 7d 3b 04 36 4e 72 0a 36
       2.0348364e-06 1.9528527e-06 1.970416e-06 2.0630137e-06
0001e0 d4 47 05 36 62 33 08 36 27 58 08 36 ea b0 09 36
       1.9860354e-06 2.0295488e-06 2.031689e-06 2.0517568e-06
0001f0 ea 47 04 36 8f 31 08 36 d6 8b 03 36 6b 7a 06 36
       1.9711392e-06 2.0294426e-06 1.9601916e-06 2.0038813e-06
000200 64 a8 05 36 eb a5 03 36 78 b4 03 36 e7 d9 08 36
       1.991656e-06 1.9617098e-06 1.9625568e-06 2.0392415e-06
000210 8b b6 05 36 8d 01 09 36 f1 29 09 36 58 20 03 36
       1.9924798e-06 2.0415494e-06 2.0439004e-06 1.9539348e-06
000220 7d 90 09 36 0f 74 07 36 4a 4a 05 36 89 af 06 36
       2.0498694e-06 2.0184123e-06 1.9861786e-06 2.006973e-06
000230 a1 28 04 36 60 ee 05 36 24 a8 08 36 e6 85 06 36
       1.9693182e-06 1.9957297e-06 2.036345e-06 2.0045495e-06
000240 93 ba 04 36 2a f0 06 36 12 ff 05 36 00 50 04 36
       1.9778133e-06 2.010735e-06 1.9967015e-06 1.97161e-06
000250 bc 0b 08 36 98 6b 09 36 25 b0 08 36 5d 54 03 36
       2.027241e-06 2.0477219e-06 2.0368109e-06 1.9569627e-06
000260 6d 74 06 36 de 28 09 36 1d 6a 04 36 30 28 05 36
       2.0035325e-06 2.0438379e-06 1.9731299e-06 1.9841937e-06
000270 a8 fd 08 36 42 0b 04 36 fc 64 03 36 d3 bd 09 36
       2.0413227e-06 1.9676086e-06 1.9579302e-06 2.0525083e-06
000280 79 9b 07 36 e2 b5 04 36 e1 4f 07 36 ae b0 07 36
       2.0207065e-06 1.9775403e-06 2.0163063e-06 2.0219409e-06
000290 f5 4d 08 36 51 26 05 36 22 44 08 36 3e de 04 36
       2.0310956e-06 1.9840847e-06 2.0305238e-06 1.9798895e-06
0002a0 b4 aa 09 36 71 dc 06 36 55 03 05 36 b6 0c 05 36
       2.0513953e-06 2.009587e-06 1.9820484e-06 1.9825943e-06
0002b0 9f e1 03 36 a1 d9 03 36 23 0e 03 36 5b 2d 09 36
       1.965185e-06 1.9647198e-06 1.952875e-06 2.0440991e-06
0002c0 98 6f 07 36 cd 1c 09 36 ba 74 06 36 9a c1 03 36
       2.0181524e-06 2.0431355e-06 2.00355e-06 1.9633212e-06
0002d0 23 1c 03 36 f7 75 06 36 5c 83 09 36 17 8f 03 36
       1.95369e-06 2.003622e-06 2.0491052e-06 1.960381e-06
0002e0 01 b4 06 36 bf 4c 09 36 d2 c9 04 36 39 45 03 36
       2.0072332e-06 2.0459263e-06 1.9787008e-06 1.9560814e-06
0002f0 21 42 05 36 72 70 03 36 73 6d 08 36 7c df 08 36
       1.9857036e-06 1.9585973e-06 2.0329287e-06 2.0395664e-06
000300 fe e5 07 36 37 cc 09 36 87 d5 07 36 72 f4 02 36
       2.025044e-06 2.053346e-06 2.0240857e-06 1.9513795e-06
000310 15 4f 07 36 b8 a1 07 36 e9 3d 07 36 84 18 06 36
       2.01626e-06 2.02107e-06 2.0152604e-06 1.9981826e-06
000320 cb 97 05 36 a4 4c 06 36 96 1f 05 36 cd cd 0b 36
       1.99069e-06 2.0012167e-06 1.983693e-06 2.0832406e-06
000330 5f e3 07 36 3c 0f 09 36 96 0e 13 34 29 1f 0c 34
       2.0248915e-06 2.0423458e-06 1.3695748e-07 1.3049852e-07
000340 3c e3 c9 34 e0 ae 64 35 ce 68 03 36 57 50 77 36
       3.7604502e-07 8.5191095e-07 1.9581526e-06 3.6852632e-06
000350 d2 95 b7 36 98 71 bf 36 51 e6 b6 36 04 03 ba 36
       5.4712664e-06 5.7054676e-06 5.450835e-06 5.543583e-06
000360 5b 81 c1 36 48 3f ef 36 cc d4 eb 36 53 1d 09 37
       5.766907e-06 7.130122e-06 7.0283186e-06 8.172664e-06
000370 37 bf 1e 37 55 5b 27 37 4c 4b 25 37 cf 0d 2b 37
       9.462055e-06 9.975241e-06 9.852298e-06 1.0195609e-05
000380 b8 ed 3e 37 d6 a6 3e 37 fc ab 4c 37 3c 24 51 37
       1.1380231e-05 1.1363727e-05 1.2199391e-05 1.2465807e-05
000390 59 7b 62 37 4c 30 62 37 f1 bd 51 37 5c 75 48 37
       1.3499369e-05 1.3481895e-05 1.2501595e-05 1.1948254e-05
0003a0 de 01 4b 37 fb 5b 4d 37 3f 3c 42 37 f1 25 4a 37
       1.2100178e-05 1.2240368e-05 1.1577328e-05 1.2048972e-05
0003b0 6d 86 59 37 f5 4c 5f 37 75 99 55 37 52 7e 4f 37
       1.2965506e-05 1.3309754e-05 1.2731519e-05 1.2367573e-05
0003c0 6a e2 54 37 dc 8e 4d 37 ab 3b 46 37 00 25 4c 37
       1.2688901e-05 1.2252214e-05 1.1815612e-05 1.2167962e-05
0003d0 03 3a 7d 37 4c ca c2 37 a0 d4 09 36 ca 8d 09 36
       1.5093482e-05 2.3220804e-05 2.0538355e-06 2.0497123e-06
0003e0 e1 a4 05 36 23 ea 08 36 7d e9 05 36 e8 87 07 36
       1.9914517e-06 2.0401865e-06 1.9954452e-06 2.0195675e-06
0003f0 80 dc 09 36 54 c1 04 36 51 a8 05 36 17 b4 04 36
       2.0542939e-06 1.9782065e-06 1.9916517e-06 1.9774359e-06
