test/test_results/triplets/results/model/model_epoch0265.tar (torch, 68436 bytes, 3 tensors)

fc.weight f4 [100, 41]
000000 a5 41 e8 39 f1 5b 21 40 61 7a 1d 40 13 14 1b 40
       0.00044299397 2.5212367 2.4605944 2.4231002
000010 41 bf 11 40 cf f8 0c 40 9a 3c 05 40 6f c0 fb 3f
       2.2772982 2.202686 2.0818238 1.9668101
000020 1d ad f2 3f c3 f0 eb 3f 27 9c d8 3f e2 0b cd 3f
       1.895908 1.843285 1.6922654 1.6019251
000030 45 3b c0 3f 65 a6 b7 3f f6 60 ae 3f 3f 2e a2 3f
       1.5018088 1.4347655 1.362334 1.2670363
000040 2d 2d 9d 3f c9 65 93 3f f4 c6 8c 3f 1e 4d 91 3f
       1.2279412 1.1515437 1.0998216 1.1351659
000050 55 fe 8b 3f f2 ba 88 3f c9 f8 8c 3f 72 71 8d 3f
       1.0936991 1.0682051 1.1013423 1.1050246
000060 5d a9 87 3f 5d 39 8d 3f 53 a5 86 3f 57 60 8b 3f
       1.059856 1.1033131 1.0519203 1.0888776
000070 ce bd 83 3f 0f 73 76 3f e0 87 84 3f 53 c3 5b 3f
       1.0292299 0.96269315 1.0353966 0.85844916
000080 87 38 50 3f 1c 55 34 3f 1e 0e 21 3f c4 a2 ec 3e
       0.81336254 0.70442367 0.62912166 0.4621793
000090 d3 9a 00 3f bf d2 34 3e 76 d2 bb 3d 00 4f 46 3d
       0.50236243 0.17658518 0.091710016 0.048415184
0000a0 0a 56 25 39 0a ea cb 3a cf 43 df 39 5d 2b f1 3a
       0.00015767678 0.001555742 0.00042584396 0.0018399764
0000b0 f2 05 95 3a 3f 57 6f 3b 7d 88 a1 3b 13 c6 d2 3b
       0.001136957 0.0036520509 0.0049296007 0.0064323037
0000c0 a2 f6 55 3c 8d 02 b2 3d cd 03 54 3e fe 23 72 3e
       0.01305929 0.08691893 0.20704575 0.23646542
0000d0 2f 5d 97 3e 0f f6 99 3e 5a 1b 63 3e ad 54 39 3e
       0.2956328 0.3007054 0.22178403 0.18098707
0000e0 21 3f 15 3e f2 23 7c 3a 93 e1 5a 3a ff 1e 06 3b
       0.14574863 0.00096183934 0.0008349653 0.0020465252
0000f0 8c cc 66 3b 7c d1 94 3a 70 43 2d 3b 48 8e 0d 3a
       0.0035217134 0.0011353935 0.00264379 0.00053999247
000100 16 3a 47 3b 48 96 95 39 8b be 48 3a aa 9e 3d 3b
       0.0030399612 0.00028531463 0.00076577876 0.0028933682
000110 85 8b 0b 3a 52 81 7c 39 8e ce 5d 3b fb bf 32 3b
       0.0005323219 0.00024080768 0.003384504 0.0027275074
000120 57 1a 1e 3b ec ef 05 3b 10 13 2e 3b 46 8a 42 3b
       0.0024124586 0.0020437194 0.0026561655 0.0029684468
000130 54 a8 84 3a 86 b6 1c 3a 7e 36 24 3b 9d 32 51 3b
       0.0010120966 0.0005978126 0.0025056894 0.0031921037
000140 92 80 63 3b f1 a8 e7 3a 45 8f 6f 3b b3 0f 82 3b
       0.0034714085 0.001767425 0.00365539 0.0039691566
000150 67 7c 59 3a ee b9 82 3b 7c b1 06 3b 61 22 53 3a
       0.00082964305 0.0039894497 0.0020552566 0.0008054134
000160 a5 69 8e 3b f2 8d e1 b8 2a 73 91 3b db 7f c7 3b
       0.00434609 -0.000107552754 0.0044387775 0.0060882396
000170 5e f0 13 3d ad 50 22 3e 9b 56 64 3e d3 cb 3f 3e
       0.036117904 0.15851088 0.22298662 0.18730097
000180 8c 56 38 3e c9 d6 48 3e 89 28 1f 3e 03 e9 fe 3d
       0.18001765 0.19613184 0.15542807 0.12446787
000190 36 e4 ae 3c f4 31 81 3d 47 fb 89 3c f2 07 1e 3b
       0.021349054 0.06308356 0.016843451 0.0024113622
0001a0 6b 98 87 3b 70 9e 8a 3b 04 42 17 3a ae d0 5a 3b
       0.0041380427 0.004230313 0.000577003 0.0033388543
0001b0 92 26 4a 3b f3 fd 65 3b f7 be 3e 3b 30 66 86 39
       0.0030845744 0.0035093992 0.0029105523 0.00025634607
0001c0 8c 13 71 3b 59 26 1e 3b d9 a6 3e 3b a7 ba 57 3b
       0.0036785332 0.0024131744 0.0029091148 0.003291765
0001d0 8c ed 6f 3b 6e 27 60 3b 78 62 13 3b 2f fd 64 3b
       0.0036610095 0.003420319 0.0022489112 0.0034940948
0001e0 20 7e bc 37 2c 87 85 3b d8 89 24 3a 83 ee 73 3a
       2.2470078e-05 0.0040749516 0.0006276644 0.00093052554
0001f0 e3 a3 af 3a 85 16 6b 3b b6 9a f7 39 d9 2f 49 3b
       0.0013400282 0.0035871577 0.0004722678 0.0030698685
000200 65 84 1f 3b 41 98 43 39 b0 57 f4 39 5e ad 75 3b
       0.0024340388 0.00018653368 0.0004660464 0.0037487368
000210 3b ee ee 3a 92 d1 74 3b ab cd 75 3b 6a 6d 53 3b
       0.0018228957 0.003735636 0.003750662 0.003226126
000220 61 f4 72 3b a7 66 29 3b 04 59 0f 3a 92 4a e9 3a
       0.003707193 0.002584854 0.00054682815 0.0017798713
000230 28 67 13 3b 45 aa 70 3a df 2f 65 3b 79 b3 b4 3a
       0.0022491906 0.00091806456 0.003497116 0.0013786397
000240 97 e5 14 3b c0 e9 0a 3b 6b 6c f1 39 d9 1c 26 3b
       0.0022719854 0.0021196455 0.0004604788 0.0025346784
000250 f8 31 28 3b 28 e8 69 3b 5c 4b 47 3b 67 bc 71 3b
       0.002566455 0.0035691354 0.0030409908 0.0036885978
000260 61 16 75 3a 20 8c 66 3b c3 c7 58 3b 5e bc 51 3b
       0.0009349343 0.0035178736 0.0033078052 0.0032003145
000270 85 20 5a 3b d1 84 26 3b d3 eb 4c 39 33 f0 db 3a
       0.0033283543 0.0025408755 0.00019542807 0.0016779959
000280 ed 20 68 3b 98 9d a6 39 68 ae fe 3a 1b 5f f2 3a
       0.0035420016 0.00031779404 0.0019430639 0.0018491478
000290 26 96 c6 3a 39 13 10 3b 10 bc 55 3b e8 d5 01 3b
       0.0015150949 0.0021984114 0.0032613315 0.0019811336
0002a0 33 24 cb 3a ce 70 53 3b 35 91 d6 3a 6f 11 95 3a
       0.0015498459 0.0032263282 0.0016370179 0.0011372993
0002b0 f0 20 15 3a 24 f5 b1 b8 e2 57 35 3b ef 13 6f 3b
       0.0005688807 -8.485679e-05 0.002767079 0.0036480387
0002c0 11 0f 30 3b ee a6 6d 3b 23 56 f1 3a be 18 43 3b
       0.002686445 0.0036262828 0.0018412512 0.0029769386
0002d0 64 bd 56 3b 6f cb df 3a 7c 37 73 3b 77 9f 45 3b
       0.0032766694 0.0017074178 0.0037111929 0.0030154863
0002e0 07 e6 c0 3a 10 f6 69 3b df 7b 08 3a 98 97 6d 3b
       0.0014716991 0.0035699643 0.00052064465 0.0036253687
0002f0 f6 01 17 3a 9d 9a 6d 3b f3 c4 2f 3b e7 19 3e 3b
       0.0005760485 0.0036255487 0.0026820272 0.0029007138
000300 95 ed 3e 3b b7 bf 6c 3b c4 cc 26 3b 0b 84 62 3b
       0.002913331 0.0036125013 0.002545164 0.0034563567
000310 4d a4 99 3a 83 9b e9 3a fc 89 14 3b a9 fa 39 3b
       0.0011721939 0.0017822835 0.0022665253 0.0028378165
000320 0c 6c 6e 3b 26 34 2f 3b 84 54 56 3a 30 d8 65 3b
       0.003638032 0.0026733964 0.0008176046 0.0035071485
000330 b4 8c 7c 3a 6c 3a 9e 39 68 0c 51 40 9c 95 46 40
       0.00096340035 0.00030179636 3.2663822 3.1028814
000340 8e e9 29 40 e7 80 1e 40 13 ff 15 40 bb dd 0b 40
       2.65488 2.4766176 2.3436935 2.1854084
000350 38 2f 02 40 dd e8 f0 3f 78 b0 ed 3f 72 cd de 3f
       2.034132 1.8821064 1.8569479 1.7406447
000360 af af d5 3f da e9 c9 3f 47 b0 c0 3f c2 7b ba 3f
       1.6694239 1.5774491 1.5053796 1.4569018
000370 95 a7 ae 3f 01 1f ad 3f 3b 2a a3 3f 46 99 a1 3f
       1.3644892 1.3525087 1.2747263 1.26249
000380 49 68 9f 3f 18 94 9c 3f 69 50 92 3f 7a 2e 9a 3f
       1.24537 1.2232695 1.1430789 1.2045434
000390 5e a2 93 3f a3 fd 86 3f f1 45 83 3f a9 6a 6d 3f
       1.1533926 1.0546154 1.025572 0.92740875
0003a0 b9 2e 83 3f 09 a9 73 3f c9 6d 6f 3f 3a 55 73 3f
       1.0248634 0.951798 0.93526894 0.9505192
0003b0 c3 1a 54 3f e0 2d 57 3f 9e 6e 38 3f 4f f2 14 3f
       0.82853335 0.84054375 0.7204379 0.58182234
0003c0 9d 71 ee 3e 89 6d ea 3e 79 ed 5e 3e b9 85 0a 3e
       0.46571055 0.45786694 0.21770276 0.13527574
0003d0 30 9d 95 3d 12 9e 96 b9 76 88 8b 3a f0 ee 52 3b
       0.07305372 -0.00028728 0.0010645527 0.0032185875
0003e0 f7 3c 8a 3b 87 92 61 3b 12 e8 6a 3b 27 37 54 39
       0.0042186934 0.0034419612 0.003584389 0.00020238441
0003f0 68 43 cf 37 69 2c 8f 3a 85 5d 4c 3b f6 fa 7e 3b
       2.4707711e-05 0.001092327 0.0031183672 0.0038906909

exp_avg f4 [100, 41]
000000 55 a4 45 39 80 b3 3c b4 88 58 ba 36 77 0f fd 37
       0.00018848602 -1.7574166e-07 5.5535384e-06 3.0167152e-05
000010 98 c0 f9 b8 cb 8a c6 37 70 47 59 38 22 02 a6 b9
       -0.000119091186 2.366807e-05 5.1803363e-05 -0.00031663576
000020 98 93 ec 37 18 0d ec 39 c1 13 57 b9 e7 9b 07 ba
       2.8202121e-05 0.00045023183 -0.00020511357 -0.00051730726
000030 3e 5f 37 39 50 9f 91 b9 02 48 ee 38 4c 69 88 b9
       0.0001748772 -0.00027775252 0.00011362137 -0.00026018394
000040 ed 0e ae b9 73 ce 05 39 16 88 0b b9 dc 5c 3c ba
       -0.00033198987 0.00012760777 -0.00013306769 -0.0007185468
000050 1a e7 0a 39 0d 06 ab b9 80 bc bb 39 d9 46 74 b8
       0.00013246798 -0.0003262017 0.00035807863 -5.8240115e-05
000060 a6 6d 29 ba 81 93 9f 39 21 8e de 39 57 60 27 ba
       -0.0006463177 0.00030436742 0.00042449034 -0.00063849
000070 60 f8 71 ba c8 b0 fa b8 1a b7 41 ba 1f 90 76 3a
       -0.0009230431 -0.00011953857 -0.000738965 0.0009405631
000080 4d 50 e6 39 fd 2f 2c ba 96 3c de 39 85 28 16 3a
       0.00043928847 -0.000656843 0.0004238828 0.0005728084
000090 fa 55 b5 b9 82 3f 0b ba ec 0f ac 3a 0a f1 ac ba
       -0.00034587068 -0.00053118926 0.0013127304 -0.0013194394
0000a0 04 a7 eb 39 d3 6d 3c 39 85 49 45 39 d2 16 37 39
       0.0004494713 0.0001796999 0.00018814772 0.00017460741
0000b0 8b f8 41 ba 5a 29 ab b9 14 e9 c5 36 ff 96 83 38
       -0.00073994015 -0.0003264647 5.8981914e-06 6.274692e-05
0000c0 26 16 3e 39 f2 2d 4b 39 3a ee 3f 39 b8 dc 42 39
       0.00018128063 0.00019376705 0.00018303926 0.00018583506
0000d0 ac a4 38 39 08 64 31 39 72 14 16 39 59 99 13 39
       0.00017608952 0.000169173 0.00014312731 0.00014076139
0000e0 b2 16 18 39 38 8f 57 39 1b c2 3f 39 3f 27 55 39
       0.00014504304 0.00020557351 0.0001828749 0.00020327883
0000f0 bc ab 70 b9 59 b7 53 ba a2 0e bb b9 fe 8d 3a 39
       -0.0002295216 -0.0008076332 -0.00035678322 0.00017791238
000100 f8 a1 3a 39 a7 94 4c 39 1c 4e 3e 39 a6 0e e7 b8
       0.0001779868 0.00019510333 0.0001814891 -0.00011017667
000110 b6 7f 0d 39 be 96 35 39 bb 9b 20 39 ce c1 ca 38
       0.00013494384 0.00017317661 0.00015316803 9.6682095e-05
000120 7e c1 88 b9 48 98 29 39 39 be 72 38 bf 9a b4 38
       -0.00026084104 0.00016173825 5.7874455e-05 8.6118926e-05
000130 99 bc 80 39 ad 28 4a 39 ad 4f e0 b9 24 a7 b6 38
       0.0002455458 0.00019279374 -0.00042783972 8.709569e-05
000140 03 e4 e0 38 e4 b3 1e 39 ea d2 21 38 f8 41 4d 38
       0.00010723623 0.00015135069 3.858182e-05 4.8937247e-05
000150 85 95 35 39 4e 0a e2 b8 4c af 14 ba 13 f2 3a 39
       0.00017317205 -0.00010778439 -0.0005671873 0.00017828522
000160 cf 6b 98 b8 d6 06 41 39 80 d7 07 39 38 93 12 39
       -7.268006e-05 0.00018408461 0.00012954883 0.00013978488
000170 6d c3 3d 39 ae 50 3d 39 e2 f9 35 39 fb 19 24 39
       0.00018097246 0.000180545 0.00017354594 0.00015649937
000180 77 2b 1d 39 bf 54 31 39 6f 5a 59 39 bb ab 55 39
       0.00014988879 0.00016911606 0.00020728422 0.00020377238
000190 ef 15 42 39 0a fb 27 39 d8 90 1b 39 a4 73 39 39
       0.00018509453 0.0001601988 0.0001483591 0.00017686054
0001a0 5c 2f da b8 36 7e 8c b8 06 22 67 ba 38 1b 79 b9
       -0.000104038714 -6.699229e-05 -0.00088170206 -0.0002375663
0001b0 32 02 27 b9 b5 2e d2 38 d8 9a 2a 38 6f 3b 65 39
       -0.00015927179 0.0001002228 4.0675368e-05 0.00021861283
0001c0 1c 86 16 b8 5d 1c 74 39 24 0e 44 b9 d6 63 74 b9
       -3.5887686e-05 0.0002328022 -0.00018697284 -0.00023306845
0001d0 86 34 47 38 cc 84 39 b9 6f 37 3c 39 be 99 0d b8
       4.7494214e-05 -0.00017692446 0.00017949728 -3.3760203e-05
0001e0 10 8d 6c 39 64 f0 fe b8 35 84 5c 39 a4 fe 41 39
       0.00022559264 -0.0001215644 0.00021030086 0.00018500775
0001f0 45 ae 3d 39 38 74 0b b9 f0 dd 44 39 b9 ff 05 39
       0.00018089365 -0.00013299368 0.00018774695 0.00012779133
000200 93 2c 2b 39 35 0e 46 39 c2 66 5e ba bf 4c a8 b7
       0.00016324436 0.00018888044 -0.000848394 -2.0062898e-05
000210 20 88 38 39 7f 80 a7 b7 56 9b ac b7 7a 96 85 b9
       0.00017598318 -1.9967787e-05 -2.0576332e-05 -0.0002547985
000220 f5 23 a9 b7 a2 83 22 39 b6 b3 42 39 78 7b 37 39
       -2.0163114e-05 0.00015498561 0.0001856823 0.00017498236
000230 36 4a 00 ba 9c 47 43 39 ca 17 be 38 c3 03 3e 39
       -0.0004893871 0.00018623326 9.064337e-05 0.00018121213
000240 69 a6 00 ba a3 d4 31 39 ce 3b 45 39 67 a6 dd b9
       -0.00049076095 0.00016959249 0.00018809663 -0.00042276384
000250 fa fe 22 39 85 94 8e 38 d7 5c 0b 39 32 11 98 b8
       0.0001554451 6.7987516e-05 0.00013290659 -7.251128e-05
000260 e9 f1 42 39 d0 e2 be 38 74 83 59 b9 d8 dd 85 b9
       0.000185914 9.102153e-05 -0.00020743703 -0.00025533023
000270 c2 82 e5 38 6c bc dc b9 82 2b 49 39 c3 71 3a 39
       0.000109439265 -0.00042102055 0.00019185062 0.00017780722
000280 03 e2 8d 38 a2 17 4b 39 d2 68 14 ba ed a0 12 ba
       6.765502e-05 0.00019368393 -0.00056613714 -0.0005593438
000290 28 4e 2a ba d8 d9 30 39 ed e2 5b b9 82 3f 33 39
       -0.00064966315 0.00016865821 -0.00020970004 0.00017094429
0002a0 c1 58 2a ba 2c 44 fa 38 04 5e 3a 39 b4 b7 3f 39
       -0.0006498211 0.00011933627 0.00017773366 0.00018283614
0002b0 62 6f 5e ba 2e 4d 48 39 23 62 bc b9 29 8d 94 b8
       -0.0008485225 0.00019102238 -0.00035931272 -7.083483e-05
0002c0 5b 0a 1e 39 28 cf 13 36 7a 1f 38 39 ea 20 9f b9
       0.00015071912 2.2025288e-06 0.00017559333 -0.00030351366
0002d0 86 c0 5b b9 c8 1b 3b 39 72 55 b5 37 1a 00 a0 b9
       -0.00020957188 0.00017844059 2.161667e-05 -0.00030517654
0002e0 21 4d 3c 39 ba 6d a7 38 e4 4c 5e ba 5c 3f d2 b8
       0.0001795781 7.983619e-05 -0.00084800855 -0.00010025382
0002f0 3e c7 5e ba fc 68 93 b8 43 00 1e 39 38 dd 17 39
       -0.00084983173 -7.029061e-05 0.00015068152 0.00014482893
000300 47 1f 11 39 2f dc 1c 38 02 03 26 39 c8 51 c0 38
       0.0001383993 3.739836e-05 0.00015832114 9.1705064e-05
000310 52 b7 3f 39 78 16 36 39 d7 55 2f 39 c4 b4 1a 39
       0.00018283472 0.00017365243 0.00016721278 0.00014753925
000320 30 95 21 38 14 82 20 39 73 2f 46 39 e5 d6 8d 38
       3.8524333e-05 0.00015307247 0.00018900428 6.763431e-05
000330 bb 72 40 ba 77 56 46 39 59 d7 cc b7 52 d2 e9 b7
       -0.0007341315 0.00018914962 -2.4418974e-05 -2.7873702e-05
000340 f8 78 36 38 e2 de 2e b9 5a 77 1c 37 b6 75 36 38
       4.3504842e-05 -0.00016676963 9.326113e-06 4.350181e-05
000350 fa 07 c6 b9 70 ea 4b b8 60 20 06 3a 44 84 65 b9
       -0.00037771446 -4.861731e-05 0.00051165186 -0.00021888415
000360 3d 86 21 ba 36 80 65 39 0a 66 a1 b9 0a e0 ed 38
       -0.00061616657 0.00021886904 -0.00030784338 0.00011342771
000370 b4 60 8e b9 c9 32 d2 b9 14 ca ac 38 e0 66 eb b8
       -0.000271564 -0.0004009216 8.239239e-05 -0.00011224835
000380 c1 1a 65 ba 79 4b 5c 39 a9 7b de b9 4c 47 f7 39
       -0.00087396434 0.0002100895 -0.00042435274 0.00047164632
000390 51 72 01 b8 fc 22 3f ba 4b ed b7 39 b3 2f 07 3a
       -3.0862462e-05 -0.0007291285 0.00035081277 0.0005156949
0003a0 48 c1 29 ba 53 84 81 ba 00 05 4b b9 24 ed 3f ba
       -0.00064756395 -0.0009881355 -0.00019361451 -0.00073214085
0003b0 ad 89 88 3a 89 d0 fd 39 9b c2 34 ba f9 68 fe 39
       0.0010417007 0.0004841129 -0.00068954536 0.00048524866
0003c0 88 64 1c 3a 73 4e bc b9 49 52 19 ba 7c 15 af 3a
       0.0005965908 -0.00035916604 -0.0005848748 0.0013357843
0003d0 df ea bc ba c6 cd 73 ba f9 d0 40 39 ca 5a 1c 39
       -0.0014413259 -0.0009300377 0.00018388395 0.00014911141
0003e0 22 16 01 37 69 fb 09 39 3f 07 19 39 47 ac 23 39
       7.694152e-06 0.00013158996 0.00014593916 0.0001560907
0003f0 17 70 2a 39 f8 2f 4b 39 48 8e e1 b9 00 eb 15 39
       0.0001625422 0.00019377458 -0.00043021352 0.00014297292

exp_avg_sq f4 [100, 41]
000000 ac b1 03 36 08 fa 9b 33 b0 ae a2 33 e3 30 79 34
       1.962394e-06 7.2632304e-08 7.575488e-08 2.3207717e-07
000010 63 dc e2 34 94 59 6b 35 69 74 ed 35 d5 1c 3c 36
       4.2256133e-07 8.7674675e-07 1.7691756e-06 2.8030965e-06
000020 ae c1 61 36 13 4e 82 36 60 05 99 36 8a d6 9d 36
       3.364035e-06 3.883391e-06 4.560381e-06 4.7039402e-06
000030 b5 72 a3 36 8b fb b7 36 fa fd c8 36 99 20 ef 36
       4.871132e-06 5.4831085e-06 5.9900312e-06 7.12655e-06
000040 7a 44 01 37 dd 85 00 37 d1 2f 08 37 60 2d 12 37
       7.704943e-06 7.660562e-06 8.117365e-06 8.712843e-06
000050 26 0b 14 37 38 84 15 37 2f a7 16 37 26 f6 18 37
       8.824083e-06 8.911877e-06 8.979622e-06 9.117217e-06
000060 74 65 21 37 6e 56 1f 37 a4 24 20 37 34 dd 21 37
       9.619969e-06 9.497262e-06 9.545274e-06 9.647851e-06
000070 f1 be 24 37 62 86 1d 37 e6 89 1a 37 8a 52 2f 37
       9.819619e-06 9.389218e-06 9.211222e-06 1.04500305e-05
000080 cd b5 31 37 90 69 2d 37 86 7b 31 37 da 2d 35 37
       1.0592351e-05 1.0336182e-05 1.0578782e-05 1.0799116e-05
000090 0d 79 30 37 04 3c 3a 37 d3 66 3f 37 c4 d0 67 37
       1.0518602e-05 1.1100437e-05 1.1408428e-05 1.381728e-05
0000a0 f6 bf c0 37 78 c9 04 36 d1 08 c0 35 86 8d ca 35
       2.2977572e-05 1.9786803e-06 1.4307681e-06 1.5091362e-06
0000b0 87 75 c8 35 60 68 c1 35 d4 8c 9e 35 38 2a 33 35
       1.4935366e-06 1.4409998e-06 1.1812904e-06 6.674413e-07
0000c0 f5 a3 c7 33 24 18 04 34 cc 88 22 34 a9 6a 5b 34
       9.296483e-08 1.230224e-07 1.5137192e-07 2.0434767e-07
0000d0 2a b2 68 34 37 1c 9a 34 fa 0f a8 34 38 c5 c0 34
       2.16715e-07 2.8705264e-07 3.1304063e-07 3.5906282e-07
0000e0 ad 58 df 34 75 cf 14 35 31 11 87 35 b3 7b d6 35
       4.1601507e-07 5.5436186e-07 1.0063287e-06 1.5980244e-06
0000f0 43 42 07 36 2a e6 0b 36 4c ee 14 36 e8 bb 18 36
       2.0155137e-06 2.0846587e-06 2.2192426e-06 2.275914e-06
000100 8e 84 12 36 77 8f 0e 36 ff 23 11 36 03 3d 17 36
       2.1832852e-06 2.1243156e-06 2.1627636e-06 2.2536267e-06
000110 fb 0c 12 36 14 c4 1a 36 5a f2 13 36 6e 09 27 36
       2.176325e-06 2.306192e-06 2.2045774e-06 2.4890428e-06
000120 1c 28 28 36 f2 7a 1d 36 dc 50 1d 36 51 3f 20 36
       2.5057298e-06 2.3466387e-06 2.344189e-06 2.3878713e-06
000130 79 51 15 36 01 33 0d 36 f9 75 14 36 b2 c6 18 36
       2.2250154e-06 2.1040325e-06 2.2122388e-06 2.276542e-06
000140 d0 4a 03 36 8c 3e 88 36 80 a3 07 36 dc 26 eb 35
       1.9564068e-06 4.0603973e-06 2.0211737e-06 1.7520174e-06
000150 60 cf dd 35 15 82 ed 35 a7 ba f1 35 ef be dc 35
       1.6526137e-06 1.7695735e-06 1.8010222e-06 1.6446846e-06
000160 13 9f c2 35 0b 5a a3 35 f7 f3 89 35 a8 f7 ee 34
       1.4500423e-06 1.2170652e-06 1.0278299e-06 4.4511148e-07
000170 e7 49 e2 33 90 7d 00 34 e8 6d 3c 34 d7 b6 5f 34
       1.0537388e-07 1.1966608e-07 1.7548848e-07 2.083501e-07
000180 aa d3 84 34 22 0f 9f 34 e2 4f bf 34 56 16 b6 34
       2.4740922e-07 2.9627068e-07 3.5634645e-07 3.3916393e-07
000190 57 38 b4 34 aa ae c5 34 0d 1c d2 34 2e ca 63 35
       3.3568605e-07 3.6821194e-07 3.9135958e-07 8.48583e-07
0001a0 17 af c0 35 44 e0 c4 35 e6 e9 e7 35 25 62 00 36
       1.4356073e-06 1.4668408e-06 1.7278915e-06 1.9130614e-06
0001b0 ca 3d 06 36 85 00 11 36 86 64 0f 36 d8 62 04 36
       2.0003522e-06 2.1606986e-06 2.1367173e-06 1.9727067e-06
0001c0 d4 e0 28 36 aa a7 18 36 a3 45 1a 36 cd 58 17 36
       2.5164818e-06 2.2747358e-06 2.2988322e-06 2.2552442e-06
0001d0 cb 52 1d 36 be 14 0f 36 76 1a 10 36 c8 a1 06 36
       2.3443015e-06 2.1320734e-06 2.1473074e-06 2.0061725e-06
0001e0 6e 3c 07 36 35 5d 07 36 63 4f 8c 36 d5 2b 04 36
       2.0151742e-06 2.0170821e-06 4.181567e-06 1.9695046e-06
0001f0 a0 80 04 36 31 71 08 36 b2 8a 03 36 92 54 06 36
       1.9744402e-06 2.0331465e-06 1.9601252e-06 2.0016782e-06
000200 a0 89 05 36 64 34 03 36 68 ce 09 36 fb c0 07 36
       1.9898653e-06 1.9551017e-06 2.0534735e-06 2.0228897e-06
000210 dd cf 04 36 a5 ca 07 36 30 c6 07 36 dd 95 08 36
       1.9790525e-06 2.0234522e-06 2.0231928e-06 2.035281e-06
000220 42 c8 07 36 36 9d 05 36 b4 70 03 36 6f 97 04 36
       2.0233133e-06 1.9910053e-06 1.9586123e-06 1.9757679e-06
000230 0a 35 09 36 d4 cc 03 36 73 c2 06 36 dd 30 04 36
       2.0445464e-06 1.9639747e-06 2.008074e-06 1.9697975e-06
000240 ca 13 09 36 2e fb 04 36 ea 64 03 36 bf 02 09 36
       2.042611e-06 1.9815739e-06 1.957926e-06 2.041619e-06
000250 e6 70 05 36 b8 e0 06 36 4b e8 05 36 3c 01 08 36
       1.988426e-06 2.009836e-06 1.9953757e-06 2.0266298e-06
000260 a3 aa 03 36 72 de 06 36 4f 6c 08 36 fe 93 08 36
       1.9619845e-06 2.0097036e-06 2.0328623e-06 2.0351722e-06
000270 26 8a 06 36 b0 1d 09 36 3c a7 03 36 9c 24 05 36
       2.004797e-06 2.0431871e-06 1.9617864e-06 1.9839854e-06
000280 fb 17 08 36 00 f8 04 36 95 34 0c 36 41 c8 0f 36
       2.0279538e-06 1.9813888e-06 2.0892232e-06 2.1425224e-06
000290 7f cc 09 36 27 57 05 36 8d b1 08 36 d4 08 05 36
       2.0533623e-06 1.9869274e-06 2.0368927e-06 1.9823683e-06
0002a0 12 a0 09 36 98 83 06 36 26 ab 04 36 13 09 04 36
       2.0507764e-06 2.0044154e-06 1.9769154e-06 1.9674815e-06
0002b0 f6 e5 09 36 13 f3 02 36 37 fc 08 36 c6 ff 07 36
       2.0548446e-06 1.9512997e-06 2.0412388e-06 2.0265447e-06
0002c0 88 9c 05 36 89 80 07 36 77 b7 04 36 ec c9 08 36
       1.9909658e-06 2.0191385e-06 1.9776323e-06 2.0383113e-06
0002d0 aa 8a 08 36 ea 93 04 36 ca 81 07 36 68 b1 08 36
       2.0346292e-06 1.975563e-06 2.0192115e-06 2.0368843e-06
0002e0 60 47 04 36 41 eb 06 36 b4 b0 09 36 42 15 08 36
       1.9711078e-06 2.0104492e-06 2.0517446e-06 2.0277953e-06
0002f0 9b b5 09 36 4b d9 07 36 e7 99 05 36 68 da 05 36
       2.05203e-06 2.0243049e-06 1.9908127e-06 1.9945674e-06
000300 db d1 05 36 a5 1d 07 36 04 76 05 36 db b7 06 36
       1.9940696e-06 2.0133823e-06 1.9887239e-06 2.0074574e-06
000310 8f e0 03 36 b9 a9 04 36 2c 34 05 36 4d 2b 06 36
       1.9651231e-06 1.9768324e-06 1.9848912e-06 1.999276e-06
000320 aa f0 07 36 5d cd 06 36 a7 90 05 36 bf a2 09 36
       2.0256653e-06 2.0087093e-06 1.9902743e-06 2.0509322e-06
000330 43 ea 0f 36 7d 8e 03 36 11 4f c2 33 f4 52 c5 33
       2.1445019e-06 1.960346e-06 9.048211e-08 9.1886164e-08
000340 b7 a0 ad 34 63 bb 1a 35 af 70 9d 35 6c 23 1a 36
       3.2340697e-07 5.7642154e-07 1.1730207e-06 2.2968406e-06
000350 a2 8d 71 36 d9 0c 8d 36 01 e5 9f 36 64 39 b9 36
       3.599424e-06 4.203623e-06 4.765229e-06 5.520111e-06
000360 9f ea bf 36 ce 27 c3 36 6d 42 de 36 68 e5 f1 36
       5.719557e-06 5.8160867e-06 6.6238485e-06 7.209066e-06
000370 cf a7 0e 37 44 85 1b 37 78 6b 1b 37 de c2 24 37
       8.5029305e-06 9.269748e-06 9.263742e-06 9.820533e-06
000380 d6 eb 30 37 22 66 32 37 ec 5d 36 37 3e f0 36 37
       1.0545327e-05 1.0633406e-05 1.0869913e-05 1.0903981e-05
000390 cb f2 3a 37 98 a8 44 37 19 e5 3f 37 53 7b 38 37
       1.1142994e-05 1.1721764e-05 1.1437828e-05 1.0995968e-05
0003a0 5a 3a 36 37 d4 50 39 37 26 6c 31 37 82 3a 2d 37
       1.0861631e-05 1.1045679e-05 1.0575202e-05 1.0325226e-05
0003b0 13 02 42 37 72 02 42 37 ac 96 3f 37 81 f5 44 37
       1.1563784e-05 1.156387e-05 1.1419568e-05 1.1739671e-05
0003c0 75 bb 47 37 52 63 41 37 01 06 4a 37 d6 33 51 37
       1.190497e-05 1.1526821e-05 1.2041536e-05 1.246944e-05
0003d0 c8 b6 81 37 8a 41 d0 37 52 4d 04 36 5a aa f0 35
       1.5463113e-05 2.4826051e-05 1.971454e-06 1.7930972e-06
0003e0 7f 7f e7 35 69 2e ee 35 18 62 ea 35 78 38 e3 35
       1.7247947e-06 1.7745889e-06 1.7462908e-06 1.6929253e-06
0003f0 5e 13 d0 35 5b 04 c8 35 e2 5b ba 35 56 3e 65 35
       1.5502844e-06 1.4902429e-06 1.3884821e-06 8.539986e-07
