test/test_results/triplets/results/model/model_epoch0250.tar (torch, 67476 bytes, 3 tensors)

fc.weight f4 [100, 41]
0	0x3b6ec6b7	0.0036434361
1	0x401f231b	2.4865177
2	0x401cb5af	2.448589
3	0x4015776e	2.3354144
4	0x400bc052	2.1836133
5	0x4006d770	2.1068993
6	0x3ffed53e	1.9908826
7	0x3ff1418f	1.8848132
8	0x3fe9172e	1.8210199
9	0x3fe1f510	1.7652912
10	0x3fcfbc36	1.6229312
11	0x3fc5cb0b	1.5452589
12	0x3fb7e995	1.4368159
13	0x3fb168d0	1.3860111
14	0x3fa759a1	1.3074228
15	0x3f9c2175	1.219771
16	0x3f97ba85	1.1853796
17	0x3f8e9280	1.1138458
18	0x3f877604	1.058289
19	0x3f8c5b86	1.0965431
20	0x3f872301	1.0557557
21	0x3f847c0c	1.0350356
22	0x3f894e15	1.0726954
23	0x3f89b3a5	1.0757948
24	0x3f84a375	1.0362383
25	0x3f8991b0	1.0747585
26	0x3f82ee18	1.022891
27	0x3f875ce6	1.0575225
28	0x3f805b17	1.0027798
29	0x3f70cd36	0.9406313
30	0x3f802b2f	1.0013179
31	0x3f56620a	0.83743346
32	0x3f4af965	0.79286796
33	0x3f2ffd78	0.6874614
34	0x3f1d5f08	0.6147313
35	0x3ee7656c	0.45194566
36	0x3efba149	0.49146488
37	0x3e3535b1	0.17696263
38	0x3dadda37	0.08488887
39	0x3d1d88e2	0.03846062
40	0x38483e64	4.774182e-05
41	0x3b50772b	0.003180931
42	0x3b9536ad	0.004553637
43	0x3b173b7b	0.0023076225
44	0x3b26ab68	0.0025431756
45	0x3b0ab1e4	0.002116316
46	0x3e060e90	0.13091493
47	0x3eb9aab7	0.36263058
48	0x3f0094c2	0.50226986
49	0x3ef93a24	0.4867717
50	0x3f0a8bd7	0.5411963
51	0x3f080139	0.53126866
52	0x3f0bad89	0.5456167
53	0x3f065739	0.5247684
54	0x3ee11589	0.43961743
55	0x3ec7d659	0.39030722
56	0x3eae5d45	0.34055534
57	0x3e532d53	0.20622759
58	0x3e0300e1	0.12793304
59	0x3b52a3b8	0.003214104
60	0x3b331248	0.002732413
61	0x3b8b794c	0.004256403
62	0x3ad232ac	0.001603683
63	0x3a8ca83a	0.0010731288
64	0x393c84b5	0.00017978514
65	0x3a606d2a	0.00085611886
66	0x396cabf5	0.00022570773
67	0x3b3f1385	0.0029155922
68	0x3aa8bbe6	0.0012873381
69	0x3ae4c78d	0.001745449
70	0x3b513005	0.003191949
71	0x3b06cd61	0.0020569193
72	0x3b1b555b	0.0023702
73	0x3b396771	0.0028290416
74	0x3afe01d2	0.0019379205
75	0x3b9c2cc2	0.0047660777
76	0x38f878f1	0.000118480886
77	0x3b402208	0.002931716
78	0x3ab98b07	0.0014155813
79	0x3b115b32	0.00221796
80	0x3b30dd39	0.0026987328
81	0x3a850784	0.0010149335
82	0x3ad5ff36	0.0016326669
83	0x3b9817a3	0.0046414896
84	0x3b962361	0.004581854
85	0x3a12c3fe	0.0005598663
86	0x3b843a37	0.00403526
87	0x3addc15c	0.0016918587
88	0x3ba4858e	0.005020804
89	0x3c9f8f3d	0.019477481
90	0x3e291119	0.16510428
91	0x3ed8011c	0.42188346
92	0x3ee7c20a	0.45265228
93	0x3f07f157	0.5310263
94	0x3f02ea27	0.5113854
95	0x3eea50b7	0.45764706
96	0x3edea2d4	0.43483603
97	0x3ed7fcdc	0.42185104
98	0x3ec1e8ee	0.37873024
99	0x3eb67c55	0.35641733
100	0x3e876950	0.26447535
101	0x3ea277b7	0.3173196
102	0x3e7b9a2f	0.24570535
103	0x3e2d07ed	0.16897555
104	0x3d5686e5	0.05237474
105	0x3ccaf368	0.024774268
106	0x3b26b610	0.0025438108
107	0x3acd77ca	0.0015675959
108	0x3bc5bd0f	0.0060345004
109	0x3b2d4a7b	0.00264421
110	0x3ac32d04	0.0014890735
111	0x3b3e1848	0.0029006172
112	0x3b249386	0.0025112345
113	0xb79a5a18	-1.8400184e-05
114	0x3adcbe22	0.0016841332
115	0x3ae97e76	0.0017814178
116	0x3a8b09b9	0.0010607756
117	0x3a996ae3	0.0011704828
118	0x3b58330b	0.0032989408
119	0x3b8758ff	0.004130482
120	0x3ad2e968	0.0016091289
121	0x36d70aa0	6.408736e-06
122	0x3a6e62a0	0.0009093676
123	0x3b71e3f3	0.003690955
124	0x3b613cf2	0.0034368602
125	0x3b18643a	0.00232531
126	0x3b6d0fa7	0.003617266
127	0x398e880a	0.00027185708
128	0x3abf9dd0	0.0014619175
129	0x3b6affe0	0.003585808
130	0x3b5e1ff7	0.0033893564
131	0x3ae95b13	0.0017803631
132	0x3b4fc25e	0.0031701545
133	0x3af204b9	0.0018464542
134	0x3ae72ace	0.0017636658
135	0x3b1f2819	0.0024285375
136	0x3aebabd4	0.0017980286
137	0x3acad074	0.0015473501
138	0x3b6f70fa	0.0036535845
139	0x3b645a5a	0.0034843893
140	0x3b432ddc	0.0029781973
141	0x3b700309	0.0036622903
142	0x3a4fb710	0.0007923702
143	0x3b758841	0.0037465247
144	0x3b3d114f	0.0028849428
145	0x3b46e88b	0.0030351009
146	0x3b70666d	0.0036682144
147	0x3b3a879a	0.0028462172
148	0x3af60702	0.0018770399
149	0x3a744bf8	0.00093191816
150	0xb8c62170	-9.447604e-05
151	0x3b020a7c	0.0019842675
152	0x3b747926	0.0037303655
153	0x3a640890	0.00086987857
154	0x3b185846	0.0023245974
155	0x3b1e8490	0.00241879
156	0x3a0b054d	0.0005303219
157	0x3b4477d3	0.0029978647
158	0x3b701efe	0.0036639567
159	0x3b37cde9	0.0028046316
160	0x3b0f0d2f	0.0021827926
161	0x3b4f8fbd	0.0031671368
162	0x3b24c3b9	0.0025141074
163	0x3b2cd822	0.0026373942
164	0x3b5cfde7	0.0033720674
165	0x3b15ca3a	0.0022856132
166	0x3b2757b7	0.002553446
167	0x3b35fd39	0.002776934
168	0x3b57af22	0.0032910784
169	0x3a0c6bcc	0.0005356639
170	0x3b5bbdd8	0.0033529904
171	0x3b6b6806	0.0035920157
172	0x3b5df31d	0.003386683
173	0x3b600d4d	0.0034187615
174	0x3b35ca8a	0.002773913
175	0x3b01b300	0.001979053
176	0x3ac24e47	0.0014824354
177	0x3ac4c073	0.0015010968
178	0x3b4c678f	0.0031189655
179	0x3b2d3fb1	0.0026435668
180	0x3b2026f2	0.0024437276
181	0x3b63f24a	0.0034781867
182	0x3ac1bacf	0.0014780405
183	0x3b281d6f	0.002565231
184	0x3b6e3c5b	0.0036351893
185	0x3a743036	0.00093150453
186	0x3b59c08b	0.0033226337
187	0x3b05a9bf	0.0020395366
188	0x3b57936f	0.0032894274
189	0x3ae63c24	0.0017565531
190	0x3a8bc69a	0.0010664046
191	0x3a028a13	0.0004979681
192	0x3a114b8c	0.00055425684
193	0x3a8d4404	0.0010777717
194	0x3af7d404	0.001890779
195	0x3a35fbcd	0.00069421233
196	0x3b6f26c0	0.0036491603
197	0x3b5c1298	0.0033580419
198	0x3b0f20f2	0.0021839705
199	0x395db8c8	0.00021145039
200	0x3b00040d	0.0019533664
201	0x3a481a51	0.0007633316
202	0x3abb6d4a	0.0014299538
203	0x3b587864	0.0033030743
204	0x3b341cbd	0.002748295
205	0x3b6d6674	0.0036224397
206	0x40498d0c	3.1492338
207	0x40413aaf	3.0192068
208	0x4022f358	2.5461025
209	0x4017603b	2.3652484
210	0x400ef39c	2.2336187
211	0x40056357	2.0841882
212	0x3ff8e581	1.9445039
213	0x3fe7054d	1.8048493
214	0x3fe2f8b3	1.7732147
215	0x3fd55613	1.6666893
216	0x3fcdd892	1.6081717
217	0x3fc10c10	1.5081806
218	0x3fb9f648	1.4528284
219	0x3fb3063b	1.3986276
220	0x3fa80a3a	1.3128121
221	0x3fa6f3ad	1.3043114
222	0x3f9db651	1.2321264
223	0x3f9b657b	1.2140344
224	0x3f99d16b	1.2017034
225	0x3f96ea2f	1.1790217
226	0x3f8db437	1.1070622
227	0x3f9617a7	1.1725968
228	0x3f8fe756	1.1242473
229	0x3f8465a7	1.0343522
230	0x3f808694	1.004107
231	0x3f6875f2	0.9080497
232	0x3f8000d8	1.0000257
233	0x3f6e8925	0.93178016
234	0x3f6a9c42	0.9164468
235	0x3f6d21cd	0.926297
236	0x3f4fdb56	0.81194055
237	0x3f52aa57	0.8229117
238	0x3f343c7f	0.7040481
239	0x3f125dbb	0.5717427
240	0x3eea4e51	0.45762876
241	0x3ee96e8e	0.4559216
242	0x3e5f4bb3	0.2180622
243	0x3e039817	0.12850986
244	0x3d6b9849	0.057518277
245	0x3878d08c	5.9322032e-05
246	0x3b6ecf3d	0.0036439442
247	0x3b711839	0.003678812
248	0x3a45e4db	0.0007549056
249	0x39f204a6	0.000461613
250	0x3b84653f	0.00404039
251	0x3b666ec6	0.003516124
252	0x3b84181b	0.004031194
253	0x3b9ff74c	0.004881775
254	0x3bbc5b92	0.0057482207
255	0x3e2e963e	0.170495

exp_avg f4 [100, 41]
0	0x35f9fc20	1.8625324e-06
1	0xb80c5aa5	-3.346302e-05
2	0x37df173a	2.6594487e-05
3	0xb7dcf9a7	-2.6342297e-05
4	0xb9448982	-0.00018743242
5	0x36f42810	7.2764306e-06
6	0xb8bfde9d	-9.149055e-05
7	0xb99f29f6	-0.00030358107
8	0xb7640cab	-1.35928085e-05
9	0xba188349	-0.0005817903
10	0x39045fd2	0.00012624197
11	0x3963f441	0.00021739399
12	0xb9fb5c7f	-0.00047943366
13	0x392f18ca	0.00016698535
14	0xb9139a7e	-0.00014076565
15	0xba04d7b5	-0.0005067543
16	0xb9508a2a	-0.00019887896
17	0x38bdee14	9.056568e-05
18	0x3a5a84a8	0.00083358074
19	0xb8c1b600	-9.236857e-05
20	0xbafb329f	-0.0019164867
21	0x3ac005f2	0.0014650209
22	0xb9de44c9	-0.0004239439
23	0xbaa4b387	-0.001256571
24	0x3a4e5a70	0.00078717526
25	0x39cd686c	0.00039178447
26	0xb9833cd8	-0.000250316
27	0xba2eb2f2	-0.0006664238
28	0xba082b5a	-0.0005194448
29	0x3a698904	0.00089086615
30	0xb9e02a46	-0.00042756106
31	0x3a19c52b	0.0005865867
32	0xba36c3a6	-0.0006971903
33	0x396a0776	0.00022318758
34	0xba09e59c	-0.000526035
35	0xba8b7811	-0.0010640641
36	0x398445ce	0.0002522901
37	0x3a89b632	0.0010506569
38	0x38b88ef0	8.800428e-05
39	0x397394c5	0.00023229707
40	0xb9e60728	-0.0004387435
41	0xb9851497	-0.00025383077
42	0xb9dcda17	-0.0004212416
43	0x38dd3cba	0.000105494124
44	0x391498e5	0.00014171338
45	0xba47bda0	-0.0007619504
46	0x393a51d2	0.00017768823
47	0x392b0a43	0.00016311654
48	0x392a6c22	0.00016252746
49	0x3909ff79	0.00013160509
50	0x386d5336	5.65827e-05
51	0x39444c83	0.0001872052
52	0x398c1101	0.0002671555
53	0x37d19e61	2.4988492e-05
54	0x3941aba2	0.00018469853
55	0x38e042a0	0.00010693562
56	0x38ce02cd	9.823367e-05
57	0x395b9c4f	0.00020943697
58	0x38c5ca7c	9.431408e-05
59	0xb98c559c	-0.00026766665
60	0x3960c293	0.00021434789
61	0xb7148ce2	-8.854289e-06
62	0xb7e38134	-2.7120674e-05
63	0x389b1e84	7.39666e-05
64	0xb78f5ae4	-1.7089253e-05
65	0x39d0accf	0.00039801604
66	0x394f4d1d	0.00019769785
67	0x38be9f0a	9.089529e-05
68	0xba25c38d	-0.000632339
69	0x39191130	0.0001459762
70	0xb8fc706c	-0.000120372366
71	0x376263dc	1.34939e-05
72	0xb85c2be1	-5.2492953e-05
73	0xb98b6de2	-0.00026594015
74	0x3930ce2f	0.00016861477
75	0x3956d448	0.00020487711
76	0xb6f7629f	-7.3726546e-06
77	0xb982c79e	-0.0002494426
78	0x399c9e1e	0.00029872445
79	0x375682e5	1.278587e-05
80	0xba0bb205	-0.0005328956
81	0xb9a1d74f	-0.0003086873
82	0x393aa3c2	0.00017799347
83	0xb8d621b6	-0.00010210594
84	0xb8eea344	-0.00011379135
85	0xba62d7b6	-0.0008653359
86	0x38ff2398	0.000121659774
87	0x39327556	0.00017019114
88	0x39197c92	0.00014637623
89	0x3933ee85	0.00017159626
90	0x391259de	0.00013957123
91	0x3925a3a4	0.00015796587
92	0x394ef1d6	0.00019735782
93	0x392d6260	0.00016535213
94	0x38b6f671	8.7243396e-05
95	0x3924a913	0.00015703244
96	0x39152fa5	0.00014227496
97	0x37dbf175	2.6219272e-05
98	0x39812749	0.00024634067
99	0x3875e70d	5.8627735e-05
100	0x393e0012	0.00018119838
101	0x393b0e96	0.00017839143
102	0xb89c9221	-7.465878e-05
103	0x39a2cb29	0.00031050414
104	0x38fcc12f	0.000120522796
105	0x38891c8a	6.537985e-05
106	0x39839c58	0.00025102752
107	0x3985bd13	0.00025508608
108	0x38a5e178	7.90981e-05
109	0xb7738d82	-1.4516876e-05
110	0x39618b5c	0.00021509588
111	0x39a6effb	0.00031840787
112	0xb84089a7	-4.5904566e-05
113	0x398ad894	0.00026482774
114	0xba600dbd	-0.0008546969
115	0xb99e5266	-0.000301975
116	0x3995eb5a	0.00028594845
117	0x35a0bd30	1.197599e-06
118	0x38e0cbaa	0.00010719088
119	0x39351199	0.00017268061
120	0xb9e06d84	-0.00042806205
121	0x38bc2546	8.971481e-05
122	0xb997b943	-0.00028938995
123	0xb892fdb4	-7.0090784e-05
124	0xb93057c2	-0.0001681736
125	0x392a5887	0.00016245442
126	0x37b1e9a7	2.1208847e-05
127	0x39461495	0.00018890419
128	0xba2a56be	-0.0006497911
129	0x388e2c91	6.779389e-05
130	0x38c20782	9.252039e-05
131	0x3938482d	0.00017574495
132	0xb985aa90	-0.00025494816
133	0x3935d3cc	0.00017340406
134	0x3938bc73	0.0001761781
135	0x39296568	0.00016154873
136	0x3937fbb5	0.00017546008
137	0xba2a4660	-0.0006495472
138	0x381ca7e8	3.7349673e-05
139	0xb9311f92	-0.00016891796
140	0x390dc642	0.00013520665
141	0xb79fd6a4	-1.9054227e-05
142	0x39440ddf	0.00018697184
143	0xb89bca54	-7.4286625e-05
144	0x3915cf3b	0.00014286947
145	0xb9a015c0	-0.00030533783
146	0x3859a6a2	5.189202e-05
147	0x3919d205	0.00014669455
148	0xba14065c	-0.00056466996
149	0x39422c1e	0.00018517717
150	0x3945cbb8	0.00018863275
151	0x393370b2	0.00017112753
152	0x37b45b79	2.1500267e-05
153	0x3941ca62	0.00018481308
154	0x392b5343	0.00016338848
155	0x39255b80	0.00015769713
156	0x3944c51f	0.0001876545
157	0x39121200	0.0001393035
158	0x379c2bf7	1.8617122e-05
159	0xb9bbc480	-0.00035813823
160	0x39315a0f	0.00016913585
161	0xb982e147	-0.00024963377
162	0xb9db06f4	-0.00041776116
163	0x3920a6de	0.00015320952
164	0x38d7596e	0.000102686565
165	0xba004874	-0.0004893609
166	0x392212cc	0.00015456526
167	0xb9bcb3d9	-0.0003599215
168	0x38e8d361	0.000111019945
169	0x3945cdd5	0.00018864062
170	0xb95aff36	-0.00020885174
171	0xb8941ed1	-7.06293e-05
172	0x38c061f0	9.173516e-05
173	0x38bfe965	9.151063e-05
174	0x3919035c	0.00014592469
175	0x3934362f	0.00017186323
176	0xba2a4c50	-0.0006496357
177	0x393bb829	0.00017902315
178	0xb9857b9a	-0.00025459827
179	0x3921e1de	0.00015438299
180	0x3926bd16	0.00015901434
181	0xb931eae9	-0.00016967546
182	0x393daf44	0.00018089736
183	0x392655aa	0.00015862906
184	0xb8d65244	-0.00010219638
185	0x39429608	0.00018557173
186	0x38e98907	0.00011135829
187	0x39328e54	0.00017028424
188	0x38ed15d9	0.0001130511
189	0x3939fe24	0.0001773765
190	0xba4341b2	-0.0007448449
191	0xba5e7f37	-0.00084875844
192	0xba5e9681	-0.0008491055
193	0x39438b9b	0.00018648656
194	0xba147a1e	-0.0005663949
195	0x39445df6	0.0001872702
196	0xb7b526d7	-2.1594968e-05
197	0xb958b9ea	-0.00020668624
198	0xba00689c	-0.00048984005
199	0x3945c504	0.00018860778
200	0x39354aae	0.00017289325
201	0x39462665	0.00018897055
202	0xba29d313	-0.0006478291
203	0x38de093a	0.000105875035
204	0x391527bd	0.00014224551
205	0x37b1bde7	2.1188474e-05
206	0xb87d576e	-6.0401326e-05
207	0x3791fd10	1.7403188e-05
208	0xb84065e8	-4.5871275e-05
209	0xb97d744a	-0.00024171281
210	0x3641ba40	2.8867653e-06
211	0xb90ab295	-0.00013227233
212	0xb9a8925e	-0.0003215251
213	0xb746535b	-1.1821127e-05
214	0xba2a0f4c	-0.0006487265
215	0x38e96867	0.00011129752
216	0x3932b2f6	0.00017042071
217	0xba09caf3	-0.0005256377
218	0x393380f4	0.00017118809
219	0xb9122ec6	-0.0001394107
220	0xba249a9e	-0.0006279143
221	0xb9607186	-0.00021404595
222	0x38f86002	0.000118434444
223	0x3a756822	0.00093615253
224	0xb8bb9250	-8.944108e-05
225	0xbb0bd1db	-0.00213348
226	0x3ad0cd72	0.0015930368
227	0xb9e70b2c	-0.00044068077
228	0xbab23de0	-0.0013598762
229	0x3a4f9237	0.0007918211
230	0x39f4e652	0.0004671091
231	0xb943491b	-0.00018623883
232	0xba3822f3	-0.0007024251
233	0xb9f74faa	-0.00047170866
234	0x3a7f7db7	0.0009746211
235	0xb9f4f921	-0.00046724922
236	0x3a17ae2c	0.00057861465
237	0xba3e58ab	-0.00072611374
238	0x393965dc	0.0001768092
239	0xba087dc8	-0.0005206731
240	0xba8938cc	-0.0010469197
241	0x39a299c4	0.00031013612
242	0x3a928530	0.0011178609
243	0x38b2b538	8.521456e-05
244	0x39850201	0.0002536923
245	0x3a67fb2e	0.00088493794
246	0xb8d0ca42	-9.955886e-05
247	0x38e22231	0.000107828884
248	0x392306b1	0.00015547384
249	0x3930e89c	0.00016871322
250	0xb98b15d5	-0.00026528412
251	0xb9aa313b	-0.00032461606
252	0x3914f1f6	0.00014204517
253	0x390f2602	0.00013651702
254	0x3920ddc2	0.000153414
255	0x3937b246	0.00017518652

exp_avg_sq f4 [100, 41]
0	0x3607db37	2.0244167e-06
1	0x33a52d9c	7.6917075e-08
2	0x33ad9be4	8.0842966e-08
3	0x347ddbcd	2.3642424e-07
4	0x35009e98	4.79145e-07
5	0x358635d9	9.99945e-07
6	0x35fcb1fb	1.8827262e-06
7	0x3642b423	2.9013106e-06
8	0x365d3c35	3.2966611e-06
9	0x36892ab8	4.0878913e-06
10	0x3695698c	4.4528333e-06
11	0x36988727	4.545687e-06
12	0x36a5f6ee	4.9461296e-06
13	0x36afad9e	5.235618e-06
14	0x36c7141d	5.9330036e-06
15	0x36e7a085	6.9030234e-06
16	0x36fc5b74	7.520832e-06
17	0x37029b37	7.784743e-06
18	0x3701d231	7.737938e-06
19	0x37024f44	7.767059e-06
20	0x370eb166	8.505163e-06
21	0x37110b30	8.645278e-06
22	0x37182d3d	9.070439e-06
23	0x370fac92	8.563644e-06
24	0x37186fe6	9.085959e-06
25	0x371b9f8e	9.275869e-06
26	0x371be45e	9.291891e-06
27	0x371c64d5	9.321801e-06
28	0x3721e587	9.649789e-06
29	0x37217b7f	9.6251015e-06
30	0x37132cac	8.772284e-06
31	0x372c2881	1.0261429e-05
32	0x372cbfbe	1.0296642e-05
33	0x372ff0ab	1.0486848e-05
34	0x3725f439	9.891629e-06
35	0x372a1104	1.0136751e-05
36	0x372bd9a4	1.0243068e-05
37	0x3734ae79	1.0769459e-05
38	0x373f1916	1.1390328e-05
39	0x37528097	1.2546915e-05
40	0x37c89d14	2.3915003e-05
41	0x3608fa3d	2.0411237e-06
42	0x358822f5	1.0142963e-06
43	0x35913be9	1.0820778e-06
44	0x3550e6d7	7.7821954e-07
45	0x351cdc04	5.8434694e-07
46	0x3397b5d3	7.064559e-08
47	0x33f909f8	1.15967794e-07
48	0x344f2645	1.92923e-07
49	0x348e319c	2.6485657e-07
50	0x34ae7d5e	3.2501242e-07
51	0x34e25618	4.2158422e-07
52	0x34f261c6	4.5147152e-07
53	0x3517d250	5.655793e-07
54	0x35233278	6.0795674e-07
55	0x3535c03a	6.770748e-07
56	0x355494e3	7.9192813e-07
57	0x3562aee5	8.4446066e-07
58	0x35620d7e	8.4211194e-07
59	0x356d3a36	8.837409e-07
60	0x35ce041a	1.534939e-06
61	0x36043b4f	1.9704055e-06
62	0x361d0515	2.3397781e-06
63	0x362ed8dd	2.6054252e-06
64	0x361fd67f	2.38177e-06
65	0x36240a72	2.4443984e-06
66	0x36242734	2.4460724e-06
67	0x362eb4f8	2.6033358e-06
68	0x36312fc5	2.640286e-06
69	0x36394fd4	2.7613614e-06
70	0x363124a4	2.6396383e-06
71	0x3644348b	2.923686e-06
72	0x363f7e13	2.8534603e-06
73	0x363a8686	2.7794463e-06
74	0x363d0fbc	2.8172353e-06
75	0x3630e610	2.6359958e-06
76	0x362a1e57	2.5349634e-06
77	0x362bf7ee	2.56253e-06
78	0x3626d2b3	2.485857e-06
79	0x362bdfb2	2.5611193e-06
80	0x35eb5f46	1.7536593e-06
81	0x36be3abb	5.6692784e-06
82	0x3604ddf6	1.979873e-06
83	0x35c7e71e	1.4893919e-06
84	0x35c27e18	1.4490824e-06
85	0x35cec1e8	1.540463e-06
86	0x35c2fb38	1.4527241e-06
87	0x359a4299	1.1493277e-06
88	0x352d9866	6.466929e-07
89	0x33a8e7c2	7.865266e-08
90	0x33efe52d	1.11709916e-07
91	0x34151874	1.3885602e-07
92	0x34738c3f	2.268216e-07
93	0x3489b34b	2.564869e-07
94	0x34cbc2f1	3.7953535e-07
95	0x34e8efdb	4.3387885e-07
96	0x35051e17	4.959015e-07
97	0x35228214	6.053899e-07
98	0x3539eaaa	6.925935e-07
99	0x3534520f	6.7174636e-07
100	0x352dbfac	6.472644e-07
101	0x353a4284	6.938719e-07
102	0x3555e4b1	7.9681473e-07
103	0x3556a40c	7.995993e-07
104	0x355eb9e9	8.297198e-07
105	0x354a9acf	7.547614e-07
106	0x3596f587	1.1247329e-06
107	0x35c5e5c3	1.4744513e-06
108	0x35f83ebc	1.8495698e-06
109	0x36164bb8	2.2395816e-06
110	0x361a8f63	2.303125e-06
111	0x36143dec	2.2089762e-06
112	0x3645b7b0	2.9462208e-06
113	0x362ee48b	2.606105e-06
114	0x3632bfa6	2.663562e-06
115	0x362dc6cd	2.5894726e-06
116	0x3625360f	2.4618382e-06
117	0x3618e9a6	2.2785766e-06
118	0x362149d9	2.4033855e-06
119	0x361196f3	2.1694548e-06
120	0x3618c5ee	2.2764975e-06
121	0x3604b528	1.977498e-06
122	0x36c81615	5.963035e-06
123	0x36085993	2.0317718e-06
124	0x360891af	2.0350378e-06
125	0x36057406	1.988608e-06
126	0x36078c01	2.019806e-06
127	0x36036308	1.9578165e-06
128	0x360986bc	2.0493017e-06
129	0x36071f30	2.013472e-06
130	0x3606ccfd	2.0086875e-06
131	0x3604b7b4	1.9776462e-06
132	0x3608bedc	2.0376674e-06
133	0x3604c2e1	1.9782967e-06
134	0x3604a8c8	1.9767776e-06
135	0x36056591	1.9877664e-06
136	0x3604b319	1.9773781e-06
137	0x3609850b	2.0492032e-06
138	0x360747ed	2.0158434e-06
139	0x3608727e	2.0332222e-06
140	0x360619a4	1.998248e-06
141	0x36079a25	2.0206292e-06
142	0x3603a737	1.9617853e-06
143	0x3607f0ab	2.0256655e-06
144	0x3605d479	1.994222e-06
145	0x3608b05a	2.036823e-06
146	0x36071c79	2.013314e-06
147	0x3605b2d9	1.9922647e-06
148	0x36092bf2	2.044017e-06
149	0x3603ac9f	1.9621e-06
150	0x36029985	1.946087e-06
151	0x3604d58b	1.9793831e-06
152	0x36075ab5	2.0169366e-06
153	0x3603a565	1.9616793e-06
154	0x36052fa7	1.9846282e-06
155	0x36054dc0	1.98638e-06
156	0x360387c7	1.9599554e-06
157	0x36061d40	1.9984582e-06
158	0x3607c47f	2.0230943e-06
159	0x3609a08e	2.0508046e-06
160	0x36062e99	1.999468e-06
161	0x360a854b	2.064119e-06
162	0x360bdf8d	2.0842738e-06
163	0x360c6ce3	2.0925006e-06
164	0x3606f950	2.0112675e-06
165	0x36096ec6	2.047907e-06
166	0x3605c9ee	1.9936083e-06
167	0x36090727	2.0418754e-06
168	0x360697bb	2.0055875e-06
169	0x36038e86	1.960348e-06
170	0x3608a219	2.0359932e-06
171	0x3607ed13	2.0254563e-06
172	0x3606cf3d	2.0088185e-06
173	0x3606c491	2.0081973e-06
174	0x3605d8f3	1.9944825e-06
175	0x3604f3b7	1.9811393e-06
176	0x36095e36	2.0469429e-06
177	0x36045a4f	1.97221e-06
178	0x36089669	2.035313e-06
179	0x36059821	1.9907095e-06
180	0x360573d8	1.9885974e-06
181	0x36085cb8	2.0319549e-06
182	0x360468c9	1.9730526e-06
183	0x360566a4	1.987829e-06
184	0x36082636	2.028782e-06
185	0x3603c2b7	1.963386e-06
186	0x36067abe	2.0039001e-06
187	0x3604f53a	1.9812273e-06
188	0x360664b3	2.002617e-06
189	0x36048116	1.974467e-06
190	0x3609604a	2.0470638e-06
191	0x3609a0a5	2.0508098e-06
192	0x36098a86	2.0495222e-06
193	0x3603d8c0	1.9646686e-06
194	0x36092d11	2.0440823e-06
195	0x36036cd6	1.9583872e-06
196	0x3607889e	2.019609e-06
197	0x36086657	2.0325149e-06
198	0x3609409b	2.0452196e-06
199	0x36036c88	1.9583695e-06
200	0x360586ab	1.9896931e-06
201	0x3604d4ac	1.9793324e-06
202	0x360b6086	2.0768798e-06
203	0x36097bc9	2.0486643e-06
204	0x360c9c60	2.0952648e-06
205	0x3607b8b9	2.022409e-06
206	0x33c6763d	9.241601e-08
207	0x33cfc605	9.675208e-08
208	0x34af3205	3.2632684e-07
209	0x352eb3dc	6.508178e-07
210	0x35b0202b	1.3122384e-06
211	0x36227a07	2.421091e-06
212	0x367524ca	3.652926e-06
213	0x3688c870	4.07645e-06
214	0x36a725be	4.9813816e-06
215	0x36b2be8f	5.3269973e-06
216	0x36b62a7f	5.42897e-06
217	0x36c3cf67	5.8355977e-06
218	0x36cfca3d	6.1926244e-06
219	0x36eb9cef	7.0218152e-06
220	0x370933a8	8.1778635e-06
221	0x371616d0	8.946008e-06
222	0x371bd698	9.288684e-06
223	0x371c3135	9.3097815e-06
224	0x371ca785	9.337328e-06
225	0x372ae10f	1.018519e-05
226	0x372fdef4	1.0482723e-05
227	0x3737132a	1.0912112e-05
228	0x372e3379	1.0383193e-05
229	0x37389381	1.1001598e-05
230	0x3739e1ba	1.1079415e-05
231	0x373274f8	1.0636861e-05
232	0x372ef66f	1.04285855e-05
233	0x37353e66	1.0802969e-05
234	0x3735aa99	1.0828161e-05
235	0x3722f903	9.71393e-06
236	0x373e07ba	1.13266815e-05
237	0x373c4a9d	1.12230455e-05
238	0x3742c10c	1.1608248e-05
239	0x3737894f	1.093962e-05
240	0x373a1ea1	1.1093595e-05
241	0x373c46d2	1.1222162e-05
242	0x3743b2bc	1.1664521e-05
243	0x3750a482	1.2436069e-05
244	0x376af02c	1.4003406e-05
245	0x37d3a1ac	2.5228444e-05
246	0x36087cae	2.0338152e-06
247	0x35dbde55	1.6381479e-06
248	0x35c83ffd	1.4919784e-06
249	0x35dbb252	1.636867e-06
250	0x35e1d339	1.682528e-06
251	0x35d9b095	1.6219152e-06
252	0x35a2b8f0	1.2123764e-06
253	0x3589093b	1.0209982e-06
254	0x352d2d0f	6.451309e-07
255	0x33a1fae5	7.542784e-08
