test/test_results/triplets/results/model/model_epoch0245.tar (torch, 67156 bytes, 3 tensors)

fc.weight f4 [100, 41]
0	0x3ab56910	0.0013840515
1	0x401e413e	2.472732
2	0x401beb31	2.43623
3	0x4013a7c7	2.3071153
4	0x4009d613	2.153691
5	0x400496b5	2.0716984
6	0x3ffb2bf3	1.9622787
7	0x3fedb906	1.857209
8	0x3fe5c24e	1.7949922
9	0x3fdee636	1.7414005
10	0x3fcc6215	1.5967432
11	0x3fc3333c	1.525001
12	0x3fb55451	1.4166356
13	0x3faf2d0e	1.3685625
14	0x3fa54d39	1.2914191
15	0x3f9a1a81	1.2039338
16	0x3f9571de	1.1675375
17	0x3f8d1e0e	1.1024797
18	0x3f8650e5	1.0493437
19	0x3f8a41f2	1.0801375
20	0x3f8589c8	1.0432673
21	0x3f82b549	1.0211574
22	0x3f880a11	1.0628072
23	0x3f887ecf	1.0663699
24	0x3f839372	1.0279372
25	0x3f87cf67	1.0610169
26	0x3f81c1ff	1.0137328
27	0x3f86064d	1.0470673
28	0x3f7ee4bd	0.99567777
29	0x3f6d5d3e	0.927204
30	0x3f7cec89	0.98798424
31	0x3f547c2f	0.8300199
32	0x3f49dbb4	0.78850865
33	0x3f2e99e5	0.68203574
34	0x3f1b7a5e	0.6073359
35	0x3ee573aa	0.44814807
36	0x3efb4e01	0.4908295
37	0x3e306ba6	0.17228565
38	0x3da99cd9	0.082818694
39	0x3d0f5a7c	0.034998402
40	0xb91fd1eb	-0.00015241622
41	0x3b1f5dd2	0.0024317396
42	0x3bddc6c8	0.0067680813
43	0x3b4e89a4	0.0031515146
44	0x3bb5d80b	0.005549436
45	0x3c70dc52	0.014700966
46	0x3eaa3db3	0.33250198
47	0x3f01e8c1	0.5074578
48	0x3f1bc36b	0.6084506
49	0x3f13251c	0.574785
50	0x3f1bb192	0.60817826
51	0x3f18c338	0.5967288
52	0x3f179090	0.5920496
53	0x3f132489	0.57477623
54	0x3ef9e8ee	0.48810524
55	0x3ee02f16	0.43785924
56	0x3ec5ce2f	0.38633868
57	0x3e844385	0.25832763
58	0x3e4371e6	0.19086418
59	0x3d7e476f	0.062079843
60	0x3adf08c1	0.0017016159
61	0x3b85cf7e	0.004083573
62	0x3b290175	0.0025788222
63	0x3b574d9b	0.0032852653
64	0x399d3d90	0.0002999124
65	0x3915b866	0.00014278441
66	0x3b77e7b2	0.003782731
67	0x3a8be9f1	0.0010674578
68	0x3b2f60c6	0.0026760562
69	0x3b7f2739	0.003893329
70	0x3ac800c6	0.001525902
71	0x3ac8791d	0.0015294884
72	0x3b4fd5e6	0.0031713187
73	0x3af7103a	0.001884944
74	0x39f95176	0.00047553674
75	0x39eeffea	0.00045585568
76	0x3a85c94b	0.0010207085
77	0x3b3429ad	0.002749066
78	0x3b6723a4	0.0035269046
79	0x3b00900c	0.0019617109
80	0x3b5ccbad	0.0033690736
81	0x3a3a3e43	0.00071046146
82	0x3b689b60	0.0035493001
83	0x3b1a2019	0.0023517667
84	0x399f09a2	0.0003033402
85	0x3ba120c4	0.004917236
86	0x3b598d0c	0.0033195643
87	0x3ae75a6a	0.0017650847
88	0x3c3d0237	0.011536173
89	0x3e57e779	0.21084394
90	0x3ea0acb4	0.31381762
91	0x3f0b99f3	0.5453178
92	0x3f0b25dd	0.5435465
93	0x3f1a6c2e	0.6032132
94	0x3f1231fd	0.57107526
95	0x3f035725	0.51304847
96	0x3efb9ede	0.49144644
97	0x3ef0e3b7	0.47048733
98	0x3ed9fb8d	0.4257473
99	0x3ed3786d	0.41302815
100	0x3ea4446a	0.32083446
101	0x3ebe9182	0.3722039
102	0x3e97c22d	0.29640332
103	0x3e6b0fb6	0.22955212
104	0x3ddda46e	0.10822378
105	0x3dab3cc1	0.08361197
106	0x3ce874d7	0.028376026
107	0x39228ece	0.00015502723
108	0x3912dab4	0.00014005118
109	0x3b277c9d	0.0025556453
110	0x3ac514d7	0.0015036118
111	0x3b5d5fb5	0.003377897
112	0x3b2b9a7b	0.0026184607
113	0x3abde9f7	0.0014489283
114	0x3b528a7d	0.0032126002
115	0x3a8f6099	0.0010938823
116	0x3ac5a17a	0.0015078031
117	0x37f48174	2.9147348e-05
118	0x3ac1533c	0.0014749537
119	0x3b824485	0.0039754533
120	0x399f07a4	0.00030332536
121	0x3bb2b27d	0.0054534064
122	0x3a726c97	0.00092477485
123	0x3af1e7fa	0.0018455975
124	0x3b0e62bc	0.002172633
125	0x3b211761	0.0024580585
126	0x3a9bf3de	0.001189824
127	0x3b65ce16	0.0035065464
128	0x3b438dc0	0.0029839128
129	0x3a4f5b9a	0.0007910073
130	0x3a004b4e	0.0004894034
131	0x3b696c93	0.0035617694
132	0x3b190572	0.0023349193
133	0x3b63fcb5	0.0034788076
134	0x3b6b17cb	0.0035872336
135	0x3b231f2f	0.0024890413
136	0x3b5e71a3	0.0033942244
137	0x3b453a3c	0.0030094525
138	0x3a8bc8a6	0.0010664656
139	0x3b0bf43e	0.0021355296
140	0x3a1241e7	0.0005579278
141	0x3ab413a8	0.0013738768
142	0x3b6cdb7c	0.0036141565
143	0x3ae21eca	0.0017251607
144	0x3a869b32	0.001026964
145	0x3b203019	0.002444273
146	0x3a774b4f	0.0009433524
147	0x3ac25ae4	0.0014828113
148	0x3b397e27	0.0028303952
149	0x3b6ecd51	0.0036438296
150	0x3b501b4f	0.0031754558
151	0x3b57eac3	0.0032946325
152	0x3aa0a08d	0.0012254879
153	0x3b701db1	0.0036638791
154	0x3b35c040	0.0027732998
155	0x3b2413d4	0.0025036233
156	0x3b69178a	0.003556701
157	0x3a07864a	0.0005169852
158	0x3aaa42ac	0.001298984
159	0x3b354131	0.0027657265
160	0x3b26ae8a	0.0025433623
161	0x3b355a92	0.0027672392
162	0x3b57c969	0.0032926446
163	0x3adbf2d5	0.0016780744
164	0x3a056ee4	0.00050900714
165	0x3b3a9881	0.0028472247
166	0x3af2a0e5	0.0018511085
167	0x3b28ae2f	0.0025738587
168	0x39a58cb2	0.0003157608
169	0x3b6bca7d	0.0035978847
170	0x3b1623d0	0.002290953
171	0x3ad2e655	0.0016090373
172	0x3a0e125e	0.0005419607
173	0x39fbe8e5	0.0004804797
174	0x3ac9dc95	0.0015400822
175	0x3b5849a8	0.0033002887
176	0x3b40f37e	0.0029442008
177	0x3b6fa18b	0.0036564793
178	0x3b171388	0.0023052413
179	0x3af1f114	0.0018458688
180	0x3b26e984	0.0025468776
181	0x3b0a77db	0.0021128568
182	0x3b73b929	0.0037189221
183	0x3b29a800	0.002588749
184	0x3af413d1	0.0018621628
185	0x3b7029e1	0.0036646056
186	0x39892de5	0.0002616487
187	0x3b4bf890	0.0031123497
188	0x39873362	0.0002578749
189	0x3b6344e7	0.003467852
190	0x3b45ca5c	0.003018043
191	0x3b4b11ee	0.0030986029
192	0x3b5177a1	0.0031962174
193	0x3b74ba60	0.0037342533
194	0x3b38c009	0.0028190634
195	0x3b681d8b	0.0035418
196	0x3ac00613	0.0014650248
197	0x3b0e52c4	0.0021716813
198	0x3b343c7f	0.0027501879
199	0x3b63981c	0.0034728115
200	0x3b518154	0.0031967955
201	0x3b6ff3cb	0.0036613818
202	0x3b5a8c15	0.0033347656
203	0x3aa2e57d	0.0012428012
204	0x3ae9fcc8	0.0017851824
205	0x3aa39282	0.0012479576
206	0x40470145	3.1094525
207	0x403efefd	2.9843132
208	0x40209d9b	2.5096195
209	0x40151369	2.3293097
210	0x400c69a3	2.1939476
211	0x400359a2	2.0523458
212	0x3ff50d56	1.9144695
213	0x3fe3a577	1.7784871
214	0x3fdfc3af	1.7481593
215	0x3fd1de1b	1.6395906
216	0x3fcb1dfc	1.5868526
217	0x3fbe47b0	1.4865627
218	0x3fb79688	1.4342813
219	0x3fb0ca01	1.3811647
220	0x3fa5d70b	1.2956251
221	0x3fa46d6c	1.2845893
222	0x3f9bee14	1.2182031
223	0x3f99eac6	1.2024772
224	0x3f977ef9	1.1835624
225	0x3f951044	1.1645589
226	0x3f8bc29e	1.0918767
227	0x3f94a1f2	1.1611922
228	0x3f8ebcd4	1.1151376
229	0x3f837dd5	1.0272776
230	0x3f7e3565	0.99300224
231	0x3f66d75e	0.90172374
232	0x3f7df0a3	0.9919531
233	0x3f6d383d	0.9266394
234	0x3f6783eb	0.90435666
235	0x3f6a9187	0.9162831
236	0x3f4e55f5	0.8059991
237	0x3f51a3a3	0.81890315
238	0x3f32fa21	0.69912916
239	0x3f10e295	0.56595737
240	0x3ee89a24	0.454301
241	0x3eea760d	0.4579319
242	0x3e5a71d1	0.2133248
243	0x3e0159e3	0.12631945
244	0x3d585f0a	0.05282501
245	0x3973aa14	0.00023237645
246	0x3b013101	0.0019713046
247	0x3abb58a6	0.0014293387
248	0x3b72f91b	0.0037074748
249	0x3b6ed5f3	0.0036443442
250	0x3b8abaed	0.004233709
251	0x3b93bffc	0.0045089703
252	0x3bc25e5c	0.0059316587
253	0x3b4e9931	0.0031524415
254	0x3c22b13e	0.009929953
255	0x3ea80c46	0.32821864

exp_avg f4 [100, 41]
0	0x393e0d5b	0.00018124787
1	0x387f3f66	6.0855782e-05
2	0x37a6cf90	1.9885396e-05
3	0xb8971408	-7.203972e-05
4	0x37257f0a	9.864345e-06
5	0xb7389b5a	-1.1003425e-05
6	0xb76ad4cb	-1.3997032e-05
7	0xb9231c90	-0.00015555532
8	0xb9a97912	-0.00032324396
9	0xb8986dd0	-7.268379e-05
10	0x39b54562	0.00034574704
11	0xb9f1ce11	-0.00046120633
12	0xb87aa99c	-5.9762606e-05
13	0xb9ed78ad	-0.00045294073
14	0xb986a08f	-0.00025678097
15	0xba19ac12	-0.00058621273
16	0xb990d322	-0.00027623127
17	0x3a8f21a2	0.0010920058
18	0xb93da981	-0.0001808759
19	0xb9b20713	-0.00033956076
20	0xb9c8c5a7	-0.00038294235
21	0xba11fe3b	-0.00055691943
22	0x38adb8e2	8.28372e-05
23	0x3a11f274	0.00055674394
24	0x39c5523a	0.00037636032
25	0xbac9e742	-0.0015404003
26	0x3adea291	0.0016985704
27	0xba798732	-0.0009518742
28	0x3959b1ac	0.0002076092
29	0xbaa5dcb8	-0.001265428
30	0xb92a78dc	-0.00016257487
31	0x3a7adec7	0.00095699396
32	0xbacd3089	-0.0015654723
33	0xb94f05e0	-0.00019743247
34	0x3973436e	0.00023199405
35	0x3a96b51b	0.0011498065
36	0x38f4ac5c	0.00011666931
37	0xba30e1cd	-0.0006747514
38	0x39a71413	0.0003186768
39	0xba48d67c	-0.0007661355
40	0x3a8ffba3	0.0010985028
41	0x392aca4d	0.00016287826
42	0xb90ef7aa	-0.00013634437
43	0x38f90eef	0.00011876027
44	0x390cbd93	0.00013422062
45	0x393f0bed	0.00018219622
46	0x39370baf	0.00017456592
47	0x38fd889a	0.00012089424
48	0x39200885	0.00015261963
49	0x383c5fba	4.4911845e-05
50	0x38e88e66	0.00011089146
51	0x398d9eb1	0.0002701185
52	0x388a7a14	6.6030916e-05
53	0x38f16615	0.0001151079
54	0x38d1dd65	0.000100071346
55	0x38d86b96	0.00010319722
56	0xb912e299	-0.00014008059
57	0x37b5e8e0	2.1685322e-05
58	0x3a156002	0.0005698205
59	0x3917ba36	0.00014469851
60	0x385991da	5.1872667e-05
61	0x38d8e4be	0.00010342289
62	0xb91c31f2	-0.00014895925
63	0x37f58911	2.9270102e-05
64	0x3950adfe	0.00019901243
65	0x394e782f	0.00019690463
66	0xb95eb3ce	-0.00021238552
67	0xb7fa5e8d	-2.9846351e-05
68	0xb8d76742	-0.00010271232
69	0x392f05a9	0.00016691409
70	0x3820c6bc	3.833206e-05
71	0x3897d528	7.2399445e-05
72	0x39befd0d	0.00036428162
73	0xb89de299	-7.5285505e-05
74	0x39dbd64e	0.00041930604
75	0x391cd257	0.00014955677
76	0x38db7dca	0.00010466164
77	0x390233c4	0.0001241705
78	0xb84baa46	-4.855755e-05
79	0xb8e80e66	-0.00011065304
80	0xb89ea12e	-7.564049e-05
81	0x39a99730	0.00032346835
82	0xb90a95cc	-0.00013216509
83	0x3902173b	0.0001240642
84	0x3921cb87	0.00015429976
85	0x365ad070	3.2605858e-06
86	0x3918bf25	0.00014567056
87	0x3943d5db	0.00018676317
88	0xb69c0e3c	-4.6508194e-06
89	0x393dbe99	0.00018095448
90	0x389c66c3	7.4578005e-05
91	0x390eb2c0	0.00013608765
92	0x396bdc78	0.00022493477
93	0x38e20bde	0.0001077873
94	0x38f9ba84	0.000119079865
95	0x38a7887d	7.9886035e-05
96	0x38cf6c1e	9.8906676e-05
97	0xb870a86e	-5.737732e-05
98	0x374716fa	1.1866674e-05
99	0x39c507d6	0.00037580606
100	0x388e083b	6.772621e-05
101	0x38cb6203	9.6980504e-05
102	0x38bcfbc4	9.0114336e-05
103	0xb70d4d4c	-8.422252e-06
104	0x39a8f2a8	0.0003222425
105	0x39592121	0.00020707074
106	0x395c3509	0.00021000592
107	0xb822af9a	-3.878735e-05
108	0x3a13394f	0.00056161446
109	0xb886c5b4	-6.426443e-05
110	0x396d44bd	0.00022627688
111	0x3822be94	3.88013e-05
112	0xb92d220a	-0.00016511246
113	0x39c90cfd	0.00038347385
114	0xb8d924e9	-0.000103542414
115	0xba08e8a2	-0.0005222653
116	0xb82ba086	-4.0919076e-05
117	0x3938e832	0.00017634107
118	0x392dac5e	0.00016562777
119	0xb964f414	-0.000218347
120	0x3992beec	0.00027989538
121	0xb8c95bfc	-9.60156e-05
122	0xb7dd52a8	-2.6383743e-05
123	0x39366d3e	0.00017397568
124	0x3930cbbb	0.00016860563
125	0xb9dc4dd4	-0.00042019656
126	0x393fccdf	0.000182915
127	0x38c12b4d	9.2110226e-05
128	0x3912cf02	0.00014000761
129	0x394317c2	0.000186055
130	0x3943fc44	0.00018690625
131	0xb90b15e0	-0.00013264222
132	0x392ad82d	0.00016292995
133	0xb92ff2ea	-0.00016779793
134	0xb90a8741	-0.00013211092
135	0xb9dd0af3	-0.00042160563
136	0xb931ab20	-0.00016943784
137	0x390cf798	0.00013443676
138	0x393f6703	0.00018253554
139	0x3930af3a	0.00016849945
140	0xba5dec44	-0.0008465687
141	0x393cd333	0.00018007755
142	0x381ecd88	3.786155e-05
143	0x3938696c	0.0001758688
144	0xba4355f2	-0.00074514665
145	0x392a6d94	0.00016253284
146	0x39426810	0.00018540048
147	0xba2a440c	-0.0006495125
148	0x39170734	0.00014403166
149	0x37bdb6fc	2.2615764e-05
150	0x38f740c9	0.00011789945
151	0xb95d6155	-0.00021112461
152	0x393cc175	0.00018001146
153	0x38221b42	3.8649196e-05
154	0xb9bb5dfb	-0.0003573744
155	0xb9dde59e	-0.00042323483
156	0x388b7534	6.649867e-05
157	0xba5e570b	-0.00084815983
158	0x394158e9	0.00018439036
159	0x3919b984	0.00014660327
160	0xb9dbc712	-0.00041919254
161	0x391b780d	0.00014826674
162	0x38dd81c0	0.00010562269
163	0x393fa45d	0.0001827641
164	0x3945a397	0.00018848326
165	0x39187a41	0.00014541393
166	0xba143523	-0.000565367
167	0x3922626f	0.00015486193
168	0x394532fd	0.00018806379
169	0x388fedfe	6.863101e-05
170	0x392e7d23	0.0001664055
171	0x393a3a06	0.00017759958
172	0x3944fe8a	0.0001878684
173	0x39454cd2	0.00018816002
174	0xba2a40ad	-0.0006494623
175	0xb95af6a8	-0.00020881987
176	0x390d36de	0.00013467247
177	0xb894f8b9	-7.103518e-05
178	0x392da7d0	0.0001656108
179	0xba14687b	-0.0005661321
180	0xb9dd39b7	-0.00042195406
181	0x3932609b	0.00017011391
182	0xb893d14f	-7.048493e-05
183	0xb9dcff41	-0.0004215185
184	0x3933d0ed	0.00017148601
185	0x37aa766c	2.0320724e-05
186	0x3946a259	0.0001894323
187	0xb98515e9	-0.0002538406
188	0x3947b663	0.00019046063
189	0xb90dcef1	-0.000135239
190	0x390e74ea	0.00013585729
191	0x3903771c	0.00012537505
192	0x39059e98	0.00012742949
193	0x379f28f7	1.8973353e-05
194	0x3917c88c	0.00014475192
195	0x386b960d	5.616811e-05
196	0x393a895f	0.00017789517
197	0x392db95d	0.00016567619
198	0x391972d1	0.0001463399
199	0x38aefe9d	8.344392e-05
200	0xb985523b	-0.00025429003
201	0xb79fbf7d	-1.9043446e-05
202	0x38df82bb	0.00010657819
203	0x3942dae5	0.00018582826
204	0x393ea807	0.00018182407
205	0x393f81c9	0.00018263528
206	0x37e47937	2.7236163e-05
207	0x364a7108	3.0166138e-06
208	0xb8fecf0c	-0.00012150229
209	0xb62894a8	-2.512048e-06
210	0xb7a1990d	-1.9263965e-05
211	0xb7a0f031	-1.9185334e-05
212	0xb94e015a	-0.00019646194
213	0xb9b18566	-0.0003385946
214	0xb85a06d8	-5.1981624e-05
215	0x39a9237c	0.0003226063
216	0xba0a8216	-0.00052836665
217	0xb8e0ac67	-0.00010713265
218	0xba013992	-0.0004929538
219	0xb996d7eb	-0.000287711
220	0xba19b4d0	-0.000586343
221	0xb9a1e478	-0.00030878535
222	0x3a8ee26d	0.001090122
223	0xb98c2b72	-0.0002673525
224	0xb9a569a6	-0.00031549967
225	0xb9efa73f	-0.0004571024
226	0xba28fa73	-0.0006446011
227	0x384b204a	4.8429043e-05
228	0x3a226b5c	0.00061958074
229	0x39d9fc66	0.00041577517
230	0xbacbfc2d	-0.0015562825
231	0x3af04e72	0.0018333925
232	0xba7e953d	-0.00097115693
233	0x397025bc	0.00022902241
234	0xbaab1b23	-0.0013054352
235	0xb907b5fe	-0.000129424
236	0x3a7f21b6	0.00097325013
237	0xbadf25f6	-0.0017024863
238	0xb957bfb3	-0.00020575411
239	0x3994fc69	0.0002841682
240	0x3a9f9972	0.0012176468
241	0x3923b630	0.00015612761
242	0xba352685	-0.0006910342
243	0x39c2a0a1	0.0003712224
244	0xba4fe8d2	-0.0007931116
245	0x3aa9db64	0.001295906
246	0x3933f688	0.0001716261
247	0x3916df1b	0.00014388228
248	0x391e2548	0.00015081943
249	0xb9b77348	-0.0003499037
250	0x37cada21	2.418185e-05
251	0xb878da98	-5.933139e-05
252	0x380dd897	3.3818735e-05
253	0xba1d95b8	-0.00060113845
254	0x38b4aeb8	8.615613e-05
255	0x393a0840	0.00017741416

exp_avg_sq f4 [100, 41]
0	0x36049c42	1.9760487e-06
1	0x33a73217	7.785655e-08
2	0x33b0a11c	8.224944e-08
3	0x3485c767	2.4918265e-07
4	0x35025442	4.8551385e-07
5	0x358caba7	1.048077e-06
6	0x35f8e772	1.8544799e-06
7	0x36424fc9	2.8954694e-06
8	0x36665ed2	3.4327863e-06
9	0x368c9992	4.190203e-06
10	0x36991e6c	4.563297e-06
11	0x3699daf7	4.585246e-06
12	0x36a2883f	4.8438374e-06
13	0x36b4d43f	5.3891267e-06
14	0x36c3f129	5.8395276e-06
15	0x36e59363	6.84189e-06
16	0x36f66865	7.3435244e-06
17	0x36f9b6e6	7.4420705e-06
18	0x36fe9741	7.587398e-06
19	0x36f6c0cf	7.353817e-06
20	0x3703d3b7	7.857502e-06
21	0x370998fc	8.201456e-06
22	0x37140b99	8.824188e-06
23	0x370ef12a	8.52001e-06
24	0x37188850	9.091644e-06
25	0x371b55b9	9.258679e-06
26	0x37143eaf	8.836082e-06
27	0x37142287	8.829526e-06
28	0x371f41f3	9.4924935e-06
29	0x371e640b	9.440827e-06
30	0x371a3025	9.190325e-06
31	0x37224582	9.672136e-06
32	0x37319b3f	1.0586168e-05
33	0x37297bdd	1.0102024e-05
34	0x372636e6	9.907153e-06
35	0x37289ac1	1.0049612e-05
36	0x37342995	1.0738518e-05
37	0x3733a8e0	1.0708551e-05
38	0x373e05ce	1.1326234e-05
39	0x3756bf4a	1.2799932e-05
40	0x37cb41b7	2.4230087e-05
41	0x3605b5b2	1.9924305e-06
42	0x35501f31	7.753143e-07
43	0x356e9b69	8.888806e-07
44	0x34fabd53	4.670388e-07
45	0x33498a4b	4.6924736e-08
46	0x33b61117	8.478144e-08
47	0x341f42f5	1.4832388e-07
48	0x34863f45	2.500548e-07
49	0x34b3f3d6	3.3518762e-07
50	0x34d85887	4.0297547e-07
51	0x35092f9c	5.110576e-07
52	0x3513e233	5.509093e-07
53	0x35356b01	6.7583466e-07
54	0x354472ed	7.318293e-07
55	0x35562906	7.978091e-07
56	0x357ec58c	9.490984e-07
57	0x358365e0	9.78991e-07
58	0x3584a0e2	9.88159e-07
59	0x357adbc6	9.345207e-07
60	0x35a76476	1.2471708e-06
61	0x35ffa420	1.9046747e-06
62	0x361d224a	2.3414782e-06
63	0x3639fc46	2.771399e-06
64	0x3624565c	2.4488172e-06
65	0x362da6c7	2.5876086e-06
66	0x3633f68f	2.6816595e-06
67	0x36367e81	2.7193748e-06
68	0x363eb37c	2.841668e-06
69	0x36426446	2.896662e-06
70	0x3639a0f3	2.7660833e-06
71	0x364c37b0	3.0430783e-06
72	0x3649db29	3.0078902e-06
73	0x364281d8	2.8983832e-06
74	0x364124be	2.8780628e-06
75	0x363af3f2	2.7858155e-06
76	0x3630b5f8	2.6331963e-06
77	0x3633d193	2.6795067e-06
78	0x3634a70f	2.691933e-06
79	0x36382bce	2.7443634e-06
80	0x35ce31d4	1.5362698e-06
81	0x36d2d0f9	6.2828153e-06
82	0x360897ec	2.035401e-06
83	0x35b2ff01	1.3336249e-06
84	0x35acba0a	1.2869143e-06
85	0x35bad73d	1.3920722e-06
86	0x35aca45d	1.2862835e-06
87	0x3566df32	8.600647e-07
88	0x348b6d1c	2.5970155e-07
89	0x33cd3d6e	9.5572304e-08
90	0x34193879	1.426978e-07
91	0x3441509d	1.8003853e-07
92	0x349b8134	2.8965007e-07
93	0x34af388c	3.2637433e-07
94	0x34fd9099	4.723013e-07
95	0x350e01f5	5.290197e-07
96	0x351f565a	5.9357774e-07
97	0x35461df8	7.380436e-07
98	0x35595fcf	8.097822e-07
99	0x35550a6d	7.9363855e-07
100	0x355094b5	7.7702435e-07
101	0x3559fd55	8.1207446e-07
102	0x357c0e3a	9.389802e-07
103	0x357ad6e0	9.344494e-07
104	0x35849ea4	9.880937e-07
105	0x356feaef	8.937631e-07
106	0x35849741	9.878787e-07
107	0x359989cd	1.1439494e-06
108	0x35d76f91	1.6051218e-06
109	0x3614b260	2.2157546e-06
110	0x361e3b16	2.3578227e-06
111	0x361b0014	2.3096845e-06
112	0x364d60df	3.0603767e-06
113	0x363ca98e	2.8112877e-06
114	0x363814f2	2.7430328e-06
115	0x36366a51	2.7181998e-06
116	0x36311f65	2.639333e-06
117	0x361f3ddc	2.3728853e-06
118	0x36249f78	2.4530727e-06
119	0x36186d14	2.2713257e-06
120	0x36171a1e	2.2515956e-06
121	0x360f6a44	2.1370515e-06
122	0x36dae2d7	6.523314e-06
123	0x36051753	1.983212e-06
124	0x36053b5c	1.9853096e-06
125	0x36092403	2.0435552e-06
126	0x36043db5	1.970545e-06
127	0x360702de	2.0118237e-06
128	0x36062a0f	1.9992037e-06
129	0x3603d2dc	1.9643257e-06
130	0x3603783f	1.9590514e-06
131	0x360856dc	2.0316138e-06
132	0x360564cf	1.9877223e-06
133	0x3608577a	2.0316497e-06
134	0x360842ba	2.030442e-06
135	0x36090855	2.041944e-06
136	0x36084fa9	2.0311948e-06
137	0x36061c30	1.9983963e-06
138	0x3603e7f3	1.9655533e-06
139	0x36051604	1.983136e-06
140	0x3609bf54	2.0525958e-06
141	0x36043ada	1.970379e-06
142	0x36072e6c	2.0143589e-06
143	0x36048523	1.9747029e-06
144	0x36096d7c	2.047832e-06
145	0x3605406d	1.9856045e-06
146	0x3603bfbf	1.9632132e-06
147	0x360945c8	2.045521e-06
148	0x3605b6b5	1.9924894e-06
149	0x36073222	2.0145749e-06
150	0x36061762	1.9981167e-06
151	0x36086909	2.0326718e-06
152	0x3603f803	1.9664883e-06
153	0x36073617	2.0148052e-06
154	0x3608ca02	2.0383163e-06
155	0x3608e474	2.0398556e-06
156	0x36071942	2.013127e-06
157	0x3609c38b	2.0528412e-06
158	0x36049052	1.9753538e-06
159	0x3606806f	2.0042314e-06
160	0x360a3067	2.0591776e-06
161	0x3607cb30	2.0234838e-06
162	0x36097ecf	2.0488403e-06
163	0x360b6966	2.0773964e-06
164	0x3603c11c	1.9632926e-06
165	0x36061954	1.99823e-06
166	0x360982ba	2.0490684e-06
167	0x3605b200	1.9922154e-06
168	0x36034ba5	1.9564552e-06
169	0x36072fcf	2.0144396e-06
170	0x36054705	1.9859883e-06
171	0x36048d18	1.975166e-06
172	0x36037c15	1.9592746e-06
173	0x3603724b	1.9587048e-06
174	0x36097eed	2.0488471e-06
175	0x360890e3	2.0349914e-06
176	0x3605f2a8	1.995979e-06
177	0x3607ee3c	2.0255238e-06
178	0x36052eff	1.98459e-06
179	0x36093500	2.044544e-06
180	0x36091c9e	2.0431248e-06
181	0x3604f82f	1.9813995e-06
182	0x360807a3	2.0270024e-06
183	0x3609029e	2.0416114e-06
184	0x3604c594	1.9784538e-06
185	0x36075164	2.0163943e-06
186	0x36031ffe	1.9539143e-06
187	0x360891b3	2.0350387e-06
188	0x3603084e	1.9525355e-06
189	0x36081374	2.0276902e-06
190	0x3605ea92	1.9955082e-06
191	0x360629ed	1.999196e-06
192	0x3606151f	1.997985e-06
193	0x36076970	2.017794e-06
194	0x3605b596	1.9924241e-06
195	0x3606fca7	2.011462e-06
196	0x360423f2	1.9690456e-06
197	0x36050221	1.9819784e-06
198	0x3605e563	1.9952065e-06
199	0x360722cc	2.0136822e-06
200	0x36095a9a	2.0467328e-06
201	0x3608d51e	2.038963e-06
202	0x36089d99	2.0357313e-06
203	0x360719a6	2.0131497e-06
204	0x360b976b	2.080075e-06
205	0x36047a68	1.9740783e-06
206	0x33ca1fcd	9.4121425e-08
207	0x33d30e9b	9.82811e-08
208	0x34b802a1	3.4274584e-07
209	0x35300519	6.557253e-07
210	0x35b7669c	1.3664426e-06
211	0x361e302f	2.3571881e-06
212	0x36734db1	3.6255044e-06
213	0x368dd199	4.226528e-06
214	0x36aa8eba	5.0830104e-06
215	0x36b5d9fe	5.419598e-06
216	0x36b70c5d	5.4552643e-06
217	0x36c011a2	5.7240986e-06
218	0x36d4593e	6.3284815e-06
219	0x36e702e9	6.8846753e-06
220	0x37069dd9	8.023774e-06
221	0x3711f25c	8.699102e-06
222	0x37140571	8.822754e-06
223	0x3718cd97	9.107774e-06
224	0x37137ede	8.791421e-06
225	0x371c96ad	9.3334065e-06
226	0x37260aa1	9.896846e-06
227	0x37314ffe	1.0568647e-05
228	0x372cf5fd	1.03092725e-05
229	0x373835c3	1.0979772e-05
230	0x373921d9	1.103474e-05
231	0x3729c196	1.0118258e-05
232	0x37256907	9.85922e-06
233	0x37323f30	1.0624339e-05
234	0x373228ef	1.0619157e-05
235	0x372b2da5	1.0203022e-05
236	0x3732e50f	1.0662959e-05
237	0x37417b0e	1.1532347e-05
238	0x373b1fa0	1.1153432e-05
239	0x37371c08	1.09141765e-05
240	0x3738f6e7	1.1024741e-05
241	0x374612f1	1.180613e-05
242	0x374328f9	1.1632445e-05
243	0x374e59a9	1.22994325e-05
244	0x376f4e2f	1.4263714e-05
245	0x37d5fdfe	2.5509853e-05
246	0x360539ef	1.9852266e-06
247	0x35d0677f	1.5527329e-06
248	0x35c66884	1.4782568e-06
249	0x35e09aa7	1.673431e-06
250	0x35d67b56	1.5980138e-06
251	0x35ca64b2	1.5079479e-06
252	0x358e8373	1.0618081e-06
253	0x3552dda1	7.855361e-07
254	0x348f3728	2.6675957e-07
255	0x33c1df25	9.0278526e-08
